SimplifiedSpaceWar/trained_models/dqn2_bullets_7500.pth (torch, 89165 bytes, 6 tensors)

fc1.weight f4 [128, 33]
000000 90 9b 15 bf 9a be 34 be 03 e5 98 bd 32 e3 0d 3c
       -0.58440495 -0.17650834 -0.074655555 0.008660125
000010 18 43 79 3d 72 41 9d be 9a 19 83 be 75 2f bf be
       0.060855 -0.30713993 -0.2560547 -0.37340894
000020 1d 0e c8 3d 49 17 eb ba 39 88 49 3e 62 88 cf bd
       0.09768317 -0.0017936017 0.19680871 -0.10133435
000030 a2 1b 81 bd 38 7e c6 3c 5b 3a c9 3c 4b c7 3d 3e
       -0.06304099 0.024230108 0.024563959 0.18533055
000040 aa 92 b9 3d 71 90 77 3e 07 97 a7 3d c2 e6 4c be
       0.09061177 0.24176194 0.08183103 -0.20009902
000050 9c f3 08 bf da 0e 6c 3c 94 cb 1a 3e 0e e4 4c 3d
       -0.5349672 0.014407838 0.15116721 0.050022177
000060 68 62 14 3e fe aa fe 3d 03 51 7b bd 63 e0 48 3e
       0.14490664 0.12434958 -0.061356556 0.19616847
000070 4b 2e 05 3e 17 4d 4a bd 49 7f a5 3d 0b c9 11 be
       0.1300594 -0.049389925 0.08080918 -0.14236848
000080 ee 85 17 be 83 05 85 3f 47 c1 a0 3f d5 ba c7 3d
       -0.14797184 1.0392307 1.2558984 0.09752432
000090 54 d0 03 be 74 5c da 3e 89 a7 91 3e 13 a4 c5 3d
       -0.1287244 0.4264866 0.28448132 0.09650435
0000a0 46 c5 fe be c8 f0 da 3c 17 b4 86 3d cf 2a 16 bf
       -0.49759883 0.026726142 0.06577318 -0.5865907
0000b0 ad 7f b8 bd 5e 26 02 be 06 bf 5e bb 30 e5 a0 bd
       -0.09008727 -0.12709948 -0.003398837 -0.07856214
0000c0 76 dd 87 3e 92 6a c5 3e 42 f2 4a be 7b a5 b6 be
       0.2653615 0.3855787 -0.19818977 -0.35673127
0000d0 33 d9 52 be 43 f9 47 be a0 9f 3d 3d 45 d9 5b 3e
       -0.20590667 -0.1952868 0.04629481 0.214696
0000e0 cb 22 90 be 5b 36 98 bd 54 51 58 3e 89 3b 9a bd
       -0.28151545 -0.074322425 0.21124774 -0.07530887
0000f0 d9 29 3b 3e 77 35 bd bc f8 ae f3 bd 60 46 88 be
       0.18277682 -0.023096783 -0.11898607 -0.26616192
000100 24 d5 b3 bd be 9a fb 3d bf f4 67 be 8b 4b 97 3d
       -0.08780888 0.12285374 -0.22651957 0.073874556
000110 0c 54 b9 3e ab c0 d8 be d6 55 d4 be 8b f9 0c bf
       0.36196935 -0.42334494 -0.41471738 -0.5506827
000120 82 c7 30 3e 55 1d a2 be 10 43 71 3c ec 8b ef bd
       0.17263606 -0.31663004 0.014725462 -0.1169661
000130 26 4e 2c 3e 0c b7 0c be 1b 02 01 bf f3 d3 03 3e
       0.16826686 -0.13741702 -0.5039384 0.12873821
000140 71 d5 ff bd 8d 36 3a bf 1a af b7 3e cb a7 c6 3d
       -0.124918826 -0.7273949 0.3587578 0.09699973
000150 d0 f8 8e bc 33 aa 20 bf 01 1f 31 be 4f 5a 56 bd
       -0.017452627 -0.62759703 -0.17296983 -0.05233222
000160 94 6b 01 be 87 1d ac 3e ef 19 73 3d e0 46 ce be
       -0.12638694 0.33616278 0.059350904 -0.40288448
000170 04 e5 03 be 55 80 21 3e 16 8b 0e bd 07 cb 4f bd
       -0.12880331 0.15771611 -0.03480061 -0.05073073
000180 1b 8b 3b be 34 77 8f be 03 41 07 be 15 8d 1d bf
       -0.18314783 -0.28020632 -0.13208394 -0.615434
000190 06 c2 93 bd 6e d3 92 be 62 72 2a be 33 1b a3 bd
       -0.072147414 -0.28676933 -0.16645196 -0.07964172
0001a0 50 06 4e 3e 41 4c 16 3f b2 65 32 3d 08 91 2d bb
       0.20119596 0.58710104 0.043554015 -0.002648415
0001b0 aa 90 e7 3e f2 63 00 bf 8a 2b 10 bf 3c 61 4f 3f
       0.45227557 -0.50152504 -0.56316435 0.8100774
0001c0 42 ad 32 3e c0 ba a4 3d 5f 6a d5 bd b2 3e ab bd
       0.17448905 0.08043432 -0.10420679 -0.083615676
0001d0 e5 af 22 3f b3 74 18 3d 04 f3 88 3d 3f 0b d0 be
       0.63549644 0.037220668 0.066869766 -0.4063358
0001e0 cd 52 e0 bf b6 73 1b bf cc 8c 17 3f 97 e3 7d bc
       -1.7525269 -0.60723436 0.59199214 -0.015496156
0001f0 f5 95 c6 3d 27 27 ef bb 54 8c 30 bf 54 9b e6 3e
       0.09696571 -0.0072983685 -0.68964124 0.4504038
000200 eb c9 24 be 65 26 00 be c9 0d 72 be 61 34 4b be
       -0.1609265 -0.12514646 -0.23638071 -0.198442
000210 23 88 2d bf 79 ec ec bc ba 36 41 be 67 40 47 be
       -0.67785853 -0.028921353 -0.18868533 -0.19458161
000220 38 94 c7 be ac 17 42 bf c8 4e b6 be d5 74 0c 3f
       -0.3898027 -0.7581737 -0.3560698 0.5486577
000230 b5 51 b6 bb 46 5a db bd f5 e9 cd bd 98 88 08 be
       -0.0055639395 -0.10710578 -0.100543894 -0.13333356
000240 5e 59 22 3d 74 a0 de 3d 3d e4 38 bf f7 ad bc 3d
       0.03963601 0.10870448 -0.72223264 0.09212869
000250 dd 1e ca 3c 51 e2 73 3c 94 30 89 bd e6 b7 7d 3e
       0.02467292 0.014885501 -0.06698719 0.24777183
000260 61 90 9f bd da ef 42 be 0e 99 0f bf e5 5b 10 3e
       -0.0779121 -0.19036809 -0.5609292 0.14097555
000270 09 71 21 3e e4 62 0f 3e 1d 50 69 be c9 af 0f 3e
       0.15765776 0.14002568 -0.22784467 0.140319
000280 fc 58 82 bd a7 a1 e3 be 8b 53 f0 be e2 54 db 3e
       -0.06364629 -0.44459268 -0.46938738 0.42838198
000290 7d f7 22 3f 5e ea 9f 3f 87 1b 22 3c 27 e6 07 be
       0.6365889 1.2493398 0.009894258 -0.1327139
0002a0 1b 87 67 bc b2 b7 1e 3f 70 01 d2 3d 23 92 31 3e
       -0.014131333 0.61999047 0.102541804 0.17340903
0002b0 64 d8 2e 3e d0 be ce bd fc dc b4 be 7f d3 d0 be
       0.17074734 -0.10094988 -0.35324848 -0.4078636
0002c0 13 e9 c7 be bc 46 8c bf 0f e7 1e 3f 49 bc 8d be
       -0.3904501 -1.0959086 0.6207132 -0.27682713
0002d0 c9 8c fd 3e 1e 37 07 bc 74 7f 5b be 75 a7 b1 be
       0.49521473 -0.008252887 -0.21435338 -0.34698072
0002e0 e9 8a 3d 3e 95 83 25 3e 50 91 ef be 94 b8 0d bf
       0.18510021 0.16163476 -0.46790552 -0.5535977
0002f0 28 07 26 be 7d 2a 2b be 3d c9 82 3d 50 b1 d5 3d
       -0.16213667 -0.16715427 0.063860394 0.1043421
000300 aa 96 09 3e ea 46 6e be 1b 79 8d 3e 51 64 6c 3e
       0.1343638 -0.23269239 0.2763146 0.23085143
000310 a4 21 7f 3e b0 e7 00 be fd c2 a6 bf af 37 a1 bf
       0.24915177 -0.12588382 -1.3028256 -1.2595118
000320 09 25 d7 3e 96 88 a5 3e ef 43 56 bd ab 51 ab bd
       0.42020443 0.3233077 -0.05231088 -0.08365186
000330 d1 b5 9b 3e 21 b9 f5 3e 9c a2 df bd 2f 64 b6 bc
       0.30412152 0.47992805 -0.10919687 -0.022264568
000340 09 7d e4 be 34 b4 3c bd fb 83 9a 3c 5e 99 01 3c
       -0.44626644 -0.046070293 0.018861761 0.007910101
000350 34 9c 62 bf 7a 7a 16 be 00 8b 60 3e dd d9 f1 bc
       -0.885196 -0.14695159 0.21928024 -0.02952283
000360 f8 26 49 bf 37 cd f9 bd 9c eb 19 bf 32 76 01 bf
       -0.78575087 -0.12197345 -0.60125136 -0.50570977
000370 f9 4f 86 be 00 c0 39 be 38 ea c8 3e 91 46 89 bc
       -0.2623289 -0.18139648 0.39241195 -0.016757281
000380 f5 12 0d 3f a6 ac 49 bd c5 48 96 3e f1 24 1b 3e
       0.5510705 -0.049236916 0.29352394 0.15150811
000390 73 49 b5 3d bb 86 15 3e 93 4c 47 be f1 af 0f 3f
       0.088519 0.14602177 -0.19462804 0.5612784
0003a0 3c 04 e9 be 3d de a9 bd 61 57 7b 3d d9 d1 99 3d
       -0.45511043 -0.08294342 0.061362628 0.075107284
0003b0 88 06 67 3c 9e 21 a8 bd 5f 48 f7 be 73 9a 13 3b
       0.014100678 -0.08209537 -0.48297402 0.0022522479
0003c0 b2 a9 50 3f d3 42 d4 be c0 4c a5 3f 7b 48 06 3e
       0.81508934 -0.41457233 1.2914047 0.13113587
0003d0 9c fd c9 3d 78 f6 ad 3e 0c ed 1d be c8 91 63 be
       0.09862825 0.33977103 -0.15422457 -0.2222358
0003e0 ea 51 cd 3d 4d f3 8f 3e 64 43 04 3e 69 da 30 3e
       0.100253895 0.2811531 0.12916332 0.17270817
0003f0 ad 06 90 3d 90 c1 92 3e ff 26 cd bd cf 0f 0e 3e
       0.07032523 0.286633 -0.100172035 0.13873218

fc1.bias f4 [128]
000000 3a f9 a6 3e fb c7 b7 3e e4 4a 1b bf b6 65 2e be
       0.3261202 0.3589476 -0.6066115 -0.17030987
000010 29 df e0 3e a0 33 2a 3e a7 45 4a 3e f3 50 32 3e
       0.43920258 0.16621256 0.19753133 0.17413692
000020 76 35 7a bd db 9d b1 3e 22 e6 ab bd 63 d9 b6 bd
       -0.06108614 0.34690747 -0.08393504 -0.08928182
000030 6e aa ed 3e 7d 43 bf bc 4a 2b 91 bd 8b c9 0a be
       0.4641909 -0.02334761 -0.07088335 -0.13553445
000040 76 f5 36 3c 2f fc 01 3f a3 5e 90 be c3 a9 8f 3d
       0.011166921 0.50775427 -0.28197202 0.07014801
000050 c7 27 08 3f b4 2f 7c 3e 65 5d 3c bc 52 96 50 3e
       0.53185695 0.24627572 -0.011496876 0.20369843
000060 68 be 54 3e b0 e0 d2 3b 46 02 b5 3e e0 6d bd 3e
       0.20775759 0.0064354762 0.35353297 0.3699789
000070 48 ba 2c 3d a1 a2 5a 3d 5c c5 1a be 38 da 39 3e
       0.04216984 0.05337775 -0.15114349 0.1814965
000080 e3 38 1c 3f 6d 5d 9c 3e 37 3b 3c 3e b8 e0 83 3e
       0.610243 0.30540028 0.18381964 0.25757384
000090 77 a1 88 bc 15 e5 c9 3e 20 9d 98 3e c7 ef 79 3e
       -0.016678555 0.39432588 0.29807377 0.24407874
0000a0 ea 2c c8 be 28 4d 3c 3e ff 23 93 3f ed 9e fb 3e
       -0.39096767 0.18388808 1.149536 0.49144688
0000b0 13 5d 7b bc 4f b0 a7 3e 93 c0 d0 3e 8a 10 dc 3c
       -0.015342015 0.327517 0.40771922 0.026863355
0000c0 ea d6 1f be 70 5b b3 3d 81 74 5a ba 11 d6 67 3e
       -0.15609327 0.08757675 -0.00083334005 0.22640254
0000d0 63 1e 66 be 91 ef 2a bf 00 bd f4 bd 30 81 3c 3e
       -0.22472529 -0.667718 -0.119501114 0.18408656
0000e0 f7 47 51 3f a5 01 2b 3f d9 6d db 3d a7 11 ce 3d
       0.81750435 0.66799384 0.10714311 0.10061961
0000f0 32 f4 99 bf 33 0b 1a 3e 95 df 22 3f d8 9b 05 3f
       -1.2027647 0.15043335 0.6362241 0.52190924
000100 74 c3 23 3e 26 12 e8 bc ce 06 78 bd b2 28 06 3e
       0.15992528 -0.028328966 -0.060553364 0.13101462
000110 06 6d 62 3e ba ab 80 3d e2 60 c1 3e 99 9a 76 3d
       0.22111902 0.06282754 0.37769228 0.06020603
000120 dd d4 0c 3f 89 25 07 3f 77 55 10 3f f8 0e 88 3e
       0.55012304 0.5279165 0.5638041 0.2657392
000130 94 2a 98 3e 6c 29 fe 3d e7 a4 59 bc 19 36 18 3e
       0.29719985 0.12410244 -0.013283945 0.14864387
000140 dd 75 3c 3f 76 91 45 bd ce 1c eb 3e ba 6b 2b 3f
       0.73617345 -0.048234425 0.45920414 0.6696125
000150 e8 b0 84 3d a2 bf 78 3e d9 e8 a1 3e 25 62 d7 3e
       0.06479055 0.24291852 0.3162296 0.42067066
000160 df 8e 47 3e 90 10 7e 3e bd 79 b4 3e d5 63 f4 3e
       0.19488095 0.24811006 0.3524913 0.47732416
000170 4b 20 98 3e 91 ff 28 3f 34 a2 5e 3e fa da 24 be
       0.29712138 0.66014963 0.21741563 -0.16099158
000180 13 51 25 3e f8 52 ef 3e 13 41 e2 3f 51 db 1c 3f
       0.16144209 0.46742988 1.7676109 0.6127215
000190 a5 ef 87 3c 35 d4 b5 3d 60 68 ef 3d 47 ce 3b 3f
       0.016593764 0.08878366 0.1168983 0.7336163
0001a0 a2 f5 91 3e 9b eb 14 3e f4 1b 2d be bf 72 c4 3e
       0.28507715 0.14543001 -0.16905195 0.38368794
0001b0 e7 22 35 3f 09 a3 20 ba 5c 69 39 3a 3f 56 57 3f
       0.7075638 -0.000612781 0.000707289 0.84115976
0001c0 f4 35 a0 3e bd 03 42 3f aa db ed 3d fd b2 5b 3e
       0.31291163 0.75786954 0.11614163 0.21454997
0001d0 f6 da 7c 3e 3b ce e6 3c c5 9d 84 3e 8d 1b 1e 3f
       0.24692902 0.02817451 0.2590162 0.6176079
0001e0 ca 92 9f 3b f9 24 2e 3f 49 c1 ef 3d 0d ce 79 3e
       0.0048697935 0.68025166 0.11706788 0.24395008
0001f0 1d cc 39 3f e9 a9 81 3d c5 d6 d5 bc d8 8e c0 be
       0.7257708 0.06331236 -0.026103387 -0.3760898

fc2.weight f4 [128, 128]
000000 f0 54 45 3d b8 fc ab bd a7 91 5c 3d d6 39 4c bf
       0.048176706 -0.08397812 0.053849842 -0.7977575
000010 b8 92 33 3c c2 91 b4 bd 67 87 78 bd d7 86 5d be
       0.010960273 -0.088168636 -0.060676005 -0.21633469
000020 ba 42 c6 bd fd d1 6f 3e b4 7a 9a bc da 15 ca 3d
       -0.09680696 0.23419948 -0.018857338 0.09867449
000030 b5 91 95 bd b0 73 0d be cf 43 61 be be 0a 59 bc
       -0.07303182 -0.13813663 -0.21998523 -0.01324719
000040 32 77 71 bd 4f ab d8 3d c5 e1 a2 3c cd 03 62 bc
       -0.058951564 0.105795495 0.019883046 -0.0137948515
000050 33 09 23 3e 0e 53 be 3d 7d 4d 40 be d2 cb 17 3e
       0.15921478 0.09293185 -0.1877956 0.14823845
000060 32 4f 9a be 93 f2 1a bd c5 05 fb bd c9 36 92 bd
       -0.30138546 -0.037828993 -0.1225696 -0.07139356
000070 1d 94 bd 3a e8 51 27 3d d2 9c 5a 3d 17 2a cd bd
       0.0014463697 0.040849596 0.05337221 -0.100177936
000080 d1 93 fe be 74 40 18 bd 88 c9 3e 3e f2 3e ff 3d
       -0.4972215 -0.037170842 0.18631566 0.12463178
000090 de 86 4f bd 1c a9 b3 bd ef d4 ba be 06 91 12 3e
       -0.05066573 -0.087724894 -0.3649058 0.14313135
0000a0 63 a7 30 3d 69 4c 10 3e e1 93 c2 be 19 ac 3c 3e
       0.043128382 0.14091648 -0.38003448 0.18425025
0000b0 b2 60 95 bd f9 d4 02 be af 62 95 bd 3e be a6 3d
       -0.07293834 -0.12776555 -0.07294213 0.081417546
0000c0 fa 6f df bc 38 27 82 3d 96 e8 44 3d 89 27 48 bd
       -0.027275074 0.06355137 0.048073374 -0.04886583
0000d0 ec 2c c5 bc b3 c1 ae 3c d2 91 94 3b 3c 5e a3 3c
       -0.024069272 0.021332597 0.0045339847 0.019942395
0000e0 05 f0 47 bf 84 57 47 be 44 14 25 bd 15 ac be 3b
       -0.78100616 -0.19466978 -0.04030253 0.0058188536
0000f0 7d 21 0c be 7d 7e 51 be ea c3 8e 3c e3 10 44 bd
       -0.1368465 -0.20458408 0.017427403 -0.047867667
000100 18 41 e3 bc 51 23 a4 3e 6f 64 0c be e0 3d 28 bc
       -0.027741 0.32058194 -0.13710187 -0.010268658
000110 f8 27 0a 3e 79 7a 07 be ef ce 1a 3e ce 48 d4 3d
       0.1349181 -0.13230313 0.15118001 0.10365449
000120 43 22 05 be e9 69 17 3e 7c 80 82 bd 60 be bf bd
       -0.13001351 0.14786495 -0.06372163 -0.09362483
000130 ef 6c 61 3e 50 c3 54 be 22 1d 52 bd a1 7e 81 bd
       0.22014211 -0.20777631 -0.051297314 -0.06322981
000140 73 f9 16 be 8d 21 0a be 2a 16 ce bd c2 21 09 be
       -0.14743595 -0.13489361 -0.10062821 -0.13391784
000150 96 85 4c 3e 14 e3 22 be 06 ea 02 be e6 29 ea bc
       0.19972834 -0.15906936 -0.12784585 -0.028584432
000160 2c 1e de 3b 3a 4a db 3d 27 09 e4 bd f0 7c 8c 3c
       0.006778499 0.10707517 -0.11134558 0.017149419
000170 93 da 19 be 92 05 81 bd c2 c9 30 3e f8 e1 3f 3d
       -0.15024786 -0.062998906 0.17264464 0.04684636
000180 85 11 0d 3e 14 dc 10 be 4a 95 e6 bd b0 9a dc bd
       0.13776214 -0.14146453 -0.112589434 -0.10771692
000190 cc c1 b9 be a6 cd cc 3d 86 59 fd bc c7 22 0c 3e
       -0.36280668 0.10000162 -0.030926477 0.13685142
0001a0 59 c2 f4 bc 1c 3b 36 3d ec 9a 8c 3d e2 fb 6b be
       -0.029877828 0.044489965 0.068654865 -0.23045304
0001b0 ed 8b 82 3e bd fe e9 3c 4b d8 70 3d c3 a0 00 bf
       0.2549738 0.028563851 0.058800023 -0.502453
0001c0 9f 39 aa be c5 8d 3d be 2d ab 3a 3d 22 1e 88 3d
       -0.33247086 -0.18511112 0.045573402 0.066463724
0001d0 e9 ba fc 3d a0 75 09 3e 9c b9 a5 bd a6 f4 cb bd
       0.12340338 0.13423777 -0.08092043 -0.09958772
0001e0 be fc 04 3e f1 f8 bf bd 04 57 87 bd 9c 06 8d bd
       0.12987038 -0.09373654 -0.06608394 -0.06886026
0001f0 95 67 03 bd 99 08 a9 3d 7c 5c 8b bc dc 38 d6 be
       -0.032081205 0.08253593 -0.017011873 -0.41840255
000200 3b 05 33 be b1 cc ba 3c 8c bc 5d be a1 10 96 be
       -0.17482464 0.022802683 -0.21653956 -0.29309562
000210 4b cd 96 be 32 de a8 bc 2e 7a 59 3c 6a 96 a5 be
       -0.294535 -0.020613763 0.013273759 -0.3234132
000220 9d 1f b8 be 01 3a f5 3d 00 ba 62 3e e4 c5 24 be
       -0.3596162 0.11973954 0.22141266 -0.16091114
000230 83 f7 20 bf c3 f2 45 be 11 fb d9 be 06 05 65 3e
       -0.6287767 -0.19330887 -0.4257436 0.22365198
000240 bf d8 dc 3d a5 7b db be 42 05 22 3d 86 b1 2d be
       0.107835285 -0.4286777 0.039555795 -0.16962251
000250 96 c0 97 be 41 30 5e bd a8 c8 9c be 8b 10 0f 3c
       -0.2963912 -0.054245237 -0.3062184 0.0087319715
000260 1e 3d 81 3e e7 09 18 be de 9e 3d bb ca 17 c2 bd
       0.2524194 -0.14847527 -0.0028933804 -0.09477194
000270 bb 6b 36 be 6f 61 48 be 14 4c 52 be 6b 4f 55 be
       -0.17814533 -0.19568418 -0.20536834 -0.20831077
000280 60 f2 d9 3e 9a f3 84 be 56 75 57 3e 4e 92 c5 bd
       0.4256773 -0.25967103 0.21040854 -0.09647046
000290 80 90 e4 3c 93 32 be be 80 c1 fa be 60 ad b8 3c
       0.027900934 -0.3714796 -0.48975754 0.02254361
0002a0 31 1e d0 bd 82 37 72 bd fa 5b 92 be 05 82 13 3d
       -0.101620086 -0.059134968 -0.28585798 0.03601267
0002b0 2c e7 08 bf 55 59 01 3f fa ad ef bb f3 e1 59 3c
       -0.5347774 0.50526935 -0.007314441 0.013298499
0002c0 e1 e9 9d 3d 84 62 23 bd 15 01 1d bf 35 c4 90 be
       0.077106245 -0.039888874 -0.61329776 -0.28274694
0002d0 5a 4f 17 be 0e 53 1b be c0 1a 3d be 44 1d 0d bd
       -0.14776364 -0.15168402 -0.18467236 -0.034451738
0002e0 b6 3c 15 3e 9a b3 1a bf 56 99 7b bc d0 51 73 3e
       0.1457394 -0.604303 -0.015356382 0.23761678
0002f0 f3 21 48 be b1 31 3d be 4f be 87 3e 0d 57 8f be
       -0.195442 -0.18475987 0.2651238 -0.27996102
000300 86 06 88 3e 11 ed 14 3c 2a 9b 41 3d 67 7c fd bc
       0.26567477 0.009089724 0.047267117 -0.030943109
000310 50 5b 98 bd 07 27 d9 be 5c ec a6 3d ee 06 8d 3e
       -0.074392915 -0.42412588 0.08150551 0.2754435
000320 4d bf 99 bd 75 4c 2f be a1 44 54 be 06 18 29 3d
       -0.07507191 -0.1711901 -0.20729305 0.041282676
000330 42 ce 3d 3e a8 cc 94 be 5a 3c a1 bd 50 27 74 3c
       0.18535712 -0.2906239 -0.07872839 0.014901951
000340 09 34 41 be 86 bc bd bd 63 6e a5 be 2c 87 d7 bc
       -0.18867506 -0.092644736 -0.3231078 -0.026309572
000350 84 01 20 be e2 41 56 3d 17 3f 33 be b1 da fc bd
       -0.15625578 0.052308924 -0.17504536 -0.123463996
000360 fb 3f 94 3e 54 6e be bd e4 ae 51 be 04 4b e2 3d
       0.28955063 -0.09298387 -0.20476872 0.11049464
000370 37 45 71 3d e7 84 31 bf 66 1f 75 3d c7 91 08 bf
       0.0589039 -0.6934342 0.059844397 -0.5334744
000380 1e fb 97 3e d8 61 e9 3d 81 0f 29 bf fa 17 23 be
       0.29683775 0.11395615 -0.6603928 -0.15927115
000390 2d 09 01 bd ae 74 0a 3d e8 04 87 3d 44 ed c9 3d
       -0.03150289 0.03380268 0.06592733 0.09859708
0003a0 88 d4 72 be 8c 0b a1 3e 50 b5 38 be 02 9b c4 3d
       -0.23713887 0.31454122 -0.18037915 0.09599878
0003b0 c8 0f c1 3d 79 16 36 3e ff d7 18 bf 28 d3 f5 be
       0.09426838 0.1778201 -0.59704584 -0.48012662
0003c0 7e fa f3 be 8f dc 4f bd dc 29 65 be 9e 57 30 3e
       -0.47652048 -0.05074745 -0.2237925 0.17220923
0003d0 c6 cd b9 3e 11 95 fb 3d 9b 5e 03 be 10 87 25 3f
       0.36289805 0.122842915 -0.12829058 0.64659214
0003e0 70 48 23 bc 8b fa d1 bd d5 d1 9a bb 0f 84 e4 be
       -0.009966001 -0.102528654 -0.004724721 -0.44632003
0003f0 15 77 49 3c 05 98 f4 bd fd 91 66 be ed 8c af 3d
       0.012296458 -0.11943058 -0.22516628 0.08571801

fc2.bias f4 [128]
000000 6e 77 4f 3d 2e 98 9a 3e e7 b2 e0 3c de 79 8b be
       0.050651006 0.3019423 0.027429057 -0.27241415
000010 c8 f7 36 be b7 c7 32 3e 40 7c ce 3d d9 eb cf 3d
       -0.17867959 0.17458998 0.100822926 0.10152406
000020 35 4e 19 3f 18 50 9e bd b7 2d 73 be 92 1d 2d 3d
       0.5988496 -0.077301204 -0.23747908 0.04226453
000030 7d f1 1c 3e 15 a1 2f 3e b7 b7 0f 3e b7 22 e8 3d
       0.15326495 0.17151292 0.14034925 0.11334746
000040 65 1a 0d 3e fc 64 10 3f 77 86 cb bd fb 46 19 bd
       0.137796 0.5640409 -0.099377565 -0.037421208
000050 c1 63 97 bd 52 47 c1 3d e6 03 23 bd e1 a3 40 3e
       -0.073920734 0.094374314 -0.03979864 0.18812515
000060 72 66 e7 bd c8 b8 c9 3d 13 cb ae 3d d6 ac f5 bc
       -0.11298837 0.09849697 0.08534827 -0.029989641
000070 d1 7a 23 3e 7d 72 78 3e a6 ef dc 3c f0 0e b1 3c
       0.1596482 0.24262424 0.026969742 0.021613568
000080 ee 98 2e 3f a2 05 59 3e 40 66 0b bf 85 26 a6 3d
       0.682021 0.21193555 -0.54452896 0.08112816
000090 29 24 41 be 20 3d eb bc 32 e2 ab 3e 18 a2 1c be
       -0.1886145 -0.02871567 0.3357101 -0.15296209
0000a0 8f 31 4c be d7 3a 11 be 7e e1 b7 3c 64 7c 9c 3c
       -0.1994078 -0.14182602 0.02244639 0.019102283
0000b0 40 2d b5 bd 80 d7 ad 3d 0d e1 21 bc bb ad b1 bd
       -0.088465214 0.08488369 -0.009880316 -0.086757146
0000c0 89 f2 08 3f 16 63 cc 3d 8d 4d 00 3f 8d f8 9a 3e
       0.5349508 0.09979837 0.50118333 0.30267754
0000d0 42 b9 d5 3d e6 34 08 3e b8 35 12 bb 31 49 49 3e
       0.10435726 0.13301429 -0.002230985 0.19656827
0000e0 91 58 fd 3c fd 1f 86 3c 3f e8 cd 3d 9c 89 96 3e
       0.03092602 0.016372675 0.10054063 0.29401863
0000f0 a5 7e 5a 3d f8 b4 db bd c2 36 16 3d a7 9c 84 3e
       0.053343434 -0.107278764 0.036673315 0.25900766
000100 f0 9f 68 3d 16 87 c1 3c ea e8 e5 bc ea 32 17 3d
       0.056793153 0.023623984 -0.028065164 0.03691379
000110 4d fb 14 3d e4 32 1e 3e d6 8c 8c bc 20 1f c4 3e
       0.03637247 0.154491 -0.017157 0.38304996
000120 7b 1c ac 3d 64 b3 26 3f f8 ed 79 3e e4 f0 03 3f
       0.0840387 0.6511748 0.24407184 0.51539445
000130 28 2e bb 3e 67 cd a1 3d be 3f c3 3e e5 de 0c bd
       0.36558652 0.079005055 0.3813457 -0.034392256
000140 97 4c e0 bc 31 fc c0 3d 7c 9f 0b 3d 50 d4 23 3e
       -0.02738027 0.09423102 0.034087643 0.1599896
000150 c9 fb e2 3d f5 3d 05 3d 2e cf 0e be ba d6 84 3e
       0.110831805 0.03252979 -0.1394622 0.25945073
000160 38 cd 0c ba 7d 66 a0 bd 2e 1c b4 3d 4b 65 1a 3f
       -0.0005371156 -0.07832048 0.08794437 0.6031081
000170 26 f0 92 3d de 43 2c 3e 06 f3 ff 3e 3e 7f c2 bd
       0.07174711 0.16822764 0.499901 -0.09496926
000180 6b 7f 2e 3e db e5 da bd c0 4b 65 3b fb d2 bd 3e
       0.17040794 -0.10688373 0.0034987777 0.37075028
000190 a4 d8 4c 3e 69 dd 14 bc 7c 7c bb ba d6 b1 40 3d
       0.20004517 -0.009085991 -0.0014304067 0.047044598
0001a0 75 41 89 bd 4c e5 8f 3d 62 69 c6 3d 8a c8 91 3d
       -0.06701938 0.07026157 0.09688069 0.07118328
0001b0 a9 62 40 3e 38 c5 14 3f 45 91 a3 3d 18 bb 32 3c
       0.18787636 0.5811343 0.07986692 0.010908864
0001c0 34 91 08 3f 63 80 a3 3d 51 8e b0 3d 56 cd 01 be
       0.5334656 0.07983472 0.08620895 -0.12675986
0001d0 34 97 a4 3e 24 96 42 3f 8b ce 9d bd 52 f2 3c 3e
       0.3214661 0.76010346 -0.077054106 0.18451813
0001e0 3f 0c 27 3e 9e 32 a7 3e c7 11 65 3e 16 b7 97 3d
       0.16313265 0.32655805 0.22370063 0.07407968
0001f0 a1 69 0b bd 6e a9 4b 3f 94 ba 15 be a6 ac 7a bd
       -0.034036282 0.79555404 -0.14621955 -0.061199807

out.weight f4 [5, 128]
000000 7d 99 3b 3e 22 28 9b be e2 20 44 be 4d 99 e3 be
       0.1832027 -0.30304056 -0.19153169 -0.44452897
000010 04 b3 d9 3e a5 1f 14 bf 1a 43 97 3e 53 20 c2 3e
       0.4251939 -0.57860786 0.29543382 0.37915286
000020 55 e1 8b 3d f3 bf 24 be 3f ed 6b 3d c9 ce 54 bd
       0.06830088 -0.16088848 0.057599302 -0.05195502
000030 e3 8c f1 be 69 52 eb 3e 28 68 cc 3e 6a 07 30 3c
       -0.471778 0.4596131 0.39923215 0.010743955
000040 e5 d4 e8 bd 0b 5d 2f 3d b6 1e ae be fe de c2 3d
       -0.113687314 0.042813342 -0.34007806 0.09515189
000050 8a 05 97 be db ed 23 be 10 c5 8c be 8e 7c ea 3e
       -0.29496413 -0.16008703 -0.27494097 0.45798153
000060 06 69 b2 be be 29 e8 3e 61 11 b3 3d 42 8b 0f 3e
       -0.34845752 0.45344347 0.08743549 0.14017966
000070 25 e9 af be 57 22 f4 3d 02 7f 31 3e 3d 1b cd 3e
       -0.34357563 0.11920612 0.17333606 0.40059844
000080 f7 f5 a4 3d 6e 20 f5 3e bb 5a 40 be 1d f4 5a be
       0.080547266 0.47876304 -0.18784611 -0.21382184
000090 4c c0 5a 3e 3d 25 75 be a0 38 0a 3e 03 20 a0 3d
       0.21362418 -0.23939987 0.13498163 0.07818606
0000a0 09 53 db 3d 69 58 89 be 9b 22 d4 bd 4f 0c a0 bd
       0.10709197 -0.26825264 -0.10358163 -0.07814848
0000b0 ca 38 a6 3e bb 20 d0 3e 0c a8 77 3d 1c 32 78 be
       0.32465202 0.4064997 0.060462996 -0.24237865
0000c0 37 19 2c 3d d2 9f c7 3d 6b 61 a0 3d b4 67 64 bc
       0.042016234 0.0974728 0.07831081 -0.01394074
0000d0 ac 68 89 3d 52 1d 23 3e 9a 1a 41 be 14 ac 4a be
       0.06709418 0.15929154 -0.18857804 -0.19792205
0000e0 40 88 8c 3e ea ff c3 3d 12 06 a5 3e 3f b6 8a 3e
       0.274477 0.09570296 0.32231194 0.27092168
0000f0 17 5f 66 bd 49 ad 08 bc fc 6b 3a be 3d 27 91 be
       -0.05624303 -0.008342096 -0.18205255 -0.2835025
000100 2e 7e ba be 23 f0 08 3d 6a 87 9b be e2 ba 55 be
       -0.36424392 0.033432137 -0.3037675 -0.20872071
000110 b1 d7 13 3e ef b1 07 bf 66 16 15 3e f0 8c 15 be
       0.14437748 -0.5300588 0.14559326 -0.14604545
000120 1e 40 5d 3e 7b d9 cf 3d bf 7c 42 be a5 05 38 3d
       0.2160649 0.10148903 -0.189929 0.044927258
000130 dc 4d a4 3d 69 b2 49 3d c9 fc 7a bd 22 b2 d7 3e
       0.08022663 0.04924241 -0.06127623 0.42128092
000140 62 9b ec 3e a9 f9 a4 3e aa 29 a2 3e 80 11 1a bf
       0.46212298 0.32221726 0.31672412 -0.6018295
000150 09 6e bb 3e e7 d7 ab be 59 f8 b5 39 2d 4e 2f be
       0.36607388 -0.33563158 0.00034708044 -0.17119665
000160 df 92 39 3e 24 d7 03 bd fa 41 21 3e e3 79 d4 3d
       0.18122433 -0.032187596 0.15747824 0.103748105
000170 a6 ab e9 be d2 2e e1 3e 97 3c 3f 3e 6d d7 17 3d
       -0.4563877 0.43981034 0.18675457 0.03707068
000180 e8 b8 eb 3d 47 94 a5 3e 39 c0 d2 3e 67 1c 70 be
       0.115098774 0.3233969 0.4116228 -0.23448335
000190 0c 3a 07 3e 5e 66 c1 bb 02 f2 db 3e 14 c2 8a be
       0.13205737 -0.0059020957 0.42958075 -0.27101195
0001a0 31 88 36 bd 58 04 b9 3e 67 0c 42 be c9 69 d1 3e
       -0.044563476 0.36136127 -0.18950044 0.4090102
0001b0 0f 3e b9 3e 7a dc 9b 3d 42 1f 07 bf 23 4c b6 be
       0.3618016 0.07610412 -0.5278207 -0.35604963
0001c0 d1 29 59 3d 6f 86 2c be 2f 95 3e be e8 dd 0f 3d
       0.053018395 -0.16848157 -0.18611597 0.035123736
0001d0 74 cc 0d bf f1 da dc 3d e3 e2 ab 3c 2e 6d 2b 3d
       -0.55390096 0.10783947 0.020982211 0.04185217
0001e0 ff ea e2 be ab c6 ca 3d d0 78 00 bd 7c 3f d8 3e
       -0.44319913 0.09901174 -0.031365216 0.42235935
0001f0 16 25 02 bf 8c c4 db 3d 96 cf 8d 3e 04 35 b6 3e
       -0.5083784 0.10730848 0.27697438 0.35587323
000200 88 9a a7 bd 07 98 a7 3e 03 34 cb 3d 0b 9c bc be
       -0.08183771 0.32733175 0.0992203 -0.368378
000210 74 7e ec be 77 e7 b5 bd f5 a4 df 3e 7c ed 04 be
       -0.46190226 -0.08882039 0.4368054 -0.12981218
000220 c8 96 2f 3d aa e6 85 be cb b8 6f be 40 1b 66 bc
       0.042868406 -0.26152545 -0.23410337 -0.014044583
000230 dd dd b9 be 53 56 7d be 10 c7 22 3e 15 81 7f be
       -0.3630208 -0.24739961 0.15896249 -0.24951585
000240 d2 98 5d be b3 6a 95 3d 01 de 87 3e c9 d3 c5 3d
       -0.21640328 0.07295742 0.26536563 0.096595354
000250 3f 84 e6 3e 93 d2 91 be ab fc 8d be 48 0d 43 bf
       0.4502277 -0.28480968 -0.27731833 -0.7619214
000260 b7 1e 79 be 1c e6 55 be b7 54 91 3d e0 c8 47 3e
       -0.24328123 -0.20888561 0.07096236 0.19510221
000270 01 bd 91 3e 61 33 2c 3e ee eb 8d 3e 95 3f bc bd
       0.2846451 0.16816474 0.27719063 -0.09191815
000280 07 f6 a2 3d 03 59 fb be 41 9e 86 be fb 7c 26 bd
       0.07957082 -0.49091348 -0.26292613 -0.040646534
000290 f8 86 d7 3e e9 23 04 be 2a a8 01 3e 1a 4a 6c bd
       0.4209516 -0.12904324 0.12661806 -0.057687856
0002a0 c0 c1 88 3e 6c 58 11 be 4b ca 74 be 33 2f 29 be
       0.2671032 -0.14193887 -0.23905294 -0.16521911
0002b0 2c 01 0b be bd f5 34 be 6f 64 9c 3d 58 f7 9d bd
       -0.13574666 -0.17671867 0.07636344 -0.07713193
0002c0 3e 0c d3 3d 3f 9d 1b 3e 51 7a 65 3d db 20 dd 3e
       0.103050694 0.15196703 0.056024853 0.4318913
0002d0 0d bd 1b bc 8d d3 09 bf 02 00 60 bf ec c3 16 be
       -0.009505522 -0.53838426 -0.8750001 -0.14723176
0002e0 c5 cf ba 3d 68 6f a3 bc 93 66 16 be 62 86 6a be
       0.0912166 -0.019950584 -0.14687566 -0.22902825
0002f0 2c 59 69 be 77 b4 8d be ba 3a 50 be e9 72 b6 bd
       -0.22787923 -0.27676746 -0.20334902 -0.08908636
000300 ad 8f 34 3e 05 ad 10 3e c9 87 a7 be 3e 8d 03 3f
       0.17632933 0.14128502 -0.32720783 0.51387393
000310 e3 2e c0 3e fe 94 cd 3d 47 1d 78 be 1b 9c e8 bd
       0.37535772 0.10038184 -0.24229918 -0.113579
000320 59 31 1a 3c b2 d8 a6 3d 1d 0f 03 3f 6a 9e 9d 3d
       0.009411179 0.081468 0.51194936 0.07696231
000330 2f 30 aa 3e c4 e9 e9 3e 17 e2 a6 3d 73 c0 f4 3e
       0.33239886 0.45686162 0.08148592 0.47803077
000340 74 41 97 be 93 02 08 be 34 66 b4 3e ce 9e 99 be
       -0.29542124 -0.13282232 0.35234225 -0.3000397
000350 dd 10 3a bf c9 5d f6 be e0 b3 32 3e 34 4a 87 be
       -0.7268198 -0.48118427 0.1745143 -0.264238
000360 0d ad cd bd 8c 04 73 3d 17 2d 90 bd 7c 1d e6 3d
       -0.100427724 0.059330508 -0.0703985 0.112360924
000370 f9 87 75 be 19 e0 20 bf fb 83 c0 3d b7 4c 5f 3d
       -0.2397765 -0.62841946 0.09400173 0.05451652
000380 5c a3 38 bd 2e ee 08 bf b3 9a e8 be 17 3f 8e 3e
       -0.045077667 -0.53488433 -0.45430526 0.2778251
000390 a0 ec f0 3d 90 78 53 bd 0a 1d 04 3e 94 62 98 be
       0.11763883 -0.05162865 0.12901703 -0.2976271
0003a0 88 cf 65 bd 91 2d b7 3e a7 33 2c 3e 41 00 d7 3e
       -0.05610612 0.35776952 0.16816579 0.4199238
0003b0 a2 3f 69 be 23 48 aa 3d 3c 78 d4 3d 9c 91 3a 3d
       -0.2277818 0.0831454 0.103744954 0.04554902
0003c0 a8 49 bb 3d 93 19 b4 3e 7d 7d 83 be d5 a9 23 3e
       0.09144908 0.35175762 -0.25681677 0.15982755
0003d0 81 9f 29 3e ce 45 ad 3d 11 76 ac bd 0c 7b 22 bf
       0.16564752 0.0846058 -0.08420957 -0.63469005
0003e0 0e 60 81 3d 2a 97 32 3d 55 a6 8d 3e 61 4d 95 be
       0.06317149 0.043601193 0.27665964 -0.29160598
0003f0 95 3e 38 be c3 aa ce 3d 67 c4 a7 bd 1a de 17 3f
       -0.17992623 0.10091164 -0.08191758 0.59323275

out.bias f4 [5]
000000 6a 49 c7 3e d6 01 f0 3e 61 40 00 3f 95 af fb 3e
       0.38923198 0.468764 0.50098234 0.49157396
000010 6c b4 da 3e
       0.42715776
