SimplifiedSpaceWar/trained_models/dqn2_bullets_500.pth (torch, 89153 bytes, 6 tensors)

fc1.weight f4 [128, 33]
0.10293993 -0.27898803 0.107884176 -0.09291664 0.14002031 -0.1506798 -0.12343142 -0.3444778
0.0143755125 -0.038227577 0.07257272 -0.31324136 -0.17620037 0.02382552 0.09150981 0.10518877
0.1999605 0.18928312 0.0116331205 -0.18194492 0.100444324 0.0072632027 0.11843699 0.13262458
0.067982554 0.1899258 -0.016041724 -0.062333673 -0.050265018 -0.020467399 0.1138435 0.01521109
-0.1788898 0.1958883 0.05958766 0.24433762 -0.13856377 0.10943109 0.13355176 0.062005606
-0.15482841 0.12926243 0.05660751 -0.013335046 -0.04103512 -0.0058662333 -0.012453333 0.08741704
0.02543664 0.20438275 -0.10224054 -0.19752206 -0.04503314 -0.11931546 0.03890229 0.113155
-0.02503777 0.14118308 0.16224194 -0.12578504 -0.014336199 0.2266375 0.027532423 -0.08804122
0.054018296 -0.14284423 0.3017006 -0.4469627 0.13912238 -0.21600041 0.09509604 -0.15256633
0.13577875 -0.16960503 -0.0025554951 0.11338977 0.01360023 0.40226862 0.021560565 -0.3288134
-0.051254336 -0.3359909 0.36953646 0.07804805 0.02735821 -0.44217288 -0.092745304 -0.051324584
-0.16847953 0.25475413 -0.33820316 -0.2749854 0.058749635 -0.02957765 0.0007205007 0.19794767
0.120728195 -0.09049866 -0.23409812 0.09540406 -0.07608439 -0.061610173 0.10479206 -0.114877634
0.05837477 0.17295326 0.32185927 0.07583487 0.21267438 0.087814964 0.01802563 0.14906985
-0.021114986 -0.17211261 -0.020752398 -0.14947231 0.10454473 0.03460794 -0.13204624 -0.22639759
-0.09416099 0.021120053 0.011319424 -0.066099524 0.14495306 -0.068388365 -0.18072827 0.12643042
-0.12722759 -0.04558563 -0.031933818 0.022603763 0.17509562 0.33384907 -0.01823213 0.050168402
0.11647645 -0.22618385 -0.053046737 0.15255281 0.003026459 -0.09587946 -0.10018385 0.06874339
0.04336346 -0.00065967796 0.08654633 0.122187994 -0.1918357 -0.056072492 -0.06976915 0.25530148
0.05971902 0.007804094 0.0626111 -0.00012833902 -0.07887359 0.057689205 -0.14789523 0.21866105
-0.33369267 0.057864252 0.113068886 0.40311122 0.24143459 0.24806646 -0.25753868 -0.11290919
-0.19216646 -0.13083522 -0.13966301 0.0062942817 -0.3687976 -0.0052303234 -0.31298566 -0.15574926
-0.24234341 -0.002899839 0.15700607 -0.068006754 0.16860631 -0.11230089 -0.26652056 0.077282034
-0.028806867 0.05577626 -0.12247177 -0.1745358 0.053484503 -0.011605806 0.020982135 0.06824154
0.0053562922 -0.14336081 0.14844444 0.101818256 0.057244536 -0.1049126 0.07158149 -0.10159283
0.16176099 0.14542404 0.009447179 0.019300958 0.095768385 -0.050971728 -0.10455928 -0.07488577
0.033386678 -0.12133859 0.123305686 0.05121261 -0.09130744 0.07644025 0.123414665 0.005779666
-0.09757537 -0.117218785 -0.08123833 -0.11645108 -0.0545336 0.13758962 0.14499936 -0.07938397
0.07687538 0.013396475 0.054573335 0.16077675 -0.16470966 0.13575189 0.0108168945 0.04548002
-0.3527036 0.08480487 0.05206389 -0.14977331 0.017032964 -0.08981747 -0.078293696 0.12358999
-0.055746008 0.23753871 -0.23834498 -0.13905281 0.051285293 0.1925436 -0.2377388 -0.21578203
-0.09133156 0.09393032 -0.032562796 0.14909606 -0.016529307 0.137911 -0.08025567 0.21380168
00000000: 2cd2 d23d 85d7 8ebe 61f2 dc3d 144b bebd
00000010: 7c61 0f3e ce4b 1abe 9dc9 fcbd 655f b0be
00000020: 4587 6b3c 8594 1cbd 02a1 943d 2c61 a0be
00000030: df6d 34be bd2d c33c 7f69 bb3d 366d d73d
00000040: 72c2 4c3e 6fd3 413e d898 3e3c c54f 3abe
00000050: c1b5 cd3d 2900 ee3b 188f f23d bdce 073e
00000060: 703a 8b3d e97b 423e ef69 83bc 9851 7fbd
00000070: b1e2 4dbd 3fab a7bc c826 e93d f037 793c
00000080: e32e 37be f196 483e 3112 743d a433 7a3e
00000090: a9e3 0dbe 681d e03d cbc1 083e 97f9 7d3d
000000a0: 578b 1ebe 5f5d 043e 47dd 673d 3d7b 5abc
000000b0: 7114 28bd 8839 c0bb 1009 4cbc b407 b33d
000000c0: 8060 d03c b649 513e 7d63 d1bd 3943 4abe
000000d0: ab74 38bd aa5b f4bd 0258 1f3d cfbd e73d
000000e0: 021c cdbc 4c92 103e c022 263e cbcd 00be
000000f0: 60e2 6abc a913 683e ad8b e13c f54e b4bd
00000100: 4a42 5d3d c245 12be 8078 9a3e 4cd8 e4be
00000110: 1976 0e3e 362f 5dbe b6c1 c23d 593a 1cbe
00000120: 9609 0b3e f1ac 2dbe 187a 27bb e538 e83d
00000130: 80d3 5e3c 27f6 cd3e c89f b03c 3b5a a8be
00000140: 11f0 51bd 0007 acbe e233 bd3e a8d7 9f3d
00000150: 531e e03c 7c64 e2be 40f1 bdbd ba39 52bd
00000160: e685 2cbe 226f 823e f728 adbe e3ca 8cbe
00000170: 75a3 703d d44c f2bc fcdf 3c3a cbb2 4a3e
00000180: 5840 f73d 5d57 b9bd 6bb7 6fbe 3463 c33d
00000190: 22d2 9bbd f35a 7cbd 389d d63d f744 ebbd
000001a0: 621a 6f3d a91a 313e bdca a43e 504f 9b3d
000001b0: 50c7 593e 55d8 b33d 7caa 933c c4a5 183e
000001c0: 56f9 acbc 4a3e 30be ef00 aabc 450f 19be
000001d0: 8c1b d63d 0ec1 0d3d 2137 07be c5d4 67be
000001e0: 7ad7 c0bd f603 ad3c 1b75 393c 305f 87bd
000001f0: 936e 143e 330f 8cbd d510 39be fa76 013e
00000200: f347 02be ffb7 3abd 09cd 02bd 872b b93c
00000210: 444c 333e 44ee aa3e 8c5b 95bc 627d 4d3d
00000220: 348b ee3d bd9c 67be 8947 59bd ce36 1c3e
00000230: 8e57 463b 735c c4bd 312d cdbd 56c9 8c3d
00000240: e29d 313d 3dee 2cba 343f b13d b33d fa3d
00000250: 9470 44be 45ac 65bd 21e3 8ebd e0b6 823e
00000260: ee9b 743d 7cb9 ff3b 403a 803d be92 06b9
00000270: 7a88 a1bd 844b 6c3d d971 17be afe8 5f3e
00000280: c4d9 aabe 1103 6d3d a990 e73d 9864 ce3e
00000290: a13a 773e 2205 7e3e 1cdc 83be ef3c e7bd
000002a0: 49c7 44be abf9 05be d203 0fbe 4340 ce3b
000002b0: 0ad3 bcbe 2263 abbb a83f a0be bc7c 1fbe
000002c0: df28 78be 3a0b 3ebb 33c6 203e 2047 8bbd
000002d0: 22a7 2c3e 02fe e5bd 6275 88be 0b46 9e3d
000002e0: 61fc ebbc a675 643d 7bd2 fabd 83b9 32be
000002f0: 9112 5b3d 4726 3ebc bae2 ab3c 38c2 8b3d
00000300: d683 af3b 2dcd 12be d201 183e 1786 d03d
00000310: 3f79 6a3d 6bdc d6bd 5199 923d e70f d0bd
00000320: aca4 253e 0aea 143e 57c8 1a3c 0b1d 9e3c
00000330: 3722 c43d bbc7 50bd 2d23 d6bd b65d 99bd
00000340: 78c0 083d 5e80 f8bd b187 fc3d 50c4 513d
00000350: 65ff babd b58c 9c3d d4c0 fc3d 5a63 bd3b
00000360: 98d5 c7bd 6710 f0bd 4860 a6bd e77d eebd
00000370: a05e 5fbd 4be4 0c3e b67a 143e 1094 a2bd
00000380: d770 9d3d e47c 5b3c 4a88 5f3d a9a2 243e
00000390: a6a9 28be 8b02 0b3e 5839 313c 4249 3a3d
000003a0: 9195 b4be 2dae ad3d f240 553d 2d5e 19be
000003b0: b788 8b3c 39f2 b7bd 7258 a0bd c01c fd3d
000003c0: ed55 64bd 593d 733e b510 74be dc63 0ebe
000003d0: 8710 523d 262a 453e cd71 73be f7f5 5cbe
000003e0: 0a0c bbbd 8a5e c03d 9160 05bd a3ac 183e
000003f0: 7868 87bc 8b38 0d3e 165d a4bd d4ee 5a3e

fc1.bias f4 [128]
0.12584153 0.27821034 -0.099224776 -0.071176745 0.21644612 0.03580231 -0.07010786 0.229551
-0.0010768757 0.16687194 -0.03383988 -0.1760611 0.050407875 -0.2548075 0.08874378 -0.063272476
-0.087795496 0.002549078 -0.06205274 0.022196047 0.38951594 0.2986527 0.005264745 -0.11327936
0.12603788 -0.09480042 0.17127249 0.037107967 -0.035502553 0.133446 -0.25824806 0.25843227
0.24742232 0.32294 -0.051347546 0.2196184 0.29602656 0.29617035 0.007655727 0.0619884
-0.14491624 -0.026099913 0.10675576 0.02609753 -0.1100422 0.17260057 0.16422944 7.514476e-05
-0.1978638 0.02770215 -0.06758775 0.21502358 0.12694623 -0.17885305 -0.1259399 0.1909442
0.11880104 -0.01860161 0.15007898 -0.066130415 -0.28338805 -0.036874626 0.23807038 -0.14766304
0.19593966 0.00061030925 -0.14843525 -0.17419145 0.17851174 0.13204034 0.089618124 0.019838661
0.3675908 0.20767985 0.32513776 0.05548681 0.2829524 0.07900467 0.25526127 -0.0054649967
0.07784649 0.16357087 0.22405013 0.35167032 0.027533477 0.1925259 -0.071662426 0.14403778
0.12258588 0.09386234 0.09779412 0.39506924 0.10332946 0.12030265 0.059813477 0.110068016
-0.040686067 0.076358736 0.2114891 0.29685757 0.02681154 -0.043336667 0.011358431 0.26357663
0.22415248 0.083056435 -0.027327564 0.22001168 0.19200659 -0.0588966 0.06452061 0.062998444
-0.08018419 -0.034545504 0.15736654 -0.0065286322 0.20723937 0.083828874 0.21015264 0.077465415
-0.15397494 0.44468844 0.09797394 0.059368942 0.25308183 0.11841514 -0.1007292 -0.25826117
00000000: 9adc 003e 9671 8e3e 5c36 cbbd 1dc5 91bd
00000010: 0da4 5d3e 71a5 123d b694 8fbd 6b0f 6b3e
00000020: f425 8dba 7ae0 2a3e b09b 0abd 5c49 34be
00000030: 7d78 4e3d 2176 82be 4dbf b53d 0095 81bd
00000040: 20ce b3bd 6f0e 273b 042b 7ebd 7cd4 b53c
00000050: a26e c73e 02e9 983e e283 ac3b 02ff e7bd
00000060: 1310 013e b926 c2bd 0e62 2f3e 86fe 173d
00000070: 206b 11bd 11a6 083e 1739 84be 3c51 843e
00000080: 475c 7d3e 6458 a53e ce51 52bd a5e3 603e
00000090: cb90 973e a4a3 973e e5dc fa3b 8ce7 7d3d
000000a0: ec64 14be 7ccf d5bc c4a2 da3d 7dca d53c
000000b0: ce5d e1bd 34be 303e c32b 283e 0997 9d38
000000c0: cf9c 4abe 9fef e23c 726b 8abd 242f 5c3e
000000d0: 31fe 013e 4125 37be 64f6 00be e086 433e
000000e0: f64d f33d 6762 98bc 4eae 193e 626f 87bd
000000f0: 3d18 91be d909 17bd b9c8 733e fb34 17be
00000100: 68a4 483e 29fd 1f3a 69ff 17be 3e5f 32be
00000110: c8cb 363e 9535 073e b589 b73d b084 a23c
00000120: dd34 bc3e 07aa 543e 7578 a63e 2346 633d
00000130: 23df 903e 33cd a13d 9bb1 823e b713 b3bb
00000140: fb6d 9f3d 1f7f 273e 666d 653e 220e b43e
00000150: e38d e13c 8225 453e c0c3 92bd a47e 133e
00000160: 4e0e fb3d e63a c03d 4948 c83d 8446 ca3e
00000170: 659e d33d 3c61 f63d fafe 743d 576b e13d
00000180: 6fa6 26bd f861 9c3d 9990 583e b7fd 973e
00000190: e0a3 db3c ca81 31bd b618 3a3c 84f3 863e
000001a0: 3a88 653e 7e19 aa3d 0ede dfbc be4a 613e
000001b0: 609d 443e 903d 71bd 6223 843d 5405 813d
000001c0: 9c37 a4bd 967f 0dbd b224 213e 23ee d5bb
000001d0: 8f36 543e 79ae ab3d 4132 573e 30a6 9e3d
000001e0: 9bab 1dbe 34ae e33e 90a6 c83d d92c 733d
000001f0: f193 813e a383 f23d 1c4b cebd cf3a 84be

fc2.weight f4 [128, 128]
0.065927275 -0.014482772 0.014847833 -0.08857874 -0.025547286 -0.040923227 -0.026977977 -0.044960957
-0.06869091 0.062217616 -0.0569336 0.0695658 -0.041453328 -0.0057259807 -0.071593694 -0.07779863
-0.04263687 0.047943123 0.07237663 0.07911819 0.043686673 0.082260676 -0.09466873 0.02282608
-0.018215327 -0.090848066 -0.00018655551 0.0017496829 0.0147064645 0.010971702 0.06772632 -0.07760063
0.0067853783 0.034845825 0.060809694 0.08177779 0.02289948 -0.061152156 -0.06963014 0.06404066
-0.020560967 -0.011941235 -0.044459697 0.047652796 -0.06580137 -0.0047419006 0.04418503 0.055573754
-0.07458644 0.060013082 0.045855477 0.06552237 -0.032891333 0.014332607 -0.039720893 0.043478668
-0.057377826 -0.04072343 -0.07411519 0.028348986 0.07153764 0.022449771 0.05691299 -0.062275954
0.022697402 0.061330758 -0.00462254 -0.037010495 0.055422965 -0.076860495 0.053347215 -0.023054862
0.013712644 -0.060147762 -0.0014547899 -0.087400384 -0.060711738 0.018390018 -0.088368975 -0.032073315
-0.08024416 -0.06841923 -0.06721233 -0.089325875 0.083792314 -0.029584598 0.07826819 0.08434467
0.049606744 0.03201106 -0.004121493 -0.012604684 -0.03674378 -0.01657207 -0.04651256 0.026109451
0.018222397 -0.042554885 -0.028308332 0.040807504 0.024782376 0.006151355 -0.02802866 0.056094427
-0.056161873 -0.032041583 0.044792052 -0.08504574 0.009299122 0.0038366343 -0.055789486 -0.06950015
-0.033206426 -0.08691781 0.019506214 -0.07228369 -0.01733634 0.0007714931 -0.07085975 -0.07130198
-0.05637492 -0.08498659 0.018005883 0.016371042 0.059217766 0.0029242826 -0.033676326 0.056316935
-0.016020786 0.0890094 -0.12813856 -0.02875671 -0.062159564 0.09704324 -0.022032041 -0.049135532
0.054654043 0.082419395 0.103394344 -0.002016199 -0.3814507 -0.10536829 -0.115672775 0.21760817
0.066334516 -0.087957315 0.035990328 -0.09327102 0.085733026 -0.023345469 0.06254221 0.09397231
0.15300825 -0.017125987 0.04857727 0.0055415467 -0.07947615 -0.12184681 -0.011765695 -0.06485099
0.15903297 0.008055507 0.117117025 0.025442677 -0.022654608 0.00772039 -0.027481604 0.02028887
-0.0016713678 -0.06422274 -0.15717897 0.0029610484 -0.09420648 0.20263131 0.053701077 -0.0014682529
0.23779084 0.054326415 -0.14709969 0.044268038 0.008498505 0.059707817 -0.08695093 0.032496843
0.12506858 -0.24195555 0.0033272854 0.1062944 -0.002960935 -0.100074895 0.19056444 0.042018242
-0.030452862 0.029473258 0.055018727 -0.07513193 -0.01732419 0.017093658 0.019466044 0.1544373
0.059258595 0.017929273 -0.058358986 0.080864295 0.09293608 -0.05293681 0.035881586 0.15832861
0.04005925 0.00017524992 0.054369498 -0.016683092 -0.012747803 0.06237655 -0.15188144 -0.0061633503
-0.03700731 0.019763047 0.02721519 0.08569497 -0.01508646 -0.06831992 0.08003122 -0.2897694
0.016394012 0.021929279 -0.42180598 0.056737754 -0.000384898 0.07288949 0.15465233 0.028619392
0.041450974 0.123574145 -0.024182651 0.06585628 -0.05189012 0.11071186 0.005852754 -0.09443763
-0.00043865122 -0.06917141 0.07108752 0.23954558 0.08526534 0.21610658 0.0320568 0.24952303
0.07572277 -0.07125841 0.039635308 -0.106295705 0.019587493 0.07325782 0.07479923 -0.037408717
00000000: e104 873d 2649 6dbc 5344 733c c568 b5bd
00000010: 8b48 d1bc 1d9f 27bd eb00 ddbc fb28 38bd
00000020: d2ad 8cbd e6d7 7e3d 3533 69bd 8478 8e3d
00000030: f7ca 29bd 02a1 bbbb b79f 92bd e354 9fbd
00000040: 00a4 2ebd 0260 443d 333a 943d b808 a23d
00000050: ccf0 323d 4978 a83d aee1 c1bd c2fd ba3c
00000060: 4f38 95bc 8d0e babd 1d9e 43b9 9e55 e53a
00000070: 62f3 703c a7c2 333c 19b4 8a3d 14ed 9ebd
00000080: e157 de3b 7fba 0e3d 9613 793d 1d7b a73d
00000090: b197 bb3c af7a 7abd 3f9a 8ebd c027 833d
000000a0: 796f a8bc 2ba5 43bc 5f1b 36bd 942f 433d
000000b0: dec2 86bd f261 9bbb 5dfb 343d 4ea1 633d
000000c0: c7c0 98bd 47d0 753d f4d2 3b3d 9830 863d
000000d0: 10b9 06bd 50d3 6a3c 60b2 22bd b016 323d
000000e0: 0305 6bbd 9dcd 26bd b4c9 97bd 223c e83c
000000f0: 5482 923d 95e8 b73c 981d 693d 1215 7fbd
00000100: e7ef b93c f635 7b3d ad78 97bb 5198 17bd
00000110: 3103 633d 0969 9dbd 9c82 5a3d 8ddd bcbc
00000120: ffaa 603c 805d 76bd a6ae beba f9fe b2bd
00000130: dfac 78bd aaa6 963c cbfa b4bd 4f5f 03bd
00000140: 0d57 a4bd 621f 8cbd 9ea6 89bd 7cf0 b6bd
00000150: 4e9b ab3d 665b f2bc 134b a03d e6bc ac3d
00000160: 7130 4b3d 071e 033d 970d 87bb e083 4ebc
00000170: a580 16bd 26c2 87bc f483 3ebd 7de3 d53c
00000180: 2347 953c 084e 2ebd e0e6 e7bc c525 273d
00000190: 6904 cb3c 4e91 c93b 5c9c e5bc 45c3 653d
000001a0: fe09 66bd 093e 03bd df77 373d 762c aebd
000001b0: 585b 183c 0b70 7b3b 8483 64bd 1856 8ebd
000001c0: 7603 08bd f701 b2bd 7fcb 9f3c 7909 94bd
000001d0: f104 8ebc 073e 4a3a eb1e 91bd c606 92bd
000001e0: 63e9 66bd 730d aebd 1381 933c 901c 863c
000001f0: 548e 723d 52a5 3f3b 30f0 09bd 96ac 663d
00000200: 063e 83bc 8f4a b63d c136 03be 3193 ebbc
00000210: 079b 7ebd 9bbe c63d 8a7c b4bc 5742 49bd
00000220: ebdc 5f3d 80cb a83d 6ac0 d33d 3522 04bb
00000230: 824d c3be 54cb d7bd d9e5 ecbd add4 5e3e
00000240: 64da 873d f722 b4bd 986a 133d e004 bfbd
00000250: cc94 af3d ff3e bfbc 2116 803d 8e74 c03d
00000260: 32ae 1c3e cc4b 8cbc f6f8 463d dd95 b53b
00000270: 64c4 a2bd d28a f9bd e7c4 40bc 99d0 84bd
00000280: 8ad9 223e 3ffb 033c 0ddb ef3d 296d d03c
00000290: 2896 b9bc 53fb fc3b 1a21 e1bc d834 a63c
000002a0: cc11 dbba 3687 83bd 86f3 20be 260e 423b
000002b0: 54ef c0bd 957e 4f3e a9f5 5b3d 6472 c0ba
000002c0: 717f 733e 6085 5e3d 4da1 16be 6752 353d
000002d0: 503d 0b3c 2f90 743d 5413 b2bd 691b 053d
000002e0: fa11 003e 32c3 77be 960e 5a3b e1b0 d93d
000002f0: 3f0c 42bb 11f4 ccbd 5323 433e 521b 2c3d
00000300: 4878 f9bc e771 f13c 515b 613d c5de 99bd
00000310: 76eb 8dbc 0008 8c3c 4177 9f3c d024 1e3e
00000320: 24b9 723d 69e0 923c d509 6fbd 2e9c a53d
00000330: 4655 be3d 45d4 58bd 92f8 123d e520 223e
00000340: 2b15 243d 4bc3 3739 8db2 5e3d fbaa 88bc
00000350: 29dc 50bc 8e7e 7f3d cf86 1bbe eef5 c9bb
00000360: fa94 17bd 1de6 a13c 64f2 de3c d880 af3d
00000370: 332d 77bc 50eb 8bbd 69e7 a33d a85c 94be
00000380: bc4c 863c 08a5 b33c f4f6 d7be d965 683d
00000390: 23cc c9b9 1647 953d 2e5d 1e3e 3773 ea3c
000003a0: 7fc8 293d 7114 fd3d b21a c6bc a8df 863d
000003b0: bc8a 54bd e6bc e23d 76c8 bf3b 8468 c1bd
000003c0: c5fa e5b9 bda9 8dbd 5596 913d 704b 753e
000003d0: 989f ae3d 0b4b 5d3e fe4d 033d f782 7f3e
000003e0: 8a14 9b3d eeef 91bd a258 223d 90b1 d9bd
000003f0: f375 a03c 3208 963d 5730 993d e239 19bd

fc2.bias f4 [128]
0.05346084 0.20398642 0.040703025 -0.044708274 -0.13330247 0.09069961 0.06640933 0.066238075
0.28358993 0.012414424 -0.14721797 0.070745505 0.11100311 0.010792005 0.101706505 0.06851947
0.19071089 0.2835093 -0.0018022864 -0.008943325 -0.012482147 -0.0089264605 -0.02064097 0.059174463
0.018814994 0.21616305 0.10970448 -0.037062522 0.07814057 0.15546533 0.06325891 0.0677674
0.38755423 0.05224038 -0.07464943 0.103779264 -0.07134094 0.050590236 0.23518856 -0.12343538
0.02183634 0.05377922 -0.016769024 0.052261196 -0.027341511 0.17621633 -0.06289904 0.08492983
0.3095826 -0.0014553706 0.20070446 0.067630656 0.07409515 0.18830885 -0.071321964 0.108385034
-0.028833978 0.04449776 0.16040432 0.2373982 0.09091628 -0.085138984 -0.051996034 0.05518919
0.076218806 -0.0576333 0.0031981824 -0.05785086 0.020106765 0.10953112 0.021283837 0.042130128
-0.019753672 0.3452032 0.12304239 0.19390059 0.17389749 -0.04677606 0.12123874 0.048516475
-0.24086328 0.1727572 0.10757835 0.036079302 0.086749405 -0.018067637 0.09167326 0.12475198
0.038363386 -0.071967416 0.048898637 0.26282758 0.04335004 0.11842949 0.21264721 -0.07030955
0.08860974 0.070640825 0.09851104 0.24456881 0.17239313 0.13559893 -0.041965242 0.06879255
-0.047962055 -0.09816692 0.1537479 0.013982715 0.04787943 0.26446256 0.02859359 0.051701777
0.1665458 0.100195006 0.07329035 0.03249734 0.012160599 0.35748535 0.08027205 0.074133866
0.14233342 0.063211106 0.07520686 0.057670135 0.0600838 0.35432112 0.0038768237 0.030470526
00000000: c1f9 5a3d d1e1 503e 37b8 263d 0620 37bd
00000010: 7180 08be b8c0 b93d 9d01 883d d4a7 873d
00000020: b332 913e de65 4b3c 4fc0 16be 05e3 903d
00000030: 9955 e33d f3d0 303c 804b d03d f053 8c3d
00000040: b749 433e 2228 913e b23a ecba 0687 12bc
00000050: eb81 4cbc 4a40 12bc 4017 a9bc ec60 723d
00000060: e721 9a3c d959 5d3e beac e03d dfce 17bd
00000070: 2a08 a03d 4e32 1f3e e38d 813d a2c9 8a3d
00000080: 826d c63e 02fa 553d cde1 98bd 398a d43d
00000090: 331b 92bd b537 4f3d 45d5 703e b0cb fcbd
000000a0: 20e2 b23c 9947 5c3d 315f 89bc d60f 563d
000000b0: 4efb dfbc 0e72 343e 36d1 80bd b1ef ad3d
000000c0: 9c81 9e3e 22c2 beba 7885 4d3e f181 8a3d
000000d0: 33bf 973d 09d4 403e 4011 92bd f9f8 dd3d
000000e0: 3c35 ecbc 4843 363d 0841 243e 8418 733e
000000f0: 5132 ba3d 595d aebd cbf9 54bd 0f0e 623d
00000100: 9b18 9c3d e510 6cbd 9998 513b 06f5 6cbd
00000110: f1b6 a43c da51 e03d 715b ae3c a490 2c3d
00000120: 74d2 a1bc 79be b03e a6fd fb3d e08d 463e
00000130: 2f12 323e 4198 3fbd 044c f83d 36b9 463d
00000140: dda4 76be 43e7 303e 0a52 dc3d e4c7 133d
00000150: aca9 b13d 9502 94bc 31bf bb3d f77d ff3d
00000160: ed22 1d3d a763 93bd f049 483d 5691 863e
00000170: d08f 313d 298b f23d 31c0 593e 74fe 8fbd
00000180: 0679 b53d 23ac 903d 28c0 c93d 3f70 7a3e
00000190: d387 303e 72da 0a3e bfe3 2bbd 1ce3 8c3d
000001a0: dc73 44bd bd0b c9bd 1770 1d3e c217 653c
000001b0: 391d 443d a367 873e 1b3d ea3c 3ec5 533d
000001c0: fb8a 2a3e 0a33 cd3d 4019 963d ee1b 053d
000001d0: 403d 473c 5208 b73e ac65 a43d 7fd3 973d
000001e0: dabf 113e d374 813d 0e06 9a3d 8537 6c3d
000001f0: 6e1a 763d 9469 b53e 4f12 7e3b 539d f93c

out.weight f4 [5, 128]
0.07768112 -0.0069392566 -0.08532937 -0.074196525 -0.019314459 -0.12857097 -0.08182644 0.01874684
-0.03942094 0.040987153 -0.016114427 0.059082437 -0.31988928 0.20292428 -0.05365597 0.11562758
-0.117629625 0.035892196 -0.106977515 0.009953955 -0.09888874 -0.10244444 0.035521585 0.1006248
-0.037998445 0.037688144 0.00984348 0.008034841 -0.1672539 0.061499935 0.1215796 0.34585518
0.07355305 0.12661982 -0.103952296 -0.21701084 0.13284168 0.07303675 0.060397245 -0.0007675899
0.027251536 0.009481935 0.022377959 -0.06226508 0.25493893 -0.021621631 -0.04112679 -0.041904207
0.0740309 -0.053341407 0.071729936 0.04443351 0.016457403 0.25707307 0.029300947 0.038044322
0.045977745 0.095831 0.12866427 0.007080878 0.20368178 0.033047963 -0.06466333 0.10414759
-0.0013720613 0.08819077 -0.11687894 -0.13968748 -0.056179736 -0.026289051 0.029488526 0.04178084
-0.15339065 0.06464628 -0.26091623 0.072997004 0.35982502 -0.029847275 0.05628917 -0.0034911009
-0.0080154715 0.35289466 0.002237733 -0.19865777 0.15719561 0.028340383 0.10075199 0.035228293
0.25103158 -0.032187596 -0.009377705 0.04524791 -0.1751721 0.121233456 0.00867835 -0.00058519846
-0.13679363 0.20563471 0.18988074 -0.0051529715 0.017383957 0.036088757 0.029829074 -0.07109873
-0.044563476 0.010942325 0.065701425 0.0055993134 0.12729135 0.06378627 -0.059750266 -0.082597196
0.06346513 0.014650367 -0.12910414 0.026388582 -0.21660946 0.060971893 0.03587496 0.18469982
-0.31387874 -0.025983332 -0.14672574 0.02320357 -0.17417902 0.026095781 0.055048887 -0.0055442667
-0.073884 0.074423596 0.02755861 -0.031397566 -0.05901772 0.018899191 0.013134349 0.0069564064
0.059966665 -0.06357859 0.040389996 0.029914295 -0.015981516 -0.113285005 0.068718016 -0.086699545
-0.05234466 0.09034052 0.08944617 0.024681123 0.045306984 0.0042650625 -0.05605855 -0.008810602
-0.047629815 -0.018797183 0.068782546 -0.02958847 0.011220046 -0.003471616 0.13702439 -0.042071637
0.036847822 -0.100878514 -0.035245396 -0.076403536 -0.006314387 0.030475771 0.026880853 -0.0056845266
0.050587345 -0.06349501 0.055864815 0.05488171 -0.09954927 -0.0009092747 0.02564408 0.0031928872
0.017454322 0.06823164 0.00052432844 0.13591243 0.01135707 -0.0997196 -0.0522856 0.013246564
0.084251724 -0.01460898 -0.12113467 0.015694594 -0.10574175 0.04033702 -0.0659939 0.0021257442
-0.002156937 0.004362947 0.1229549 0.023088682 0.08800324 -0.016292332 -0.05279693 -0.022298621
-0.08226643 0.024097241 0.034381364 0.0012213016 0.061629128 -0.028341146 -0.015899686 -0.054129567
-0.068686806 -0.13559602 0.022626996 -0.14414378 0.0027028148 0.06912544 0.035637904 -0.018892402
-0.047817577 0.059330508 -0.06426579 0.09450007 -0.11247004 -0.12923817 0.010137412 0.079536535
-0.024749529 -0.044218957 0.0022050787 0.024528362 0.054863345 -0.00047016202 -0.052550443 -0.072154626
-0.05610612 -0.0002071958 -0.03409038 0.012527104 -0.039652795 0.0701175 0.049087204 -0.15428801
0.015841665 -0.00351331 0.096930265 -0.011700337 -0.03319834 0.06383035 0.07327978 -0.024223596
-0.0746712 0.05444602 0.02867133 -0.025356933 0.14878854 0.07252964 0.10184348 0.017607953
00000000: 4717 9f3d b462 e3bb 2ac1 aebd 59f4 97bd
00000010: 5b39 9ebc 1ca8 03be 9f94 a7bd f992 993c
00000020: da77 21bd 25e2 273d 6702 84bc 6d00 723d
00000030: 87c8 a3be 62cb 4f3e 5dc6 5bbd 27ce ec3d
00000040: cde7 f0bd b203 133d 0717 dbbd ea15 233c
00000050: 2e86 cabd 64ce d1bd 157f 113d 6014 ce3d
00000060: 42a4 1bbd e25e 1a3d 8c46 213c 91a4 033c
00000070: 9b44 2bbe 5be7 7b3d bafe f83d ee13 b13e
00000080: fba2 963d a0a8 013e f1e4 d4bd 1738 5ebe
00000090: a607 083e 4b94 953d 1a63 773d 1638 49ba
000000a0: 9d3e df3c 1e5a 1b3c fb51 b73c ab09 7fbd
000000b0: 5b87 823e d91f b1bc 9174 28bd bfa3 2bbd
000000c0: 839d 973d 857c 5abd 25e7 923d eaff 353d
000000d0: add1 863c 159f 833e 8a08 f03c 5dd4 1b3d
000000e0: 2953 3c3d 0b43 c43d 91c0 033e b606 e83b
000000f0: f591 503e 4d5d 073d 356e 84bd 554b d53d
00000100: bdd6 b3ba 5d9d b43d 3a5e efbd 3c0a 0fbe
00000110: b91c 66bd 235c d7bc ec91 f13c 6322 2b3d
00000120: 7012 1dbe 4565 843d d096 85be 747f 953d
00000130: fc3a b83e 4682 f4bc 798f 663d f4ca 64bb
00000140: 5353 03bc 9cae b43e eea6 123b f16c 4bbe
00000150: e3f7 203e 172a e83c 0f57 ce3d 8b4b 103d
00000160: 3687 803e 24d7 03bd f2a4 19bc df55 393d
00000170: 5160 33be 3f49 f83d a32f 0e3c 0168 19ba
00000180: a113 0cbe e891 523e 1970 423e 42da a8bb
00000190: cd68 8e3c ced1 133d 1a5c f43c 369c 91bd
000001a0: 3188 36bd 7047 333c 788e 863d 727a b73b
000001b0: aa58 023e 60a2 823d b2bc 74bd b828 a9bd
000001c0: 02fa 813d 1808 703c e033 04be de2c d83c
000001d0: dfce 5dbe aabd 793d 9ff1 123d f321 3d3e
000001e0: b7b4 a0be ffda d4bc 463f 16be 6a15 be3c
000001f0: fc5b 32be d2c6 d53c f17a 613d aeac b5bb
00000200: 7f50 97bd 666b 983d 98c2 e13c bc9a 00bd
00000210: 91bc 71bd 7ad2 9a3c 7431 573c 91f2 e33b
00000220: 9b9f 753d 7e35 82bd fb6f 253d d30e f53c
00000230: abeb 82bc f801 e8bd 08bc 8c3d 888f b1bd
00000240: 5b67 56bd 7304 b93d 8e2f b73d 1130 ca3c
00000250: d193 393d f0c1 8b3b a69d 65bd 585a 10bc
00000260: 7b17 43bd 8dfc 99bc dddd 8c3d 8563 f2bc
00000270: 49d4 373c 0d84 63bb 1f50 0c3e 4f53 2cbd
00000280: beed 163d 6599 cebd 7a5d 10bd 7579 9cbd
00000290: ebe8 cebb 53a8 f93c 3c35 dc3c 4445 babb
000002a0: ad34 4f3d ac09 82bd 81d2 643d a5cb 603d
000002b0: 7de0 cbbd 645c 6eba 8913 d23c c23f 513b
000002c0: 5efc 8e3c 08bd 8b3d 1673 093a a12c 0b3e
000002d0: 0113 3a3c ca39 ccbd 6d29 56bd 1e08 593c
000002e0: 2b8c ac3d 815a 6fbc 7415 f8bd f391 803c
000002f0: 218f d8bd 6e38 253d cf27 87bd 1250 0b3b
00000300: 665b 0dbb 0df7 8e3b c7cf fb3d 7a24 bd3c
00000310: 0b3b b43d 7f77 85bc 9841 58bd 99ab b6bc
00000320: 4d7b a8bd 9467 c53c 79d3 0c3d 1514 a03a
00000330: d36e 7c3d b12b e8bc 0f40 82bc f7b6 5dbd
00000340: abab 8cbd afd9 0abe 405c b93c 6d9a 13be
00000350: b521 313b a491 8d3d 0df9 113d 3dc4 9abc
00000360: 5ddc 43bd 8c04 733d c89d 83bd 4189 c13d
00000370: b156 e6bd 0357 04be 6317 263c 0de4 a23d
00000380: 86bf cabc f01e 35bd 1583 103b b4ef c83c
00000390: 63b8 603d 1480 f6b9 223f 57bd cec5 93bd
000003a0: 88cf 65bd b342 59b9 5ba2 0bbd 7b3e 4d3c
000003b0: f86a 22bd c499 8f3d aa0f 493d adfd 1dbe
000003c0: 61c6 813c 903f 66bb 6083 c63d c5b2 3fbc
000003d0: fcfa 07bd 7db9 823d b613 963d 9070 c6bc
000003e0: 37ed 98bd ca02 5f3d 23e0 ea3c 58b9 cfbc
000003f0: 065c 183e 6b8a 943d 5093 d03d 8e3e 903c

out.bias f4 [5]
0.23031798 0.20439588 0.20898043 0.29425865 0.15428
00000000: 7ad8 6b3e 274d 513e f7fe 553e 12a9 963e
00000010: 94fb 1d3e
