SimplifiedSpaceWar/trained_models/dqn2_bullets_19000.pth (torch, 89177 bytes, 6 tensors)

fc1.weight f4 [128, 33]
-0.21904363 -0.7848312 -0.09092239 0.246704 0.13452627 -0.14337043 -0.28111616 -0.52106774
0.038983226 -0.31598106 -0.257612 -0.22925559 -0.17835858 -0.09222455 -0.04917734 0.1332944
-0.22310293 0.16972534 0.029169353 -0.08471158 -0.5220297 -0.057854827 0.11667188 0.022264654
0.33014393 0.17386045 -0.027604358 0.36955473 -0.010970488 -0.1352905 0.00485268 -0.1571411
-0.047789693 2.0710545 2.5934987 0.32909966 -0.088547856 -0.18756884 0.79816115 0.21792413
0.94312084 -0.028413216 0.5489317 -0.68224376 -0.6466035 0.6317324 0.2482988 -0.34180617
0.49375063 0.35773176 0.14047992 -0.06172008 -0.27185756 0.09000268 -0.29717875 -0.28117856
0.52302724 -0.2125397 0.29363817 -0.079635054 -0.18696603 -0.2574909 -0.17915253 -0.27663466
0.03477387 -0.19668208 -2.4189322 1.4899131 0.5176138 -0.4199054 0.5676462 -0.5229314
-0.012455023 -0.11052947 -0.027699739 0.097995736 0.050451282 -0.74555534 0.10414323 -1.2373165
-0.13529114 -1.3208226 0.267631 -0.32571864 -0.034566235 -0.4982742 -0.3589962 0.0034518319
0.2846061 0.6131388 0.0047530527 -0.57029593 -0.22346236 0.30319425 0.10746111 -0.1092373
-0.27207398 0.3065442 -0.16320682 0.0702444 1.0732563 0.081000365 -0.17740588 -0.056098416
0.52379227 0.5518794 0.19196807 0.008149349 -0.96943563 -0.12622039 -0.30392927 0.5968135
-0.12872522 -0.3774875 0.045318168 -0.2549442 0.17986067 -0.25777778 0.37842688 -0.4197616
-1.2533001 -0.2371788 0.84064174 0.06593488 -0.20983833 -0.23245263 -1.2337006 0.096627384
-0.24191554 -0.2385092 -0.13808553 -0.33017665 -0.6712507 -0.9488066 -0.38137192 -0.5225999
0.12609148 -0.6693256 -0.6198588 1.4663794 -0.028701369 -0.78165007 -0.30319425 -1.1680406
-0.4574551 -0.21668965 -0.5482029 -0.15528755 -0.25642344 -0.100677945 0.23858674 0.23164734
-0.021861712 -0.9794798 -0.9641994 0.49906626 0.36840647 -0.043741737 -0.16890356 0.7143287
0.8449641 -0.2693105 -0.13903467 0.43450913 0.62442404 1.7329459 0.11282331 -0.33080518
-0.15382132 1.154339 0.1994213 0.2250377 0.54688025 -0.32284817 -0.466147 -0.7062292
-0.43075487 -0.8123597 0.25791988 -0.46156275 0.88127804 0.15583651 -0.20215794 -0.034300648
0.72060406 0.66354 -0.27699423 -0.4496063 -0.098609574 0.20658113 -0.1888101 -0.10907052
0.44695058 -0.3059491 0.2235917 0.14634803 -0.059232805 -0.0966911 -1.4722049 0.15520303
0.30525833 0.31934622 -0.3737886 -0.3356278 0.14932704 0.8915779 -0.42127186 0.11074984
-0.7968821 -0.5290607 -0.0825357 0.28343838 -0.07458707 0.003943331 0.46362942 0.0942397
-0.28290048 -0.08461873 -0.027202623 -0.6801377 -0.6314791 -0.25769097 0.6172668 -0.43710363
0.16747501 -0.123937525 0.15385737 -0.084694415 0.055834822 0.40719 -0.19153616 1.3819805
-1.5871376 -0.039111428 -0.042900447 0.9310242 -0.513034 -0.7986989 -0.02900296 -0.068188176
1.5286204 -0.47035885 0.8081024 -0.29139808 -0.34680918 -0.11613705 0.004002235 -0.24788819
-0.4371728 -0.287017 0.36170894 0.5368209 -0.3333668 -0.087644696 -0.66562223 0.37492743
00000000: f94c 60be b3ea 48bf 8535 babd f99f 7c3e
00000010: 41c1 093e b3cf 12be 75ee 8fbe b264 05bf
00000020: e0ac 1f3d 45c8 a1be b8e5 83be fac1 6abe
00000030: a2a3 36be 3ae0 bcbd 2e6e 49bd 547e 083e
00000040: 1875 64be 7bcc 2d3e 91f4 ee3c 447d adbd
00000050: bda3 05bf 2ff9 6cbd abf1 ee3d 5d64 b63c
00000060: a008 a93e 7908 323e 8922 e2bc 4736 bd3e
00000070: 90bd 33bc 9889 0abe 3b03 9f3b 99e9 20be
00000080: 20bf 43bd 288c 0440 e2fb 2540 c07f a83e
00000090: 9458 b5bd 0c12 40be 4a54 4c3f 8127 5f3e
000000a0: 5e70 713f d5c2 e8bc ca86 0c3f 87a7 2ebf
000000b0: cf87 25bf 37b9 213f 0a42 7e3e 3801 afbe
000000c0: e2cc fc3e 9e28 b73e f8d9 0f3e 32ce 7cbd
000000d0: ea30 8bbe 5353 b83d d027 98be a3f6 8fbe
000000e0: 1de5 053f 02a4 59be be57 963e b417 a3bd
000000f0: 0674 3fbe d9d5 83be c373 37be 0fa3 8dbe
00000100: 0c6f 0e3d 0767 49be c9cf 1ac0 79b5 be3f
00000110: 5782 043f d7fd d6be 4351 113f d5de 05bf
00000120: 2710 4cbc 465d e2bd 90ea e2bc fdb1 c83d
00000130: 01a6 4e3d b7dc 3ebf 0c49 d53d 6360 9ebf
00000140: c389 0abe b710 a9bf ee06 893e 98c4 a6be
00000150: 5395 0dbd cc1d ffbe 5ace b7be 2138 623b
00000160: e4b7 913e aaf6 1c3f 7fbf 9b3b eafe 11bf
00000170: 51d3 64be 473c 9b3e 9214 dc3d ceb7 dfbd
00000180: 484d 8bbe 5df3 9c3e b01f 27be 4cdc 8f3d
00000190: 7660 893f 85e3 a53d e3a9 35be 74c7 65bd
000001a0: 4017 063f f847 0d3f 4793 443e d984 053c
000001b0: ef2c 78bf eb3f 01be 9e9c 9bbe c5c8 183f
000001c0: 8bd0 03be 0b46 c1be 8b9f 393d 0c88 82be
000001d0: 652d 383e 73fb 83be 2bc1 c13e feea d6be
000001e0: 236c a0bf 00df 72be 4c34 573f de08 873d
000001f0: dcdf 56be 1008 6ebe e7e9 9dbf 94e4 c53d
00000200: b5b8 77be c13b 74be 4b66 0dbe ea0c a9be
00000210: 16d7 2bbf fde4 72bf 2e43 c3be 1bc9 05bf
00000220: 201e 013e ec58 2bbf 11af 1ebf 52b2 bb3f
00000230: 221f ebbc 381a 48bf 473c 9bbe 5b82 95bf
00000240: 8e37 eabe e4e3 5dbe 0657 0cbf b303 1fbe
00000250: ef49 83be 3d30 cebd 1550 743e f634 6d3e
00000260: 5517 b3bc 30bf 7abf c6d5 76bf 9d85 ff3e
00000270: c69f bc3e 892a 33bd 0ef5 2cbe 3fde 363f
00000280: 914f 583f 11e3 89be 1b5f 0ebe fb77 de3e
00000290: 41da 1f3f 2cd1 dd3f e80f e73d 4c5f a9be
000002a0: 5683 1dbe 61c1 933f 1935 4c3e 4870 663e
000002b0: 5800 0c3f 5b4c a5be d2aa eebe 70cb 34bf
000002c0: e78b dcbe cef6 4fbf 130e 843e f451 ecbe
000002d0: 709b 613f 9b93 1f3e 7e02 4fbe d67e 0cbd
000002e0: 8279 383f c2dd 293f 30d2 8dbe cc32 e6be
000002f0: d1f3 c9bd 018a 533e 6f57 41be 5d60 dfbd
00000300: b5d6 e43e 5ca5 9cbe 39f5 643e 42dc 153e
00000310: 199e 72bd fc05 c6bd 3671 bcbf 8bed 1e3e
00000320: d24a 9c3e 5981 a33e 3861 bfbe 68d7 abbe
00000330: 30e9 183e 733e 643f f2b0 d7be d0d0 e23d
00000340: 7700 4cbf 8670 07bf 7a08 a9bd d61e 913e
00000350: 1bc1 98bd 0f37 813b d660 ed3e be00 c13d
00000360: 55d8 90be 964c adbd 09d8 debc 811d 2ebf
00000370: 9da8 21bf 12f0 83be 3205 1e3f 0ccc dfbe
00000380: 927e 2b3e f5d2 fdbd c98c 1d3e 4474 adbd
00000390: 0eb3 643d 357b d03e 0e22 44be bde4 b03f
000003a0: 5327 cbbf 4e33 20bd 61b8 2fbd 9a57 6e3f
000003b0: 3256 03bf 8877 4cbf 9e97 edbc 3ea6 8bbd
000003c0: d5a9 c33f e0d2 f0be cddf 4e3f 2132 95be
000003d0: f990 b1be 43d9 edbd 2e25 833b 67d6 7dbe
000003e0: 1dd5 dfbe e4f3 92be ea31 b93e 186d 093f
000003f0: 0eaf aabe 107f b3bd 3866 2abf 7df6 bf3e

fc1.bias f4 [128]
0.78928316 0.087346256 -1.0788816 -0.0073878565 0.3213505 0.22719292 0.09874564 0.5964694
0.0026725552 -0.0063250996 -0.119469196 0.089885935 0.6278583 -0.004521599 0.027162947 -0.112976745
-0.12700427 0.5813571 -0.03243045 -0.14789642 0.65687335 0.36876315 -0.4346766 0.4806555
0.40657103 0.13061598 0.31242058 0.92100453 0.21808133 0.019472089 0.5138309 0.18673879
0.54223937 0.4458175 -0.1684174 0.37219113 -0.2915051 0.55320096 1.3784256 -0.31637278
-0.41480136 0.09264749 1.539296 0.95896006 0.006209008 0.2432114 1.1265457 -0.047674436
-0.31049493 0.19328368 0.08030848 -0.031642564 -0.38025627 -0.7456207 0.12293329 0.12686688
0.8909139 1.6774927 -0.04430572 0.07841972 -1.2104614 0.04315341 0.49619532 0.6646441
0.07281739 -0.3301004 0.18396127 -0.27579296 0.15185204 -0.27071115 0.59867126 -0.25048023
0.4767065 0.16980094 0.42525655 0.46102744 0.5169206 0.07893166 -0.30388483 0.05163136
0.5585257 -0.31472665 0.29921636 1.1275829 -0.05402967 -0.20170148 0.24185069 0.6775643
0.10965898 0.2979472 1.0911198 1.0179616 0.3917117 0.90910685 0.32170144 -0.372229
0.09949961 0.49129835 3.51039 0.70512676 -0.30402312 0.046132214 -0.1840949 0.55261296
0.14910324 0.017585935 -0.54756135 -0.07641037 0.678925 -0.19186907 -0.21238495 1.0751914
0.30153283 0.7040003 1.1871815 0.17064576 0.3272328 -0.12943295 0.3226293 0.67963886
0.025545385 1.0819639 0.17122623 -0.013976224 0.6272284 0.44490483 -0.5871785 -0.46972132
00000000: 760e 4a3f 98e2 b23d cb18 8abf d515 f2bb
00000010: 0e88 a43e 43a5 683e 273b ca3d 38b2 183f
00000020: 0926 2f3b c842 cfbb 44ac f4bd 1e16 b83d
00000030: 52bb 203f ec29 94bb d484 de3c 5a60 e7bd
00000040: 680d 02be d2d3 143f cbd5 04bd 2972 17be
00000050: da28 283f 86ce bc3e ee8d debe 7a18 f63e
00000060: 142a d03e 32c0 053e 97f5 9f3e f4c6 6b3f
00000070: b650 5f3e ee83 9f3c 6c8a 033f 7438 3f3e
00000080: 33d0 0a3f 3142 e43e 9c75 2cbe d68f be3e
00000090: 2840 95be 949e 0d3f 4070 b03f 9dfb a1be
000000a0: d860 d4be f8bd bd3d a707 c53f 687e 753f
000000b0: ef74 cb3b 690c 793e a632 903f 4546 43bd
000000c0: 31f9 9ebe 28ec 453e c678 a43d a29b 01bd
000000d0: f3b0 c2be 00e1 3ebf 73c4 fb3d 64e9 013e
000000e0: ef12 643f 15b8 d63f ea79 35bd 859a a03d
000000f0: 66f0 9abf a1c1 303d 500d fe3e 1e26 2a3f
00000100: 4921 953d eb02 a9be 5860 3c3e bc34 8dbe
00000110: 1a7f 1b3e a79a 8abe 8542 193f f23e 80be
00000120: e012 f43e 4ce0 2d3e 3abb d93e ca0b ec3e
00000130: e954 043f eca6 a13d cb96 9bbe 687b 533d
00000140: 8afb 0e3f da23 a1be e332 993e a354 903f
00000150: 374e 5dbd d58a 4ebe b5a7 773e db74 2d3f
00000160: e394 e03d 898c 983e d0a9 8b3f 914c 823f
00000170: 708e c83e 3abb 683f 0db6 a43e cd94 bebe
00000180: 74c6 cb3d 758b fb3e 3baa 6040 3083 343f
00000190: eba8 9bbe 22f5 3c3d 6083 3cbe 0b78 0d3f
000001a0: 85ae 183e 6110 903c fb2c 0cbf 0a7d 9cbd
000001b0: 07ce 2d3f 5379 44be 717b 59be df9f 893f
000001c0: 8362 9a3e 5d39 343f 90f5 973f c3bd 2e3e
000001d0: 0f8b a73e 128a 04be ab2f a53e d0fc 2d3f
000001e0: 8e44 d13c cb7d 8a3f ee55 2f3e 88fc 64bc
000001f0: 0a92 203f 91ca e33e 5551 16bf 507f f0be

fc2.weight f4 [128, 128]
-0.018435283 -0.18361875 0.015029928 -1.0860708 -0.08620447 0.102683336 -0.0067418194 -0.7217935
0.014696307 0.21085098 0.036215175 0.055263694 -0.3344355 -0.3501083 -0.30035543 -0.05764867
-0.1539288 -0.12842059 0.052879322 -0.24887916 0.15760887 0.0059319097 0.041729286 0.20337686
-0.7930685 -0.3470596 -0.2886082 -0.116898835 -0.11447704 0.022243341 -0.00074584247 -0.19969828
-0.69906676 -0.17358099 0.06831711 0.17328422 0.05040774 -0.027471256 -0.49488226 0.115551524
-0.39942935 0.1603483 -0.46885255 0.085119665 -0.24339175 -0.105228364 -0.36477202 0.095778756
-0.10371172 -0.04469144 0.08180399 -0.21548095 -0.13639913 -0.07048786 -0.18484339 -0.03942741
-1.0547493 -0.33430263 -0.14201759 0.011141412 -0.14906122 -0.28371912 0.09999798 0.039517164
-0.49121988 0.25836208 -0.085019305 0.007470516 0.29581085 -0.2564329 0.125054 -0.011736918
-0.21399958 0.042529467 -0.14808702 0.062639505 0.015643803 -0.24631217 -0.10844237 -0.20971604
-0.08784251 -0.13733976 -0.06931817 -0.28875625 0.31077898 -0.22388223 -0.28515476 -0.15289809
0.044109765 -0.085409574 -0.05716982 0.06664711 -0.49226242 -0.18115348 0.17833433 0.055274926
0.0420372 -0.14294365 -0.5553703 -0.12461601 -0.35907835 -0.04773409 -0.008822577 0.09440305
0.03380474 -0.016802989 0.04144239 -0.48672223 0.3552808 -0.050122593 0.061829302 -0.7968287
-0.4741706 -0.43238208 0.015478721 0.3706974 0.112453565 0.14254752 -0.24280502 -0.15271322
0.052986216 -0.20143302 -0.038425013 -0.037312347 -0.22439687 0.051229227 0.03881674 -0.33117807
-0.17482464 0.022802683 -0.21653956 -0.29309562 -0.294535 -0.020613763 0.013273759 -0.3234132
-0.3596162 0.11973954 0.22141266 -0.16091114 -0.6287767 -0.19330887 -0.4257436 0.22365198
0.107835285 -0.4286777 0.039555795 -0.16962251 -0.2963912 -0.054245237 -0.3062184 0.0087319715
0.2524194 -0.14847527 -0.0028933804 -0.09477194 -0.17814533 -0.19568418 -0.20536834 -0.20831077
0.4256773 -0.25967103 0.21040854 -0.09647046 0.027900934 -0.3714796 -0.48975754 0.02254361
-0.101620086 -0.059134968 -0.28585798 0.03601267 -0.5347774 0.50526935 -0.007314441 0.013298499
0.077106245 -0.039888874 -0.61329776 -0.28274694 -0.14776364 -0.15168402 -0.18467236 -0.034451738
0.1457394 -0.604303 -0.015356382 0.23761678 -0.195442 -0.18475987 0.2651238 -0.27996102
0.26567477 0.009089724 0.047267117 -0.030943109 -0.074392915 -0.42412588 0.08150551 0.2754435
-0.07507191 -0.1711901 -0.20729305 0.041282676 0.18535712 -0.2906239 -0.07872839 0.014901951
-0.18867506 -0.092644736 -0.3231078 -0.026309572 -0.15625578 0.052308924 -0.17504536 -0.123463996
0.28955063 -0.09298387 -0.20476872 0.11049464 0.0589039 -0.6934342 0.059844397 -0.5334744
0.29683775 0.11395615 -0.6603928 -0.15927115 -0.03150289 0.03380268 0.06592733 0.09859708
-0.23713887 0.31454122 -0.18037915 0.09599878 0.09426838 0.1778201 -0.59704584 -0.48012662
-0.47652048 -0.05074745 -0.2237925 0.17220923 0.36289805 0.122842915 -0.12829058 0.64659214
-0.009966001 -0.102528654 -0.004724721 -0.44632003 0.012296458 -0.11943058 -0.22516628 0.08571801
00000000: 9705 97bc 8e06 3cbe 1640 763c 5e04 8bbf
00000010: f88b b0bd a44b d23d 7bea dcbb 75c7 38bf
00000020: c7c8 703c 52e9 573e 5d56 143d 2f5c 623d
00000030: 213b abbe 6541 b3be 30c8 99be 0321 6cbd
00000040: 839f 1dbe b080 03be fd97 583d 2eda 7ebe
00000050: 3864 213e 7760 c23b 54ec 2a3d 0642 503e
00000060: 8a06 4bbf ccb1 b1be 74c4 93be a868 efbd
00000070: f072 eabd ab37 b63c a484 43ba b57d 4cbe
00000080: 0af6 32bf 37bf 31be d7e9 8b3d 6b71 313e
00000090: 5978 4e3d 660b e1bc 3561 fdbe 47a6 ec3d
000000a0: 0182 ccbe 5832 243e 710d f0be 3853 ae3d
000000b0: b03b 79be f881 d7bd 66c3 babe a727 c43d
000000c0: cf66 d4bd 5f0e 37bd da88 a73d 0aa7 5cbe
000000d0: 37ac 0bbe f05b 90bd 9647 3dbe a37e 21bd
000000e0: 0602 87bf b729 abbe 0f6d 11be 788a 363c
000000f0: 81a3 18be a243 91be becb cc3d c0dc 213d
00000100: 2c81 fbbe 0948 843e 9a1e aebd 3bcb f43b
00000110: 8574 973e 2c4b 83be 280e 003e 344c 40bc
00000120: b522 5bbe 6133 2e3d 20a4 17be 2449 803d
00000130: 6f27 803c 4239 7cbe 0917 debd cdbf 56be
00000140: c6e6 b3bd cba2 0cbe aff6 8dbd dcd7 93be
00000150: 6c1e 9f3e 6241 65be ceff 91be 5191 1cbe
00000160: 71ac 343d 37eb aebd e72a 6abd 487e 883d
00000170: d209 fcbe 4c80 39be 469d 363e f667 623d
00000180: 332f 2c3d d25f 12be bf2c 0ebf ae36 ffbd
00000190: 1ed9 b7be d284 43bd 928c 10bc 6356 c13d
000001a0: d776 0a3d 6ca6 89bc 7fbf 293d a833 f9be
000001b0: 5de7 b53e 594d 4dbd b940 7d3d f7fc 4bbf
000001c0: 7dc6 f2be 2f61 ddbe 769a 7d3c 0dcc bd3e
000001d0: 0e4e e63d faf7 113e e1a1 78be db60 1cbe
000001e0: 1308 593d 7544 4ebe 8c63 1dbd d5d4 18bd
000001f0: 4bc8 65be bdd5 513d 4dfe 1e3d 2c90 a9be
00000200: 3b05 33be b1cc ba3c 8cbc 5dbe a110 96be
00000210: 4bcd 96be 32de a8bc 2e7a 593c 6a96 a5be
00000220: 9d1f b8be 013a f53d 00ba 623e e4c5 24be
00000230: 83f7 20bf c3f2 45be 11fb d9be 0605 653e
00000240: bfd8 dc3d a57b dbbe 4205 223d 86b1 2dbe
00000250: 96c0 97be 4130 5ebd a8c8 9cbe 8b10 0f3c
00000260: 1e3d 813e e709 18be de9e 3dbb ca17 c2bd
00000270: bb6b 36be 6f61 48be 144c 52be 6b4f 55be
00000280: 60f2 d93e 9af3 84be 5675 573e 4e92 c5bd
00000290: 8090 e43c 9332 bebe 80c1 fabe 60ad b83c
000002a0: 311e d0bd 8237 72bd fa5b 92be 0582 133d
000002b0: 2ce7 08bf 5559 013f faad efbb f3e1 593c
000002c0: e1e9 9d3d 8462 23bd 1501 1dbf 35c4 90be
000002d0: 5a4f 17be 0e53 1bbe c01a 3dbe 441d 0dbd
000002e0: b63c 153e 9ab3 1abf 5699 7bbc d051 733e
000002f0: f321 48be b131 3dbe 4fbe 873e 0d57 8fbe
00000300: 8606 883e 11ed 143c 2a9b 413d 677c fdbc
00000310: 505b 98bd 0727 d9be 5cec a63d ee06 8d3e
00000320: 4dbf 99bd 754c 2fbe a144 54be 0618 293d
00000330: 42ce 3d3e a8cc 94be 5a3c a1bd 5027 743c
00000340: 0934 41be 86bc bdbd 636e a5be 2c87 d7bc
00000350: 8401 20be e241 563d 173f 33be b1da fcbd
00000360: fb3f 943e 546e bebd e4ae 51be 044b e23d
00000370: 3745 713d e784 31bf 661f 753d c791 08bf
00000380: 1efb 973e d861 e93d 810f 29bf fa17 23be
00000390: 2d09 01bd ae74 0a3d e804 873d 44ed c93d
000003a0: 88d4 72be 8c0b a13e 50b5 38be 029b c43d
000003b0: c80f c13d 7916 363e ffd7 18bf 28d3 f5be
000003c0: 7efa f3be 8fdc 4fbd dc29 65be 9e57 303e
000003d0: c6cd b93e 1195 fb3d 9b5e 03be 1087 253f
000003e0: 7048 23bc 8bfa d1bd d5d1 9abb 0f84 e4be
000003f0: 1577 493c 0598 f4bd fd91 66be ed8c af3d

fc2.bias f4 [128]
-0.011339835 0.3019423 -0.18898742 -0.28908437 -0.28891355 0.2050469 0.055418856 0.09479014
0.52911025 0.024551623 -0.20881712 0.032032724 -0.05687312 0.11893313 0.03466996 0.034380693
0.137796 0.5712421 -0.16999051 -0.06417997 -0.06723468 0.080301546 -0.13074769 0.27684808
-0.40481415 -0.02374427 -0.13481279 0.7342562 0.08963171 0.06628001 0.026969742 -1.9431338e-05
1.1367413 0.26796633 -0.61558247 0.08411264 -0.2796982 -0.08271948 0.16479833 -0.15296209
-0.24813187 -0.26172265 -0.49995577 0.034558695 -0.09695627 0.022153674 0.007400779 -0.19322939
0.6196584 0.09676338 0.59287506 0.12525478 0.115852006 0.16840002 0.025653934 0.0032390247
0.035881855 0.016372675 -0.19333684 0.27566093 0.060314663 -0.11641389 -0.06634397 0.21990219
-0.045445345 -0.051335115 -0.034417097 0.035715014 -0.03871409 -0.1181667 -0.021895587 0.51653653
0.012748592 0.91307235 0.14072323 0.5497486 0.1889834 -0.007294877 0.36842445 -0.053161304
-0.07584163 0.08804203 -0.0041198595 0.14540558 -0.046516266 0.03157963 -0.21482651 0.23928452
-0.0005371156 -0.08780386 0.0232905 1.0172719 -0.021330465 0.13074225 0.45870993 -0.17110725
0.1470619 -0.33095545 -0.15839098 0.39301497 -0.079919346 -0.17691663 -0.04466513 -0.69614637
-0.18041636 0.10064516 -0.23348011 0.053905826 0.22657847 1.004208 -0.028666118 -0.15012243
0.8424926 0.15708119 0.021232914 -0.33722124 0.27325496 1.1724626 -0.19102478 0.37860492
0.10313524 0.37266445 0.17926367 0.091265455 -0.27293804 1.2267735 -0.2106413 -0.0832724
00000000: b7ca 39bc 2e98 9a3e eb85 41be de02 94be
00000010: 7aec 93be d1f7 513e e2fe 623d 5521 c23d
00000020: c573 073f 7c20 c93c 28d4 55be bf34 033d
00000030: caf3 68bd 3693 f33d 1702 0e3d c5d2 0c3d
00000040: 651a 0d3e ec3c 123f fe11 2ebe ca70 83bd
00000050: 56b2 89bd 2375 a43d b9e2 05be 08bf 8d3e
00000060: cd43 cfbe 5883 c2bc 5d0c 0abe 37f8 3b3f
00000070: d490 b73d d0bd 873d a6ef dc3c 7b00 a3b7
00000080: bd80 913f e232 893e d096 1dbf 3f43 ac3d
00000090: 9a34 8fbe d568 a9bd e5c0 283e 18a2 1cbe
000000a0: 4816 7ebe 8300 86be 34fa ffbe 6b8d 0d3d
000000b0: 0291 c6bd 9f7b b53c 3c82 f23b eddd 45be
000000c0: efa1 1e3f e12b c63d a9c6 173f ca42 003e
000000d0: d143 ed3d 0e71 2c3e 3328 d23c d145 543b
000000e0: daf8 123d fd1f 863c 18fa 45be 6e23 8d3e
000000f0: 820c 773d 686a eebd 59df 87bd 0a2e 613e
00000100: e624 3abd c544 52bd f1f8 0cbd e849 123d
00000110: aa92 1ebd 6201 f2bd 605e b3bc bd3b 043f
00000120: 78df 503c 1cbf 693f c019 103e 53bc 0c3f
00000130: dd84 413e dd09 efbb 21a2 bc3e abbf 59bd
00000140: db52 9bbd 614f b43d e3ff 86bb 33e5 143e
00000150: d787 3ebd a459 013d 7bfb 5bbe 0007 753e
00000160: 38cd 0cba 83d2 b3bd b8cb be3c f735 823f
00000170: 3abd aebc 4ce1 053e 07dc ea3e bd36 2fbe
00000180: 6597 163e fe72 a9be 3f31 22be 4239 c93e
00000190: c1ac a3bd a229 35be c9f2 36bd a636 32bf
000001a0: 11bf 38be 0d1f ce3d 6915 6fbe 5bcc 5c3d
000001b0: 3004 683e e389 803f 35d5 eabc b2b9 19be
000001c0: 98ad 573f e4d9 203e a6f0 ad3c 43a8 acbe
000001d0: 13e8 8b3e 4113 963f 009c 43be 81d8 c13e
000001e0: 9238 d33d e0cd be3e e590 373e 62e9 ba3d
000001f0: 89be 8bbe ea06 9d3f 5ab2 57be b88a aabd

out.weight f4 [5, 128]
0.0831901 -0.30304056 -0.085541226 -0.27461535 -0.64107376 -0.49944475 0.37048253 0.10786293
0.1369098 -0.5989966 -0.1783221 0.031900767 0.4279385 0.3407101 0.33684397 -0.09855303
-0.113687314 0.13985972 -0.018396039 -0.12913218 -0.22277336 -0.33073664 -0.7410427 0.27069658
-0.30329892 0.5382906 -0.14952417 0.56198865 -0.39794195 0.56583107 0.17333606 0.41556576
0.15684982 -0.11161891 0.13446976 -0.20831257 -0.10647722 -0.34610438 0.25915304 0.07818606
0.121020116 -0.23982362 -0.24904194 -0.12062702 0.31790125 0.13949324 0.26781714 -0.35647482
0.2750824 0.0974728 0.14821862 -0.045030776 0.17380936 0.106360346 -0.15152779 -0.52423745
0.24962257 0.09570296 0.15564588 -0.08592332 0.12549107 -0.46251735 -0.05631424 -0.11786863
-0.4168848 0.061297018 -0.3037675 -0.074254625 0.18178748 -0.16558628 -0.4537648 -0.33169448
0.25031656 0.1367206 -0.5938878 0.1285416 -0.353736 -0.09935177 -0.36219838 0.37073645
0.4082443 0.32221726 0.37521636 -0.16698799 -0.062071662 -0.556447 0.29891557 -0.19609483
0.18122433 -0.029011117 0.26043138 0.18679705 -0.43080568 0.10521519 0.28485397 -0.3213679
0.23637123 -0.2672946 0.2480825 -0.3898217 -0.27397904 0.67510176 0.9797878 -0.25712177
0.5979282 0.13552977 -0.40332508 0.29407918 0.5050283 0.23768371 -0.13170217 -0.2534831
0.14283979 -0.522103 -0.2834299 -0.9676374 -0.6930408 0.24684465 0.22809471 -0.25461853
-0.42579755 0.15162863 -0.048512567 0.23626243 -0.239358 0.2660881 0.16326168 0.21368834
-0.2906186 0.32733175 -0.08224843 -0.43344644 -1.1261029 -0.28882137 0.6125622 -0.29361156
0.14914204 -0.38913658 -0.6955616 0.21474363 0.03759785 -0.36547622 0.49768385 -0.40951842
-0.21640328 0.21436507 0.43698242 0.13788518 0.44906902 -0.26594555 -0.25968164 -0.69501626
-0.0984071 -0.47154734 -0.2995112 0.5361775 -0.59225017 0.5615808 0.27719063 0.0018382301
0.15473062 -0.6193748 0.3415604 -0.040646534 -0.1470401 -0.17405184 0.28047535 -0.057687856
0.2671032 -0.2671005 -0.24711207 -0.42917034 -0.13892092 -0.20931391 0.24599801 0.36932895
0.33383387 0.15196703 0.09116984 0.30284542 0.08870278 -0.4828013 -0.5679448 -0.5211212
0.04540273 -0.019950584 -0.17104645 -0.31922477 -0.27363652 -0.41112974 -0.2608931 -0.21543555
-0.3434136 0.078370534 -0.32720783 0.5630781 0.39983326 -0.14229609 -0.49382508 -0.3144004
0.11388886 0.13581811 0.030420972 0.042614784 -0.20981644 0.4626165 -0.27829581 0.46784556
0.08668541 -0.13282232 0.39973238 -0.0965613 -0.36840123 -0.790833 0.10267204 -0.24415812
-0.100427724 0.059330508 -0.35376158 0.21814139 -0.27741233 -0.024475383 0.0907358 -0.18239196
-0.15209079 -0.39424032 -0.7025062 0.4162302 -0.391446 -0.63646936 0.69008595 -0.20895979
0.20108895 0.32574102 0.49540523 0.43447655 -0.22161835 0.24024548 -0.46755838 -0.0667192
0.1550295 0.69574344 0.14308 0.028683452 0.21737833 0.29158387 -0.32833531 -0.42537883
-0.29923436 0.15308125 0.07151876 -0.366907 -0.65309256 0.20714813 -0.38809523 0.62517357
00000000: 925f aa3d 2228 9bbe 3d30 afbd 629a 8cbe
00000010: 691d 24bf 39b7 ffbe e3af bd3e 3de7 dc3d
00000020: 1532 0c3e d757 19bf 129a 36be 61aa 023d
00000030: c11a db3e 8e71 ae3e d076 ac3e 2cd6 c9bd
00000040: e5d4 e8bd 6337 0f3e 4ab3 96bc 3a3b 04be
00000050: b31e 64be 5056 a9be f9b4 3dbf be98 8a3e
00000060: ff49 9bbe 6acd 093f dd1c 19be 7dde 0f3f
00000070: 0cbf cbbe 4eda 103f 027f 313e 09c5 d43e
00000080: 3d9d 203e 7598 e4bd 71b2 093e e44f 55be
00000090: bb10 dabd 9834 b1be b5af 843e 0320 a03d
000000a0: 65d9 f73d 5394 75be da04 7fbe 4d0b f7bd
000000b0: f4c3 a23e 51d7 0e3e 541f 893e de83 b6be
000000c0: 9ad7 8c3e d29f c73d 9fc6 173e 3172 38bd
000000d0: 15fb 313e 74d3 d93d 1a2a 1bbe 6d34 06bf
000000e0: 0f9d 7f3e eaff c33d a261 1f3e 91f8 afbd
000000f0: bb80 003e 13cf ecbe c3a9 66bd 1c65 f1bd
00000100: ed71 d5be 9512 7b3d 6a87 9bbe cf12 98bd
00000110: 7f26 3a3e 738f 29be dc53 e8be dcd3 a9be
00000120: 7e29 803e 7c00 0c3e 0809 18bf 69a0 033e
00000130: e31c b5be f178 cbbd 1172 b9be 2bd1 bd3e
00000140: 6605 d13e a9f9 a43e 5c1c c03e e6fe 2abe
00000150: db3e 7ebd 5073 0ebf 760b 993e 15cd 48be
00000160: df92 393e b9a8 edbc 4357 853e ba47 3f3e
00000170: 9092 dcbe 107b d73d 61d8 913e 558a a4be
00000180: 4d0b 723e d6da 88be 5709 7e3e b696 c7be
00000190: fb46 8cbe 78d3 2c3f 60d3 7a3f 77a5 83be
000001a0: d311 193f 51c8 0a3e a080 cebe 8c91 963e
000001b0: 8949 013f 5c63 733e efdc 06be 89c8 81be
000001c0: 9844 123e 8ba8 05bf b91d 91be 16b7 77bf
000001d0: 1f6b 31bf d8c4 7c3e a991 693e 5c5d 82be
000001e0: 2302 dabe 8944 1b3e 1db5 46bd c7ee 713e
000001f0: 431a 75be b33c 883e 122e 273e 1ed1 5a3e
00000200: f6cb 94be 0798 a73e dd71 a8bd b1ec ddbe
00000210: 2424 90bf 65e0 93be e0d0 1c3f 4154 96be
00000220: b1b8 183e e93c c7be 5310 32bf c1e5 5b3e
00000230: 3400 1a3d b31f bbbe 6bd0 fe3e 66ac d1be
00000240: d298 5dbe 8482 5b3e 29bc df3e c631 0d3e
00000250: 60ec e53e 042a 88be fef4 84be 96ec 31bf
00000260: a989 c9bd a76e f1be 8859 99be ee42 093f
00000270: b59d 17bf c2c3 0f3f eeeb 8d3e c4f0 f03a
00000280: b471 1e3e 598f 1ebf 01e1 ae3e fb7c 26bd
00000290: ae91 16be a53a 32be 779a 8f3e 1a4a 6cbd
000002a0: c0c1 883e 66c1 88be f20a 7dbe 37bc dbbe
000002b0: 4941 0ebe 6356 56be e7e6 7b3e af18 bd3e
000002c0: 46ec aa3e 3f9d 1b3e 41b7 ba3d 8e0e 9b3e
000002d0: cea9 b53d bb31 f7be d564 11bf 3368 05bf
000002e0: 37f8 393d 686f a3bc cd26 2fbe 6e71 a3be
000002f0: 161a 8cbe 997f d2be c893 85be 239b 5cbe
00000300: e8d3 afbe bb80 a03d c987 a7be e325 103f
00000310: f2b6 cc3e 11b6 11be a4d6 fcbe 17f9 a0be
00000320: 903e e93d e713 0b3e 6735 f93c d78c 2e3d
00000330: 1fda 56be 12dc ec3e ca7c 8ebe 7489 ef3e
00000340: 1f88 b13d 9302 08be b9a9 cc3e eec1 c5bd
00000350: 169f bcbe 0874 4abf b845 d23d 9604 7abe
00000360: 0dad cdbd 8c04 733d 3d20 b5be 7560 5f3e
00000370: fd08 8ebe 9980 c8bc b1d3 b93d f5c4 3abe
00000380: b0bd 1bbe ded9 c9be 72d7 33bf 201c d53e
00000390: 9c6b c8be a8ef 22bf 79a9 303f 8ef9 55be
000003a0: 43ea 4d3e 87c7 a63e c1a5 fd3e b673 de3e
000003b0: ecef 62be e902 763e d063 efbe 13a4 88bd
000003c0: 0ec0 1e3e 3e1c 323f 9083 123e 8ff9 ea3c
000003d0: 6d98 5e3e 7b4a 953e 911b a8be 41cb d9be
000003e0: 3f35 99be 55c1 1c3e 6d78 923d 3cdb bbbe
000003f0: 1331 27bf a41e 543e 6bb4 c6be 600b 203f

out.bias f4 [5]
0.68575567 0.5407237 0.68679553 0.77324766 0.71848327
00000000: af8d 2f3f de6c 0a3f d5d1 2f3f 8ff3 453f
00000010: 85ee 373f
