SimplifiedSpaceWar/trained_models/dqn2_bullets_1000.pth (torch, 89165 bytes, 6 tensors)

fc1.weight f4 [128, 33]
0.04576218 -0.24426456 0.094252594 -0.07432634 0.23797809 -0.2027209 -0.17622946 -0.43422619
0.020468116 -0.06884071 0.20623143 -0.2912605 -0.2138864 0.012512308 -0.018954188 0.123221576
0.20557864 0.1810611 -0.009391903 -0.24249023 0.086728804 -2.0709405e-05 0.121507205 0.09905231
0.073167235 0.17826965 0.00053530757 -0.079948224 -0.1097056 -0.016479192 0.11107273 0.07615171
-0.15405874 0.18789984 -0.0037873876 0.244071 -0.15106042 0.1980409 0.15407492 0.10826377
-0.14950679 0.10178156 0.03028937 -0.07879292 -0.0044129924 -0.080270246 -0.06021417 0.08064915
-0.04148789 0.18683378 -0.114158064 -0.20058675 -0.12536012 -0.0266108 0.0008399584 0.08144275
-0.02013183 0.25101435 0.1271582 -0.15772468 -0.013122371 0.23140496 0.00048486007 -0.12246495
0.047120348 -0.095249794 0.62077224 -0.5478993 0.26759574 -0.15451281 -0.054684747 -0.1685227
0.12972109 -0.27731067 -0.00652509 0.16432789 0.06096279 0.35262996 -0.11593982 -0.17196566
-0.1570692 -0.5458293 0.45112866 0.0370872 0.11452817 -0.5349039 0.009243866 0.004811386
-0.10220821 0.22355506 -0.40334186 -0.25676045 0.07645957 -0.0455617 -0.20602818 0.17697135
0.06739963 -0.14064488 -0.1764353 -0.048415758 -0.15702029 -0.13428138 0.121670194 -0.02929122
0.058525566 0.20560865 0.29818392 0.01842625 0.11592728 -0.01000306 -0.022722265 0.31122947
0.004506594 -0.2054532 -0.08735504 -0.28440106 0.105293304 0.039383773 -0.09122847 -0.099403396
-0.159328 0.02377481 0.15252334 -0.061168686 0.106100276 -0.13324152 -0.2611649 0.033696413
-0.15900049 -0.07310576 0.023989568 -0.06673372 0.22761866 0.18078713 -0.11219622 0.035150718
-0.1348866 -0.2295123 -0.08256149 0.018070605 0.0009989913 -0.0069961445 0.08116479 -0.11412604
0.05299796 0.07761008 0.028242683 0.20724033 -0.19487062 -0.150467 -0.22635233 0.44395244
-0.04632172 -0.10294283 -0.007871292 0.13603513 -0.058938697 -0.04964929 -0.26985243 0.28419363
-0.38669086 0.033829972 0.07741847 0.50782156 0.14363135 0.36003518 -0.20300904 -0.068718515
-0.15135351 0.046709713 -0.24740179 -0.008394169 -0.41271365 -0.0046610264 -0.5192276 -0.37333393
-0.22211388 -0.06711765 0.05519958 -0.103569925 0.19050503 -0.043111693 -0.04241851 0.019597702
-0.012328527 0.057952166 -0.26603314 -0.28349707 -0.03781131 -0.09050803 0.029670265 0.07354097
0.05813613 -0.2878648 0.172302 0.12344404 0.13353987 -0.09614179 -0.11325092 -0.055007383
0.2238083 0.1961124 -0.06521832 0.0416814 0.10480888 -0.097127095 -0.0640981 -0.0698199
-0.04403795 -0.021224098 0.19981822 0.107725635 -0.150012 0.060462326 0.08671059 -0.009209887
-0.08159473 -0.22378059 -0.13994722 -0.033921905 -0.02344684 0.099221624 0.13493143 -0.14133905
0.13304123 -0.076015204 -0.013271296 0.11040813 -0.2028655 0.12157964 -0.05853211 0.002675514
-0.3174777 0.08815503 0.018360995 -0.08682355 0.020072268 -0.13518985 -0.052978817 0.10704873
0.020763386 0.17312625 -0.10998418 -0.17488436 0.012918641 0.23569104 -0.28175282 -0.13845102
-0.08968691 0.1293631 -0.075517334 0.20014764 -0.028538901 0.13596892 -0.1581063 0.22525853
00000000: 2071 3b3d 7d20 7abe 8107 c13d 6838 98bd
00000010: 87b0 733e 1196 4fbe 7f75 34be e552 debe
00000020: c0ac a73c 5cfc 8cbd 552e 533e 1920 95be
00000030: 0905 5bbe 6c00 4d3c d045 9bbc 985b fc3d
00000040: 3583 523e 1568 393e 7fe0 19bc 5c4f 78be
00000050: df9e b13d 1cb9 adb7 c5d8 f83d f0db ca3d
00000060: b4d8 953d 528c 363e e253 0c3a e5bb a3bd
00000070: 54ad e0bd 5fff 86bc 197a e33d 6df5 9b3d
00000080: 93c1 1dbe d168 403e d235 78bb c0ed 793e
00000090: 95af 1abe 3ccb 4a3e d1c5 1d3e 65b9 dd3d
000000a0: 4f18 19be da72 d03d 6a21 f83c 2f5e a1bd
000000b0: dd9a 90bb ba64 a4bd 22a3 76bd 622b a53d
000000c0: 35ef 29bd 5b51 3f3e b4cb e9bd 9d66 4dbe
000000d0: 675e 00be e4fe d9bc a730 5c3a 75cb a63d
000000e0: 82eb a4bc f484 803e c235 023e 9482 21be
000000f0: 37ff 56bc 6cf5 6c3e d134 fe39 e7ce fabd
00000100: 4401 413d 5312 c3bd eeea 1e3f 2143 0cbf
00000110: 4f02 893e 9b38 1ebe 1dfd 5fbd 3791 2cbe
00000120: 9bd5 043e aafb 8dbe 6cd0 d5bb 9245 283e
00000130: 1eb4 793d ea8b b43e db71 edbd c417 30be
00000140: c0d6 20be 78bb 0bbf 56fa e63e bfe8 173d
00000150: bf8d ea3d 76ef 08bf 9673 173c d5a8 9d3b
00000160: 8a52 d1bd 9eeb 643e d382 cebe 1b76 83be
00000170: d696 9c3d e89e 3abd 0df9 52be fa37 353e
00000180: d108 8a3d 3605 10be 75ab 34be 9a4f 46bd
00000190: edc9 20be 0f81 09be 392e f93d 24f4 efbc
000001a0: 81b8 6f3d 138b 523e 90ab 983e a6f2 963c
000001b0: 486b ed3d e0e3 23bc 0b24 babc 7859 9f3e
000001c0: 0dac 933b 5362 52be 33e7 b2bd 049d 91be
000001d0: 04a4 d73d e150 213d fed5 babd 0294 cbbd
000001e0: e126 23be 64c3 c23c 142f 1c3e 048c 7abd
000001f0: 1a4b d93d 7770 08be 68b7 85be 4005 0a3d
00000200: 06d1 22be 79b8 95bd c585 c43c b0ab 88bd
00000210: de14 693e 4320 393e 22c7 e5bd 33fa 0f3d
00000220: b61f 0abe 4605 6bbe 0016 a9bd ce08 943c
00000230: 96f0 823a ea3f e5bb ba39 a63d eaba e9bd
00000240: 6414 593d 09f2 9e3d 335d e73c cf36 543e
00000250: 2a8c 47be 0514 1abe e8c8 67be bc4d e33e
00000260: d8bb 3dbd b1d3 d2bd 97f6 00bc cb4c 0b3e
00000270: b469 71bd 0e5d 4bbd 192a 8abe d481 913e
00000280: 58fc c5be 4c91 0a3d 938d 9e3d 9800 023f
00000290: 1914 133e 8856 b83e 9ae1 4fbe 4bbc 8cbd
000002a0: 6afc 1abe af52 3f3d e556 7dbe b287 09bc
000002b0: 344f d3be 86bb 98bb 1aec 04bf a025 bfbe
000002c0: d271 63be fa74 89bd f418 623d 781c d4bd
000002d0: c013 433e e395 30bd 08bf 2dbd 5c8b a03c
000002e0: 97fd 49bc 405f 6d3d 7f35 88be 8726 91be
000002f0: 08e0 1abd 465c b9bd 0e0f f33c a69c 963d
00000300: 2720 6e3d 0463 93be ef6f 303e 3bd0 fc3d
00000310: adbe 083e fde5 c4bd 19f0 e7bd 6c4f 61bd
00000320: 012e 653e b0d1 483e 2f91 85bd 1eba 2a3d
00000330: 0aa6 d63d 92ea c6bd dd45 83bd bcfd 8ebd
00000340: 2361 34bd 29de adbc 269d 4c3e 429f dc3d
00000350: bf9c 19be 58a7 773d 5295 b13d 11e5 16bc
00000360: 231b a7bd bd26 65be 534e 0fbe b2f1 0abd
00000370: 9613 c0bc b534 cb3d 772b 0a3e 2fbb 10be
00000380: f63b 083e dcad 9bbd da6f 59bc a81d e23d
00000390: f9bb 4fbe bffe f83d 5ebf 6fbd ad57 2f3b
000003a0: 708c a2be a08a b43d cc69 963c 8cd0 b1bd
000003b0: 996e a43c 356f 0abe 5100 59bd 5d3c db3d
000003c0: fa17 aa3c 0248 313e 633f e1bd e314 33be
000003d0: b5a8 533c fe58 713e e841 90be 1bc6 0dbe
000003e0: c5ad b7bd c377 043e d5a8 9abd 81f3 4c3e
000003f0: 6aca e9bc 703b 0b3e 9ee6 21be 2caa 663e

fc1.bias f4 [128]
0.19919215 0.35226613 -0.05481614 -0.06805972 0.26422244 0.090031475 -0.023030808 0.26848072
0.074451454 0.24649851 -0.052722007 -0.17750818 -0.015289661 -0.28422183 0.13033755 -0.09658082
-0.06144061 0.004475832 -0.052948475 0.022856437 0.45171547 0.3608122 -0.018013194 -0.016697887
0.108224 -0.07339027 0.16230167 0.09387124 0.019865831 0.23295933 -0.34982085 0.33883518
0.29723844 0.41224927 -0.03994703 0.25991526 0.29559258 0.37320852 0.014920957 -0.00565282
-0.2271973 -0.034592398 0.18848969 0.1038586 -0.17456284 0.16895457 0.24086432 0.007922098
-0.14213043 0.09166997 0.00804302 0.33375838 0.15650126 -0.2993786 -0.15285486 0.2963945
0.097139806 0.03224777 0.2766307 0.0056118984 -0.34457117 -0.014822716 0.28344914 -0.10313999
0.24015279 0.08700352 -0.14843525 -0.17419145 0.21312092 0.15272078 0.02077843 0.03758356
0.47616953 0.2569124 0.37013245 0.004080536 0.2806641 0.088420786 0.31821108 0.010681456
0.17670807 0.0697712 0.23988444 0.4235878 0.010906162 0.30042306 -0.047102224 0.22959359
0.21456523 0.12394675 0.15855248 0.46590114 0.10332946 0.108468086 0.18605293 0.14805052
0.016141042 0.27717876 0.3078349 0.33402908 0.049303215 0.032056205 0.005569475 0.30319923
0.2256268 0.12039825 -0.06357596 0.3069028 0.3012495 -0.035384957 0.044116106 0.12997036
-0.016526276 0.0058345664 0.11838546 0.04312444 0.19795308 0.07270891 0.29928017 0.15671809
-0.16950169 0.5243661 0.14712928 0.11095452 0.37789175 0.08968489 -0.088429116 -0.37146452
00000000: 07f9 4b3e 3a5c b43e e486 60bd e562 8bbd
00000010: 2a48 873e 6c62 b83d 1bab bcbc 4e76 893e
00000020: 017a 983d 1b6a 7c3e 08f3 57bd b4c4 35be
00000030: 7c81 7abc 8685 91be 3577 053e 2acc c5bd
00000040: 26a9 7bbd 00aa 923b 80e0 58bd 6c3d bb3c
00000050: 4047 e73e 60bc b83e 6890 93bc 02ca 88bc
00000060: 8ba4 dd3d a34d 96bd 6932 263e 913f c03d
00000070: abbd a23c e48c 6e3e b81b b3be ce7b ad3e
00000080: a32f 983e 5612 d33e 7f9f 23bd 9d13 853e
00000090: e957 973e 3015 bf3e 0877 743c 4b3b b9bb
000000a0: 69a6 68be c2b0 0dbd 7103 413e d1b3 d43d
000000b0: 9ac0 32be 6d02 2d3e 23a5 763e b0cb 013c
000000c0: a48a 11be 77bd bb3d dfc6 033c 61e2 aa3e
000000d0: de41 203e 2748 99be fc85 1cbe 05c1 973e
000000e0: 3cf1 c63d 3d16 043d 8aa2 8d3e 04e4 b73b
000000f0: a26b b0be fada 72bc 3f20 913e 0f3b d3bd
00000100: 9dea 753e e72e b23d 69ff 17be 3e5f 32be
00000110: 5f3c 5a3e d662 1c3e 8737 aa3c 38f1 193d
00000120: 7ecc f33e 068a 833e 0082 bd3e 04b6 853b
00000130: 34b3 8f3e f515 b53d 90ec a23e 4601 2f3c
00000140: f6f2 343e 34e4 8e3d 44a4 753e 80e0 d83e
00000150: c2af 323c 0dd1 993e 43ee 40bd 951a 6b3e
00000160: fdb6 5b3e cbd7 fd3d 955b 223e 988a ee3e
00000170: 659e d33d 8424 de3d a984 3e3e 8e9a 173e
00000180: 383a 843c 60ea 8d3e 899c 9d3e dc05 ab3e
00000190: 2bf2 493d 5e4d 033d 2480 b63b ee3c 9b3e
000001a0: b60a 673e 5c93 f63d 1d34 82bd 5d22 9d3e
000001b0: 603d 9a3e d1ef 10bd 17b3 343d f316 053e
000001c0: 1d62 87bc e42f bf3b 1374 f23d 41a3 303d
000001d0: 36b4 4a3e 69e8 943d 403b 993e b57a 203e
000001e0: da91 2dbe db3c 063f 0fa9 163e 203c e33d
000001f0: 077b c13e b6ac b73d 531a b5bd 9930 bebe

fc2.weight f4 [128, 128]
0.05864771 -0.021757673 0.010795505 -0.08857874 -0.025547286 -0.04504076 -0.026977977 -0.053488296
-0.07280781 0.054930527 -0.06406167 0.06321739 -0.04462956 -0.0089014275 -0.07560784 -0.07779863
-0.045809485 0.047943123 0.069200486 0.07911819 0.036231484 0.074935295 -0.09466873 0.018717155
-0.018215327 -0.094652556 -0.004332004 -0.0068927277 0.011531085 0.0037313278 0.060485955 -0.08416275
-0.0003533559 0.031772893 0.057637207 0.074451655 0.019727446 -0.06845346 -0.0770224 0.06173758
-0.023594728 -0.011941235 -0.044459697 0.047652796 -0.07316992 -0.0033398103 0.04002641 0.049203604
-0.07458644 0.0527058 0.03863948 0.06552237 -0.03606531 0.013569592 -0.039720893 0.040858433
-0.060554065 -0.04072343 -0.07728653 0.024521165 0.068427324 0.02014353 0.05079053 -0.06566295
0.019521786 0.061330758 -0.00462254 -0.037010495 0.048220888 -0.08003524 0.05017309 -0.023054862
0.010301949 -0.06439649 -0.008547222 -0.090576075 -0.060711738 0.018390018 -0.09154104 -0.036096036
-0.08024416 -0.0715947 -0.07036514 -0.09655136 0.07651185 -0.029584598 0.07826819 0.080307126
0.04566873 0.030166725 -0.0080683185 -0.019891797 -0.03674378 -0.020888546 -0.05386154 0.018810498
0.015046405 -0.042554885 -0.028308332 0.034557085 0.021622846 0.0029749868 -0.02802866 0.05293019
-0.06251148 -0.035217725 0.03753057 -0.092165425 0.0072881915 0.0006613471 -0.059864875 -0.06950015
-0.033206426 -0.08691781 0.012389835 -0.07182613 -0.024805937 -0.0024040514 -0.078131236 -0.07302537
-0.05637492 -0.092299916 0.010673029 0.016371042 0.051872518 0.0029242826 -0.040354416 0.056316935
-0.034711182 0.08254359 -0.10623946 -0.03533452 -0.05677761 0.09332105 0.005520964 -0.05266452
-0.044457383 0.058311094 0.099183336 -0.032443967 -0.4558942 -0.17765087 -0.14645112 0.20329948
0.04700988 -0.10667753 -0.038167994 -0.1700199 0.07295994 -0.02797765 0.04770999 0.08786886
0.2366929 -0.023265278 0.07160385 0.0028432263 -0.08407911 -0.14147533 -0.01225786 -0.06781514
0.21503551 -0.0052506365 0.16268645 0.062395565 -0.028873967 0.0028663056 -0.12780532 -0.060375404
-0.0018795651 -0.06802281 -0.13683301 -0.04603327 -0.10026609 0.21427102 0.045822322 0.008851121
0.27992257 0.04890066 -0.16422069 0.08409546 0.0022662927 0.05663084 -0.09453845 0.028191267
0.06324071 -0.23872985 0.07492085 0.3041585 0.0003793986 -0.110504165 0.26488483 -0.054934256
0.15163335 0.1364119 0.055018727 -0.07513193 -0.049459837 -0.07862221 0.009092148 0.23530631
0.055021547 0.0125692515 -0.06286049 0.04303392 0.15666322 -0.08774571 0.031269442 0.08051993
0.074222766 0.003817336 -0.0010795766 -0.021776263 0.015801802 0.04928529 -0.21261677 -0.015283698
0.09910119 -0.029358935 -0.040826768 0.080769986 -0.01508646 -0.19250466 0.06771821 -0.2812219
0.012016144 0.0053285114 -0.3457221 -0.0002108112 -0.03914874 0.054315157 0.1074273 0.027703129
0.010182116 0.2282701 -0.028089913 0.02887723 -0.041948598 0.17439799 -0.06984539 -0.19394432
-0.022378003 -0.022541808 0.06676954 0.27559516 0.1192328 0.24241471 0.02767955 0.30766225
0.06366803 -0.07669581 0.03369218 -0.2291697 -0.03840145 0.090465076 0.033769783 -0.06770897
00000000: 9538 703d 263d b2bc a1df 303c c568 b5bd
00000010: 8b48 d1bc a97c 38bd eb00 ddbc 8b16 5bbd
00000020: 431c 95bd d5fe 603d c432 83bd 1e78 813d
00000030: 7ccd 36bd 4bd7 11bc 49d8 9abd e354 9fbd
00000040: baa2 3bbd 0260 443d fcb8 8d3d b808 a23d
00000050: 7767 143d ad77 993d aee1 c1bd b854 993c
00000060: 4f38 95bc 33d9 c1bd 7cf3 8dbb 64dc e1bb
00000070: e0ec 3c3c 4b89 743b 1fc0 773d 855d acbd
00000080: a042 b9b9 4b24 023d fe14 6c3d 1c7a 983d
00000090: 749b a13c 5431 8cbd ecbd 9dbd 8be0 7c3d
000000a0: bb49 c1bc 2ba5 43bc 5f1b 36bd 942f 433d
000000b0: 1cda 95bd b8e0 5abb bcf2 233d b889 493d
000000c0: c7c0 98bd 09e2 573d 6e44 1e3d 9830 863d
000000d0: 38b9 13bd fe52 5e3c 60b2 22bd 2c5b 273d
000000e0: 8a07 78bd 9dcd 26bd 6648 9ebd 9ce0 c83c
000000f0: a023 8c3d 0b04 a53c bb09 503d 4c7a 86bd
00000100: 27ec 9f3c f635 7b3d ad78 97bb 5198 17bd
00000110: 4483 453d 84e9 a3bd 4c82 4d3d 8ddd bcbc
00000120: 82c9 283c 4fe2 83bd a609 0cbc f37f b9bd
00000130: dfac 78bd aaa6 963c de79 bbbd 70d9 13bd
00000140: 0d57 a4bd 3ea0 92bd 991b 90bd b8bc c5bd
00000150: 3fb2 9c3d 665b f2bc 134b a03d 1078 a43d
00000160: 220f 3b3d 3520 f73c fb30 04bc 1ff4 a2bc
00000170: a580 16bd 751e abbc eb9d 5cbd 7918 9a3c
00000180: 3285 763c 084e 2ebd e0e6 e7bc bb8b 0d3d
00000190: 6522 b13c fff7 423b 5c9c e5bc 54cd 583d
000001a0: 0506 80bd 7640 10bd a8b9 193d 3ac1 bcbd
000001b0: c8d1 ee3b 415e 2d3a df34 75bd 1856 8ebd
000001c0: 7603 08bd f701 b2bd bcfe 4a3c 9419 93bd
000001d0: d235 cbbc 4a8d 1dbb 4503 a0bd 538e 95bd
000001e0: 63e9 66bd bd07 bdbd eedd 2e3c 901c 863c
000001f0: 4778 543d 52a5 3f3b ac4a 25bd 96ac 663d
00000200: 502d 0ebd 9d0c a93d 1394 d9bd eeba 10bd
00000210: a48f 68bd 1b1f bf3d 34e9 b43b c0b6 57bd
00000220: f218 36bd 9dd7 6e3d a220 cb3d f7e3 04bd
00000230: f76a e9be 1cea 35be 48f7 15be bd2d 503e
00000240: 6f8d 403d c079 dabd 0b56 1cbd b219 2ebe
00000250: 056c 953d 6231 e5bc 8d6b 433d 97f4 b33d
00000260: a05f 723e d396 bebc 0aa5 923d 6c55 3a3b
00000270: ab31 acbd e9de 10be 31d5 48bc aae2 8abd
00000280: 4532 5c3e 880d acbb 4797 263e 7e92 7f3d
00000290: 1989 ecbc a1d8 3b3b 66df 02be 334c 77bd
000002a0: bd5b f6ba 8b4f 8bbd f41d 0cbe 628d 3cbd
000002b0: 4f58 cdbd dd69 5b3e 30b0 3b3d 4b04 113c
000002c0: 0352 8f3e 0f4c 483d 7829 28be 3e3a ac3d
000002d0: 1586 143b bdf5 673d 609d c1bd 5ff1 e63c
000002e0: 5884 813d 9975 74be 1a70 993d aaba 9b3e
000002f0: 05ea c639 0250 e2bd fc9e 873e be02 61bd
00000300: c645 1b3e 90af 0b3e 515b 613d c5de 99bd
00000310: 6696 4abd ae04 a1bd 3cf7 143c 23f4 703e
00000320: 465e 613d 43ef 4d3c 00bd 80bd 5644 303d
00000330: 536c 203e 06b4 b3bd 6314 003d a2e7 a43d
00000340: 1b02 983d 452c 7a3b 9480 8dba 2264 b2bc
00000350: c872 813c 5fdf 493d 36b8 59be 7a68 7abc
00000360: 91f5 ca3d 2682 f0bc f839 27bd bc6a a53d
00000370: 332d 77bc f11f 45be d8af 8a3d 51fc 8fbe
00000380: 5cdf 443c cb9a ae3b 7d02 b1be 330d 5db9
00000390: 6e5a 20bd 9279 5e3d d802 dc3d acf1 e23c
000003a0: e4d2 263c a3bf 693e d11c e6bc f18f ec3c
000003b0: 4bd2 2bbd 6395 323e 1a0b 8fbd 5799 46be
000003c0: 1352 b7bc 99a9 b8bc 78be 883d cf1a 8d3e
000003d0: 5430 f43d 903b 783e 39c0 e23c e885 9d3e
000003e0: 6264 823d b112 9dbd d000 0a3d 76ab 6abe
000003f0: d74a 1dbd c145 b93d 2f52 0a3d 00ab 8abd

fc2.bias f4 [128]
0.046207767 0.30794066 -0.0024091944 -0.060992543 -0.13312924 0.06968269 0.08446874 0.08416608
0.40233526 -0.026060697 -0.09916914 0.04918123 0.09514589 0.091792606 0.13241094 0.0671161
0.160312 0.3652908 0.002662292 0.035681248 -0.021525815 0.008378214 -0.015008933 0.06288621
-0.022921447 0.2252047 0.09544922 -0.08610702 0.11575808 0.22363006 0.07907505 0.051558398
0.49205366 0.15909483 -0.00612357 0.09408212 -0.033975776 0.05510651 0.3432827 -0.119340755
0.05661316 0.08060835 -0.0052173934 0.038380127 -0.038233638 0.17343557 -0.08938225 0.08176476
0.41554683 0.03014835 0.3016445 0.13556917 0.11388188 0.20018202 -0.071321964 0.11887816
0.017636485 0.016372675 0.23244579 0.25518182 0.07393764 -0.04915878 -0.06818783 0.087631695
0.08077979 -0.048979294 0.0028657683 -0.044579595 0.0142908655 0.11584013 0.033050314 0.02525333
0.07076575 0.40396526 0.118681975 0.27967155 0.17583743 -0.015648767 0.21971972 0.07796506
-0.18008241 0.123439096 0.12781826 0.0144928945 0.097581804 -0.02124368 0.14971076 0.18277633
0.032552112 -0.071967416 0.11664485 0.33255225 0.08924069 0.1556144 0.30408934 -0.085441545
0.08649823 0.07035857 0.12877025 0.31812334 0.24268943 0.10499921 -0.040971916 0.06959803
-0.051137976 -0.048449136 0.13691008 0.091551654 0.06876451 0.3866593 0.042741314 0.060753744
0.27369952 0.13946524 0.045921344 0.05361219 0.08330092 0.4686135 0.086235404 0.10097052
0.15804744 0.19079217 0.13478205 0.08595305 0.038997307 0.4879968 0.0094053075 0.042901777
00000000: 5b44 3d3d 66aa 9d3e 93e3 1dbb 51d3 79bd
00000010: 0853 08be ccb5 8e3d f2fd ac3d 445f ac3d
00000020: e3fe cd3e 3e7d d5bc 3119 cbbd 4272 493d
00000030: d9db c23d c3fd bb3d bc96 073e 2a74 893d
00000040: d428 243e 6507 bb3e d979 2e3b 8026 123d
00000050: e856 b0bc c744 093c 07e8 75bc 7cca 803d
00000060: c2c5 bbbc 109c 663e e17a c33d e158 b0bd
00000070: 9212 ed3d 47ff 643e 1af2 a13d e62e 533d
00000080: 75ee fb3e c1e9 223e 3aa8 c8bb 20ae c03d
00000090: 2f2a 0bbd 5db7 613d c0c2 af3e ed68 f4bd
000000a0: 33e3 673d fe15 a53d abf6 aabb 7b34 1d3d
000000b0: e09a 1cbd 1899 313e 0b0e b7bd 4874 a73d
000000c0: 8ec2 d43e acf9 f63c 2671 9a3e a5d2 0a3e
000000d0: e73a e93d 84fc 4c3e 4011 92bd 6576 f33d
000000e0: 647a 903c fd1f 863c 4506 6e3e 31a7 823e
000000f0: 9e6c 973d b85a 49bd 10a6 8bbd 3f78 b33d
00000100: e06f a53d 839e 48bd 9dcf 3b3b 1899 36bd
00000110: 3c24 6a3c 973d ed3d c45f 073d 12e0 ce3c
00000120: a2ed 903d 89d4 ce3e 890f f33d 1c31 8f3e
00000130: ba0e 343e d831 80bc 35fe 603e 25ac 9f3d
00000140: 8667 38be a3cd fc3d cae2 023e 9b73 6d3c
00000150: f8d8 c73d 3a07 aebc c74d 193e b829 3b3e
00000160: 5d55 053d a763 93bd 7fe3 ee3d 4a44 aa3e
00000170: d3c3 b63d 6259 1f3e 99b1 9b3e fafb aebd
00000180: fc25 b13d 2718 903d 59dc 033e 10e1 a23e
00000190: 9483 783e d309 d73d 2bd2 27bd 6989 8e3d
000001a0: 0e76 51bd 9a72 46bd 2832 0c3e 6f7f bb3d
000001b0: 68d4 8c3d 35f8 c53e 8411 2f3d ebd8 783d
000001c0: 5822 8c3e facf 0e3e 0518 3c3d 7598 5b3d
000001d0: ac99 aa3d 1cee ef3e 309c b03d a2c9 ce3d
000001e0: 30d7 213e 065f 433e 4e04 0a3e 2708 b03d
000001f0: a4bb 1f3d b7da f93e b818 1a3c c6b9 2f3d

out.weight f4 [5, 128]
0.07675272 0.002936357 -0.07721334 -0.07429901 -0.04606121 -0.11229587 -0.13834664 0.04307343
-0.02660861 0.030189395 -0.02117262 0.102374636 -0.33289674 0.11825459 -0.11282649 0.1448003
-0.10803935 0.039876364 -0.21394734 -0.0019465938 -0.09394601 -0.22311069 0.071176656 0.18596607
-0.022110363 0.018101633 0.08743549 -0.018648205 -0.41160393 0.053500313 0.27422437 0.3680565
0.075043716 0.23263031 -0.22573464 -0.22536847 -0.008023343 0.1886439 0.05638149 0.054675292
0.08769118 -0.07008722 0.11423414 -0.1533685 0.24896993 0.052411124 0.011182682 -0.041904207
0.07539598 -0.01679893 0.07310832 0.086084746 0.07344726 0.2555987 0.029300947 0.038826197
-0.03158812 0.09570296 0.23832463 0.044574603 0.19840711 0.15785998 -0.1965738 0.09791139
-0.07604921 0.17940846 -0.112804316 -0.2669182 -0.049150776 -0.13480738 0.066921085 -0.07972833
-0.17952964 0.06668182 -0.22772016 0.06988784 0.2461669 0.03888037 0.048391614 0.105500646
0.05839097 0.32889032 0.12401624 -0.27717867 0.1729145 0.028340383 0.14865589 -0.14053033
0.19572052 -0.032187596 0.024643503 0.048320033 -0.14352858 0.2525551 0.01684319 0.040245432
-0.12757464 0.19196872 0.21951921 -0.011121503 -0.08388628 0.049661525 0.067809135 -0.07500537
-0.044563476 0.028355021 0.07111426 0.08631011 0.17950884 0.063037634 -0.121087015 -0.089888446
0.06716431 0.06698227 -0.12910414 0.039793808 -0.3492196 0.062196556 0.053442955 0.20959389
-0.3410452 -0.013510216 -0.15511458 0.08429668 -0.3054134 0.032539126 0.05051639 0.024054691
-0.06822277 0.051105496 0.019842386 -0.13314846 -0.05585679 0.05921004 0.025744518 0.056457106
0.06544447 -0.11005823 -0.13472287 0.040726498 -0.075260095 -0.26173288 0.055783555 -0.12774345
-0.05879361 0.092533804 -0.01440485 0.019310238 0.06777688 -0.13447426 -0.22568639 -0.08036136
-0.0645491 -0.0035678716 0.07096236 0.041098602 0.0587203 0.00745604 0.10203243 -0.18005165
0.04494037 -0.04793476 -0.2561605 -0.053680215 0.15122718 0.111881584 0.034847535 -0.02535012
0.05834813 -0.024149233 0.023110855 -0.06254291 -0.09954927 -0.0135333715 0.05794142 1.6592801e-05
0.02457002 0.047070794 0.009539098 0.21127321 -0.01266256 -0.24379343 -0.0522856 0.042791277
0.100261666 -0.019950584 -0.26238742 -0.09333223 -0.10574175 -0.091417216 0.059862755 -0.047509134
-0.049333632 -0.05555338 0.03671222 0.006334249 0.091178045 -0.22267725 -0.18992952 -0.06913981
-0.096678406 0.03331558 0.06531955 0.0153883565 0.14735638 0.02655321 0.00067032274 -0.04287439
-0.11822161 -0.13282232 0.093614966 -0.14537571 -0.19968073 0.06594917 0.059629504 -0.1546409
-0.024967892 0.059330508 -0.1356539 0.09939104 -0.12790011 -0.07657332 0.01996975 0.06086898
-0.05212221 -0.043482956 -0.1274135 0.040217247 0.08012897 -0.1258377 -0.06799252 0.0010701896
-0.05610612 0.090809576 -0.056779005 0.041508686 -0.1513985 0.071528845 0.062294878 -0.14781906
0.021025103 0.058820594 0.08912315 -0.057967372 0.021459555 0.07085124 0.08754266 -0.23504734
-0.010228402 0.059272192 0.002894754 -0.060469367 0.11244038 0.077101156 0.11489306 0.06775169
00000000: 8830 9d3d e56f 403b 0722 9ebd 142a 98bd
00000010: aeaa 3cbd 61fb e5bd beaa 0dbe c46d 303d
00000020: 4dfa d9bc c04f f73c 3472 adbc cba9 d13d
00000030: 7171 aabe 762f f23d 9311 e7bd 8846 143e
00000040: bc43 ddbd 6655 233d 0315 5bbe d924 ffba
00000050: c466 c0bd 2177 64be 11c5 913d e46d 3e3e
00000060: cb20 b5bc e049 943c 6111 b33d 1fc4 98bc
00000070: c0bd d2be 2523 5b3d 2367 8c3e e771 bc3e
00000080: 85b0 993d a436 6e3e fb26 67be fec6 66be
00000090: 5774 03bc de2b 413e 47f0 663d 33f3 5f3d
000000a0: 6f97 b33d e389 8fbd 97f3 e93d a20c 1dbe
000000b0: f9f1 7e3e 0cad 563d 9137 373c bfa3 2bbd
000000c0: 3569 9a3d e99d 89bc d1b9 953d 334d b03d
000000d0: 846b 963d d5dd 823e 8a08 f03c 3808 1f3d
000000e0: 8b62 01bd eaff c33d 5f0b 743e dc93 363d
000000f0: 3c2b 4b3e 0ca6 213e a44a 49be c485 c83d
00000100: b0bf 9bbd dab6 373e f305 e7bd 81a9 88be
00000110: 5352 49bd f20a 0abe ec0d 893d 9b48 a3bd
00000120: 9ed6 37be 7a90 883d 792f 69be 5b21 8f3d
00000130: 2d13 7c3e 0641 1f3d 4936 463d b910 d83d
00000140: 5f2b 6f3d 5064 a83e 3afc fd3d 5dea 8dbe
00000150: 8010 313e 172a e83c 4039 183e 2fe7 0fbe
00000160: f66a 483e 24d7 03bd 2ce1 c93c 3aeb 453d
00000170: 28f9 12be e74e 813e bbfa 893c 65d8 243d
00000180: eda2 02be 7393 443e a5c9 603e f736 36bc
00000190: 92cc abbd e269 4b3d 84df 8a3d 6a9c 99bd
000001a0: 3188 36bd ca48 e83c 5aa4 913d 5bc3 b03d
000001b0: 2ad1 373e e019 813d 78fc f7bd 6f17 b8bd
000001c0: 718d 893d 002e 893d e033 04be d5fe 223d
000001d0: e9cc b2be d1c1 7e3d 00e7 5a3d c89f 563e
000001e0: 7a9d aebe f459 5dbc 5bd6 1ebe bda3 ac3d
000001f0: 255f 9cbe bf47 053d 46ea 4e3d 580e c53c
00000200: 61b8 8bbd ff53 513d 808c a23c 1258 08be
00000210: 17ca 64bd 3a86 723d 2be6 d23c 913f 673d
00000220: c007 863d 3666 e1bd cbf4 09be d4d0 263d
00000230: f721 9abd da01 86be 4c7d 643d 2ecf 02be
00000240: 92d1 70bd 5d82 bd3d 5202 6cbc 8130 9e3c
00000250: 9bce 8a3d 9fb3 09be 551a 67be 7f94 a4bd
00000260: 5232 84bd f4d2 69bb b754 913d 0257 283d
00000270: b384 703d cc51 f43b 61f6 d03d 765f 38be
00000280: 6513 383d 3d57 44bd 7827 83be c9df 5bbd
00000290: 4cdb 1a3e 2c22 e53d 4abc 0e3d 0eab cfbc
000002a0: 73fe 6e3d 9dd4 c5bc fa52 bd3c 7f16 80bd
000002b0: 7de0 cbbd 13bb 5dbc fb53 6d3d c530 8b37
000002c0: 1147 c93c 4ecd 403d e049 1c3c 0158 583e
000002d0: a076 4fbc fca4 79be 6d29 56bd e845 2f3d
000002e0: fd55 cd3d 686f a3bc a557 86be f824 bfbd
000002f0: 218f d8bd f338 bbbd a632 753d f098 42bd
00000300: 1012 4abd f18b 63bd 8e5f 163d 888f cf3b
00000310: 8ebb ba3d 8105 64be e27c 42be 2c99 8dbd
00000320: 54ff c5bd eb75 083d 42c6 853d 721f 7c3c
00000330: 97e4 163e 1e86 d93c 99b8 2f3a 0e9d 2fbd
00000340: 2c1e f2bd 9302 08be 34b9 bf3d 5fdd 14be
00000350: 1b79 4cbe 5c10 873d 113e 743d 2f5a 1ebe
00000360: 7789 ccbc 8c04 733d dbe8 0abe 888d cb3d
00000370: 3ff8 02be 79d2 9cbd 9a97 a33c c051 793d
00000380: 197e 55bd 2f1b 32bd af78 02be d7ba 243d
00000390: a81a a43d 99db 00be aa3f 8bbd 9b45 8c3a
000003a0: 88cf 65bd 5ffa b93d 1a91 68bd 0305 2a3d
000003b0: 3508 1bbe b77d 923d ea28 7f3d e15d 17be
000003c0: d63c ac3c dded 703d 3386 b63d 326f 6dbd
000003d0: f3cb af3c 741a 913d 9149 b33d 40b0 70be
000003e0: 0795 27bc 66c7 723d eab5 3d3b baae 77bd
000003f0: 2447 e63d 36e7 9d3d 0d4d eb3d 66c1 8a3d

out.bias f4 [5]
0.2614372 0.26984695 0.24288791 0.32495767 0.29598033
00000000: 19db 853e 6129 8a3e 9cb7 783e da60 a63e
00000010: bc8a 973e
