SimplifiedSpaceWar/trained_models/dqn2_bullets_8500.pth (torch, 89165 bytes, 6 tensors)

fc1.weight f4 [128, 33]
0	0xbf0289e2	-0.5099164
1	0xbe805c70	-0.25070524
2	0xbdbf218c	-0.093325704
3	0x3d89ca8c	0.06728086
4	0x3e936300	0.28786469
5	0xbea8fee4	-0.33006966
6	0xbe5cf79e	-0.21578833
7	0xbec98ade	-0.3936376
8	0x3dc8a658	0.097973526
9	0xbd093f41	-0.03350759
10	0x3e435269	0.19074406
11	0xbe426f74	-0.18987828
12	0xbcb4a93f	-0.02205336
13	0x3b899a25	0.0041992837
14	0x3c12650d	0.008935225
15	0x3e411c39	0.18858422
16	0x3d514c68	0.051098257
17	0x3e6d3381	0.23164178
18	0x3d885cdc	0.066583365
19	0xbe2861bf	-0.16443537
20	0xbf02dc55	-0.5111745
21	0x3cc0ed22	0.023550574
22	0x3e172dcb	0.14763562
23	0x3ce90f7f	0.028449772
24	0x3e0b0dfd	0.13579555
25	0x3df2e5e7	0.11860257
26	0xbdaf0f0b	-0.08547791
27	0x3e94ffd9	0.29101446
28	0x3cb0f614	0.021601714
29	0xbd6c2bc6	-0.057658933
30	0x3d9f6eff	0.07784843
31	0xbcfa80d1	-0.030579003
32	0xbde61e5e	-0.11236261
33	0x3f844448	1.0333338
34	0x3fc552db	1.541591
35	0x3dfeb80a	0.124374464
36	0xbe059d8f	-0.13048385
37	0x3f207d6c	0.6269138
38	0x3eb141f0	0.3462062
39	0x3e5e3f9b	0.21703951
40	0xbeee1feb	-0.46508726
41	0x3c172f68	0.009227611
42	0xbe11d7dd	-0.14242502
43	0xbf7e357b	-0.99300355
44	0x3e0a0355	0.13477834
45	0xbd85df3d	-0.0653672
46	0xbd1ce6e5	-0.038306136
47	0xbe7253bb	-0.23664753
48	0x3e982480	0.29715347
49	0x3edffc44	0.4374715
50	0xbe4c9bfd	-0.1998138
51	0xbebfe18c	-0.37476766
52	0xbe5f0e0f	-0.21782707
53	0x3c87e62e	0.01658925
54	0x3cb42e60	0.02199477
55	0x3e53abb1	0.20670964
56	0xbe1a7bf3	-0.15086345
57	0xbcf44201	-0.02981663
58	0x3e237398	0.15962064
59	0xbe0d2173	-0.13782291
60	0x3e807a64	0.25093377
61	0x3b0ef04b	0.0021810706
62	0xbdf0b131	-0.117525466
63	0xbe7ab83d	-0.24484344
64	0x3c814cbf	0.015783666
65	0x3d560b24	0.05225672
66	0xbefab347	-0.48964903
67	0x3c5b2ef0	0.01337789
68	0x3eea6726	0.4578182
69	0xbebbdc13	-0.3669134
70	0xbeb1585c	-0.34637725
71	0xbf15289e	-0.582651
72	0x3dce9462	0.100868955
73	0xbde9003c	-0.11376998
74	0x3cd13e50	0.025542408
75	0xbc9a9bda	-0.018873144
76	0x3e93adee	0.28843635
77	0xbe400393	-0.18751363
78	0xbe829667	-0.25505373
79	0xbdf30673	-0.118664645
80	0xbe542fd7	-0.20721374
81	0xbf34a86d	-0.705695
82	0x3e9f8723	0.3115779
83	0x3d135869	0.035972986
84	0xbd9e7a58	-0.07738179
85	0xbf30f58d	-0.6912468
86	0xbea688cb	-0.3252624
87	0xbdc43eda	-0.095823005
88	0xbe2c1ca9	-0.16807808
89	0x3e9d67fc	0.30743396
90	0x3c20b4c4	0.009808723
91	0xbede17b9	-0.43377474
92	0xbe1bc12d	-0.1521041
93	0x3d14de9b	0.036345106
94	0xbd9d4c77	-0.076806
95	0xbd6ae567	-0.05734768
96	0xbe3e3bbd	-0.18577476
97	0xbed1bf69	-0.40966347
98	0xbe587a27	-0.21140347
99	0xbf22dc7d	-0.6361769
100	0x3e80af2f	0.25133654
101	0xbe5f5bcb	-0.2181236
102	0xbe1dadbb	-0.15398304
103	0xbdfda59c	-0.12385103
104	0x3e9bf451	0.30459836
105	0x3f1ae70e	0.6050881
106	0x3e05c3d8	0.1306299
107	0xbba94afd	-0.00516641
108	0x3e8a6727	0.27031824
109	0xbe9b596d	-0.30341664
110	0xbef2f83b	-0.4745501
111	0x3f42a788	0.7603688
112	0xbd8e5521	-0.06949831
113	0xbbf8ef59	-0.007596892
114	0xbcba6462	-0.022752944
115	0xbd9c43cb	-0.07630118
116	0x3ebb7924	0.3661586
117	0xbe5f1977	-0.21787058
118	0x3dbdd7f8	0.092697084
119	0xbed86864	-0.42267144
120	0xbfe48396	-1.7852657
121	0xbf43ed16	-0.7653364
122	0x3f27c612	0.65536606
123	0x3d8206af	0.06348931
124	0x3e05560b	0.13021104
125	0x3c807ede	0.015685495
126	0xbf3a4d71	-0.72774416
127	0x3ee66b76	0.4500386
128	0xbe23a042	-0.15979102
129	0xbe188b09	-0.14896788
130	0xbe8a84a1	-0.27054313
131	0xbddacacd	-0.106832124
132	0xbefb73a7	-0.49111673
133	0xbdfe784e	-0.1242529
134	0xbe1a4b1d	-0.15067716
135	0xbe5672a7	-0.20942174
136	0xbddd76ff	-0.10813712
137	0xbf4fa5f6	-0.8111261
138	0xbee17c3c	-0.44040096
139	0x3f2bb4e0	0.6707287
140	0x3c180ec2	0.009280862
141	0xbd2ad8da	-0.041710712
142	0x3e02498c	0.12723368
143	0xbef8899b	-0.48542485
144	0xbe611805	-0.21981819
145	0xbbebb615	-0.0071933367
146	0xbf308d85	-0.6896594
147	0xbd58b0d0	-0.052902997
148	0xbd595730	-0.053061664
149	0x3e5a56b9	0.21322145
150	0xbd9b9174	-0.07596102
151	0x3da988e9	0.08278067
152	0xbe0eaf20	-0.13933992
153	0xbdc9f494	-0.09861103
154	0xbedb183e	-0.42791933
155	0xbb395aa7	-0.0028282793
156	0x3d862b6b	0.0655125
157	0xbc4c3788	-0.012464412
158	0xbec3b37c	-0.38222873
159	0x3d86645d	0.065621115
160	0x3c4d4c68	0.012530424
161	0xbee79657	-0.45231888
162	0xbefe2cbb	-0.49643502
163	0x3ecf546a	0.4049409
164	0x3f03d2ab	0.5149333
165	0x3faa8498	1.3321714
166	0x3e17aacc	0.14811248
167	0xbd5f3a10	-0.054498732
168	0x3b4540a0	0.0030098334
169	0x3f2f48d5	0.6847051
170	0x3de5c5f0	0.11219394
171	0x3e5d5b81	0.21616937
172	0x3e1e7117	0.15472828
173	0xbe2118bc	-0.15732092
174	0xbe1f3ad1	-0.1554978
175	0xbf356030	-0.70849895
176	0xbed3691d	-0.41291133
177	0xbf9ec3ce	-1.2403505
178	0x3f1ac3aa	0.6045481
179	0xbe6f8f17	-0.23394428
180	0x3ef86bfb	0.48519883
181	0x3ce7d722	0.028300826
182	0xbdd8178b	-0.105513655
183	0xbecf00e9	-0.40430382
184	0x3e150a58	0.14554727
185	0x3e22acb0	0.15886188
186	0xbf37fb50	-0.7186785
187	0xbeda74c1	-0.426672
188	0xbe222b25	-0.15836771
189	0xbe6446d4	-0.22292644
190	0x3dace3a4	0.084418565
191	0x3e017b97	0.12644802
192	0x3dd7fb78	0.10546011
193	0xbe4d912c	-0.2007491
194	0x3e8abb05	0.2709581
195	0x3e62a6fb	0.2213401
196	0x3db7dadb	0.0897729
197	0xbe134c69	-0.14384617
198	0xbf9dff8c	-1.2343612
199	0xbf65f9db	-0.89834374
200	0x3ed08560	0.40726757
201	0x3e9e3389	0.30898693
202	0x3dd8e389	0.10590274
203	0xbdd79b37	-0.10527652
204	0x3e54420f	0.20728324
205	0x3f18c528	0.59675837
206	0xbe5a40cf	-0.21313785
207	0xbd3dfc9e	-0.046383493
208	0xbed2b053	-0.4115015
209	0xbe719bfc	-0.2359466
210	0xbe9051ee	-0.28187507
211	0x3d94272e	0.072340354
212	0xbf292b23	-0.66081446
213	0xbd7f795d	-0.0623716
214	0x3e88068b	0.26567492
215	0xbd9beaa1	-0.07613111
216	0xbf2586b7	-0.64658684
217	0xbd547cd9	-0.051876877
218	0xbefdb2e7	-0.49550554
219	0xbec923c0	-0.39285088
220	0xbe9013c6	-0.28140086
221	0xbe56b33c	-0.2096681
222	0x3edc15e0	0.4298544
223	0xbce5cc52	-0.02805153
224	0x3f074676	0.5284189
225	0xbc06a2b1	-0.0082175
226	0x3e9ebdf0	0.31004286
227	0x3e373841	0.17892553
228	0x3df3fff7	0.11914056
229	0x3e3df066	0.18548736
230	0xbdc00c95	-0.093774
231	0x3f6ce937	0.9254336
232	0xbf35b99c	-0.7098634
233	0xbdb8254a	-0.08991487
234	0x3cb56e73	0.022147393
235	0x3de75b51	0.11296714
236	0x3cba77b4	0.022762157
237	0xbe0ac32d	-0.13551016
238	0xbf209c10	-0.6273813
239	0xb88bb817	-6.662326e-05
240	0x3f6929f2	0.9107963
241	0xbec35db1	-0.38157418
242	0x3f8ffeed	1.1249672
243	0x3e4155a4	0.18880326
244	0x3cd38508	0.02582027
245	0x3e940240	0.28907967
246	0xbe6dd7c5	-0.23226841
247	0xbe42cbc9	-0.1902305
248	0x3d59e15f	0.053193446
249	0x3e651b04	0.22373587
250	0x3e77098b	0.24124734
251	0x3e09ad73	0.13445072
252	0x3dde5140	0.10855341
253	0x3ea81a3f	0.32832524
254	0xbb4a17bd	-0.0030836903
255	0x3e5f01c8	0.21778023

fc1.bias f4 [128]
0	0x3ecf85de	0.4053182
1	0x3ebb3495	0.36563554
2	0xbf103de1	-0.5634442
3	0xbe4f8502	-0.20265582
4	0x3eb24fb5	0.34826437
5	0x3debd8af	0.115159385
6	0x3e4f4007	0.20239268
7	0x3e5032b0	0.20331836
8	0xbdaefe14	-0.08544555
9	0x3e97d916	0.2965781
10	0xbdbc9c9b	-0.092095576
11	0xbdb52876	-0.08845608
12	0x3ee1e25c	0.4411801
13	0xbcf18aac	-0.02948507
14	0xbd3ebdd4	-0.046567753
15	0xbdff5df5	-0.12469093
16	0x3dadd903	0.08488657
17	0x3ef456ef	0.47722575
18	0xbe81c38a	-0.25344497
19	0x3dd6e3ae	0.10492645
20	0x3ee8210c	0.45337713
21	0x3e8abdff	0.2709808
22	0xbd40f266	-0.04710617
23	0x3e5afd83	0.2138577
24	0x3e4a2d6d	0.19743891
25	0xbc1e82b6	-0.009674719
26	0x3e9ca8a1	0.30597404
27	0x3ed189d8	0.4092548
28	0x3e02d41f	0.1277623
29	0x3cd6abce	0.02620497
30	0xbdf08585	-0.11744217
31	0x3e493b75	0.19651587
32	0x3f165929	0.587298
33	0x3eaa773f	0.33294103
34	0x3c75edb7	0.015010289
35	0x3eb43be8	0.35201955
36	0xbdcc321c	-0.09970495
37	0x3eed678e	0.46368068
38	0x3ef413af	0.47671267
39	0x3e6737ef	0.2257993
40	0xbefe7510	-0.49698687
41	0x3e5decb0	0.2167232
42	0x3f9714f4	1.1803269
43	0x3f0d1dcd	0.551236
44	0x3d93ae46	0.072109744
45	0x3e7c11f6	0.24616227
46	0x3ef255cc	0.47331083
47	0x3c9aa8b3	0.01887927
48	0xbdfbeb67	-0.12300759
49	0x3def86a8	0.116956055
50	0xbd4d6990	-0.0501495
51	0x3e286ab6	0.16446957
52	0xbdf78a59	-0.120869346
53	0xbf489d78	-0.7836528
54	0xbde19c3d	-0.11016128
55	0x3dd192f3	0.102331065
56	0x3f76e6e5	0.9644607
57	0x3f57366a	0.84067404
58	0x3e2b2535	0.16713412
59	0x3c5ad8a1	0.013357312
60	0xbf9fcea8	-1.2484941
61	0x3e13ef7c	0.14446825
62	0x3f473bfa	0.7782589
63	0x3f1f25e8	0.62167215
64	0x3e19b62d	0.15010901
65	0xbd552e14	-0.052045897
66	0xbd01088b	-0.031502288
67	0x3dec553b	0.11539694
68	0x3e8bcbef	0.27304026
69	0x3dae2d0b	0.08504685
70	0x3efdcfd1	0.49572614
71	0x3d01f079	0.031723473
72	0x3f28b65a	0.65903246
73	0x3f10b83e	0.5653113
74	0x3f07d0e7	0.53053135
75	0x3e95047b	0.2910498
76	0x3e80c6de	0.25151724
77	0x3e601d38	0.21886146
78	0x3c70dcf9	0.0147011215
79	0x3da30a10	0.07960904
80	0x3f4476f4	0.7674401
81	0x3c93c6f8	0.018039212
82	0x3eeaef1f	0.4588556
83	0x3f383684	0.71958184
84	0xbcd13dc0	-0.02554214
85	0x3e3c6c03	0.18400578
86	0x3eb500ef	0.35352275
87	0x3ee3a02a	0.44458133
88	0x3ea4a9eb	0.32160887
89	0x3e845e0f	0.2585301
90	0x3f0e419b	0.55568856
91	0x3f0dbf20	0.5536976
92	0x3eb0f1a4	0.34559357
93	0x3f48f13f	0.7849311
94	0x3dc19187	0.09451585
95	0xbded80b1	-0.115968116
96	0x3e506838	0.20352256
97	0x3f020cf3	0.5080101
98	0x3ff24149	1.8926173
99	0x3f2ce58a	0.6753775
100	0xbd59dc29	-0.053188477
101	0x3dd310f7	0.1030597
102	0x3deec382	0.11658384
103	0x3f4ac1ae	0.7920178
104	0x3e885856	0.26629895
105	0x3de8049a	0.11329003
106	0xbe6d3074	-0.23163015
107	0x3ebdbbd0	0.37057352
108	0x3f26c429	0.65143067
109	0xbc29bdb1	-0.010360167
110	0xbcbbc69a	-0.022921849
111	0x3f5a2c7c	0.8522413
112	0x3ea50433	0.32229766
113	0x3f31654e	0.69295204
114	0x3e9462f9	0.2898176
115	0x3e84e5de	0.25956625
116	0x3e724670	0.23659682
117	0xbcee6990	-0.02910307
118	0x3e8d62eb	0.2761453
119	0x3f21dea5	0.63230354
120	0x3d47574d	0.04866724
121	0x3f39e3d4	0.72613263
122	0x3e31c70c	0.17361087
123	0x3e4ee99f	0.20206307
124	0x3f48156f	0.78157705
125	0x3e6f0a00	0.23343658
126	0xbdb829c1	-0.08992339
127	0xbefb9be1	-0.49142364

fc2.weight f4 [128, 128]
0	0x3d19d62c	0.037557766
1	0xbdf33ca2	-0.11876799
2	0x3d8a92f9	0.06766314
3	0xbf82cf70	-1.0219555
4	0xbd286012	-0.041107245
5	0xba9add61	-0.0011815244
6	0xbcd43b03	-0.025907045
7	0xbec627ab	-0.3870214
8	0xbd295ac8	-0.04134634
9	0x3e81d97a	0.25361234
10	0x3d5fb744	0.054618135
11	0x3d9f8f2a	0.07790978
12	0xbddacab6	-0.10683195
13	0xbe8025d9	-0.25028875
14	0xbe803a6a	-0.25044566
15	0xbc590abe	-0.01324719
16	0x3d0de2e2	0.0346402
17	0x3cafd411	0.021463426
18	0x3dd69ad2	0.104787484
19	0xbe0e83ef	-0.13917516
20	0x3de96485	0.11396126
21	0x3dabea8e	0.08394347
22	0xbe27c6d2	-0.16384438
23	0x3de8b1d6	0.113620445
24	0xbf111210	-0.56668186
25	0xbd93ae6f	-0.07211005
26	0xbea9fc23	-0.33200178
27	0xbde4e800	-0.11177063
28	0xbdd5eab1	-0.104451545
29	0x3dcc24bd	0.09967945
30	0x3d5e20b1	0.054230396
31	0xbe0e5527	-0.1389967
32	0xbf204026	-0.6259788
33	0xbc0b44d5	-0.008500298
34	0x3e490c77	0.19633661
35	0x3e2f7412	0.17134121
36	0x3dc4ea07	0.0961495
37	0x3c9e136f	0.019296376
38	0xbec95ada	-0.39327127
39	0x3e4ac510	0.19801736
40	0xbcc90fdf	-0.0245437
41	0x3e4d0931	0.20023037
42	0xbeb2120a	-0.34779388
43	0x3dea36d8	0.11436242
44	0xbd9be043	-0.07611134
45	0xbdc7d0da	-0.09756632
46	0xbebbb88d	-0.3666424
47	0x3dc4a354	0.09601465
48	0xbd99cdb6	-0.075099394
49	0x3d00bc1b	0.03142939
50	0x3df4a5a9	0.1194566
51	0xbe3d8068	-0.18506014
52	0xbdc6a8c1	-0.09700156
53	0x3c40931a	0.011753822
54	0xbdcdb9f1	-0.10045231
55	0xbd2f9113	-0.042862963
56	0xbf4ed82c	-0.807986
57	0xbe49c340	-0.19703388
58	0xbde38672	-0.11109628
59	0x3d41fc5c	0.04735981
60	0xbdf1d68a	-0.11808498
61	0xbe7ee52a	-0.24892107
62	0x3d1c59d2	0.038171597
63	0xbd6ec344	-0.05829169
64	0xbee06df7	-0.43833897
65	0x3e91f15b	0.28504452
66	0xbdc89a8a	-0.09795101
67	0x3d670276	0.05639883
68	0x3e930d06	0.28720874
69	0xbddd4b1d	-0.10805342
70	0x3e0bbcf1	0.13646294
71	0x3dd6e0b2	0.10492076
72	0xbdbb6051	-0.0914923
73	0x3e2b25c6	0.16713628
74	0xbd927817	-0.071518116
75	0x3d988eee	0.07449137
76	0x3df22405	0.118232764
77	0xbe51440f	-0.20436119
78	0xbcde9540	-0.027170777
79	0xbe36eef4	-0.17864591
80	0xbd4d6523	-0.05014528
81	0xbd8b10bf	-0.067903034
82	0xbb93e2d7	-0.0045131254
83	0xbe3be80a	-0.18350235
84	0x3e905a51	0.28193906
85	0xbe527e1b	-0.20555918
86	0xbe50a180	-0.20374107
87	0xbdbf26a9	-0.09333546
88	0x3d32acd7	0.043621864
89	0x3d5f423e	0.054506533
90	0x3d111f16	0.035430036
91	0x3d511579	0.05104587
92	0xbe6b8223	-0.22998862
93	0xbd2583ec	-0.040409014
94	0x3e8e9356	0.27846783
95	0x3d9ab2e8	0.07553655
96	0x3defa94e	0.11702214
97	0xbdd12403	-0.10211947
98	0xbea33c5a	-0.31881982
99	0xbd8607ee	-0.06544481
100	0xbeba3d5c	-0.36374938
101	0x3e702919	0.23453178
102	0x3c2483bd	0.0100411745
103	0x3e3066c6	0.17226705
104	0x3dac4bc0	0.08412886
105	0x3d2ba387	0.041904
106	0x3dda6dfa	0.106655076
107	0xbed2d7d4	-0.4118029
108	0x3e9c4e9b	0.3052872
109	0x3d7937a6	0.060844086
110	0x3e187f2a	0.14892259
111	0xbf34cf12	-0.70628464
112	0xbed58b2b	-0.4170774
113	0xbe8a5141	-0.27015117
114	0x3da10995	0.07863156
115	0x3e09ae7c	0.13445467
116	0x3e40007f	0.18750189
117	0x3e15637b	0.1458873
118	0xbdaeb108	-0.0852986
119	0xbe7e893b	-0.24857037
120	0x3da853fc	0.08219144
121	0xbdf92cf1	-0.12166775
122	0xbdad3237	-0.08456843
123	0x3d3d664a	0.04624013
124	0xbe0d7320	-0.13813448
125	0x3de3297b	0.11091896
126	0x3d94b8cf	0.07261812
127	0xbef8dfcc	-0.48608243
128	0xbe33053b	-0.17482464
129	0x3cbaccb1	0.022802683
130	0xbe5dbc8c	-0.21653956
131	0xbe9610a1	-0.29309562
132	0xbe96cd4b	-0.294535
133	0xbca8de32	-0.020613763
134	0x3c597a2e	0.013273759
135	0xbea5966a	-0.3234132
136	0xbeb81f9d	-0.3596162
137	0x3df53a01	0.11973954
138	0x3e62ba00	0.22141266
139	0xbe24c5e4	-0.16091114
140	0xbf20f783	-0.6287767
141	0xbe45f2c3	-0.19330887
142	0xbed9fb11	-0.4257436
143	0x3e650506	0.22365198
144	0x3ddcd8bf	0.107835285
145	0xbedb7ba5	-0.4286777
146	0x3d220542	0.039555795
147	0xbe2db186	-0.16962251
148	0xbe97c096	-0.2963912
149	0xbd5e3041	-0.054245237
150	0xbe9cc8a8	-0.3062184
151	0x3c0f108b	0.0087319715
152	0x3e813d1e	0.2524194
153	0xbe1809e7	-0.14847527
154	0xbb3d9ede	-0.0028933804
155	0xbdc217ca	-0.09477194
156	0xbe366bbb	-0.17814533
157	0xbe48616f	-0.19568418
158	0xbe524c14	-0.20536834
159	0xbe554f6b	-0.20831077
160	0x3ed9f260	0.4256773
161	0xbe84f39a	-0.25967103
162	0x3e577556	0.21040854
163	0xbdc5924e	-0.09647046
164	0x3ce49080	0.027900934
165	0xbebe3293	-0.3714796
166	0xbefac180	-0.48975754
167	0x3cb8ad60	0.02254361
168	0xbdd01e31	-0.101620086
169	0xbd723782	-0.059134968
170	0xbe925bfa	-0.28585798
171	0x3d138205	0.03601267
172	0xbf08e72c	-0.5347774
173	0x3f015955	0.50526935
174	0xbbefadfa	-0.007314441
175	0x3c59e1f3	0.013298499
176	0x3d9de9e1	0.077106245
177	0xbd236284	-0.039888874
178	0xbf1d0115	-0.61329776
179	0xbe90c435	-0.28274694
180	0xbe174f5a	-0.14776364
181	0xbe1b530e	-0.15168402
182	0xbe3d1ac0	-0.18467236
183	0xbd0d1d44	-0.034451738
184	0x3e153cb6	0.1457394
185	0xbf1ab39a	-0.604303
186	0xbc7b9956	-0.015356382
187	0x3e7351d0	0.23761678
188	0xbe4821f3	-0.195442
189	0xbe3d31b1	-0.18475987
190	0x3e87be4f	0.2651238
191	0xbe8f570d	-0.27996102
192	0x3e880686	0.26567477
193	0x3c14ed11	0.009089724
194	0x3d419b2a	0.047267117
195	0xbcfd7c67	-0.030943109
196	0xbd985b50	-0.074392915
197	0xbed92707	-0.42412588
198	0x3da6ec5c	0.08150551
199	0x3e8d06ee	0.2754435
200	0xbd99bf4d	-0.07507191
201	0xbe2f4c75	-0.1711901
202	0xbe5444a1	-0.20729305
203	0x3d291806	0.041282676
204	0x3e3dce42	0.18535712
205	0xbe94cca8	-0.2906239
206	0xbda13c5a	-0.07872839
207	0x3c742750	0.014901951
208	0xbe413409	-0.18867506
209	0xbdbdbc86	-0.092644736
210	0xbea56e63	-0.3231078
211	0xbcd7872c	-0.026309572
212	0xbe200184	-0.15625578
213	0x3d5641e2	0.052308924
214	0xbe333f17	-0.17504536
215	0xbdfcdab1	-0.123463996
216	0x3e943ffb	0.28955063
217	0xbdbe6e54	-0.09298387
218	0xbe51aee4	-0.20476872
219	0x3de24b04	0.11049464
220	0x3d714537	0.0589039
221	0xbf3184e7	-0.6934342
222	0x3d751f66	0.059844397
223	0xbf0891c7	-0.5334744
224	0x3e97fb1e	0.29683775
225	0x3de961d8	0.11395615
226	0xbf290f81	-0.6603928
227	0xbe2317fa	-0.15927115
228	0xbd01092d	-0.03150289
229	0x3d0a74ae	0.03380268
230	0x3d8704e8	0.06592733
231	0x3dc9ed44	0.09859708
232	0xbe72d488	-0.23713887
233	0x3ea10b8c	0.31454122
234	0xbe38b550	-0.18037915
235	0x3dc49b02	0.09599878
236	0x3dc10fc8	0.09426838
237	0x3e361679	0.1778201
238	0xbf18d7ff	-0.59704584
239	0xbef5d328	-0.48012662
240	0xbef3fa7e	-0.47652048
241	0xbd4fdc8f	-0.05074745
242	0xbe6529dc	-0.2237925
243	0x3e30579e	0.17220923
244	0x3eb9cdc6	0.36289805
245	0x3dfb9511	0.122842915
246	0xbe035e9b	-0.12829058
247	0x3f258710	0.64659214
248	0xbc234870	-0.009966001
249	0xbdd1fa8b	-0.102528654
250	0xbb9ad1d5	-0.004724721
251	0xbee4840f	-0.44632003
252	0x3c497715	0.012296458
253	0xbdf49805	-0.11943058
254	0xbe6691fd	-0.22516628
255	0x3daf8ced	0.08571801

fc2.bias f4 [128]
0	0x3d719efa	0.058989502
1	0x3e9a982e	0.3019423
2	0x3cb7f80d	0.022457147
3	0xbe697c62	-0.22801355
4	0xbe20c565	-0.157003
5	0x3e25b043	0.1618052
6	0x3db732b1	0.089452155
7	0x3e112d30	0.14177394
8	0x3f1c17ca	0.609738
9	0xbdfff4d0	-0.12497866
10	0xbe653b81	-0.2238598
11	0x3d2c7a15	0.042108614
12	0x3e2365cf	0.15956806
13	0x3e4235ce	0.18965837
14	0x3e057f50	0.13036847
15	0x3df152a0	0.117833376
16	0x3e0d1a65	0.137796
17	0x3f0737e9	0.5281969
18	0xbe1c1e07	-0.1524583
19	0xbd79fb60	-0.061030746
20	0xbd78b0ca	-0.060715474
21	0x3ceee894	0.029163636
22	0xbd255de8	-0.04037276
23	0x3e3395ec	0.1753766
24	0xbde1fac7	-0.1103416
25	0x3df08336	0.117437765
26	0x3daecb13	0.08534827
27	0x3def1196	0.11673276
28	0x3deab643	0.11460545
29	0x3e6c5f27	0.23083173
30	0x3cdcefa6	0.026969742
31	0x3cb10ef0	0.021613568
32	0x3f435af2	0.76310647
33	0x3e5c8a1e	0.21537063
34	0xbf133500	-0.57502747
35	0x3da62685	0.08112816
36	0xbe92f595	-0.2870299
37	0x3ce2131f	0.027597008
38	0x3ea8c981	0.32966235
39	0xbe1ca218	-0.15296209
40	0xbe6e7277	-0.23285852
41	0xbdce7363	-0.10080602
42	0xbc8186e7	-0.015811397
43	0x3d0c2254	0.034212425
44	0xbdc00f99	-0.09377975
45	0x3dbf7eda	0.09350367
46	0x3c4625b2	0.012093948
47	0xbe095bc8	-0.13413918
48	0x3f08f745	0.53502303
49	0x3dcc6316	0.09979837
50	0x3f0126a6	0.504496
51	0x3e825342	0.25454146
52	0x3dd5b942	0.10435726
53	0x3e26c164	0.1628471
54	0xbcba84f1	-0.02276847
55	0x3ddd8d2a	0.108179405
56	0x3d264bb2	0.040599532
57	0x3c861ffd	0.016372675
58	0x3d84483a	0.064590886
59	0x3e8b623f	0.27223393
60	0x3cd2d15b	0.025734594
61	0xbe06e1c9	-0.13172068
62	0x3d80873c	0.06275794
63	0x3e880e10	0.2657323
64	0x3d2af5c0	0.04173827
65	0xbc1efa69	-0.009703257
66	0xbcffecf0	-0.03124091
67	0x3cf033a2	0.029321495
68	0x3c152eb7	0.009105376
69	0x3e054a6d	0.13016672
70	0xba164629	-0.00057325006
71	0x3edbc3b7	0.42922756
72	0x3d76c599	0.060247038
73	0x3f33115a	0.6994835
74	0x3e4b0203	0.19824986
75	0x3f10e1a0	0.56594276
76	0x3ec25d14	0.37961638
77	0x3d8b6164	0.06805685
78	0x3ebe43c1	0.37161067
79	0xbd2d5cd7	-0.042324867
80	0xbc9e51c3	-0.019326096
81	0x3dc0fc31	0.09423102
82	0x3c506edc	0.012721743
83	0x3e1a19fe	0.15048978
84	0x3dd3ded0	0.103452325
85	0x3d88c0eb	0.06677421
86	0xbe5318f8	-0.20614994
87	0x3e8a589c	0.2702073
88	0xba0ccd38	-0.0005371156
89	0xbda0667d	-0.07832048
90	0x3d994ed5	0.07485739
91	0x3f261766	0.64879453
92	0x3d1eccf9	0.038769696
93	0x3e5eabe6	0.21745262
94	0x3ef1ebde	0.47250265
95	0xbdc27f3e	-0.09496926
96	0x3e370572	0.17873171
97	0xbdb89e08	-0.09014517
98	0xbd47bcb4	-0.048763946
99	0x3ec01cd3	0.3752199
100	0x3e4f3794	0.20236045
101	0xbbfa80ec	-0.007644763
102	0xbabb7c7c	-0.0014304067
103	0x3c54bc32	0.012984322
104	0xbd86b23c	-0.06576964
105	0x3db4b062	0.08822705
106	0x3cf2824c	0.029603146
107	0x3ce792ab	0.028268179
108	0x3e4fc1f7	0.20288835
109	0x3f1f93fc	0.6233518
110	0x3dbd31c0	0.09238005
111	0xbc5ec232	-0.013596104
112	0x3f1018a3	0.5628759
113	0x3da38063	0.07983472
114	0x3d9c7c77	0.07640927
115	0xbdfed691	-0.12443269
116	0x3ea50c1e	0.32235807
117	0x3f4df501	0.8045197
118	0xbce4cf42	-0.02793086
119	0x3e72c02c	0.2370612
120	0x3e4c250c	0.19936007
121	0x3eb2fbfa	0.34957868
122	0x3e49d9c4	0.19711977
123	0x3d56e145	0.052460928
124	0xbda5c053	-0.080933236
125	0x3f57a3d9	0.84234387
126	0xbdf95834	-0.121750265
127	0xbd89a99b	-0.06721803

out.weight f4 [5, 128]
0	0x3e517d5c	0.20457977
1	0xbe9b2822	-0.30304056
2	0xbe5e7c4a	-0.217271
3	0xbefa8a88	-0.48933816
4	0x3ea6e084	0.32593167
5	0xbf0d7476	-0.5525583
6	0x3ebae9d6	0.36506528
7	0x3eb2e8a3	0.34943113
8	0x3dc0d940	0.09416437
9	0xbdc2df00	-0.0951519
10	0x3d913191	0.07089532
11	0x3d8dd74d	0.06925831
12	0xbefa683b	-0.48907647
13	0x3eda431a	0.4262932
14	0x3ec35f64	0.38158715
15	0xbe0437e4	-0.12911946
16	0xbde8d4e5	-0.113687314
17	0x3da44586	0.08021073
18	0xbecff2d9	-0.40614966
19	0xbd28cd60	-0.041211486
20	0xbe3f3a09	-0.18674482
21	0xbe4d6579	-0.2005824
22	0xbebb76f9	-0.36614206
23	0x3edd3c23	0.43209943
24	0xbe8cd993	-0.27509746
25	0x3eed6442	0.46365553
26	0x3db31161	0.08743549
27	0x3e73f143	0.23822503
28	0xbe97ad68	-0.29624486
29	0x3e401dc2	0.18761352
30	0x3e317f02	0.17333606
31	0x3ecd1b3d	0.40059844
32	0x3da77e15	0.08178345
33	0x3ebec196	0.3725707
34	0xbd31046e	-0.043217115
35	0xbe5af41d	-0.21382184
36	0x3e379ea1	0.17931606
37	0xbe5b46eb	-0.21413772
38	0x3dfbf80f	0.12303173
39	0x3da02003	0.07818606
40	0x3dd4d1d3	0.10391583
41	0xbe928995	-0.28620592
42	0xbe313e5f	-0.17308949
43	0xbe0c1c14	-0.13682586
44	0x3ea4643a	0.32107717
45	0x3e854805	0.2603151
46	0x3de8009b	0.113282405
47	0xbe85baff	-0.2611923
48	0x3dc485b1	0.09595812
49	0x3dc79fd2	0.0974728
50	0x3d75661e	0.05991184
51	0x3cf390ea	0.029732186
52	0x3d8968ac	0.06709418
53	0xbdf3fc49	-0.11913354
54	0xbe668943	-0.22513299
55	0xbdb63295	-0.088963665
56	0x3e9c3ac1	0.30513576
57	0x3dc3ffea	0.09570296
58	0x3ed7a9d3	0.42121753
59	0x3e2eb739	0.17062081
60	0x3d5d7f8e	0.054076724
61	0xbe185cc2	-0.14879134
62	0xbdd0adc6	-0.10189395
63	0xbdc03fe9	-0.0938719
64	0xbebae06b	-0.36499342
65	0x3dd9afe3	0.10629251
66	0xbe9b876a	-0.3037675
67	0xbe9b70e5	-0.3035957
68	0x3e687679	0.22701444
69	0xbef6164f	-0.48063895
70	0x3e42fc91	0.19041659
71	0xbe0a0915	-0.13480027
72	0x3e793f42	0.24340537
73	0x3ddde82c	0.10835299
74	0xbe7a2d16	-0.24431261
75	0x3d58f71b	0.052970033
76	0x3e066653	0.13124971
77	0x3e007ec7	0.12548362
78	0x3d3b278f	0.045692023
79	0x3f0a19ec	0.53945804
80	0x3efddb83	0.49581537
81	0x3ea4f9a9	0.32221726
82	0x3eb05673	0.34440956
83	0xbf040d9e	-0.5158328
84	0x3ec78e55	0.38975778
85	0xbef8a2ae	-0.48561615
86	0x3e672c93	0.22575597
87	0xbe48cd15	-0.19609483
88	0x3e3992df	0.18122433
89	0xbd03d724	-0.032187596
90	0x3e225955	0.1585439
91	0x3de45085	0.111481704
92	0xbeeacfdd	-0.45861712
93	0x3efd5a8f	0.49483153
94	0x3e740979	0.23831739
95	0x3d17d76d	0.03707068
96	0x3e259d1e	0.16173217
97	0x3ea5b2d8	0.3236301
98	0x3ecf3f80	0.40478134
99	0xbe99a34a	-0.30007392
100	0x3dae34f6	0.08506195
101	0x3d4fbf0d	0.05071931
102	0x3edbf202	0.42958075
103	0xbe7bb49b	-0.24580614
104	0xbd368831	-0.044563476
105	0x3ed43a9d	0.41450968
106	0xbe48ee84	-0.19622236
107	0x3e8426e5	0.25810924
108	0x3e7e43b7	0.24830519
109	0x3dc406df	0.09571623
110	0xbf2536c9	-0.6453672
111	0xbefe41c0	-0.49659538
112	0x3d9005fd	0.07032392
113	0xbe2c866f	-0.16848157
114	0xbe801486	-0.25015658
115	0x3e8567a2	0.26055628
116	0xbec63822	-0.387147
117	0x3df4e1b5	0.11957113
118	0x3e1adc6f	0.15123151
119	0xbe1cedbe	-0.15325066
120	0xbf059755	-0.5218404
121	0x3d86f575	0.06589786
122	0xbc76541f	-0.0150347045
123	0x3f03b90a	0.5145422
124	0xbeba79a8	-0.3642094
125	0x3dd7fc42	0.10546161
126	0x3ea4f74c	0.32219923
127	0x3eac4cb2	0.33652264
128	0xbe5ea00a	-0.21740738
129	0x3ea79807	0.32733175
130	0x3d8fda18	0.0702402
131	0xbeef63d4	-0.4675585
132	0xbf1062f9	-0.5640102
133	0x3cf48b60	0.029851615
134	0x3ee7f7f1	0.45306352
135	0xbcfc37b4	-0.03078828
136	0x3d9c4acb	0.07631453
137	0xbe84b657	-0.25920364
138	0xbea2950c	-0.3175434
139	0x3df591d3	0.119907044
140	0xbedd2189	-0.43189648
141	0xbdbd88ea	-0.0925463
142	0x3e04d730	0.12972713
143	0xbe7ebdee	-0.2487714
144	0xbe5d98d2	-0.21640328
145	0x3d812e31	0.063076384
146	0x3e721473	0.23640613
147	0x3e2369b8	0.15958297
148	0x3ed9fcba	0.42575628
149	0xbecc702f	-0.3992934
150	0xbe206046	-0.15661725
151	0xbf28d629	-0.6595178
152	0xbe95bde4	-0.29246438
153	0xbe982fdd	-0.29724017
154	0x3d9154b7	0.07096236
155	0x3e6fbc09	0.23411573
156	0x3e95baf0	0.29244184
157	0x3e5d123e	0.2158899
158	0x3e8debee	0.27719063
159	0xbdbc3f95	-0.09191815
160	0x3da3fb15	0.080068745
161	0xbf014f35	-0.50511485
162	0xbeac9b23	-0.3371211
163	0xbd267cfb	-0.040646534
164	0x3ea9d127	0.33167383
165	0xbe15d3cf	-0.1463158
166	0x3df7cdfe	0.12099837
167	0xbd6c4a1a	-0.057687856
168	0x3e88c1c0	0.2671032
169	0xbe4204f8	-0.18947208
170	0xbe9677ac	-0.29388177
171	0x3d90af12	0.07064642
172	0xbe0e4149	-0.13892092
173	0xbe2d6f9c	-0.16937107
174	0x3de5b7fa	0.11216731
175	0x3e4aa0be	0.19787881
176	0x3ceba9e9	0.028767543
177	0x3e1b9d3f	0.15196703
178	0x3d8c89e0	0.06862235
179	0x3e93a4e7	0.28836748
180	0xbc1bbd0d	-0.009505522
181	0xbf1fe118	-0.6245284
182	0xbf3d3766	-0.73912656
183	0xbeb9d3b6	-0.36294335
184	0x3dd8c8d4	0.1058518
185	0xbca36f68	-0.019950584
186	0xbe43a354	-0.19105273
187	0xbe840b68	-0.25789952
188	0xbe72ca13	-0.23709898
189	0xbecadf3f	-0.39623448
190	0xbe4f9641	-0.20272161
191	0xbd71d25d	-0.05903851
192	0x3df2afc4	0.11849931
193	0x3e206d26	0.15666637
194	0xbea787c9	-0.32720783
195	0x3f14f612	0.58187973
196	0x3ec0f73d	0.37688628
197	0x3db14fc0	0.08657789
198	0xbe414330	-0.18873286
199	0xbe2d552e	-0.16927025
200	0x3d073a24	0.03301443
201	0x3d9e7e7a	0.07738967
202	0x3f23060f	0.6368112
203	0x3da14622	0.07874705
204	0x3e928673	0.28618202
205	0x3ed20f9f	0.41027543
206	0x3d5f6ab9	0.054545138
207	0x3f0c22f4	0.54740834
208	0xbe8b2bb5	-0.27181783
209	0xbe080293	-0.13282232
210	0x3ebf64a9	0.37381485
211	0xbe4b0389	-0.19825567
212	0xbf2ec880	-0.6827469
213	0xbefda6b7	-0.49541256
214	0x3e598278	0.21241176
215	0xbe874a34	-0.264238
216	0xbdcdad0d	-0.100427724
217	0x3d73048c	0.059330508
218	0xbd9cf852	-0.07664551
219	0x3e0a316e	0.13495418
220	0xbe92906d	-0.28625813
221	0xbf0b6813	-0.5445568
222	0x3dc083fb	0.09400173
223	0x3d5f4cb7	0.05451652
224	0xbde1b31f	-0.11020493
225	0xbf108269	-0.5644899
226	0xbef4343c	-0.47696102
227	0x3ea21d47	0.31662962
228	0x3d8cb810	0.06871045
229	0xbe33435e	-0.17506167
230	0x3e041d0a	0.12901703
231	0xbeaa2723	-0.33232984
232	0xbd58cfa3	-0.052932393
233	0x3eca28eb	0.39484343
234	0x3e36cd4b	0.1785175
235	0x3e4bb81e	0.19894454
236	0xbec8e863	-0.39239797
237	0x3dcdc395	0.1004707
238	0x3e08ae3b	0.13347714
239	0x3dca1dff	0.098690026
240	0x3da741a6	0.08166818
241	0x3eb41993	0.35175762
242	0xbe86a01d	-0.26294032
243	0x3e06aea5	0.13152559
244	0x3e17a5d5	0.14809354
245	0x3da9fae0	0.08299804
246	0xbe588f8e	-0.21148512
247	0xbf231eb7	-0.6371874
248	0x3d2a9962	0.041650183
249	0x3db17041	0.08663989
250	0x3d8635e3	0.06553247
251	0xbe975e07	-0.29563925
252	0xbe73f543	-0.23824029
253	0x3df1d009	0.11807258
254	0xbcecd62a	-0.028910715
255	0x3f18d6cb	0.5970275

out.bias f4 [5]
0	0x3ecb8eb0	0.397573
1	0x3ed6dc39	0.41964892
2	0x3f021903	0.50819415
3	0x3f181526	0.5940727
4	0x3ee79cb1	0.45236734
