SimplifiedSpaceWar/trained_models/dqn2_bullets_16500.pth (torch, 89177 bytes, 6 tensors)

fc1.weight f4 [128, 33]
000000 0b bc ac be 07 9c 0e bf c5 e3 5b bc af f7 69 3e
       -0.33737215 -0.5570683 -0.013421004 0.2284839
000010 da bf 66 3e 67 92 44 be af 8d 8a be 05 69 f9 be
       0.22534123 -0.19196473 -0.2706122 -0.48712936
000020 59 7d 80 3d a2 84 38 be c7 89 45 bd 2a 97 aa bd
       0.06273908 -0.18019345 -0.048227098 -0.083296135
000030 39 bb 9b be 7c 11 d5 3c 37 b2 3c 3b df 9c 3e 3e
       -0.30416277 0.026009314 0.0028792748 0.18614529
000040 d7 8b 28 be 5b e9 61 3e cc d2 1f 3d a8 81 0b be
       -0.16459595 0.22061674 0.03901939 -0.13623679
000050 b8 bd 1d bf 63 55 65 bc 3f 34 04 3e 71 77 8c bc
       -0.6161761 -0.013997409 0.12910555 -0.017146798
000060 59 a6 a1 3e 77 4e d0 3d 03 f3 b4 bd 0c 90 60 3e
       0.31572226 0.10171216 -0.08835413 0.2192995
000070 24 54 12 3d be 45 03 be c4 01 d5 3b cb b0 3f be
       0.035724774 -0.12819573 0.0065004546 -0.18719785
000080 a8 03 5a be 7a 4d fd 3f d4 7b 21 40 3a 21 80 3e
       -0.21290457 1.9789269 2.5231829 0.2502535
000090 20 4b 92 be 0a 7f 07 3e d6 6f 25 3f 0a 3f bb 3e
       -0.2857294 0.13232055 0.64623773 0.36571532
0000a0 10 5b fe 3e d9 22 3a bb db 6d 0c 3f 61 af 6e bf
       0.4967885 -0.0028402118 0.54855126 -0.93236357
0000b0 65 68 46 bf 97 6b 99 3e b8 e0 4e 3e 61 7a d7 bd
       -0.77503043 0.29964897 0.20202911 -0.10521389
0000c0 30 f0 35 3f 7c f7 eb 3e 03 ce 08 3e a1 10 b3 3d
       0.7106962 0.46087253 0.13359837 0.08743406
0000d0 64 0f d1 be 8f ef 0a 3d 55 32 90 be 51 28 e1 bd
       -0.40832055 0.033919867 -0.281634 -0.10994018
0000e0 9c 17 8a bc d6 73 82 be 8d 61 f9 3d 75 62 6f be
       -0.016856961 -0.25479 0.121768095 -0.23377402
0000f0 be b6 66 bd fd 71 99 bd 1c ca 71 be 32 c3 ba be
       -0.05632662 -0.07492445 -0.23612255 -0.36477047
000100 2f 7a fa bd ae 96 15 be b3 40 10 c0 99 89 ac 3f
       -0.12230336 -0.14608261 -2.253949 1.3479491
000110 03 1d 1b 3f c0 21 96 be 9a 4a e6 3e 7d 44 c7 be
       0.60591143 -0.29322624 0.4497879 -0.3891944
000120 d4 96 d9 3d 02 68 b3 3d 49 c1 ea 3b 7a a2 96 3d
       0.10624471 0.08760072 0.0071641547 0.07355209
000130 53 c6 21 3e 29 df 2f bf 7d 33 31 be a9 5a 82 bf
       0.15798311 -0.6869989 -0.17304797 -1.0183917
000140 4f 88 c7 bd 25 01 9c bf cb 09 11 bc f7 21 a3 bd
       -0.09742796 -1.2187849 -0.0088524325 -0.07965463
000150 1c 7d 88 3e 6b 21 02 bf 28 70 33 bf f0 aa 03 be
       0.2665795 -0.5083224 -0.7009301 -0.12858176
000160 c4 0d 68 3e 8b 20 2f 3f ec 21 93 be 00 fe 0b bf
       0.22661501 0.6840903 -0.28736818 -0.5468445
000170 a2 62 bf bd 76 f4 29 3e b8 3d 6b be 68 de 86 be
       -0.093449846 0.1659716 -0.22972763 -0.26341558
000180 16 4c da be 70 cc b0 3d 7c e2 a8 be 22 c2 70 be
       -0.42636174 0.08632743 -0.32985294 -0.23511556
000190 f4 d3 40 3f 34 58 cd 3d 04 7a bd be 00 5d 6f be
       0.75323415 0.10026589 -0.37007153 -0.2337532
0001a0 bb a7 f8 3e 3f 6d 18 3f f7 82 e3 3e 21 15 aa bc
       0.48565468 0.59541696 0.44435856 -0.020762028
0001b0 20 72 d2 be 15 31 3b be a6 83 df be 89 85 5a 3f
       -0.41102695 -0.18280442 -0.43655127 0.8536001
0001c0 52 37 9b be 99 b1 4d be 25 50 87 bc cb 9f 8e bd
       -0.30315644 -0.2008728 -0.016517708 -0.06964072
0001d0 35 a0 b9 be f2 7d 18 be f2 b9 02 3f ef 2b 91 be
       -0.3625504 -0.14891794 0.5106498 -0.2835383
0001e0 fe 66 af bf 82 79 c5 be 49 cb 30 3f 70 0b 07 3e
       -1.3703306 -0.38569266 0.6906019 0.13187957
0001f0 6b b9 82 bd ac 24 c3 bd ae 0e 90 bf 7c f5 3e 3e
       -0.06383022 -0.09528479 -1.125448 0.18648332
000200 65 60 6c be fe ec 4d be 2e bc 1c be d7 e5 ea bd
       -0.23083647 -0.20109937 -0.1530616 -0.1146962
000210 61 de a5 be cd 49 37 bf 44 ee ad be 08 6a f6 be
       -0.32396224 -0.71596986 -0.33970845 -0.4812777
000220 79 8b 3e bd 9d a2 2e bf 9b 94 c7 be 19 41 db 3f
       -0.04651973 -0.6821688 -0.38980564 1.7129241
000230 e1 77 ab bc 8a b6 85 bf b9 df d7 3d 1c 10 6e bf
       -0.020931186 -1.0446332 0.105407186 -0.9299333
000240 f7 22 aa be 9c 39 a4 be c1 90 64 bf 22 85 19 be
       -0.332298 -0.32075202 -0.89283377 -0.14992192
000250 d1 44 66 be a8 20 73 be ef e3 a3 3d 30 13 9a 3e
       -0.22487189 -0.23742926 0.08002459 0.30092764
000260 cf 1d da bd 91 ad 37 bf 3c 87 3d bf 20 eb 10 3f
       -0.10650217 -0.71749216 -0.74034476 0.5660877
000270 bd bb a5 3e 42 43 86 bd 7b 6b 42 be 73 3a 61 3f
       0.32369795 -0.06555797 -0.18986313 0.8797981
000280 e0 9c 24 3f ab 25 ca be e0 fe 45 be a9 ee 4f 3f
       0.6430187 -0.39481863 -0.19335508 0.8122354
000290 42 c8 54 3f 90 05 d9 3f 5e 43 70 3e 71 08 c7 be
       0.8311807 1.6954823 0.23463199 -0.38873628
0002a0 f0 69 9a bd fb 5a 6d 3f 38 1c 9e 3e a2 9a ee 3e
       -0.07539737 0.9271695 0.30880904 0.4660235
0002b0 08 31 2a bd 50 0d 1d be 0e 35 97 be f9 7e 65 be
       -0.041550666 -0.1533711 -0.29532665 -0.22411717
0002c0 34 fb 40 bd 9a ee 26 bf 3a 0f 6f 3e 38 b3 f0 be
       -0.047114566 -0.6520783 0.23345652 -0.47011733
0002d0 24 e8 58 3f a9 01 5c 3e 3f d6 b4 bd f9 88 56 3d
       0.8472922 0.21485008 -0.08829927 0.05237672
0002e0 bf ce 5e 3f 1d f5 2a 3f f2 20 02 bf 5b c5 04 bf
       0.8703422 0.66780263 -0.5083152 -0.5186364
0002f0 ef bb db 3d 1b 01 30 3e 37 f3 4b be ea 61 fb bd
       0.10729205 0.17187922 -0.19916998 -0.12274535
000300 fa 2a be 3e 76 60 63 be 36 3b 5d 3e 71 15 32 3e
       0.37142164 -0.22204766 0.21604618 0.17390992
000310 4a 63 1f be f0 9a 42 be 26 e3 c2 bf 1e 30 f1 3d
       -0.1556522 -0.19004416 -1.522557 0.11776756
000320 4d 47 a6 3e 7e 6d 87 3e 76 6d a0 be 7b 2e 92 be
       0.32476273 0.26450723 -0.31333512 -0.28551087
000330 57 46 d0 3d d9 4c 60 3f 39 fd e9 be 9f 65 29 3e
       0.10169666 0.8761726 -0.45701006 0.16542672
000340 b6 4a 4d bf 8b e6 f4 be 28 7e 4e be c8 f2 68 3e
       -0.80192125 -0.4783214 -0.20165312 0.22748864
000350 90 b4 06 be 04 94 29 3d 20 7a d1 3e 2b 8f 01 3e
       -0.13154817 0.041400924 0.40913486 0.1265227
000360 7d 03 93 be bd e6 81 bd b2 8f c7 3c 7b be 2d bf
       -0.287136 -0.06342838 0.024360511 -0.67868775
000370 1a 3c 14 bf d7 e0 5f be 28 bf 27 3f 53 a9 db be
       -0.5790421 -0.21863113 0.65526056 -0.42902622
000380 d5 7e 7f 3e a8 63 0d be 9a eb 59 3e 24 e1 9d bd
       0.24950726 -0.13807547 0.21281281 -0.07708958
000390 e7 d6 7c 3c 1f 96 af 3e f1 8d 4f be e1 f7 a1 3f
       0.015432096 0.3429422 -0.2026899 1.2653772
0003a0 69 81 6a bf 1f 12 01 be 88 27 de bd ab 9d 59 3f
       -0.91603714 -0.12604569 -0.10847384 0.8500621
0003b0 76 94 94 be be cf 32 bf 2e 8d f0 be 5b aa 32 bc
       -0.29019517 -0.6984824 -0.46982712 -0.010904874
0003c0 fb 6b 96 3f bb f6 38 bf 29 b9 83 3f f8 d9 d7 be
       1.1751703 -0.7225148 1.0290881 -0.42158484
0003d0 5f ab 25 be da f5 13 3e c2 21 39 3e 1e 8c 69 be
       -0.16178654 0.14449254 0.18079284 -0.22807357
0003e0 55 2b ab be 8b 0e 2b be 92 8a 18 3f 7f 96 97 3e
       -0.33431497 -0.16704766 0.5958644 0.29607007
0003f0 65 98 44 be 4e 67 7e 3d bf 5c b9 be 21 8f b1 3e
       -0.19198759 0.062110238 -0.36203572 0.3467951

fc1.bias f4 [128]
000000 aa 37 29 3f e8 8c 10 3e 99 5f 8b bf fd 61 4e 3c
       0.6610056 0.14116251 -1.0888549 0.012596604
000010 39 3a cd 3e e7 80 92 3e d6 1d 70 3d 74 ca df 3e
       0.40083483 0.2861397 0.058622204 0.43709147
000020 4f 07 84 bd 5a 28 02 3e 62 02 9f bd 48 91 9a 3d
       -0.064467065 0.12710705 -0.07764126 0.075472414
000030 4a 93 32 3f 03 aa e8 3d 17 e1 86 3d 9f e2 56 bd
       0.69755995 0.11360552 0.06585901 -0.052462216
000040 e8 0d 24 3b 50 b6 20 3f b6 4c 17 be 3c 83 d9 bd
       0.0025032703 0.62778187 -0.14775357 -0.10620734
000050 98 4a 40 3f 20 5e c5 3e 92 8a bf bd 69 1c f8 3e
       0.7511382 0.38548374 -0.09352602 0.48459175
000060 76 25 ba 3e 7e d8 8b 3e 68 6e a0 3e 74 be 58 3f
       0.36356705 0.27313608 0.31334233 0.8466561
000070 e5 eb 9d 3e 9c b3 a1 bc c2 b7 c2 3e 7c 0f 90 3e
       0.30844036 -0.019738965 0.3803082 0.28136814
000080 a5 c1 32 3f 29 b4 fb 3e c8 3b 2c be c5 36 cd 3e
       0.6982673 0.4916089 -0.1681968 0.40080848
000090 b3 10 84 be 61 e4 b3 3e 76 c9 98 3f 29 71 10 be
       -0.2579399 0.35135177 1.1936481 -0.14105667
0000a0 e6 9e cd be ef 53 e1 3b 33 eb ac 3f 78 7e 5d 3f
       -0.40160292 0.0068764607 1.3509277 0.865211
0000b0 87 2a 7b 3d aa de 7f 3e 39 29 81 3f b3 2c 2e bc
       0.061319854 0.24987283 1.0090705 -0.010630774
0000c0 9a 4d 88 be 69 b7 1c 3e c7 e4 2c 3e 4e 11 14 3e
       -0.26621705 0.1530434 0.16884147 0.14459726
0000d0 d8 a2 a7 be 14 ff 36 bf 92 48 27 3e 89 0a 4f 3d
       -0.32741427 -0.7148297 0.16336277 0.050547156
0000e0 a6 3b 86 3f 4c 44 cd 3f 89 9c 0d bc 45 36 38 3e
       1.0486953 1.6036468 -0.008643278 0.17989452
0000f0 41 34 8c bf d4 59 2f 3d 64 4a 19 3f 14 72 44 3f
       -1.0953447 0.042810276 0.59879136 0.7673657
000100 4c 6b 9e 3d 84 32 9b be 78 e8 0d 3e 02 73 2d be
       0.07735309 -0.30311978 0.13858211 -0.16938403
000110 a9 fd 73 3e 32 74 41 be d0 d3 06 3f a5 c0 2e be
       0.23827232 -0.18891981 0.5266695 -0.17065676
000120 b0 de 0e 3f 12 23 16 3e f5 f8 12 3f 25 4b 0b 3f
       0.55808544 0.14661816 0.5741113 0.54411536
000130 c6 13 0f 3f 38 6b bb 3d dd 96 b5 be 78 d8 5d 3d
       0.55889547 0.0915131 -0.35466662 0.05416152
000140 7b 15 21 3f 8f ff be bd a9 55 ad 3e 4c b2 96 3f
       0.629234 -0.09326088 0.33854416 1.1773162
000150 03 f1 3a 3c 5b cf d2 bd 53 9b 98 3e 41 00 16 3f
       0.011410001 -0.10293456 0.29806003 0.5859414
000160 c0 9f 8e 3e a8 f4 a4 3e ba 20 81 3f 4b 5e 73 3f
       0.27856255 0.32217908 1.0088112 0.95065755
000170 a7 fc b6 3e 54 23 7f 3f ce 19 a4 3e 88 53 a5 be
       0.35739633 0.9966328 0.32050937 -0.32290292
000180 4c c3 37 3e 06 73 1c 3f ab e3 56 40 c8 2c 20 3f
       0.17945594 0.6111301 3.3576458 0.6256833
000190 1b 5a 6d be 5f ab e8 3d 4e 16 ac bd ca 5e 2a 3f
       -0.23178904 0.113608114 -0.08402692 0.66550887
0001a0 83 90 2b 3e bb 1f 06 3e 3d 4d f5 be b2 2c 5d 3d
       0.16754346 0.13098042 -0.4791049 0.053997703
0001b0 58 bb 33 3f 52 3f 86 bd e5 fa 5d be 8b c6 67 3f
       0.7020774 -0.06555046 -0.2167774 0.9053733
0001c0 9e 6a c1 3e 87 e0 2d 3f b3 bd 8d 3f 67 3d 44 3e
       0.37776655 0.67920727 1.1073517 0.19164048
0001d0 0c 19 f5 3e fb 5d ad bd a7 e2 b7 3e 80 48 58 3f
       0.47870672 -0.08465191 0.3591511 0.84485626
0001e0 20 7e 21 3e 8a a5 81 3f 9f b8 ff 3d 89 00 f6 bd
       0.15770769 1.0128644 0.124863856 -0.12011821
0001f0 16 92 2f 3f 39 03 f8 3e 8f 1a bc be a4 2a fb be
       0.68582284 0.4843996 -0.36739013 -0.4905597

fc2.weight f4 [128, 128]
000000 97 05 97 bc 8e 06 3c be 16 40 76 3c 5e 04 8b bf
       -0.018435283 -0.18361875 0.015029928 -1.0860708
000010 f8 8b b0 bd a4 4b d2 3d 7b ea dc bb 75 c7 38 bf
       -0.08620447 0.102683336 -0.0067418194 -0.7217935
000020 c7 c8 70 3c 52 e9 57 3e 5d 56 14 3d 2f 5c 62 3d
       0.014696307 0.21085098 0.036215175 0.055263694
000030 21 3b ab be 65 41 b3 be 30 c8 99 be 03 21 6c bd
       -0.3344355 -0.3501083 -0.30035543 -0.05764867
000040 83 9f 1d be b0 80 03 be fd 97 58 3d 2e da 7e be
       -0.1539288 -0.12842059 0.052879322 -0.24887916
000050 38 64 21 3e 77 60 c2 3b 54 ec 2a 3d 06 42 50 3e
       0.15760887 0.0059319097 0.041729286 0.20337686
000060 8a 06 4b bf cc b1 b1 be 74 c4 93 be a8 68 ef bd
       -0.7930685 -0.3470596 -0.2886082 -0.116898835
000070 f0 72 ea bd ab 37 b6 3c a4 84 43 ba b5 7d 4c be
       -0.11447704 0.022243341 -0.00074584247 -0.19969828
000080 0a f6 32 bf 37 bf 31 be d7 e9 8b 3d 6b 71 31 3e
       -0.69906676 -0.17358099 0.06831711 0.17328422
000090 59 78 4e 3d 66 0b e1 bc 35 61 fd be 47 a6 ec 3d
       0.05040774 -0.027471256 -0.49488226 0.115551524
0000a0 01 82 cc be 58 32 24 3e 71 0d f0 be 38 53 ae 3d
       -0.39942935 0.1603483 -0.46885255 0.085119665
0000b0 b0 3b 79 be f8 81 d7 bd 66 c3 ba be a7 27 c4 3d
       -0.24339175 -0.105228364 -0.36477202 0.095778756
0000c0 cf 66 d4 bd 5f 0e 37 bd da 88 a7 3d 0a a7 5c be
       -0.10371172 -0.04469144 0.08180399 -0.21548095
0000d0 37 ac 0b be f0 5b 90 bd 96 47 3d be a3 7e 21 bd
       -0.13639913 -0.07048786 -0.18484339 -0.03942741
0000e0 06 02 87 bf b7 29 ab be 0f 6d 11 be 78 8a 36 3c
       -1.0547493 -0.33430263 -0.14201759 0.011141412
0000f0 81 a3 18 be a2 43 91 be be cb cc 3d c0 dc 21 3d
       -0.14906122 -0.28371912 0.09999798 0.039517164
000100 2c 81 fb be 09 48 84 3e 9a 1e ae bd 3b cb f4 3b
       -0.49121988 0.25836208 -0.085019305 0.007470516
000110 85 74 97 3e 2c 4b 83 be 28 0e 00 3e 34 4c 40 bc
       0.29581085 -0.2564329 0.125054 -0.011736918
000120 b5 22 5b be 61 33 2e 3d 20 a4 17 be 24 49 80 3d
       -0.21399958 0.042529467 -0.14808702 0.062639505
000130 6f 27 80 3c 42 39 7c be 09 17 de bd cd bf 56 be
       0.015643803 -0.24631217 -0.10844237 -0.20971604
000140 c6 e6 b3 bd cb a2 0c be af f6 8d bd dc d7 93 be
       -0.08784251 -0.13733976 -0.06931817 -0.28875625
000150 6c 1e 9f 3e 62 41 65 be ce ff 91 be 51 91 1c be
       0.31077898 -0.22388223 -0.28515476 -0.15289809
000160 71 ac 34 3d 37 eb ae bd e7 2a 6a bd 48 7e 88 3d
       0.044109765 -0.085409574 -0.05716982 0.06664711
000170 d2 09 fc be 4c 80 39 be 46 9d 36 3e f6 67 62 3d
       -0.49226242 -0.18115348 0.17833433 0.055274926
000180 33 2f 2c 3d d2 5f 12 be bf 2c 0e bf ae 36 ff bd
       0.0420372 -0.14294365 -0.5553703 -0.12461601
000190 1e d9 b7 be d2 84 43 bd 92 8c 10 bc 63 56 c1 3d
       -0.35907835 -0.04773409 -0.008822577 0.09440305
0001a0 d7 76 0a 3d 6c a6 89 bc 7f bf 29 3d a8 33 f9 be
       0.03380474 -0.016802989 0.04144239 -0.48672223
0001b0 5d e7 b5 3e 59 4d 4d bd b9 40 7d 3d f7 fc 4b bf
       0.3552808 -0.050122593 0.061829302 -0.7968287
0001c0 7d c6 f2 be 2f 61 dd be 76 9a 7d 3c 0d cc bd 3e
       -0.4741706 -0.43238208 0.015478721 0.3706974
0001d0 0e 4e e6 3d fa f7 11 3e e1 a1 78 be db 60 1c be
       0.112453565 0.14254752 -0.24280502 -0.15271322
0001e0 13 08 59 3d 75 44 4e be 8c 63 1d bd d5 d4 18 bd
       0.052986216 -0.20143302 -0.038425013 -0.037312347
0001f0 4b c8 65 be bd d5 51 3d 4d fe 1e 3d 2c 90 a9 be
       -0.22439687 0.051229227 0.03881674 -0.33117807
000200 3b 05 33 be b1 cc ba 3c 8c bc 5d be a1 10 96 be
       -0.17482464 0.022802683 -0.21653956 -0.29309562
000210 4b cd 96 be 32 de a8 bc 2e 7a 59 3c 6a 96 a5 be
       -0.294535 -0.020613763 0.013273759 -0.3234132
000220 9d 1f b8 be 01 3a f5 3d 00 ba 62 3e e4 c5 24 be
       -0.3596162 0.11973954 0.22141266 -0.16091114
000230 83 f7 20 bf c3 f2 45 be 11 fb d9 be 06 05 65 3e
       -0.6287767 -0.19330887 -0.4257436 0.22365198
000240 bf d8 dc 3d a5 7b db be 42 05 22 3d 86 b1 2d be
       0.107835285 -0.4286777 0.039555795 -0.16962251
000250 96 c0 97 be 41 30 5e bd a8 c8 9c be 8b 10 0f 3c
       -0.2963912 -0.054245237 -0.3062184 0.0087319715
000260 1e 3d 81 3e e7 09 18 be de 9e 3d bb ca 17 c2 bd
       0.2524194 -0.14847527 -0.0028933804 -0.09477194
000270 bb 6b 36 be 6f 61 48 be 14 4c 52 be 6b 4f 55 be
       -0.17814533 -0.19568418 -0.20536834 -0.20831077
000280 60 f2 d9 3e 9a f3 84 be 56 75 57 3e 4e 92 c5 bd
       0.4256773 -0.25967103 0.21040854 -0.09647046
000290 80 90 e4 3c 93 32 be be 80 c1 fa be 60 ad b8 3c
       0.027900934 -0.3714796 -0.48975754 0.02254361
0002a0 31 1e d0 bd 82 37 72 bd fa 5b 92 be 05 82 13 3d
       -0.101620086 -0.059134968 -0.28585798 0.03601267
0002b0 2c e7 08 bf 55 59 01 3f fa ad ef bb f3 e1 59 3c
       -0.5347774 0.50526935 -0.007314441 0.013298499
0002c0 e1 e9 9d 3d 84 62 23 bd 15 01 1d bf 35 c4 90 be
       0.077106245 -0.039888874 -0.61329776 -0.28274694
0002d0 5a 4f 17 be 0e 53 1b be c0 1a 3d be 44 1d 0d bd
       -0.14776364 -0.15168402 -0.18467236 -0.034451738
0002e0 b6 3c 15 3e 9a b3 1a bf 56 99 7b bc d0 51 73 3e
       0.1457394 -0.604303 -0.015356382 0.23761678
0002f0 f3 21 48 be b1 31 3d be 4f be 87 3e 0d 57 8f be
       -0.195442 -0.18475987 0.2651238 -0.27996102
000300 86 06 88 3e 11 ed 14 3c 2a 9b 41 3d 67 7c fd bc
       0.26567477 0.009089724 0.047267117 -0.030943109
000310 50 5b 98 bd 07 27 d9 be 5c ec a6 3d ee 06 8d 3e
       -0.074392915 -0.42412588 0.08150551 0.2754435
000320 4d bf 99 bd 75 4c 2f be a1 44 54 be 06 18 29 3d
       -0.07507191 -0.1711901 -0.20729305 0.041282676
000330 42 ce 3d 3e a8 cc 94 be 5a 3c a1 bd 50 27 74 3c
       0.18535712 -0.2906239 -0.07872839 0.014901951
000340 09 34 41 be 86 bc bd bd 63 6e a5 be 2c 87 d7 bc
       -0.18867506 -0.092644736 -0.3231078 -0.026309572
000350 84 01 20 be e2 41 56 3d 17 3f 33 be b1 da fc bd
       -0.15625578 0.052308924 -0.17504536 -0.123463996
000360 fb 3f 94 3e 54 6e be bd e4 ae 51 be 04 4b e2 3d
       0.28955063 -0.09298387 -0.20476872 0.11049464
000370 37 45 71 3d e7 84 31 bf 66 1f 75 3d c7 91 08 bf
       0.0589039 -0.6934342 0.059844397 -0.5334744
000380 1e fb 97 3e d8 61 e9 3d 81 0f 29 bf fa 17 23 be
       0.29683775 0.11395615 -0.6603928 -0.15927115
000390 2d 09 01 bd ae 74 0a 3d e8 04 87 3d 44 ed c9 3d
       -0.03150289 0.03380268 0.06592733 0.09859708
0003a0 88 d4 72 be 8c 0b a1 3e 50 b5 38 be 02 9b c4 3d
       -0.23713887 0.31454122 -0.18037915 0.09599878
0003b0 c8 0f c1 3d 79 16 36 3e ff d7 18 bf 28 d3 f5 be
       0.09426838 0.1778201 -0.59704584 -0.48012662
0003c0 7e fa f3 be 8f dc 4f bd dc 29 65 be 9e 57 30 3e
       -0.47652048 -0.05074745 -0.2237925 0.17220923
0003d0 c6 cd b9 3e 11 95 fb 3d 9b 5e 03 be 10 87 25 3f
       0.36289805 0.122842915 -0.12829058 0.64659214
0003e0 70 48 23 bc 8b fa d1 bd d5 d1 9a bb 0f 84 e4 be
       -0.009966001 -0.102528654 -0.004724721 -0.44632003
0003f0 15 77 49 3c 05 98 f4 bd fd 91 66 be ed 8c af 3d
       0.012296458 -0.11943058 -0.22516628 0.08571801

fc2.bias f4 [128]
000000 b7 ca 39 bc 2e 98 9a 3e bd 0b 2a be c0 f0 94 be
       -0.011339835 0.3019423 -0.1660604 -0.29089928
000010 db 0b 82 be d6 a0 2a 3e e2 fe 62 3d 1c fa d8 3d
       -0.2539967 0.16662917 0.055418856 0.105945796
000020 a7 74 28 3f b0 57 fd 3a e4 6c 9f be 27 02 0d 3d
       0.65803 0.0019328501 -0.31137764 0.03442588
000030 e4 f4 22 bd 4b 7c 18 3e 83 44 02 3d 4c 07 50 bd
       -0.039784327 0.14891164 0.03180362 -0.05078821
000040 65 1a 0d 3e a7 64 0c 3f 1b 90 24 be ef b1 4a bb
       0.137796 0.54841083 -0.16070597 -0.003092881
000050 56 b2 89 bd bf 17 2a 3e ff 22 c8 bd 07 0c 81 3e
       -0.06723468 0.16610621 -0.097723 0.2520449
000060 6c 6e cb be 58 83 c2 bc 47 19 19 3e e6 2a 1c 3f
       -0.39732683 -0.02374427 0.14951049 0.6100296
000070 0d 6c 06 bd d5 db cd 3d a6 ef dc 3c 7b 00 a3 b7
       -0.03281789 0.10051695 0.026969742 -1.9431338e-05
000080 4c 0d 87 3f 0a 75 65 3e d0 96 1d bf 3f 43 ac 3d
       1.0550933 0.22407928 -0.61558247 0.08411264
000090 0b 6d 93 be 7a f8 9f bd 36 41 51 3e 18 a2 1c be
       -0.2879413 -0.07811065 0.20435032 -0.15296209
0000a0 48 16 7e be c7 f6 87 be f2 4f e4 be 9b 0a 01 3d
       -0.24813187 -0.26555464 -0.44592243 0.031504255
0000b0 02 91 c6 bd 9f 7b b5 3c 41 b1 8d 3d 5b 8f 42 be
       -0.09695627 0.022153674 0.06918574 -0.18999998
0000c0 84 cb 00 3f 16 63 cc 3d d3 12 12 3f ca 42 00 3e
       0.5031054 0.09979837 0.57059973 0.12525478
0000d0 7e 7d e6 3d c7 7f 50 3e 5d 30 fc 3d f2 c3 08 3c
       0.112544045 0.20361243 0.12313912 0.008347498
0000e0 fa 65 37 3d fd 1f 86 3c 22 df 52 be 99 9c 61 3e
       0.044774987 0.016372675 -0.20592931 0.22032394
0000f0 6d c6 cf 3c 0c ca a1 bd 1f 17 61 bd 5a f9 79 3e
       0.025363171 -0.078998655 -0.05495369 0.24411526
000100 e0 55 4e 3b c5 44 52 bd f1 f8 0c bd 8c 70 aa 3c
       0.003148429 -0.051335115 -0.034417097 0.02080562
000110 aa 92 1e bd e8 90 54 bd de 77 8d 3d 6c 02 08 3f
       -0.03871409 -0.051896006 0.069076285 0.53128695
000120 78 df 50 3c 90 5a 6c 3f de 27 1d 3e ae 7c 1c 3f
       0.012748592 0.9232569 0.1534724 0.61127746
000130 de 10 97 3e dd 09 ef bb f3 6d d3 3e 16 c2 20 bd
       0.29505056 -0.007294877 0.41294822 -0.039247595
000140 75 ae af bc 61 4f b4 3d e3 ff 86 bb 78 5d 6c 3e
       -0.021445492 0.08804203 -0.0041198595 0.2308253
000150 14 80 13 bd 36 38 af 3d 7b fb 5b be 00 07 75 3e
       -0.036010817 0.08555643 -0.21482651 0.23928452
000160 38 cd 0c ba 83 d2 b3 bd c4 7f d9 3d 91 58 7d 3f
       -0.0005371156 -0.08780386 0.106200725 0.98963267
000170 3a bd ae bc 0f 06 07 3e 07 dc ea 3e 24 4c 95 bd
       -0.021330465 0.13185905 0.45870993 -0.07289913
000180 65 97 16 3e ce 3c 4e be 3f 31 22 be 1e 2c d3 3e
       0.1470619 -0.20140383 -0.15839098 0.41244596
000190 54 4c 8f bd cd 1d 5a be 30 6a 0e bb 57 70 2a bf
       -0.0699698 -0.2130043 -0.0021730773 -0.66577667
0001a0 66 0e 3f bd 0d 1f ce 3d 38 5b 4c be f2 d1 76 3d
       -0.04664459 0.10064516 -0.19956672 0.060258813
0001b0 ac b1 8b 3e a1 c4 72 3f 17 15 ed bc 61 7c 59 bd
       0.2728399 0.9483128 -0.02894072 -0.053097133
0001c0 ed 38 4c 3f 52 c1 c3 3d eb 7c 54 3c e8 ce 95 be
       0.7977436 0.09558357 0.012969236 -0.2925942
0001d0 4e a6 87 3e 2d 4d 8f 3f 52 74 1b be f5 f0 c8 3e
       0.26494068 1.1195427 -0.15181091 0.39246336
0001e0 d7 2f c3 3d 4c c2 a7 3e e5 90 37 3e df 72 e9 3d
       0.09530609 0.32765424 0.17926367 0.11398863
0001f0 97 a1 50 be 15 ce 97 3f 68 7d 6e be 68 2c 95 bd
       -0.20374142 1.1859766 -0.23290026 -0.072838604

out.weight f4 [5, 128]
000000 92 5f aa 3d 22 28 9b be 5e ce 9d bd e5 c7 9e be
       0.0831901 -0.30304056 -0.07705377 -0.31011882
000010 a8 59 c3 be 04 32 b2 be e3 af bd 3e 3d e7 dc 3d
       -0.3815434 -0.34803784 0.37048253 0.10786293
000020 fb 56 c1 3d c7 2b 1a bf 25 5c 1c be 8b 1e 67 3d
       0.09440418 -0.6022305 -0.15269525 0.056425612
000030 2e 7b 5e 3e c4 4e b3 3e 35 f1 c6 3e 5d 23 bc bd
       0.21726677 0.3502103 0.388559 -0.091864325
000040 e5 d4 e8 bd 60 86 ae 3d 4a b3 96 bc ba e8 df be
       -0.113687314 0.08521724 -0.018396039 -0.43732244
000050 b3 1e 64 be a2 3d 12 bf 0e f3 2d bf bc db b3 3e
       -0.22277336 -0.57125294 -0.67949 0.35128582
000060 ff 49 9b be 6a cd 09 3f a3 ba df bd d8 2e f9 3e
       -0.30329892 0.5382906 -0.1092427 0.4866855
000070 f7 48 77 be 35 23 c9 3e 02 7f 31 3e 09 c5 d4 3e
       -0.24148928 0.39284673 0.17333606 0.41556576
000080 13 59 14 3e 0d 11 97 3e 71 b2 09 3e e4 4f 55 be
       0.14487104 0.29505196 0.13446976 -0.20831257
000090 31 0d 65 be 98 d6 00 bf f6 bd 20 3e 03 20 a0 3d
       -0.22368313 -0.50327444 0.15697464 0.07818606
0000a0 65 d9 f7 3d b7 1a 7d be 42 55 f9 be ac c6 d2 bc
       0.121020116 -0.24717222 -0.4869786 -0.0257295
0000b0 f4 c3 a2 3e 51 d7 0e 3e 05 86 2b 3e 8c e3 b4 be
       0.31790125 0.13949324 0.16750343 -0.35329854
0000c0 01 ba 4e 3e d2 9f c7 3d c1 67 0e 3d 31 72 38 bd
       0.20188142 0.0974728 0.034766916 -0.045030776
0000d0 5e d9 b0 3e cd 6e 67 bd 3a c3 62 be 70 64 07 bf
       0.34540838 -0.056502152 -0.22144786 -0.5288763
0000e0 0f 9d 7f 3e ea ff c3 3d 6c 2a 41 3e 51 5d 9e be
       0.24962257 0.09570296 0.18863839 -0.3093057
0000f0 3e 67 ca 3d 12 39 fa be c3 a9 66 bd 67 92 ff bd
       0.09882973 -0.48871666 -0.05631424 -0.12479096
000100 42 c5 cb be 95 12 7b 3d 6a 87 9b be 29 b2 31 3d
       -0.39798933 0.061297018 -0.3037675 0.043382797
000110 7f 26 3a 3e 08 2e a2 be 44 28 f1 be c9 5a 98 be
       0.18178748 -0.31675744 -0.47101033 -0.29756764
000120 7e 29 80 3e 04 29 14 3e c7 9d ff be af a0 1b 3d
       0.25031656 0.14468771 -0.49925062 0.037995037
000130 0b 3b f3 be f1 78 cb bd e4 59 36 be 33 c3 d5 3e
       -0.47505984 -0.09935177 -0.17807728 0.41750488
000140 94 6c c7 3e a9 f9 a4 3e 5c 1c c0 3e 04 79 33 be
       0.38950026 0.32221726 0.37521636 -0.17526633
000150 db 3e 7e bd 87 dd 1e bf 76 0b 99 3e 15 cd 48 be
       -0.062071662 -0.62056774 0.29891557 -0.19609483
000160 df 92 39 3e b9 a8 ed bc da ef 5e bc cf e3 3b 3e
       0.18122433 -0.029011117 -0.01360699 0.18348621
000170 90 92 dc be 9a 7a 55 3e 61 d8 91 3e 38 ce e2 bd
       -0.43080568 0.2084755 0.28485397 -0.11074489
000180 4d 0b 72 3e 03 fb 29 bf 57 09 7e 3e 51 0b d9 be
       0.23637123 -0.6639864 0.2480825 -0.42391446
000190 3c 4a 4f be 3c d6 33 3f d8 a9 19 3f 59 ec 9a bd
       -0.20243162 0.7024877 0.60024786 -0.07564611
0001a0 35 ba 05 3e 51 c8 0a 3e 76 b2 d1 be 8c 91 96 3e
       0.13059314 0.13552977 -0.40956467 0.29407918
0001b0 7b dc 48 3e c5 6c 2d 3e ef dc 06 be eb 01 c4 be
       0.19615357 0.16936024 -0.13170217 -0.38282713
0001c0 8a 3b fa 3d c4 e9 fb be a5 da f6 be 41 eb 34 bf
       0.122183874 -0.49201787 -0.48213688 -0.7067147
0001d0 1f 6b 31 bf 3f 51 75 3e 6f 21 4c 3e ce af 8a be
       -0.6930408 0.23956774 0.19934629 -0.27087253
0001e0 2b 54 22 bf c6 13 2b 3e 1d b5 46 bd f2 fc 9e 3e
       -0.6340968 0.16706762 -0.048512567 0.31052357
0001f0 2d 08 a1 be 91 82 88 3e 4f 68 c4 3e 14 75 3f 3e
       -0.3145155 0.26662114 0.3836083 0.18697006
000200 f6 cb 94 be 07 98 a7 3e d5 22 82 be 5c c1 e9 be
       -0.2906186 0.32733175 -0.254172 -0.45655334
000210 77 ff 57 bf b0 62 73 be e0 d0 1c 3f 41 54 96 be
       -0.84374183 -0.23768115 0.6125622 -0.29361156
000220 24 5f bf 3d 4c 55 cc be 60 fc 2c bf c1 e5 5b 3e
       0.093443185 -0.39908826 -0.67572594 0.21474363
000230 20 32 af bd 44 e1 bb be 24 fe 04 3f 73 9b 77 be
       -0.085544825 -0.36695302 0.5195029 -0.24180393
000240 d2 98 5d be 7a 39 35 3e 29 bc df 3e 32 c2 e1 3c
       -0.21640328 0.17697707 0.43698242 0.02755842
000250 60 ec e5 3e 5b 20 36 be 70 c1 02 bf d6 26 5f bf
       0.44906902 -0.1778578 -0.5107641 -0.87168634
000260 a9 89 c9 bd a7 6e f1 be 16 da 4c be 93 b0 ec 3e
       -0.0984071 -0.47154734 -0.20005068 0.46228465
000270 5f 40 01 bf e9 35 ba 3e ee eb 8d 3e c4 f0 f0 3a
       -0.5048885 0.36369255 0.27719063 0.0018382301
000280 af 89 08 3e f1 61 4f bf 01 e1 ae 3e fb 7c 26 bd
       0.13333772 -0.8100882 0.3415604 -0.040646534
000290 bf 6f 3f 3e 44 1e 43 bd 3b 39 9c 3e 1a 4a 6c bd
       0.18694972 -0.047636285 0.30512413 -0.057687856
0002a0 c0 c1 88 3e 91 cd 93 be 76 90 b5 be 90 f6 28 3d
       0.2671032 -0.28867772 -0.35461777 0.041250765
0002b0 49 41 0e be 63 56 56 be 6c ef 76 3e b5 ff c2 3e
       -0.13892092 -0.20931391 0.2411477 0.38085714
0002c0 fd 92 c1 3e 3f 9d 1b 3e f7 10 9d bc 8e 0e 9b 3e
       0.37807456 0.15196703 -0.019173129 0.30284542
0002d0 14 e4 a4 bd f4 51 12 bf ed 2e 22 bf d6 8d 07 bf
       -0.08051315 -0.571563 -0.63352853 -0.529508
0002e0 4b 76 a1 3d 68 6f a3 bc 66 9e aa bd 54 8e 8c be
       0.07883891 -0.019950584 -0.08330993 -0.27452338
0002f0 91 75 86 be 7d 1b 02 bf c8 93 85 be 23 9b 5c be
       -0.2626157 -0.50823194 -0.2608931 -0.21543555
000300 63 ae fd be bb 80 a0 3d c9 87 a7 be 37 a0 1b 3f
       -0.4954711 0.078370534 -0.32720783 0.60791343
000310 f2 b6 cc 3e 1c af 17 be 73 7f 25 bf 00 24 99 be
       0.39983326 -0.14812893 -0.646476 -0.29910278
000320 90 3e e9 3d 11 dc d8 3d 79 98 8f 3d ec f7 e8 3d
       0.11388886 0.10588849 0.07011504 0.11375412
000330 7b 35 e9 be 12 dc ec 3e f5 3a d8 3d 80 ce bc 3e
       -0.45548615 0.4626165 0.1055812 0.36876297
000340 97 bf 8e 3e 93 02 08 be b9 a9 cc 3e 2b 7e 98 bd
       0.27880546 -0.13282232 0.39973238 -0.0744594
000350 c3 8c bf be a5 98 56 bf b8 45 d2 3d 96 04 7a be
       -0.3741208 -0.8382667 0.10267204 -0.24415812
000360 0d ad cd bd 8c 04 73 3d aa 9a ea be 5a d2 3f 3e
       -0.100427724 0.059330508 -0.45821124 0.18732587
000370 fd 08 8e be 70 5c 93 be b1 d3 b9 3d 45 a4 0a 3e
       -0.27741233 -0.28781462 0.0907358 0.13539226
000380 b0 bd 1b be 11 a4 8e be 72 d7 33 bf c0 93 e5 3d
       -0.15209079 -0.27859548 -0.7025062 0.11209822
000390 44 ee d1 be 26 24 1f bf 26 e6 32 3f a7 93 da be
       -0.41002095 -0.62164533 0.6988243 -0.42690775
0003a0 f2 4b 20 be 87 c7 a6 3e c1 a5 fd 3e 3e b4 e1 3e
       -0.15653971 0.32574102 0.49540523 0.44082826
0003b0 bb c9 cb be 29 91 82 3e bf 24 f3 be 2f 3d 26 be
       -0.39802346 0.25501373 -0.47488973 -0.16234277
0003c0 b4 55 0a 3e 29 3a ff 3e 88 7b 92 3b d5 a3 f1 bd
       0.13509256 0.4984906 0.0044702925 -0.117988266
0003d0 6d 98 5e 3e 9d 05 91 3e f2 39 be be e9 b3 a7 be
       0.21737833 0.28324595 -0.37153584 -0.32754448
0003e0 ff 57 e2 3c 87 c4 08 3e 6d 78 92 3d 35 57 89 be
       0.02762985 0.13356219 0.07151876 -0.26824346
0003f0 10 ae 2d bf 5e fe 39 3e b4 96 47 be 1a ef 24 3f
       -0.67843723 0.1816344 -0.19491082 0.6442734

out.bias f4 [5]
000000 d8 f9 10 3f a4 f0 0b 3f 21 6b 35 3f 1b 81 43 3f
       0.5663123 0.54664063 0.7086659 0.76368874
000010 5f 37 2f 3f
       0.68443865
