SimplifiedSpaceWar/trained_models/dqn2_bullets_19500.pth (torch, 89177 bytes, 6 tensors)

fc1.weight f4 [128, 33]
0	0xbe56a650	-0.2096188
1	0xbf5a3ee1	-0.85252196
2	0xbe158690	-0.14602113
3	0x3e888e01	0.2667084
4	0x3e6034c0	0.21895123
5	0xbe075119	-0.1321453
6	0xbe887d0d	-0.26657906
7	0xbf058553	-0.5215656
8	0x3d1101d1	0.035402123
9	0xbec58782	-0.38579947
10	0xbebe318d	-0.3714718
11	0xbdb11cbb	-0.08648058
12	0xbe3ff296	-0.18744883
13	0xbdf552d0	-0.11978686
14	0xbd5ea840	-0.054359674
15	0x3e06f355	0.13178761
16	0xbe7fc599	-0.24977721
17	0x3e16ec4f	0.14738582
18	0x3beb0ee6	0.007173407
19	0xbddfd2e0	-0.10928893
20	0xbf085c8a	-0.53266203
21	0xbda596c3	-0.08085396
22	0x3dcd3759	0.10020322
23	0x3c80cf1e	0.015723761
24	0x3eac7a96	0.33687276
25	0x3e2f69b7	0.17130171
26	0xbc7da5b1	-0.015481398
27	0x3eac628c	0.33668935
28	0xbd8d6c7c	-0.069054574
29	0xbe112952	-0.14175919
30	0x3bfc81f5	0.007705922
31	0xbe290611	-0.1650622
32	0xbd294443	-0.041324865
33	0x4000a0a2	2.0098042
34	0x402607bd	2.5942223
35	0x3ea363d0	0.31912088
36	0xbdec0e6d	-0.11526189
37	0xbe06c864	-0.1316238
38	0x3f5a69f9	0.8531795
39	0x3e980dff	0.29698178
40	0x3f48f76e	0.7850255
41	0xbd150608	-0.036382705
42	0x3ee5fa29	0.4491742
43	0xbef0b57e	-0.47013468
44	0xbf364a6b	-0.712073
45	0x3e8ce2e7	0.27516863
46	0x3e7b645f	0.24550007
47	0xbef62521	-0.48075202
48	0x3ecc2522	0.3987208
49	0x3ef54abe	0.47908586
50	0x3e5e6320	0.217175
51	0xbcf27787	-0.02959801
52	0xbe5eef35	-0.21770938
53	0xbdb5be9b	-0.08874246
54	0xbe760ec7	-0.24029075
55	0xbe5ca0d5	-0.21545728
56	0x3f1006fb	0.5626065
57	0xbe07173f	-0.13192461
58	0x3e373201	0.17890169
59	0xbe1571c4	-0.1459418
60	0xbd8b5df2	-0.06805028
61	0xbde9e3fd	-0.114204384
62	0xbe46dc01	-0.19419862
63	0xbe87d92c	-0.26532876
64	0x3da6ff32	0.081541434
65	0xbdef5e01	-0.11687852
66	0xc01f253d	-2.4866478
67	0x3fed1381	1.8521577
68	0x3f0cbfd7	0.54980224
69	0xbeddd766	-0.43328398
70	0x3eafa795	0.34307542
71	0xbefa5561	-0.48893264
72	0x3d812753	0.063063286
73	0xbe24fe34	-0.16112596
74	0xbd645805	-0.055748004
75	0xbda3b5b4	-0.079936415
76	0x3d30d492	0.043171473
77	0xbf133341	-0.5750008
78	0x3e333e7c	0.17504305
79	0xbfa654d2	-1.2994635
80	0xbd00bc27	-0.031429436
81	0xbfa3387c	-1.2751613
82	0x3e8a91bd	0.27064314
83	0xbeb57625	-0.354417
84	0xbdb35f47	-0.08758407
85	0xbee63028	-0.44958615
86	0xbea1bc81	-0.3158913
87	0xbc895ab0	-0.016766876
88	0x3e89f67b	0.26945862
89	0x3f24afc6	0.6433071
90	0x3d893c27	0.06700926
91	0xbf11c1e2	-0.56936467
92	0xbe56facd	-0.2099411
93	0x3edab339	0.4271486
94	0x3de39872	0.11113061
95	0xbe1542c2	-0.14576247
96	0xbe978010	-0.2958989
97	0x3e64dae6	0.22349128
98	0xbd6c818c	-0.057740733
99	0xbc9fa207	-0.01948644
100	0x3f8e0228	1.1094408
101	0x3d32f4f2	0.04369063
102	0xbe1d42af	-0.15357469
103	0x3d96d5a7	0.0736497
104	0x3eeebc03	0.46627817
105	0x3f1099b7	0.5648455
106	0x3e4a1ea0	0.19738245
107	0x3c3a93ae	0.011387749
108	0xbf81677c	-1.0109706
109	0xbe92db31	-0.28682855
110	0xbeef9d87	-0.4679987
111	0x3f17d4cc	0.5930908
112	0xbea8006a	-0.32812816
113	0xbe0de95a	-0.13858548
114	0x3e034b65	0.1282173
115	0xbe80a0b5	-0.2512261
116	0x3e9c7db6	0.3056466
117	0xbe22b953	-0.15891008
118	0x3ed118a0	0.408391
119	0xbed85d42	-0.4225865
120	0xbfa0d0b9	-1.2563697
121	0xbeb00c33	-0.34384307
122	0x3f4395bb	0.76400346
123	0xbad0c6a8	-0.0015928345
124	0xbeb83286	-0.35976046
125	0xbed4e211	-0.41578725
126	0xbf905d3a	-1.127845
127	0x3c93e3db	0.018052986
128	0xbe7c5f7b	-0.24645798
129	0xbe8c9110	-0.27454424
130	0xbe224aa7	-0.1584879
131	0xbe945246	-0.2896902
132	0xbf342c20	-0.7037983
133	0xbf51084f	-0.816533
134	0xbea04843	-0.3130513
135	0xbf04a947	-0.51820797
136	0xbe1cc6da	-0.15310231
137	0xbf2b210c	-0.668473
138	0xbf359cb0	-0.7094221
139	0x3fc41f7f	1.5322112
140	0xbd46f329	-0.04857174
141	0xbf58ace7	-0.8463883
142	0xbed7ff7d	-0.4218711
143	0xbf98f816	-1.195071
144	0xbedc6acf	-0.43050238
145	0xbe606d4d	-0.21916695
146	0xbeaa0dbd	-0.33213606
147	0xbdbc1355	-0.09183375
148	0xbe92a4f5	-0.28641477
149	0xbe54ee3a	-0.20794001
150	0x3e886652	0.26640564
151	0x3e27da70	0.16391921
152	0xbdd61be6	-0.1045454
153	0xbf6a5fdd	-0.91552526
154	0xbf6af731	-0.91783434
155	0x3ef025df	0.46903893
156	0x3e988ff1	0.2979732
157	0x3dc8dc33	0.09807625
158	0xbd4f5b51	-0.050624195
159	0x3f359d7e	0.7094344
160	0x3f2f4e17	0.6847853
161	0xbe044d44	-0.129201
162	0xbcb308e2	-0.021854822
163	0x3efabee9	0.48973778
164	0x3ee9391f	0.45551392
165	0x3fd1ecf3	1.6400436
166	0x3e8118de	0.25214285
167	0xbe9970e7	-0.2996895
168	0xbe343afb	-0.17600624
169	0x3f8ca1ac	1.0986838
170	0x3dd6f105	0.104951896
171	0x3e630400	0.22169495
172	0x3f0e6791	0.5562678
173	0xbed8d2fa	-0.42348462
174	0xbeacc149	-0.33741215
175	0xbf412978	-0.754539
176	0xbea21c34	-0.31662142
177	0xbf2f79fc	-0.6854551
178	0x3ea4386b	0.32074293
179	0xbea4b736	-0.3217103
180	0x3f50e839	0.81604344
181	0x3e421fe2	0.18957475
182	0xbe7f9ba1	-0.24961711
183	0xbd49644f	-0.049167927
184	0x3f1f18e4	0.62147355
185	0x3f205919	0.6263595
186	0xbe50546c	-0.20344704
187	0xbeae3dba	-0.3403147
188	0xbe3f7a78	-0.18699062
189	0x3e2a4f3e	0.16631791
190	0xbe1bf264	-0.15229183
191	0xbdbfa6f4	-0.09358016
192	0x3eb6c98d	0.35700646
193	0xbec706c8	-0.3887236
194	0x3dbce0f0	0.09222591
195	0x3ce22f49	0.027610438
196	0xbd4315a3	-0.047628056
197	0xbd84fa00	-0.06492996
198	0xbfb62b40	-1.4231949
199	0x3e120203	0.1425858
200	0x3ea43e70	0.32078886
201	0x3ece0309	0.4023669
202	0xbea732ea	-0.32656032
203	0xbebf8acf	-0.3741059
204	0x3e3a658f	0.18202804
205	0x3f625e8d	0.88425523
206	0xbec5b247	-0.38612577
207	0x3dba51f6	0.09097664
208	0xbf3bc3d3	-0.7334568
209	0xbf07dfe3	-0.53076
210	0xbcaf9455	-0.021433035
211	0x3ea16a84	0.31526577
212	0xbd58a609	-0.05289272
213	0xbd015a46	-0.031580232
214	0x3f01813c	0.5058782
215	0x3d67bb02	0.05657483
216	0xbeaafa4e	-0.33394092
217	0xbe08219e	-0.13294074
218	0xbddf0ebe	-0.10891484
219	0xbf2f6e41	-0.6852761
220	0xbf2fc53b	-0.68660325
221	0xbe97ac7e	-0.2962379
222	0x3f0a90af	0.5412702
223	0xbee9d66c	-0.45671403
224	0x3e77852b	0.24171893
225	0xbe2e0044	-0.16992289
226	0x3dba8c1d	0.09108756
227	0xbce3ca93	-0.027806556
228	0x3dd2d013	0.10293593
229	0x3edec99d	0.43513194
230	0xbe44ae28	-0.1920706
231	0x3fa543fe	1.2911375
232	0xbfd8364d	-1.6891571
233	0xbd721f2d	-0.059111763
234	0xbc586fc0	-0.013210237
235	0x3f83ffde	1.031246
236	0xbf134b18	-0.5753646
237	0xbf41cd55	-0.75703937
238	0x3d8d020d	0.06885157
239	0xbd713d06	-0.058896087
240	0x3fc507b4	1.5392976
241	0xbf36a29c	-0.7134187
242	0x3f4750b0	0.77857494
243	0xbeba7bbc	-0.36422527
244	0xbe91c6a1	-0.28471854
245	0xbde10849	-0.109879084
246	0xb9e0fa51	-0.0004291111
247	0xbe814c4a	-0.25253516
248	0xbedc2819	-0.42999342
249	0xbea2c120	-0.31787968
250	0x3ed26345	0.41091362
251	0x3f1ab1fa	0.6042782
252	0xbe8ea3e0	-0.27859402
253	0xbcc03234	-0.023461439
254	0xbf23b97c	-0.639549
255	0x3ef0171d	0.46892634

fc1.bias f4 [128]
0	0x3f4bf991	0.79677683
1	0x3db3f92f	0.087877624
2	0xbf895270	-1.0728283
3	0xb93c1ec1	-0.00017940534
4	0x3e88abf9	0.26693705
5	0x3e258b31	0.16166379
6	0x3e1bdc82	0.15220836
7	0x3f32264d	0.6958969
8	0xbd9350fd	-0.07193182
9	0x3c3df5e8	0.011594273
10	0xbdd52288	-0.10406977
11	0x3dc78d2a	0.09743722
12	0x3f249272	0.6428596
13	0x3cbbab0a	0.022908706
14	0x3ce499b8	0.02790533
15	0xbdc98e95	-0.098416485
16	0xbe0fb17e	-0.14032552
17	0x3f05c940	0.5226021
18	0xbd31f0b3	-0.04344244
19	0xbdce8951	-0.10084785
20	0x3f2e9ba6	0.6820625
21	0x3eafc93b	0.34333214
22	0xbeea5db2	-0.4577461
23	0x3edc3ab1	0.43013528
24	0x3ed53d2e	0.4164824
25	0x3e70ae0e	0.23503897
26	0x3e934f95	0.28771654
27	0x3f6cfb7a	0.9257122
28	0x3e5acb4b	0.21366613
29	0xbd046490	-0.032322466
30	0x3f032ac7	0.5123715
31	0x3e64325c	0.22284836
32	0x3efc9c98	0.49338222
33	0x3ee6026a	0.44923717
34	0xbe44cfae	-0.19219849
35	0x3ed6f17f	0.41981122
36	0xbe88bfe0	-0.2670889
37	0x3f0c95dd	0.54916173
38	0x3fae17b8	1.3600988
39	0xbe9fc56e	-0.31205314
40	0xbec535f4	-0.38517725
41	0x3e273f0c	0.16332644
42	0x3fc8234f	1.5635775
43	0x3f80209f	1.0009955
44	0x3d807d30	0.062738776
45	0x3e895806	0.2682497
46	0x3f8f782b	1.1208547
47	0xbe07d49e	-0.13264701
48	0xbea75458	-0.32681537
49	0x3e268152	0.1626027
50	0x3cafa08e	0.021438863
51	0xbdbbee92	-0.09176363
52	0xbebe66b8	-0.37187743
53	0xbf46b696	-0.77622354
54	0x3de5e853	0.11225953
55	0x3df19dd0	0.117976785
56	0x3f6497e7	0.89294285
57	0x3fd3630f	1.6514605
58	0xbd8f0662	-0.06983639
59	0x3da9037f	0.0825262
60	0xbf9d5c18	-1.229373
61	0x3d1bba78	0.038019627
62	0x3ee1c1c6	0.4409315
63	0x3f27bf37	0.65526146
64	0x3de57b26	0.11205129
65	0xbecb1609	-0.3966525
66	0x3e505817	0.20346104
67	0xbe836df2	-0.2566982
68	0x3e6e6d9a	0.23283997
69	0xbed25b09	-0.4108508
70	0x3f1e7730	0.61900616
71	0xbe70ee75	-0.23528464
72	0x3ef63729	0.4808896
73	0x3e25a0fd	0.16174693
74	0x3ec5731e	0.3856439
75	0x3ee8ee41	0.45494273
76	0x3ed70422	0.4199534
77	0x3d31dfda	0.043426372
78	0xbe98c10a	-0.29834777
79	0x39903d3f	0.00027511452
80	0x3f058f10	0.5217142
81	0xbeb2d2ad	-0.34926358
82	0x3ea9d9a5	0.33173862
83	0x3f9249e4	1.14288
84	0xbde73e31	-0.11291159
85	0xbe51845d	-0.20460649
86	0x3eab29c0	0.3343029
87	0x3f2a5c5d	0.66547185
88	0x3dd361e8	0.103214085
89	0x3e92a3a3	0.2864047
90	0x3f8a7c17	1.0819119
91	0x3f78542d	0.9700344
92	0x3edf1fe4	0.43579018
93	0x3f53aa1e	0.82681453
94	0x3e9de674	0.30839884
95	0xbeb1713b	-0.346567
96	0x3df0c6b8	0.117566526
97	0x3ef9511f	0.48694703
98	0x40646b5d	3.569053
99	0x3f3b9e1b	0.73288125
100	0xbea1f045	-0.31628624
101	0x3ca82e57	0.020529909
102	0xbe48025f	-0.19532155
103	0x3f0ce932	0.5504333
104	0x3e247dd4	0.16063625
105	0xbc41fd27	-0.011840141
106	0xbf138abf	-0.57633585
107	0xbdd094b9	-0.101846166
108	0x3f265765	0.64977103
109	0xbe527780	-0.20553398
110	0xbe3fc839	-0.18728723
111	0x3f903d5c	1.1268725
112	0x3ea79712	0.32732445
113	0x3f356d16	0.70869577
114	0x3f948421	1.1602823
115	0x3e312f8f	0.17303298
116	0x3eb6433b	0.35598168
117	0xbe0f620d	-0.14002247
118	0x3ed81a82	0.42207724
119	0x3f2e88c1	0.6817742
120	0x3c3a111c	0.011356618
121	0x3f8ad31c	1.0845675
122	0x3e3b1bbc	0.18272299
123	0xbc98ac72	-0.018636916
124	0x3f215bc3	0.6303064
125	0x3ed3f700	0.41399384
126	0xbf241d84	-0.6410754
127	0xbef9ac8c	-0.48764455

fc2.weight f4 [128, 128]
0	0xbc970597	-0.018435283
1	0xbe3c068e	-0.18361875
2	0x3c764016	0.015029928
3	0xbf8b045e	-1.0860708
4	0xbdb08bf8	-0.08620447
5	0x3dd24ba4	0.102683336
6	0xbbdcea7b	-0.0067418194
7	0xbf38c775	-0.7217935
8	0x3c70c8c7	0.014696307
9	0x3e57e952	0.21085098
10	0x3d14565d	0.036215175
11	0x3d625c2f	0.055263694
12	0xbeab3b21	-0.3344355
13	0xbeb34165	-0.3501083
14	0xbe99c830	-0.30035543
15	0xbd6c2103	-0.05764867
16	0xbe1d9f83	-0.1539288
17	0xbe0380b0	-0.12842059
18	0x3d5897fd	0.052879322
19	0xbe7eda2e	-0.24887916
20	0x3e216438	0.15760887
21	0x3bc26077	0.0059319097
22	0x3d2aec54	0.041729286
23	0x3e504206	0.20337686
24	0xbf4b068a	-0.7930685
25	0xbeb1b1cc	-0.3470596
26	0xbe93c474	-0.2886082
27	0xbdef68a8	-0.116898835
28	0xbdea72f0	-0.11447704
29	0x3cb637ab	0.022243341
30	0xba4384a4	-0.00074584247
31	0xbe4c7db5	-0.19969828
32	0xbf32f60a	-0.69906676
33	0xbe31bf37	-0.17358099
34	0x3d8be9d7	0.06831711
35	0x3e31716b	0.17328422
36	0x3d4e7859	0.05040774
37	0xbce10b66	-0.027471256
38	0xbefd6135	-0.49488226
39	0x3deca647	0.115551524
40	0xbecc8201	-0.39942935
41	0x3e243258	0.1603483
42	0xbef00d71	-0.46885255
43	0x3dae5338	0.085119665
44	0xbe793bb0	-0.24339175
45	0xbdd781f8	-0.105228364
46	0xbebac366	-0.36477202
47	0x3dc427a7	0.095778756
48	0xbdd466cf	-0.10371172
49	0xbd370e5f	-0.04469144
50	0x3da788da	0.08180399
51	0xbe5ca70a	-0.21548095
52	0xbe0bac37	-0.13639913
53	0xbd905bf0	-0.07048786
54	0xbe3d4796	-0.18484339
55	0xbd217ea3	-0.03942741
56	0xbf870206	-1.0547493
57	0xbeab29b7	-0.33430263
58	0xbe116d0f	-0.14201759
59	0x3c368a78	0.011141412
60	0xbe18a381	-0.14906122
61	0xbe9143a2	-0.28371912
62	0x3dcccbbe	0.09999798
63	0x3d21dcc0	0.039517164
64	0xbefb812c	-0.49121988
65	0x3e844809	0.25836208
66	0xbdae1e9a	-0.085019305
67	0x3bf4cb3b	0.007470516
68	0x3e977485	0.29581085
69	0xbe834b2c	-0.2564329
70	0x3e000e28	0.125054
71	0xbc404c34	-0.011736918
72	0xbe5b22b5	-0.21399958
73	0x3d2e3361	0.042529467
74	0xbe17a420	-0.14808702
75	0x3d804924	0.062639505
76	0x3c80276f	0.015643803
77	0xbe7c3942	-0.24631217
78	0xbdde1709	-0.10844237
79	0xbe56bfcd	-0.20971604
80	0xbdb3e6c6	-0.08784251
81	0xbe0ca2cb	-0.13733976
82	0xbd8df6af	-0.06931817
83	0xbe93d7dc	-0.28875625
84	0x3e9f1e6c	0.31077898
85	0xbe654162	-0.22388223
86	0xbe91ffce	-0.28515476
87	0xbe1c9151	-0.15289809
88	0x3d34ac71	0.044109765
89	0xbdaeeb37	-0.085409574
90	0xbd6a2ae7	-0.05716982
91	0x3d887e48	0.06664711
92	0xbefc09d2	-0.49226242
93	0xbe39804c	-0.18115348
94	0x3e369d46	0.17833433
95	0x3d6267f6	0.055274926
96	0x3d2c2f33	0.0420372
97	0xbe125fd2	-0.14294365
98	0xbf0e2cbf	-0.5553703
99	0xbdff36ae	-0.12461601
100	0xbeb7d91e	-0.35907835
101	0xbd4384d2	-0.04773409
102	0xbc108c92	-0.008822577
103	0x3dc15663	0.09440305
104	0x3d0a76d7	0.03380474
105	0xbc89a66c	-0.016802989
106	0x3d29bf7f	0.04144239
107	0xbef933a8	-0.48672223
108	0x3eb5e75d	0.3552808
109	0xbd4d4d59	-0.050122593
110	0x3d7d40b9	0.061829302
111	0xbf4bfcf7	-0.7968287
112	0xbef2c67d	-0.4741706
113	0xbedd612f	-0.43238208
114	0x3c7d9a76	0.015478721
115	0x3ebdcc0d	0.3706974
116	0x3de64e0e	0.112453565
117	0x3e11f7fa	0.14254752
118	0xbe78a1e1	-0.24280502
119	0xbe1c60db	-0.15271322
120	0x3d590813	0.052986216
121	0xbe4e4475	-0.20143302
122	0xbd1d638c	-0.038425013
123	0xbd18d4d5	-0.037312347
124	0xbe65c84b	-0.22439687
125	0x3d51d5bd	0.051229227
126	0x3d1efe4d	0.03881674
127	0xbea9902c	-0.33117807
128	0xbe33053b	-0.17482464
129	0x3cbaccb1	0.022802683
130	0xbe5dbc8c	-0.21653956
131	0xbe9610a1	-0.29309562
132	0xbe96cd4b	-0.294535
133	0xbca8de32	-0.020613763
134	0x3c597a2e	0.013273759
135	0xbea5966a	-0.3234132
136	0xbeb81f9d	-0.3596162
137	0x3df53a01	0.11973954
138	0x3e62ba00	0.22141266
139	0xbe24c5e4	-0.16091114
140	0xbf20f783	-0.6287767
141	0xbe45f2c3	-0.19330887
142	0xbed9fb11	-0.4257436
143	0x3e650506	0.22365198
144	0x3ddcd8bf	0.107835285
145	0xbedb7ba5	-0.4286777
146	0x3d220542	0.039555795
147	0xbe2db186	-0.16962251
148	0xbe97c096	-0.2963912
149	0xbd5e3041	-0.054245237
150	0xbe9cc8a8	-0.3062184
151	0x3c0f108b	0.0087319715
152	0x3e813d1e	0.2524194
153	0xbe1809e7	-0.14847527
154	0xbb3d9ede	-0.0028933804
155	0xbdc217ca	-0.09477194
156	0xbe366bbb	-0.17814533
157	0xbe48616f	-0.19568418
158	0xbe524c14	-0.20536834
159	0xbe554f6b	-0.20831077
160	0x3ed9f260	0.4256773
161	0xbe84f39a	-0.25967103
162	0x3e577556	0.21040854
163	0xbdc5924e	-0.09647046
164	0x3ce49080	0.027900934
165	0xbebe3293	-0.3714796
166	0xbefac180	-0.48975754
167	0x3cb8ad60	0.02254361
168	0xbdd01e31	-0.101620086
169	0xbd723782	-0.059134968
170	0xbe925bfa	-0.28585798
171	0x3d138205	0.03601267
172	0xbf08e72c	-0.5347774
173	0x3f015955	0.50526935
174	0xbbefadfa	-0.007314441
175	0x3c59e1f3	0.013298499
176	0x3d9de9e1	0.077106245
177	0xbd236284	-0.039888874
178	0xbf1d0115	-0.61329776
179	0xbe90c435	-0.28274694
180	0xbe174f5a	-0.14776364
181	0xbe1b530e	-0.15168402
182	0xbe3d1ac0	-0.18467236
183	0xbd0d1d44	-0.034451738
184	0x3e153cb6	0.1457394
185	0xbf1ab39a	-0.604303
186	0xbc7b9956	-0.015356382
187	0x3e7351d0	0.23761678
188	0xbe4821f3	-0.195442
189	0xbe3d31b1	-0.18475987
190	0x3e87be4f	0.2651238
191	0xbe8f570d	-0.27996102
192	0x3e880686	0.26567477
193	0x3c14ed11	0.009089724
194	0x3d419b2a	0.047267117
195	0xbcfd7c67	-0.030943109
196	0xbd985b50	-0.074392915
197	0xbed92707	-0.42412588
198	0x3da6ec5c	0.08150551
199	0x3e8d06ee	0.2754435
200	0xbd99bf4d	-0.07507191
201	0xbe2f4c75	-0.1711901
202	0xbe5444a1	-0.20729305
203	0x3d291806	0.041282676
204	0x3e3dce42	0.18535712
205	0xbe94cca8	-0.2906239
206	0xbda13c5a	-0.07872839
207	0x3c742750	0.014901951
208	0xbe413409	-0.18867506
209	0xbdbdbc86	-0.092644736
210	0xbea56e63	-0.3231078
211	0xbcd7872c	-0.026309572
212	0xbe200184	-0.15625578
213	0x3d5641e2	0.052308924
214	0xbe333f17	-0.17504536
215	0xbdfcdab1	-0.123463996
216	0x3e943ffb	0.28955063
217	0xbdbe6e54	-0.09298387
218	0xbe51aee4	-0.20476872
219	0x3de24b04	0.11049464
220	0x3d714537	0.0589039
221	0xbf3184e7	-0.6934342
222	0x3d751f66	0.059844397
223	0xbf0891c7	-0.5334744
224	0x3e97fb1e	0.29683775
225	0x3de961d8	0.11395615
226	0xbf290f81	-0.6603928
227	0xbe2317fa	-0.15927115
228	0xbd01092d	-0.03150289
229	0x3d0a74ae	0.03380268
230	0x3d8704e8	0.06592733
231	0x3dc9ed44	0.09859708
232	0xbe72d488	-0.23713887
233	0x3ea10b8c	0.31454122
234	0xbe38b550	-0.18037915
235	0x3dc49b02	0.09599878
236	0x3dc10fc8	0.09426838
237	0x3e361679	0.1778201
238	0xbf18d7ff	-0.59704584
239	0xbef5d328	-0.48012662
240	0xbef3fa7e	-0.47652048
241	0xbd4fdc8f	-0.05074745
242	0xbe6529dc	-0.2237925
243	0x3e30579e	0.17220923
244	0x3eb9cdc6	0.36289805
245	0x3dfb9511	0.122842915
246	0xbe035e9b	-0.12829058
247	0x3f258710	0.64659214
248	0xbc234870	-0.009966001
249	0xbdd1fa8b	-0.102528654
250	0xbb9ad1d5	-0.004724721
251	0xbee4840f	-0.44632003
252	0x3c497715	0.012296458
253	0xbdf49805	-0.11943058
254	0xbe6691fd	-0.22516628
255	0x3daf8ced	0.08571801

fc2.bias f4 [128]
0	0xbc39cab7	-0.011339835
1	0x3e9a982e	0.3019423
2	0xbe2e38ec	-0.17013901
3	0xbe9de5b0	-0.308393
4	0xbea5cf33	-0.32384643
5	0x3e490f25	0.19634683
6	0x3d62fee2	0.055418856
7	0x3dc22155	0.09479014
8	0x3ef42a7b	0.4768866
9	0xbc09b1b5	-0.008404185
10	0xbe868616	-0.26274174
11	0x3cec658b	0.028857013
12	0xbda13c66	-0.07872848
13	0x3df39336	0.11893313
14	0x3b96e32c	0.0046047177
15	0x3b3dd5ef	0.0028966626
16	0x3e0d1a65	0.137796
17	0x3f117be2	0.56829655
18	0xbe2e11fe	-0.16999051
19	0xbe023c29	-0.12718262
20	0xbd89b256	-0.06723468
21	0x3dc84bc2	0.09780075
22	0xbe1440e4	-0.14477879
23	0x3e8eaf84	0.27868283
24	0xbecf43cd	-0.40481415
25	0xbcc28358	-0.02374427
26	0xbe11e941	-0.14249136
27	0x3f3f0d09	0.74629265
28	0x3d98f8e6	0.074693486
29	0x3db255a9	0.08707745
30	0x3cdcefa6	0.026969742
31	0xb7a3007b	-1.9431338e-05
32	0x3f912c7e	1.1341703
33	0x3e8589f7	0.2608182
34	0xbf1d96d0	-0.61558247
35	0x3dac433f	0.08411264
36	0xbe7f53eb	-0.24934356
37	0xbdaeb82e	-0.08531223
38	0x3e2b9e93	0.1675971
39	0xbe1ca218	-0.15296209
40	0xbe7e1648	-0.24813187
41	0xbe9f7de0	-0.31150723
42	0xbf012672	-0.5044929
43	0x3d29ba60	0.041437507
44	0xbdc69102	-0.09695627
45	0x3cb57b9f	0.022153674
46	0xbc6f8e16	-0.014621278
47	0xbe491603	-0.19637303
48	0x3f1ec478	0.6201854
49	0x3dc62be1	0.09676338
50	0x3f15a510	0.5845499
51	0x3e0042ca	0.12525478
52	0x3e07eb36	0.1327332
53	0x3e2c710e	0.16840002
54	0x3d787984	0.06066276
55	0x3d05db78	0.032680005
56	0x3d12f8da	0.035881855
57	0x3c861ffd	0.016372675
58	0xbe539ad5	-0.20664532
59	0x3e92957e	0.28629678
60	0x3d2db0ae	0.042404823
61	0xbe2549ad	-0.16141386
62	0xbdc0615a	-0.09393568
63	0x3e612e0a	0.21990219
64	0xbd3a24e6	-0.045445345
65	0xbd5244c5	-0.051335115
66	0xbd0cf8f1	-0.034417097
67	0x3cd51845	0.02601255
68	0xbd1e92aa	-0.03871409
69	0xbdf73dca	-0.12072332
70	0xbd15a8d5	-0.036537964
71	0x3f05b288	0.5222554
72	0x3c50df78	0.012748592
73	0x3f6773df	0.9041118
74	0x3e1019c0	0.14072323
75	0x3f03715b	0.5134484
76	0x3e0a704e	0.13519403
77	0xbbef09dd	-0.007294877
78	0x3ebaf7d0	0.3651719
79	0xbd5806c9	-0.052740846
80	0xbdc06963	-0.09395101
81	0x3db44f61	0.08804203
82	0xbb86ffe3	-0.0041198595
83	0x3e012681	0.12612344
84	0xbd7e6878	-0.062111348
85	0x3d0159a4	0.03157963
86	0xbe5bfb7b	-0.21482651
87	0x3e71c66a	0.23610845
88	0xba0ccd38	-0.0005371156
89	0xbdb3d283	-0.08780386
90	0x3d975e4d	0.07391033
91	0x3f81227e	1.0088651
92	0xbcaebd3a	-0.021330465
93	0x3e127fcd	0.14306565
94	0x3eeadc07	0.45870993
95	0xbe5a3448	-0.21309006
96	0x3e169765	0.1470619
97	0xbea0eefc	-0.3143233
98	0xbe22313f	-0.15839098
99	0x3ed38d24	0.4131862
100	0xbd96cb7d	-0.07363031
101	0xbe3d8e7f	-0.18511389
102	0xbd50683b	-0.050880652
103	0xbf409004	-0.7521975
104	0xbe315259	-0.1731657
105	0x3dce1f0d	0.10064516
106	0xbe749bc8	-0.23887551
107	0x3d5ccc5b	0.053905826
108	0x3e29d6a7	0.1658579
109	0x3f81db70	1.0145092
110	0xbcead535	-0.028666118
111	0xbe1e9d83	-0.15489773
112	0x3f592bd0	0.8483248
113	0x3e20d9e4	0.15708119
114	0x3cadf0a6	0.021232914
115	0xbeaca843	-0.33722124
116	0x3e8be813	0.27325496
117	0x3f96704b	1.1753019
118	0xbe26bbe6	-0.16282615
119	0x3ec2a65e	0.38017553
120	0x3db39699	0.087689586
121	0x3ecdfcfe	0.4023208
122	0x3e3790e5	0.17926367
123	0x3dbae962	0.091265455
124	0xbe8bbe89	-0.27293804
125	0x3f9cdf29	1.2255603
126	0xbe405e9c	-0.1878609
127	0xbdaa8ab8	-0.0832724

out.weight f4 [5, 128]
0	0x3daa5f92	0.0831901
1	0xbe9b2822	-0.30304056
2	0xbd83828f	-0.064213865
3	0xbe8623d1	-0.261992
4	0xbf4a0e2d	-0.7892788
5	0xbeebef4c	-0.46081007
6	0x3ebdafe3	0.37048253
7	0x3ddce73d	0.10786293
8	0x3e132dab	0.1437289
9	0xbf1f33bb	-0.6218831
10	0xbd8b1628	-0.06791335
11	0x3d02aa61	0.031900767
12	0x3efd56e8	0.49480367
13	0x3eae718e	0.3407101
14	0x3ee11875	0.43963972
15	0xbe13adf7	-0.14421831
16	0xbde8d4e5	-0.113687314
17	0x3e21163a	0.15731135
18	0xbc96b34a	-0.018396039
19	0xbe6a3adb	-0.22874014
20	0xbe641eb3	-0.22277336
21	0xbeb4d45c	-0.35318267
22	0xbf3db4f9	-0.7410427
23	0x3de1b8ff	0.11021613
24	0xbe9b49ff	-0.30329892
25	0x3f09cd6a	0.5382906
26	0xbe3bf6c2	-0.1835585
27	0x3f0e932e	0.5569333
28	0xbf05b0f6	-0.52223146
29	0x3f15aa6a	0.58463156
30	0x3e317f02	0.17333606
31	0x3ed4c509	0.41556576
32	0x3e3af52e	0.18257591
33	0xbe489d47	-0.19591247
34	0x3e09b271	0.13446976
35	0xbe554fe4	-0.20831257
36	0xbdf73564	-0.1207073
37	0xbe503948	-0.20334351
38	0x3e77f6cc	0.2421524
39	0x3da02003	0.07818606
40	0x3df7d965	0.121020116
41	0xbe10ac87	-0.14128314
42	0xbecbb3c0	-0.39785576
43	0xbe367981	-0.17819788
44	0x3ea2c3f4	0.31790125
45	0x3e0ed751	0.13949324
46	0x3e8a27d8	0.26983523
47	0xbeb683de	-0.35647482
48	0x3eb0b1a1	0.3451052
49	0x3dc79fd2	0.0974728
50	0x3e365578	0.17806041
51	0xbd387231	-0.045030776
52	0x3e3a01e8	0.1816479
53	0x3dd9d374	0.106360346
54	0xbdada16a	-0.08478053
55	0xbee151db	-0.44007763
56	0x3e7f9d0f	0.24962257
57	0x3dc3ffea	0.09570296
58	0x3e1f61a2	0.15564588
59	0xbeed47ff	-0.4634399
60	0x3e0080bb	0.12549107
61	0xbf0528a2	-0.52015126
62	0xbd59a6e7	-0.053137686
63	0xbdf1651c	-0.11786863
64	0xbed571ed	-0.4168848
65	0x3d7b1295	0.061297018
66	0xbe9b876a	-0.3037675
67	0xbce0aafa	-0.027425278
68	0x3e3a267f	0.18178748
69	0xbe4b22e8	-0.19837534
70	0xbee853dc	-0.4537648
71	0xbea536e2	-0.32268435
72	0x3e80297e	0.25031656
73	0x3e159aff	0.14609908
74	0xbf180908	-0.5938878
75	0x3e6f5c47	0.23375045
76	0xbe828910	-0.25495195
77	0xbdcb78f1	-0.09935177
78	0xbecbe0fa	-0.3982008
79	0x3ebdd12b	0.37073645
80	0x3ecf1ee6	0.4045326
81	0x3ea4f9a9	0.32221726
82	0x3ec01c5c	0.37521636
83	0xbe1f9f76	-0.15588173
84	0xbd7e3edb	-0.062071662
85	0xbf0e7350	-0.556447
86	0x3e990b76	0.29891557
87	0xbe458caa	-0.1929194
88	0x3e3992df	0.18122433
89	0xbceda8b9	-0.029011117
90	0x3eb477a0	0.35247517
91	0x3e3a725f	0.18207692
92	0xbedc9290	-0.43080568
93	0x3e091163	0.13385539
94	0x3e91d861	0.28485397
95	0xbe9ff3b2	-0.31240612
96	0x3e720b4d	0.23637123
97	0xbe87b62c	-0.26506174
98	0x3e7e0957	0.2480825
99	0xbed45f15	-0.41478792
100	0xbe98d4e3	-0.2984992
101	0x3f2cd378	0.67510176
102	0x3f766351	0.96245295
103	0xbe83f726	-0.25774497
104	0x3f02336a	0.508597
105	0x3e0ac851	0.13552977
106	0xbece80a0	-0.40332508
107	0x3e96918c	0.29407918
108	0x3ef45739	0.47722796
109	0x3e5b398d	0.21408673
110	0xbe06dcef	-0.13170217
111	0xbe81c889	-0.2534831
112	0x3e09b71f	0.13448761
113	0xbf05a88b	-0.522103
114	0xbe911db9	-0.2834299
115	0xbf77b716	-0.9676374
116	0xbf316b1f	-0.6930408
117	0x3e6d64cf	0.23182987
118	0x3e9884a4	0.29788697
119	0xbe825d5c	-0.25461853
120	0xbe960317	-0.29299232
121	0x3dd24b7a	0.10268302
122	0xbd46b51d	-0.048512567
123	0x3e71eec7	0.23626243
124	0xbe751a43	-0.239358
125	0x3e978f48	0.29601502
126	0x3e80896d	0.25104848
127	0x3e5ad11e	0.21368834
128	0xbe94cbf6	-0.2906186
129	0x3ea79807	0.32733175
130	0xbd129147	-0.03578308
131	0xbee21193	-0.44154033
132	0xbf85af9b	-1.0444216
133	0xbe93e065	-0.28882137
134	0x3f1cd0e0	0.6125622
135	0xbe965441	-0.29361156
136	0x3dc5f3a4	0.096656114
137	0xbebdd772	-0.37078434
138	0xbf244299	-0.6416412
139	0x3e58a765	0.21157606
140	0x3d1a0034	0.03759785
141	0xbebb1fb3	-0.36547622
142	0x3f084b2c	0.53239703
143	0xbecd8c60	-0.4014616
144	0xbe5d98d2	-0.21640328
145	0x3e282bab	0.16422908
146	0x3edfbc29	0.43698242
147	0x3d136690	0.035986483
148	0x3ee5ec60	0.44906902
149	0xbe48cee6	-0.19610175
150	0xbe8098d1	-0.2511659
151	0xbf62b21e	-0.88553035
152	0xbdc989a9	-0.0984071
153	0xbef16ea7	-0.47154734
154	0xbe861106	-0.26184863
155	0x3f0c6ab5	0.5485032
156	0xbf1ef4a2	-0.6209203
157	0x3f0f81e3	0.56057566
158	0x3e8debee	0.27719063
159	0x3af0f0c4	0.0018382301
160	0x3e279398	0.16364896
161	0xbf17e099	-0.59327084
162	0x3eaee101	0.3415604
163	0xbd267cfb	-0.040646534
164	0xbddfeb42	-0.10933544
165	0xbe3420e9	-0.17590679
166	0x3e9375c9	0.288008
167	0xbd6c4a1a	-0.057687856
168	0x3e88c1c0	0.2671032
169	0xbea0f3eb	-0.31436095
170	0xbe876a35	-0.26448217
171	0xbf0c6b23	-0.5485098
172	0xbe0e4149	-0.13892092
173	0xbe565663	-0.20931391
174	0x3e688305	0.2270623
175	0x3ebb785a	0.36615258
176	0x3eb124de	0.3459844
177	0x3e1b9d3f	0.15196703
178	0xbc864072	-0.016388152
179	0x3e9b0e8e	0.30284542
180	0x3d612684	0.054968372
181	0xbef731bb	-0.4828013
182	0xbf0faa92	-0.56119645
183	0xbede2222	-0.43385416
184	0x3d39f837	0.04540273
185	0xbca36f68	-0.019950584
186	0xbe220ce2	-0.15825227
187	0xbe7986cd	-0.24367829
188	0xbe8c1a16	-0.27363652
189	0xbe8a3258	-0.26991534
190	0xbe793e9c	-0.2434029
191	0xbe5c9b23	-0.21543555
192	0xbeafd3e8	-0.3434136
193	0x3da080bb	0.078370534
194	0xbea787c9	-0.32720783
195	0x3f0e352d	0.5554989
196	0x3eccb6f2	0.39983326
197	0xbe4dc7a3	-0.20095687
198	0xbefcd6a4	-0.49382508
199	0xbea8ad67	-0.32944795
200	0x3de93e90	0.11388886
201	0x3e08bad9	0.13352527
202	0x3cf93567	0.030420972
203	0xbd11ba3e	-0.035578005
204	0xbe38318c	-0.1798765
205	0x3eecdc12	0.4626165
206	0xbe9a7ff0	-0.30175734
207	0x3eef8974	0.46784556
208	0x3dbe2455	0.092842735
209	0xbe080293	-0.13282232
210	0x3ecca9b9	0.39973238
211	0xbe0f5927	-0.13998853
212	0xbebc9f16	-0.36840123
213	0xbf4a7408	-0.790833
214	0x3dd245b8	0.10267204
215	0xbe7a0496	-0.24415812
216	0xbdcdad0d	-0.100427724
217	0x3d73048c	0.059330508
218	0xbeca6300	-0.39528656
219	0x3e646e6e	0.2230775
220	0xbe8e08fd	-0.27741233
221	0xbe966b57	-0.2937877
222	0x3db9d3b1	0.0907358
223	0xbe2ec5cb	-0.1706764
224	0xbe1bbdb0	-0.15209079
225	0xbef05656	-0.4694087
226	0xbf33d772	-0.7025062
227	0x3ee045f8	0.43803382
228	0xbef1eaea	-0.47249538
229	0xbf227b04	-0.63468957
230	0x3f2bcf6b	0.6711337
231	0xbe0922d3	-0.1339219
232	0x3e537957	0.20651756
233	0x3ea6c787	0.32574102
234	0x3efda5c1	0.49540523
235	0x3ede73b6	0.43447655
236	0xbe43cb4d	-0.19120522
237	0x3e765f05	0.24059685
238	0xbeef63d0	-0.46755838
239	0xbd88a413	-0.0667192
240	0x3e19acfd	0.15007396
241	0x3f321c3e	0.69574344
242	0x3e128390	0.14308
243	0x3ceaf98f	0.028683452
244	0x3e5e986d	0.21737833
245	0x3e9be78d	0.30450097
246	0xbe8f3a1c	-0.2797402
247	0xbeda1da9	-0.42600754
248	0xbe8db584	-0.27677548
249	0x3e1c6eb8	0.15276611
250	0x3d92786d	0.07151876
251	0xbebbdb3c	-0.366907
252	0xbf273113	-0.65309256
253	0x3e612db2	0.21990088
254	0xbeafa89b	-0.34308323
255	0x3f200b60	0.62517357

out.bias f4 [5]
0	0x3f3505c3	0.70711917
1	0x3f140d1a	0.5783249
2	0x3f2cf935	0.6756776
3	0x3f43d55f	0.76497453
4	0x3f32bfe4	0.6982405
