SimplifiedSpaceWar/trained_models/dqn2_bullets_7000.pth (torch, 89165 bytes, 6 tensors)

fc1.weight f4 [128, 33]
000000 31 dc 08 bf 6b 1d 3f be f5 99 94 bd 21 1e 55 3c
       -0.53460985 -0.18663566 -0.072559275 0.013007672
000010 94 a8 c2 3b 1c 43 9a be 81 c5 89 be 64 ad e7 be
       0.0059405062 -0.30129325 -0.26908496 -0.45249474
000020 c4 d2 c3 3d 8f 6e 84 bd a2 a1 5e 3e a5 e7 00 be
       0.09561685 -0.064664 0.21741346 -0.12588365
000030 71 74 ee bd 9c 28 0d 3c 28 7f 2b bc f9 51 fe 3d
       -0.11643303 0.008615639 -0.010467328 0.12417979
000040 e9 6a 70 3d ed bd 6d 3e 42 f8 71 3d 3e 63 6a be
       0.058695707 0.23216982 0.059074648 -0.2288942
000050 12 c7 e9 be d3 f0 82 3b e8 b3 04 3e 7b 29 a4 3d
       -0.4565969 0.0039959936 0.12959254 0.08015724
000060 9a dc 49 3e 6c 0f d8 3d 4b fb a3 bd 0b a9 a3 3e
       0.19713059 0.105498165 -0.08006915 0.31964907
000070 c7 5d fc 3d 62 8c 3b bd 57 65 b4 3d 53 92 17 be
       0.12322574 -0.045788176 0.088083915 -0.14801912
000080 3f a1 30 be c9 0c 76 3f 62 a6 96 3f 60 67 cc 3d
       -0.1724901 0.9611326 1.1769526 0.09980655
000090 a0 17 1a be 1c b1 e8 3e 10 77 b7 3e f8 65 f4 3d
       -0.15048075 0.45447624 0.35833025 0.119335115
0000a0 f4 5a eb be 3f 41 da 3c 78 75 ce 3d 3c 04 f3 be
       -0.4596783 0.02664244 0.10080999 -0.47464168
0000b0 f8 2a 72 be ec 8b c5 bd 3e 64 7e 3d 0b a8 00 3c
       -0.23649204 -0.096458286 0.062107317 0.007852565
0000c0 e4 23 8c 3e 2f 3f d5 3e 72 fa 05 be 8c b6 a0 be
       0.27371132 0.41649768 -0.13083819 -0.31389272
0000d0 44 f3 bb bd ae 79 65 be 9e 7f f5 3c 65 d2 48 3e
       -0.091772586 -0.22409698 0.02996808 0.19611509
0000e0 d9 4d 97 be e2 47 b5 bd 3f cb 3e 3e 1b 6d c1 bd
       -0.2955158 -0.08851601 0.1863222 -0.09444638
0000f0 98 fe 53 3e d0 01 9e 3d 00 46 ee bd 46 51 84 be
       0.20702589 0.077151895 -0.11634445 -0.25843257
000100 8c ba d4 3c 9c a6 5d 3e 38 c9 2c bd f1 dc 2f 3b
       0.025967859 0.21645588 -0.042184085 0.0026834572
000110 0b b5 b6 3e 9f 09 a9 be a5 91 e2 be 00 1f ff be
       0.35685 -0.33015153 -0.44251743 -0.4982834
000120 8d 9e 2d 3e f7 84 a7 be 6d 68 aa 3c 9b c3 61 be
       0.16955014 -0.32718632 0.020801747 -0.22047274
000130 fb 51 00 3e a9 c5 79 bd 61 af 89 be 84 8a 32 3e
       0.12531273 -0.06097952 -0.26891616 0.17435652
000140 e6 5a a7 bd 25 6b 40 bf a2 50 9c 3e 20 25 0c 3e
       -0.081716344 -0.7516349 0.30530268 0.13686037
000150 1b 96 d2 3c 94 69 27 bf d3 36 61 be 79 38 02 be
       0.025706341 -0.65395474 -0.2199357 -0.12716855
000160 e7 95 4e be 16 1e 94 3e 90 8c 58 3c 8c 7a de be
       -0.2017437 0.28929204 0.013217106 -0.4345287
000170 e2 f5 1c be 2b ae 3a 3e b9 37 59 bd b7 ae 22 bd
       -0.15328172 0.18230502 -0.053031657 -0.039717402
000180 60 9c 2b be d3 4e 4c be 45 8e 2a be bd 80 c8 be
       -0.16758871 -0.19951944 -0.16655834 -0.3916072
000190 9d ef 39 bd 80 cd 8e be 4c 90 51 be 91 33 fb 3d
       -0.04539453 -0.2789116 -0.20465201 0.12265695
0001a0 a2 0e 56 3e fa 64 06 3f 4d ae 18 bd ef 5f b2 3b
       0.2090402 0.5249783 -0.0372756 0.005443565
0001b0 f4 67 d1 3e 09 60 0c bf f3 da 0f bf 3c df 4a 3f
       0.40899622 -0.5483404 -0.56193465 0.7924688
0001c0 23 31 42 3d 11 76 8b 39 85 b6 35 be ee 4b b0 bd
       0.04741014 0.00026600112 -0.17745407 -0.086082324
0001d0 3f 73 26 3f 7d eb 0d 3e 9c 52 39 3e 24 94 b1 be
       0.650196 0.13859363 0.18097919 -0.34683335
0001e0 80 52 e1 bf d2 45 06 bf 62 44 16 3f e8 75 37 3d
       -1.7603302 -0.5245029 0.58698094 0.04479018
0001f0 ae 8b 21 3e f9 7c 9e 3c 8c 66 0c bf 85 df d2 3e
       0.1577594 0.019346701 -0.54843974 0.41186157
000200 86 75 3e be f9 6e 10 be d4 27 7e be e0 48 28 be
       -0.18599519 -0.14104833 -0.2481988 -0.1643405
000210 8d e3 13 bf c8 2e 1d bd 89 84 3d be 5f 63 1f be
       -0.5776909 -0.038374692 -0.1850759 -0.15565251
000220 8b 0b a1 be 92 86 4b bf 5a 92 c0 be 38 99 b0 3e
       -0.3145412 -0.79502213 -0.37611657 0.34491897
000230 7f b0 9c bb 68 5f 49 be ec e0 c9 3c 56 4a 48 be
       -0.004781782 -0.19665301 0.024643384 -0.19559607
000240 8c 42 3e 3d 64 13 1b 3d 80 b2 40 bf d4 16 97 3d
       0.046450183 0.03786029 -0.7527237 0.07377401
000250 35 ed 3f 3d 65 40 ec 3d d4 b7 b7 3d 22 12 27 3e
       0.046857078 0.1153572 0.08970609 0.16315511
000260 71 02 05 be 49 a8 02 be e0 6a e3 be 14 46 3c 3e
       -0.12989213 -0.12759508 -0.44417477 0.18386108
000270 d4 63 38 3e 3b a0 1c 3e 6e 85 53 be 19 bc 92 3d
       0.18006831 0.15295498 -0.20656368 0.07164783
000280 18 92 83 bd bb 7e e0 be 7b fa ee be 01 c8 f0 3e
       -0.064243495 -0.43846688 -0.46675476 0.4702759
000290 ac e9 33 3f 45 37 bf 3f d0 44 11 be 08 d9 34 be
       0.7027843 1.4938742 -0.14186406 -0.17660916
0002a0 14 42 94 bb 36 d8 26 3f a8 8b e9 3d 54 7e ec 3d
       -0.0045244787 0.6517366 0.114035904 0.11547533
0002b0 52 d0 9d 3d 3b 2a 9c bd 9b 96 a6 be b6 27 db be
       0.077057496 -0.07625242 -0.32536778 -0.42803735
0002c0 c1 ce e6 be 54 37 76 bf b9 5f 05 3f 80 73 dd be
       -0.45079616 -0.96178174 0.52099186 -0.43252182
0002d0 7a e4 06 3f 72 f6 27 bd 02 4d 58 be 25 6a 0a be
       0.5269238 -0.041006513 -0.21123126 -0.13517053
0002e0 27 96 4d 3e b4 16 4e 3e ea 8f b0 be 70 20 34 bf
       0.2007681 0.20125848 -0.34484798 -0.70361996
0002f0 33 be b5 bc dc af 92 be eb 51 46 3d bf f8 a2 3d
       -0.02218542 -0.28649795 0.048417967 0.07957601
000300 ca a8 93 3d 09 0a cd bd 3e a9 99 3e 38 74 82 3e
       0.07209928 -0.1001168 0.30011934 0.25479293
000310 14 f6 7d 3e 04 18 9d bd ad 3d 94 bf d4 3d bc bf
       0.24800903 -0.07670596 -1.1581322 -1.4706368
000320 df 9d dc 3e 96 45 ab 3e 34 00 28 3d 3e 1d c2 bd
       0.43089196 0.33451527 0.04101582 -0.09478234
000330 b1 c2 60 3e 00 f9 d6 3e 2c ad 00 be d8 89 ef 3d
       0.21949269 0.41986847 -0.1256606 0.116962135
000340 3d 76 ef be d1 48 68 bd 20 72 40 3e a9 58 a2 3d
       -0.46769896 -0.056710068 0.18793535 0.07927067
000350 da 1e 6d bf 34 65 7f be 99 6c ce 3d e5 73 5a be
       -0.926252 -0.2494095 0.10079307 -0.21333273
000360 2f eb 25 bf 30 44 d1 bd c9 38 08 bf d1 68 f8 be
       -0.64811987 -0.10218084 -0.5321165 -0.4851747
000370 66 17 84 be c0 e0 35 be 5b 11 97 3e b2 f2 52 bd
       -0.25799102 -0.17761517 0.2950543 -0.051500984
000380 5d fb 03 3f c6 23 ae bd 77 b1 c6 3e af 3a 00 3e
       0.51555425 -0.08502917 0.3880727 0.12522386
000390 e1 e3 80 3d c1 af 10 3e cd 0a 3e 3d 52 24 be 3e
       0.062934645 0.14129545 0.04639702 0.37137085
0003a0 58 48 99 be 8c 33 86 bd 12 50 98 3d db db 76 3e
       -0.29938006 -0.065528005 0.07437147 0.24107306
0003b0 50 96 2f 3d 1c fa 80 bd b1 d9 cf be 27 ef 08 3c
       0.04286796 -0.062977046 -0.40595773 0.0083578
0003c0 0d 49 35 3f 69 39 c6 be d4 22 99 3f ab 36 20 3e
       0.7081459 -0.38715675 1.1963754 0.15645854
0003d0 50 92 a9 3d 01 9b af 3e 00 18 31 be 29 d0 4c be
       0.0827986 0.34297946 -0.17294312 -0.20001282
0003e0 09 8d 1d 3d 31 90 60 3e 2b 3f ba 3d d5 0b 60 3e
       0.03846458 0.21930005 0.090940796 0.21879514
0003f0 b7 f7 cb 3c 65 75 73 3e de 9d a3 bd 90 78 0d 3e
       0.024898393 0.23775251 -0.07989095 0.13815522

fc1.bias f4 [128]
000000 3f 47 8e 3e 67 92 bd 3e 3e 6a 10 bf 4d 87 24 be
       0.2778873 0.3702576 -0.5641211 -0.16067238
000010 cb 2d d0 3e 40 b4 49 3e b2 f5 14 3e ad 8e 13 3e
       0.40659937 0.19697666 0.1454685 0.14409895
000020 6b 3d c5 bc a4 56 b1 3e 7e b6 ad bd 92 88 c7 bd
       -0.024077138 0.34636414 -0.08482073 -0.097428456
000030 db ee d9 3e a4 14 a0 bd b9 73 9a bd 39 70 04 be
       0.42565045 -0.07816437 -0.075416036 -0.12933435
000040 4f 25 a1 bc 39 51 e9 3e 05 24 8d be 61 ef 3c 3d
       -0.01967111 0.4556978 -0.27566543 0.046126727
000050 31 cf 0e 3f c8 8e 87 3e ad 84 18 bc 56 2f 48 3e
       0.557849 0.2647612 -0.009308976 0.19549307
000060 c2 2b 38 3e 21 7c c6 bb 50 6f 95 3e 03 35 a6 3e
       0.17985442 -0.006057278 0.29186487 0.3246232
000070 31 bf 93 bb 4a 85 a1 3d 85 9a 3f be 7c 87 28 3e
       -0.004508876 0.07886751 -0.18711288 0.16457933
000080 78 5e 22 3f f7 21 b8 3e 59 9c 4d 3e 5d d2 a2 3e
       0.634254 0.35963413 0.20079173 0.3180112
000090 44 15 a8 3c 47 a2 c3 3e c2 5c 7d 3e 24 87 8d 3e
       0.020517953 0.38209745 0.24742416 0.27642167
0000a0 07 31 b5 be d4 cf fe 3d 16 ce 89 3f 87 ec 06 3f
       -0.35388967 0.12441984 1.0766017 0.5270466
0000b0 65 93 4f bd 68 62 a0 3e 63 b7 cd 3e e3 9e fa bb
       -0.050677676 0.31325078 0.40178975 -0.0076483353
0000c0 bf e5 03 be 56 ff 9d 3d 61 cd 15 3c c4 59 8d 3e
       -0.1288061 0.07714717 0.009143204 0.27607548
0000d0 22 92 75 be 76 ab 21 bf b3 c5 ad bd 90 99 56 3e
       -0.23981526 -0.63152254 -0.08484974 0.20957017
0000e0 79 0a 3e 3f 0c 36 14 3f 82 c6 05 3e 98 97 ad 3d
       0.7423473 0.5789497 0.13064006 0.0847618
0000f0 83 4e 8e bf 59 eb 1c 3e f8 8f 22 3f fc 88 fc 3e
       -1.111771 0.15324153 0.6350093 0.4932326
000100 21 26 a8 3d 69 b2 bc 3b 69 5c f2 bd 99 40 de 3d
       0.082103975 0.005758573 -0.11834032 0.10852165
000110 9e 4b 6d 3e 5a 3d 46 3d 5a ac b6 3e ba fe 3d 3d
       0.23173377 0.048398353 0.3567837 0.046385504
000120 46 5c 01 3f f1 57 12 3f f2 20 03 3f b1 a0 41 3e
       0.50531423 0.5716544 0.51222146 0.18908955
000130 4a 36 a1 3e 7e aa 1e 3e 66 7b 4a 3d 5c ae 09 3e
       0.31486732 0.15494725 0.04943409 0.13445419
000140 14 0c 3b 3f b1 d3 45 bc b6 42 08 3f c5 bc 22 3f
       0.73065305 -0.012074397 0.5322679 0.6356929
000150 a3 16 ac 3d 50 a9 9c 3e 10 2c b5 3e fe 96 c5 3e
       0.08402755 0.30597925 0.3538518 0.3859176
000160 a2 3d 4b 3e 6b 9f 7a 3e 93 33 a7 3e b5 f0 de 3e
       0.1984773 0.24474876 0.32656536 0.4354302
000170 5e 49 a2 3e 26 51 21 3f 8e 54 4b 3e 1c 56 1b be
       0.316966 0.6301445 0.19856474 -0.15169567
000180 a3 d4 0b 3e da 42 d1 3e fb cc d3 3f f2 12 1d 3f
       0.13655333 0.40871316 1.654693 0.61357033
000190 e0 30 e6 3c c6 ee a8 3d f2 61 d5 3d 71 5b 2d 3f
       0.028099477 0.082486674 0.10419072 0.67717654
0001a0 24 77 a4 3e a3 ca 25 3e 6b 2e 00 be 15 ee e3 3e
       0.32122147 0.16190581 -0.12517707 0.4451758
0001b0 0a 5e 36 3f 60 ab 5f bb 7d 18 ae bb 28 09 4b 3f
       0.7123724 -0.0034129247 -0.005312978 0.79310846
0001c0 bf d8 a2 3e f2 c9 47 3f 34 63 7b 3d cc 48 39 3e
       0.3180599 0.7804252 0.061373904 0.18094176
0001d0 67 5d 8a 3e 9a 93 98 bb 75 c3 81 3e 77 cf 18 3f
       0.27024385 -0.0046562674 0.25344434 0.59691566
0001e0 2f 56 95 3c 88 3d 28 3f eb 42 a2 3d 42 84 8c 3e
       0.018229572 0.6571889 0.0792292 0.27444655
0001f0 8c 5b 31 3f a8 b7 ad 3d 6b b7 b5 bd 68 ad c0 be
       0.69280314 0.08482295 -0.08872875 -0.37632298

fc2.weight f4 [128, 128]
000000 92 8a 73 3d c4 a8 9a bd 19 59 98 3d 1d 22 15 bf
       0.059458323 -0.07551721 0.07438869 -0.5825518
000010 1c a8 b0 3c 08 07 ff bd 7f 04 58 bd 0b 4b e6 bd
       0.021564536 -0.12452513 -0.052738663 -0.11244782
000020 d3 7b 28 be c4 7f 3d 3e 56 48 94 bd b0 c8 c4 3d
       -0.16453485 0.1850577 -0.072403595 0.096085906
000030 dd 1a b4 bd cb f9 a3 bd 8f c5 47 be 74 5e 7f bd
       -0.08794186 -0.080066286 -0.19508956 -0.062345937
000040 7d 57 f8 bc e2 e0 85 3c 5c 44 98 36 d0 37 38 bd
       -0.030315155 0.016342584 4.537911e-06 -0.044975102
000050 bd 53 10 3e e5 f5 b9 3d 11 fc 5d bd cf fd 42 3e
       0.14094444 0.09080104 -0.054195467 0.19042133
000060 8a 67 5f be 87 71 6a bd d3 75 93 bd 6f 3c 44 bd
       -0.21816841 -0.057237174 -0.072002076 -0.047909196
000070 9b 6e 44 3c 7e 00 58 3d 88 c0 a1 3d 27 cb a5 bd
       0.011989261 0.052734844 0.078980505 -0.08095389
000080 32 1d c0 be 72 da 1c bd 01 36 84 3e 26 fb 7a 3d
       -0.37522274 -0.038294263 0.25822452 0.06127467
000090 0c b3 37 bd 16 bb 88 bd 16 34 66 be 1d 2b 15 3e
       -0.044848487 -0.06676309 -0.22480807 0.14567228
0000a0 60 1c ad 3c 5c dc 9e 3d 85 ac 00 bf ae c9 9a 3d
       0.021131694 0.07756874 -0.50263244 0.075579986
0000b0 c3 08 5c bd eb 71 c4 bd f7 2a 09 bd ef fb e7 3d
       -0.053719293 -0.09592041 -0.03348824 0.113273494
0000c0 25 19 74 bd 5b 2c 8a 3d 98 65 a6 3d 28 e8 0f 3e
       -0.059594292 0.067467414 0.08124846 0.14053404
0000d0 0d 40 18 bc 11 4c 53 3c 18 51 dc 3c 97 36 ff 3b
       -0.009292615 0.012896554 0.026894137 0.00778849
0000e0 a1 6e f5 be ba ce c1 bd 45 6a 49 bd 27 dc fa bc
       -0.47935966 -0.09463258 -0.049173612 -0.030622555
0000f0 6d ee 11 be 02 14 e6 bd 79 c1 9b 3c d2 43 6e 3d
       -0.14251108 -0.11234285 0.019013153 0.058170147
000100 57 db 46 be fb ad 81 3e 66 df ed bd a7 1d 4d 3c
       -0.19419609 0.2532805 -0.116148755 0.012519277
000110 bb 6c 45 3e 0f 72 5f bd 03 16 10 3e b5 a1 df 3d
       0.19279759 -0.054552134 0.14070897 0.10919515
000120 3a 04 64 bd e1 c4 ae 3d 52 cf bb bd d1 f1 c9 bd
       -0.055668093 0.085336454 -0.091704026 -0.09860576
000130 78 5e 35 3e 02 50 13 be 75 2d 90 bd 91 20 52 bd
       0.17711818 -0.1438599 -0.0703992 -0.05130059
000140 2c e3 2b bd c6 67 4b be 16 bd 1c bd 40 68 e8 bd
       -0.041964695 -0.19863805 -0.038266264 -0.11348009
000150 af 6a 41 3e 4a 1a 23 be 23 28 bb bd 60 6f 96 3d
       0.18888353 -0.15927997 -0.09138515 0.07345462
000160 0d 35 dc bd bf 3f c5 3d 02 0d a7 bd d9 13 14 3c
       -0.10752306 0.09631299 -0.08156778 0.009037935
000170 f8 78 33 be 5a d6 86 bc 7c 00 4e 3e 56 b0 92 3d
       -0.17526615 -0.016459633 0.20117372 0.0716254
000180 e4 18 c4 3d 9b 81 c6 bd 24 b7 15 be 07 54 01 bd
       0.0957506 -0.09692689 -0.14620644 -0.031574275
000190 c0 d1 78 be e7 eb 78 3d 1e 20 22 3b a5 73 0c 3e
       -0.24298763 0.06077185 0.0024738382 0.1371599
0001a0 9b 2d d1 3c fc 21 47 3d c2 c6 fc 3d ce d8 36 be
       0.025534442 0.048616394 0.123425975 -0.17856142
0001b0 14 66 d3 3d e4 e8 83 bb 40 69 9f 3d ff 2f 10 bf
       0.10322204 -0.0040255655 0.07783747 -0.56323236
0001c0 07 b8 b6 be 98 19 68 be 28 14 39 3d 92 e4 90 3d
       -0.35687277 -0.22666013 0.045185238 0.07074846
0001d0 93 49 10 3e a4 9e 19 3d b9 44 91 bd fd cb 42 be
       0.14090566 0.037504807 -0.07093186 -0.19023128
0001e0 15 a2 28 3e 2d 52 c0 bd 1b 9f 8e 3c b8 02 10 be
       0.1646808 -0.09390674 0.017409852 -0.14063537
0001f0 d4 79 e5 bd c9 66 3f bd 96 0c 5c bd 95 83 e6 be
       -0.112048775 -0.046728883 -0.05372294 -0.45022264
000200 3b 05 33 be b1 cc ba 3c 8c bc 5d be a1 10 96 be
       -0.17482464 0.022802683 -0.21653956 -0.29309562
000210 4b cd 96 be 32 de a8 bc 2e 7a 59 3c 6a 96 a5 be
       -0.294535 -0.020613763 0.013273759 -0.3234132
000220 9d 1f b8 be 01 3a f5 3d 00 ba 62 3e e4 c5 24 be
       -0.3596162 0.11973954 0.22141266 -0.16091114
000230 83 f7 20 bf c3 f2 45 be 11 fb d9 be 06 05 65 3e
       -0.6287767 -0.19330887 -0.4257436 0.22365198
000240 bf d8 dc 3d a5 7b db be 42 05 22 3d 86 b1 2d be
       0.107835285 -0.4286777 0.039555795 -0.16962251
000250 96 c0 97 be 41 30 5e bd a8 c8 9c be 8b 10 0f 3c
       -0.2963912 -0.054245237 -0.3062184 0.0087319715
000260 1e 3d 81 3e e7 09 18 be de 9e 3d bb ca 17 c2 bd
       0.2524194 -0.14847527 -0.0028933804 -0.09477194
000270 bb 6b 36 be 6f 61 48 be 14 4c 52 be 6b 4f 55 be
       -0.17814533 -0.19568418 -0.20536834 -0.20831077
000280 60 f2 d9 3e 9a f3 84 be 56 75 57 3e 4e 92 c5 bd
       0.4256773 -0.25967103 0.21040854 -0.09647046
000290 80 90 e4 3c 93 32 be be 80 c1 fa be 60 ad b8 3c
       0.027900934 -0.3714796 -0.48975754 0.02254361
0002a0 31 1e d0 bd 82 37 72 bd fa 5b 92 be 05 82 13 3d
       -0.101620086 -0.059134968 -0.28585798 0.03601267
0002b0 2c e7 08 bf 55 59 01 3f fa ad ef bb f3 e1 59 3c
       -0.5347774 0.50526935 -0.007314441 0.013298499
0002c0 e1 e9 9d 3d 84 62 23 bd 15 01 1d bf 35 c4 90 be
       0.077106245 -0.039888874 -0.61329776 -0.28274694
0002d0 5a 4f 17 be 0e 53 1b be c0 1a 3d be 44 1d 0d bd
       -0.14776364 -0.15168402 -0.18467236 -0.034451738
0002e0 b6 3c 15 3e 9a b3 1a bf 56 99 7b bc d0 51 73 3e
       0.1457394 -0.604303 -0.015356382 0.23761678
0002f0 f3 21 48 be b1 31 3d be 4f be 87 3e 0d 57 8f be
       -0.195442 -0.18475987 0.2651238 -0.27996102
000300 86 06 88 3e 11 ed 14 3c 2a 9b 41 3d 67 7c fd bc
       0.26567477 0.009089724 0.047267117 -0.030943109
000310 50 5b 98 bd 07 27 d9 be 5c ec a6 3d ee 06 8d 3e
       -0.074392915 -0.42412588 0.08150551 0.2754435
000320 4d bf 99 bd 75 4c 2f be a1 44 54 be 06 18 29 3d
       -0.07507191 -0.1711901 -0.20729305 0.041282676
000330 42 ce 3d 3e a8 cc 94 be 5a 3c a1 bd 50 27 74 3c
       0.18535712 -0.2906239 -0.07872839 0.014901951
000340 09 34 41 be 86 bc bd bd 63 6e a5 be 2c 87 d7 bc
       -0.18867506 -0.092644736 -0.3231078 -0.026309572
000350 84 01 20 be e2 41 56 3d 17 3f 33 be b1 da fc bd
       -0.15625578 0.052308924 -0.17504536 -0.123463996
000360 fb 3f 94 3e 54 6e be bd e4 ae 51 be 04 4b e2 3d
       0.28955063 -0.09298387 -0.20476872 0.11049464
000370 37 45 71 3d e7 84 31 bf 66 1f 75 3d c7 91 08 bf
       0.0589039 -0.6934342 0.059844397 -0.5334744
000380 1e fb 97 3e d8 61 e9 3d 81 0f 29 bf fa 17 23 be
       0.29683775 0.11395615 -0.6603928 -0.15927115
000390 2d 09 01 bd ae 74 0a 3d e8 04 87 3d 44 ed c9 3d
       -0.03150289 0.03380268 0.06592733 0.09859708
0003a0 88 d4 72 be 8c 0b a1 3e 50 b5 38 be 02 9b c4 3d
       -0.23713887 0.31454122 -0.18037915 0.09599878
0003b0 c8 0f c1 3d 79 16 36 3e ff d7 18 bf 28 d3 f5 be
       0.09426838 0.1778201 -0.59704584 -0.48012662
0003c0 7e fa f3 be 8f dc 4f bd dc 29 65 be 9e 57 30 3e
       -0.47652048 -0.05074745 -0.2237925 0.17220923
0003d0 c6 cd b9 3e 11 95 fb 3d 9b 5e 03 be 10 87 25 3f
       0.36289805 0.122842915 -0.12829058 0.64659214
0003e0 70 48 23 bc 8b fa d1 bd d5 d1 9a bb 0f 84 e4 be
       -0.009966001 -0.102528654 -0.004724721 -0.44632003
0003f0 15 77 49 3c 05 98 f4 bd fd 91 66 be ed 8c af 3d
       0.012296458 -0.11943058 -0.22516628 0.08571801

fc2.bias f4 [128]
000000 33 85 ae 3d 2e 98 9a 3e 95 be 31 3d 0f 6e 8e be
       0.085214995 0.3019423 0.043394644 -0.27818343
000010 8d bf 15 be 4e c4 57 3e 35 14 d7 3d b7 ec bb 3d
       -0.14623852 0.21070978 0.10501901 0.09176009
000020 e1 07 1c 3f 52 6f 13 bd f9 01 79 be c0 f6 07 3d
       0.6094952 -0.035994835 -0.24317159 0.033194304
000030 c6 f5 06 3e ae 37 44 3e 64 83 1a 3e b6 7e dc 3d
       0.13179693 0.19161865 0.15089184 0.10766356
000040 65 1a 0d 3e d7 1f 15 3f 0b 61 b1 bd e3 bb 06 bd
       0.137796 0.5825171 -0.086610876 -0.032894026
000050 21 a6 4c bd 09 a7 b3 3d 3c af 15 bd 01 ea 43 3e
       -0.04996312 0.08772094 -0.03654407 0.19132234
000060 23 51 4d bd 9c b2 30 3d 13 cb ae 3d 80 d4 b2 bd
       -0.050126206 0.043139085 0.08534827 -0.087319374
000070 aa 24 49 3e 79 a6 66 3e a6 ef dc 3c f0 0e b1 3c
       0.19642892 0.22524442 0.026969742 0.021613568
000080 1a c2 26 3f 3c 29 6b 3e cb 4b 08 bf 85 26 a6 3d
       0.65139925 0.22964948 -0.5324065 0.08112816
000090 d9 08 50 be 55 72 b3 bc 7c c1 ae 3e 18 a2 1c be
       -0.20315875 -0.021905104 0.34131992 -0.15296209
0000a0 e7 f0 48 be 48 4f 2a be 14 60 5f 3d 7f 6c 80 3b
       -0.19623147 -0.16631806 0.054534987 0.0039191837
0000b0 40 2d b5 bd 57 25 ab 3d d9 fa d0 bc 72 ac 1b bd
       -0.088465214 0.083567314 -0.025510238 -0.038006254
0000c0 61 56 0c 3f 16 63 cc 3d 1d a9 02 3f a3 60 91 3e
       0.54819304 0.09979837 0.51039296 0.2839404
0000d0 42 b9 d5 3d 33 d2 17 3e 34 c1 aa bc 12 83 44 3e
       0.10435726 0.14826278 -0.02084408 0.19190624
0000e0 44 29 b9 3c fd 1f 86 3c a6 fc d7 3d cd f6 8a 3e
       0.022602685 0.016372675 0.10546236 0.2714142
0000f0 2d 58 5c 3d 98 b1 c8 bd 32 0c 35 3d ec ac 78 3e
       0.05379503 -0.09799498 0.044201083 0.24284714
000100 13 58 46 3d ce c2 20 3c ea e8 e5 bc 97 02 48 3c
       0.048423838 0.00981207 -0.028065164 0.012207649
000110 e6 13 d3 3c fb b9 3c 3e f2 ae 24 bd 42 3c af 3e
       0.025766324 0.18430321 -0.040205903 0.3422566
000120 7b d0 91 3d b1 65 26 3f e2 33 80 3e 90 0f fd 3e
       0.071198426 0.6499892 0.25039583 0.49425936
000130 b1 a7 bf 3e db 73 b2 3d 08 c7 a9 3e 42 bd 9c bc
       0.37432626 0.08713504 0.3315966 -0.019133214
000140 c7 07 4d bd 31 fc c0 3d 3e fe 13 3d 51 20 3a 3e
       -0.050056245 0.09423102 0.036131136 0.1817639
000150 0b f3 f1 3d ba e0 03 3d ae 02 bb bd 08 77 86 3e
       0.11813935 0.032196738 -0.091313705 0.2626269
000160 38 cd 0c ba 7d 66 a0 bd 5a 64 ba 3d fe 55 16 3f
       -0.0005371156 -0.07832048 0.09101172 0.58724964
000170 c1 6a 97 3d 37 5d 43 3e dc 31 e5 3e 3e 7f c2 bd
       0.073934086 0.19078527 0.44764602 -0.09496926
000180 a2 91 4e 3e 20 62 92 bd c0 ca fc 3b f0 e3 bc 3e
       0.20172742 -0.07147622 0.0077145994 0.36892653
000190 83 25 62 3e 13 c6 7b bb 7c 7c bb ba ee 04 63 3d
       0.22084622 -0.0038417622 -0.0014304067 0.055424623
0001a0 75 41 89 bd 33 a2 55 3d 7f 30 f7 3d b4 84 c2 3d
       -0.06701938 0.05215664 0.12069797 0.09497967
0001b0 95 fd 4f 3e 6a fc 0e 3f fa 03 74 3d fe c2 a3 ba
       0.20311578 0.55853903 0.059574105 -0.0012494025
0001c0 ae 01 01 3f 63 80 a3 3d 0d cc 92 3d fb 17 3d bd
       0.5039319 0.07983472 0.07167826 -0.046165448
0001d0 5e 83 99 3e 28 66 3f 3f 43 64 65 bd 52 f2 3c 3e
       0.29983038 0.74765253 -0.05600382 0.18451813
0001e0 30 5d 5f 3e 1c 16 a9 3e 4a e0 6f 3e 44 0b e4 3d
       0.21812892 0.3302468 0.23425403 0.11134961
0001f0 90 c4 d1 bc 89 a5 47 3f f6 22 27 be 54 8b 29 bd
       -0.025606424 0.7798696 -0.1632193 -0.04139264

out.weight f4 [5, 128]
000000 57 6c 60 3e 22 28 9b be 39 e7 07 be 13 8f 01 bf
       0.21916328 -0.30304056 -0.13271798 -0.5060894
000010 7b bc 90 3e 30 00 18 bf cf bd 62 3e 6b 20 4e 3e
       0.282688 -0.59375286 0.22142719 0.20129554
000020 a0 3f 80 3d f2 a6 b6 bd 24 7f 88 3d 77 5d 1b be
       0.062621355 -0.08918561 0.06664875 -0.15172373
000030 6d 78 f1 be cc f6 f2 3e 4f 74 c0 3e a8 e5 51 bd
       -0.4716219 0.47453916 0.37588736 -0.051244408
000040 e5 d4 e8 bd b8 93 65 3d fe 5b a9 be 91 95 58 3d
       -0.113687314 0.05604908 -0.33077997 0.052877013
000050 46 e0 95 be 71 f5 82 bd 11 5c 4c be 6a cb e3 3e
       -0.2927267 -0.063944705 -0.19956996 0.4449113
000060 1a 09 8d be b1 bb c5 3e 61 11 b3 3d 41 ce 2d 3e
       -0.27546006 0.3861976 0.08743549 0.16973211
000070 2e 33 89 be 03 02 0d 3d 02 7f 31 3e 3d 1b cd 3e
       -0.2679686 0.034425747 0.17333606 0.40059844
000080 ee fe a5 3d 1e 40 e8 3e 00 04 d6 bd 1d f4 5a be
       0.081052646 0.45361418 -0.10449982 -0.21382184
000090 4c f8 62 3e 9f b4 6d bd 73 04 ba 3d 03 20 a0 3d
       0.2216503 -0.05803358 0.0908288 0.07818606
0000a0 09 53 db 3d 6c 2e 48 be 5c bc 8a bc 94 ed bc 3c
       0.10709197 -0.19548959 -0.01693552 0.023062505
0000b0 ca 38 a6 3e b4 69 ef 3e 1e 79 04 3e 08 2d 6f be
       0.32465202 0.46760333 0.12936828 -0.23357022
0000c0 0e 29 09 3d d2 9f c7 3d d8 3a a5 3d d8 b6 42 3c
       0.03348642 0.0974728 0.08067864 0.011884414
0000d0 ac 68 89 3d 7c c7 10 3e 8f 77 56 be cf 8f 8e 3c
       0.06709418 0.14138597 -0.20944045 0.017402558
0000e0 a9 da 87 3e ea ff c3 3d f4 fd 10 3e e5 de 7c 3e
       0.26534012 0.09570296 0.14159375 0.24694403
0000f0 3d 4c b9 bc f0 25 ac 3b d1 38 b3 bd 2a 81 7d bd
       -0.022619361 0.005253546 -0.08751071 -0.06189076
000100 f1 c2 c6 be ab 97 e9 3d 6a 87 9b be 0e bc 70 be
       -0.38820603 0.114058815 -0.3037675 -0.23509237
000110 6e 79 d9 3d d2 0d 03 bf 50 76 e8 3d 36 ec 2a be
       0.10618864 -0.51192963 0.11350691 -0.1669167
000120 1b f2 0f 3e 47 14 d8 3d 84 d9 17 be 36 c7 47 3d
       0.140572 0.105507426 -0.1482907 0.048773967
000130 00 9a ab 3d f9 e4 64 bb e3 1b 39 be 3e b1 a5 3e
       0.083789825 -0.0034926517 -0.18077044 0.32361788
000140 8d 60 a8 3e a9 f9 a4 3e ca 0d 66 3e bc af 08 bf
       0.32886162 0.32221726 0.22466198 -0.5339315
000150 7b 06 b4 3e 8b 73 6d be 09 aa 3f bd 2d 4e 2f be
       0.35161194 -0.23188607 -0.046793018 -0.17119665
000160 df 92 39 3e 24 d7 03 bd 78 30 40 3d d0 73 cb 3d
       0.18122433 -0.032187596 0.046921223 0.09934199
000170 97 45 b4 be d7 1d c5 3e 74 36 86 3e 6d d7 17 3d
       -0.35209343 0.38499328 0.2621342 0.03707068
000180 65 94 e8 3c 14 ee 75 3e c2 6d e7 3e 6a 48 2c be
       0.028391073 0.24016601 0.45200926 -0.16824499
000190 1e c2 8e bc ee f5 ae bc 02 f2 db 3e f3 fc 9d be
       -0.017426547 -0.021357503 0.42958075 -0.30857047
0001a0 31 88 36 bd d3 2b b9 3e f5 d9 1a be 54 6a eb 3e
       -0.044563476 0.36166248 -0.15122207 0.4597956
0001b0 a3 87 a9 3e 4c 21 8e 3d aa 42 9a be 95 98 b5 be
       0.33111295 0.069399446 -0.30128986 -0.35467973
0001c0 c7 aa 82 3d 6f 86 2c be 75 30 0d be e9 77 07 3d
       0.063802294 -0.16848157 -0.13788016 0.03307334
0001d0 8d b4 10 bf 4d 29 c1 3d 62 7c 8c 3d 2e 6d 2b 3d
       -0.565255 0.094317056 0.06859662 0.04185217
0001e0 a6 62 c2 be cc 4e 8a 3d 51 a3 36 be a5 e2 cf 3e
       -0.37965888 0.067533106 -0.17835738 0.40602604
0001f0 11 c4 c8 be 54 5f d7 3d 7c 15 58 3e 59 fe b9 3e
       -0.39212087 0.10516229 0.21101946 0.36326864
000200 0e 11 35 bd 07 98 a7 3e 36 39 ea 3d 91 a0 8f be
       -0.044205718 0.32733175 0.11436693 -0.2805219
000210 ba e8 c1 be 59 ef bb bd 3f 31 e7 3e d0 88 9a bd
       -0.3787287 -0.09176511 0.4515476 -0.07545626
000220 d9 26 20 3d 90 19 86 be 4f 8b 77 be ac dd 83 3c
       0.039099548 -0.26191378 -0.24174236 0.016096912
000230 89 bc 98 be 69 e0 84 be 83 c0 01 3e 5b 06 0d be
       -0.2983134 -0.2595246 0.12671094 -0.13771956
000240 d2 98 5d be c5 bb 91 3d ba 4e 62 3e 37 96 70 3d
       -0.21640328 0.07115892 0.22100344 0.058737006
000250 b3 30 cd 3e fb 2b 8f be c9 7d 72 be 4b d0 3b bf
       0.40076217 -0.27963242 -0.23680796 -0.73364705
000260 8a 90 6b be d5 bd 67 be b7 54 91 3d d3 3b 30 3e
       -0.23004356 -0.22631009 0.07096236 0.17210321
000270 c2 6b b7 3e 60 ed f1 3d ee eb 8d 3e 95 3f bc bd
       0.358244 0.11812854 0.27719063 -0.09191815
000280 f3 f2 96 3d be 86 e4 be 8c a1 9c be fb 7c 26 bd
       0.07370558 -0.4463405 -0.30592 -0.040646534
000290 35 8b e8 3e 95 d3 24 be aa 67 eb 3d 1a 4a 6c bd
       0.45418707 -0.16096337 0.11494382 -0.057687856
0002a0 06 62 8a 3e e4 6c 0d be 35 77 67 be 2f 74 18 be
       0.2702791 -0.1381107 -0.22604068 -0.1488807
0002b0 2c 01 0b be e4 55 90 bd 52 5c fc 3d 02 29 64 bc
       -0.13574666 -0.07047632 0.12322296 -0.013925793
0002c0 7f 69 87 3d 3f 9d 1b 3e d5 99 85 3d cb f1 eb 3e
       0.06611919 0.15196703 0.06523482 0.4608291
0002d0 0d bd 1b bc bc 5b 03 bf b5 10 5b bf f0 08 92 bd
       -0.009505522 -0.5131185 -0.8557237 -0.07130611
0002e0 05 20 af 3c 68 6f a3 bc f2 28 53 be f8 0f 49 be
       0.021377573 -0.019950584 -0.20621088 -0.19634998
0002f0 86 03 90 be 90 4a 4b be 0f 8a 79 be 2f 43 51 3e
       -0.28127688 -0.19852662 -0.24369071 0.20435785
000300 3b d0 39 3e 17 19 32 3e c9 87 a7 be 54 4b f5 3e
       0.1814584 0.17392384 -0.32720783 0.47909033
000310 c8 9f c6 3e df 87 73 3d c9 52 6f be 9c 19 ff bd
       0.38793778 0.05945575 -0.23371424 -0.124560565
000320 60 99 cf ba ff 81 a3 3d 95 db f6 3e 21 f9 b3 3d
       -0.0015838556 0.07983779 0.48214403 0.08787752
000330 36 51 a6 3e 9e c5 db 3e 33 28 a8 3c 6b e2 f8 3e
       0.32483834 0.42924207 0.020526981 0.48610243
000340 26 3a 65 be 93 02 08 be 80 f1 a9 3e 3d e6 d1 be
       -0.22385463 -0.13282232 0.33192062 -0.4099597
000350 2a 39 09 bf 53 48 e5 be 4a 92 98 3d 34 4a 87 be
       -0.5360285 -0.44781741 0.074497774 -0.264238
000360 0d ad cd bd 8c 04 73 3d 3b d9 bc bd 02 bd de 3d
       -0.100427724 0.059330508 -0.09221121 0.10875894
000370 ae bd a8 be c1 1c f3 be e5 e1 08 3e b7 4c 5f 3d
       -0.32957214 -0.47482875 0.13367422 0.05451652
000380 1a 79 6f bd ea 8d 10 bf 43 fd e2 be 41 7a 8a 3e
       -0.0584651 -0.56466544 -0.44333848 0.27046397
000390 f3 8d 75 3e 66 d0 02 be 0a 1d 04 3e 1f e0 0d be
       0.2397993 -0.1277481 0.12901703 -0.13855027
0003a0 88 cf 65 bd b4 46 be 3e 9a d4 4b 3e 7e 5a e5 3e
       -0.05610612 0.37163317 0.1990532 0.44795603
0003b0 07 68 82 be ed f5 b8 3d 48 1f 47 3e 87 c2 fc 3d
       -0.25469992 0.090312816 0.19445527 0.12341791
0003c0 f2 26 b5 3d 93 19 b4 3e ee 57 4b be 0d c9 0d 3e
       0.08845319 0.35175762 -0.19857761 0.13846226
0003d0 15 d6 2b 3e 6d 5e b1 3d a1 d2 f4 bd 0c 7b 22 bf
       0.16780885 0.086605884 -0.11954237 -0.63469005
0003e0 9b bb 63 3d cc f0 0d bc 63 36 29 3e 87 b5 ad be
       0.055598836 -0.0086633675 0.16524653 -0.33927557
0003f0 c3 2b 5b be 81 b2 d0 3d c9 e4 6e bc 8a ab 04 3f
       -0.21403413 0.10190297 -0.014580914 0.5182425

out.bias f4 [5]
000000 cc 5b c2 3e 4d 4b e8 3e 2c 05 11 3f 24 50 e6 3e
       0.3796066 0.4536995 0.56648517 0.44983017
000010 a5 df c5 3e
       0.3864719
