SimplifiedSpaceWar/trained_models/dqn2_bullets_5500.pth (torch, 89165 bytes, 6 tensors)

fc1.weight f4 [128, 33]
000000 98 34 07 bf 8f 53 6e be 77 35 a1 bd 32 13 6a 3d
       -0.52814627 -0.23274063 -0.07871526 0.057147212
000010 9c e3 e1 3d 89 c3 8d be e5 d6 81 be 89 20 bc be
       0.11029741 -0.27688244 -0.25359264 -0.36743572
000020 ae 6c af 3d e3 c8 c2 bd 22 56 fe 3d 30 cd 94 bd
       0.08565651 -0.09510972 0.12418772 -0.07265699
000030 41 f7 41 be 50 51 fc 3c 27 a4 12 3d 3f f0 00 3e
       -0.18941976 0.030800492 0.03580108 0.12591647
000040 14 69 5f 3d ec c2 84 3e 49 7a b9 3d a3 ed 7e be
       0.05454357 0.25929964 0.09056527 -0.24895339
000050 0b 5c ea be e0 c6 b0 3c 52 c5 e4 3d 19 3c 8d 3d
       -0.45773348 0.021579206 0.11170448 0.06896228
000060 cc 32 25 3e 77 59 11 3e af 9e 28 bd 56 05 95 3e
       0.16132659 0.14194284 -0.041166957 0.29105633
000070 c0 8e 5d 3d 88 87 64 bc 91 03 dc 3d a9 75 38 be
       0.054091215 -0.013948329 0.10742868 -0.18013634
000080 56 a8 2e be a3 d7 67 3f ed 69 8a 3f 33 a5 32 3d
       -0.17056403 0.9056341 1.0813576 0.043614578
000090 d1 fe f3 bd a7 82 cc 3e 77 b1 dc 3e 2d a5 1a 3e
       -0.11913837 0.3994343 0.43104145 0.15102072
0000a0 03 74 0c bf 0d fb 95 3c 63 23 b5 3e 1b b0 d2 be
       -0.5486452 0.018308187 0.3537856 -0.41149983
0000b0 24 c2 2c be 47 92 5c 3a 16 c8 d7 bd 69 20 d5 bd
       -0.16870934 0.0008414131 -0.1053621 -0.10406572
0000c0 b2 df 8b 3e 6f 4b b8 3e 95 3c cd bd dc 7d 97 be
       0.27319103 0.3599505 -0.10021321 -0.2958821
0000d0 ec 74 30 bd 00 43 40 be 3a e2 9d 3d 6b a0 48 3e
       -0.043080255 -0.18775558 0.07709165 0.19592445
0000e0 29 c1 f5 bd 6b 42 26 3d 61 34 34 3e b2 80 d5 bd
       -0.11999733 0.040590685 0.17598106 -0.10424937
0000f0 2c 08 38 3e 82 7d 52 3d 72 fc b5 bd 66 9b 80 be
       0.17971867 0.051389225 -0.08886041 -0.2511856
000100 02 bc 67 3d 7d 97 7a 3e ae 67 6a 3e 40 0d 0f bf
       0.056575783 0.2447185 0.22891113 -0.5587959
000110 ff 21 b3 3e 7a 1a a0 be 66 28 bc be 6b 9f a6 be
       0.34986874 -0.312702 -0.36749572 -0.325435
000120 44 2a 59 3e e6 ac f4 be 64 01 1d 3c 81 a5 43 3e
       0.2120753 -0.4778816 0.009582851 0.19106103
000130 44 99 b9 3e 69 fa 02 3e 43 58 1e be f9 11 9e 3e
       0.36249745 0.12790836 -0.15463357 0.30873087
000140 11 13 da bb d0 cf 39 bf 31 06 da 3e ec de 0f 3e
       -0.006655105 -0.7258272 0.4258285 0.14049882
000150 2a 3d 7e 3d e7 0b 0a bf f3 e9 1b bd ea 21 05 be
       0.06207005 -0.5392441 -0.03806491 -0.13001218
000160 6c f0 59 be cf 98 3d 3e 96 68 ff bc 46 23 de be
       -0.2128312 0.18515323 -0.0311778 -0.43386286
000170 49 1c 06 be f4 b1 45 3e b0 ec 69 be 73 24 82 3c
       -0.13096727 0.19306165 -0.22844195 0.015886521
000180 cd 13 d9 bd c7 b5 d3 bd 7f 2b 7a be 7e 6d 8d be
       -0.1059948 -0.10337406 -0.24430655 -0.27622598
000190 4d fa b1 bd 85 52 fa bd 50 1e 35 be 1b ae 82 3e
       -0.08690319 -0.122227706 -0.17687345 0.25523457
0001a0 b2 7c 56 3e 82 62 f6 3e 47 4b 71 3e 38 02 9c 39
       0.20946005 0.4812203 0.23563872 0.00029756292
0001b0 86 07 0e 3f a3 8f df be 97 01 87 be 85 5b 46 3f
       0.5548023 -0.43664274 -0.263684 0.774834
0001c0 22 4c 92 3e 94 8d 2f be 3b a0 03 be ca a0 0a be
       0.2857371 -0.17143852 -0.12854092 -0.13537899
0001d0 e1 1f 3f 3f 12 05 8c 3e 7e a1 c3 3d 65 42 a5 be
       0.7465802 0.27347618 0.095522866 -0.32277218
0001e0 29 42 c4 bf 9d b1 4c be 37 d9 06 3f d4 99 e1 3d
       -1.533269 -0.19989629 0.52675194 0.110156685
0001f0 17 d2 ac 3d 2f c3 75 bd 79 ff c8 be 74 f8 f0 3e
       0.08438509 -0.060000595 -0.3925741 0.47064555
000200 74 6e 7b be 42 d1 30 be 03 8f 75 3d c1 f5 60 be
       -0.24553853 -0.17267326 0.05995084 -0.21968748
000210 76 9c c1 be bf 9c e9 3d 2a 4b 7c be 40 b2 1d bc
       -0.37814683 0.1140685 -0.24638048 -0.009625018
000220 56 dd b5 be c1 e1 45 bf 61 8c 54 be 69 31 40 3c
       -0.35520428 -0.772976 -0.20756675 0.01173053
000230 b1 e1 99 3b 6c 0a dd be 0d dd 24 3d 1c 08 ab be
       0.004696094 -0.43172014 0.040249873 -0.33404624
000240 d6 c7 b9 be 9a eb 44 3e 04 89 72 be fe 05 45 3d
       -0.36285275 0.192305 -0.2368508 0.048101418
000250 1e e3 74 be 7b 5b 39 be 1f 8d 83 be 39 c8 dc 3e
       -0.23914763 -0.18101303 -0.25693604 0.43121508
000260 eb 00 3b bc 46 68 a6 bd a4 5f 92 3c 87 31 66 3e
       -0.011413793 -0.08125357 0.01786787 0.2247983
000270 96 c6 97 3c 94 eb 13 3e 46 40 27 be e3 fc dd 3c
       0.01852731 0.14445335 -0.16333112 0.027098125
000280 0a 82 ba be 9e b3 93 be 8c aa 9a be 38 e9 13 3f
       -0.36427337 -0.28847975 -0.30208242 0.5777774
000290 11 0d 1d 3f 08 f4 93 3f ae 84 ab 3c 7a 88 98 be
       0.6134806 1.1558847 0.02093729 -0.29791623
0002a0 f0 bf 3d bd af b8 17 3f 19 56 3d 3d 50 2b 76 3d
       -0.046325624 0.5926618 0.046224687 0.0600999
0002b0 4c 4d d0 be c8 e7 c5 ba 9a 43 88 be a6 7f 82 be
       -0.40683973 -0.0015098983 -0.26614076 -0.25488013
0002c0 a9 4b 13 bf 51 78 4c bf 96 dd f7 3e 68 42 c4 be
       -0.57537323 -0.7987109 0.48411244 -0.38331914
0002d0 e8 f4 10 3f 33 10 28 be 94 c4 f4 be 53 d1 36 be
       0.566237 -0.1641243 -0.47806227 -0.17853288
0002e0 3f ac 5a 3e 28 06 b6 3e 98 da c4 be 96 b6 06 bf
       0.21354769 0.35551572 -0.38448024 -0.52622354
0002f0 fd 2d ef bd ac 44 b5 bd b3 49 0c 3c 22 e5 89 3d
       -0.116786934 -0.08850989 0.008562493 0.06733157
000300 35 25 18 3e ee 1e 42 bd 9c e1 88 3e 30 6c 61 3e
       0.14857943 -0.047392778 0.26734626 0.22013927
000310 00 89 a1 3e 01 6a 01 3e 88 31 42 bf 9e 3b a9 bf
       0.31549835 0.12638094 -0.7585683 -1.3221319
000320 b4 5f 05 3f ce e9 c1 3e 2e 34 61 be 45 53 9c bb
       0.52099156 0.3787369 -0.21992561 -0.0047706687
000330 76 a9 80 3e 45 f5 e1 3e 2d 30 c9 bd f5 66 4f 3d
       0.25129288 0.44132438 -0.09823642 0.050635297
000340 be f9 2b bf 85 35 5c 3e 89 cb ec bc ee 73 60 3e
       -0.6717795 0.21504791 -0.028905647 0.21919224
000350 c2 4d 64 bf a8 01 1f be a4 b5 3f b9 c8 45 77 be
       -0.8918115 -0.15527976 -0.00018282846 -0.24147713
000360 6b 45 e6 be 72 07 64 bd c2 51 21 bf 6c 97 c2 be
       -0.44974837 -0.055671163 -0.6301538 -0.3800615
000370 f5 4a a1 bd cf 0d 22 be 68 a0 72 3e 01 c9 19 bc
       -0.07875625 -0.1582558 0.23694003 -0.009386302
000380 a4 e4 14 3f a7 0d c0 bd 66 27 71 3e 9d 13 18 3e
       0.5816138 -0.09377604 0.23550186 0.14851232
000390 64 40 a9 3d e4 1b 80 3e 6b fb 21 3e 43 1b 80 3e
       0.08264235 0.2502128 0.15818565 0.250208
0003a0 28 43 09 be 14 65 70 3c e3 02 3e 3d 39 c8 3e 3e
       -0.13404524 0.014672536 0.04638947 0.18631066
0003b0 56 53 c2 bc 65 3a ba bd 22 9d ca bd 21 c3 e5 3c
       -0.023721378 -0.09093169 -0.09893252 0.028047146
0003c0 ca aa be 3e f5 09 83 be 62 ec 82 3f 56 df 29 be
       0.37239677 -0.25593534 1.0228388 -0.16589102
0003d0 c9 72 4f 3d 9c dd ae 3e af 7c a4 be ed 9d a8 bd
       0.050646577 0.3415345 -0.32126376 -0.08233247
0003e0 2a ce 17 3c ff 55 6f 3e 80 6a da bd 8c 7d 25 3e
       0.009265462 0.23372649 -0.106648445 0.16161174
0003f0 ef 7c e8 3c 84 71 4b 3e 3a f4 4a be 20 3e 54 3e
       0.028379885 0.19867522 -0.19819728 0.20726824

fc1.bias f4 [128]
000000 d3 d7 7c 3e ec 66 8d 3e 0b 73 af be 88 98 be bd
       0.24691705 0.27617586 -0.34267458 -0.09306437
000010 39 c4 dd 3e 5b 6d 7d 3e 5d 13 40 3e 96 5a 95 3d
       0.43313769 0.24748747 0.18757387 0.072926685
000020 ae 40 3c 3d a0 cf 85 3e 26 5f a2 bd bc b7 ff bd
       0.04596012 0.26134968 -0.079283044 -0.124862164
000030 71 56 56 3e 99 b9 b0 bd 22 8d 98 bb f9 62 e1 bd
       0.20931412 -0.0862915 -0.004655496 -0.11005206
000040 c3 1e 0a bd 4c 32 af 3e fe 98 82 be 20 b2 9f 3d
       -0.033720743 0.3421806 -0.2550735 0.077976465
000050 11 0d 18 3f 40 a8 85 3e 6e cf 18 bc a2 dc 2a 3e
       0.5939494 0.26104927 -0.009326799 0.16685727
000060 ed 67 1a 3e 8a 97 00 be e0 fe 83 3e 1f 9f 62 3e
       0.15078707 -0.12557808 0.25780392 0.22131012
000070 e3 9d 81 3d 21 b3 08 3e 74 f9 81 be 9c 38 10 3e
       0.063289426 0.13349582 -0.2538563 0.14084095
000080 50 e3 2b 3f ee 97 90 3e ca d5 96 3c 64 ac cd 3e
       0.67143726 0.28240913 0.01841249 0.40170586
000090 47 7f 02 3e 7a c6 b7 3e 54 4a 1e 3e 0c 8b 75 3e
       0.12743865 0.35893613 0.15458041 0.23978823
0000a0 af 21 8d be cc 86 4b 3d a4 66 6b 3f 47 94 e9 3e
       -0.2756476 0.0496891 0.9195349 0.4562094
0000b0 76 62 00 be dc 92 90 3e 1a 1b 98 3e 30 6b 2f bd
       -0.1253756 0.28237045 0.29708177 -0.04282683
0000c0 32 9b 27 be 01 19 38 3d 19 5d bd 3c 87 0c 95 3e
       -0.16367796 0.04494572 0.023115681 0.2911112
0000d0 8e 25 45 be d8 49 ec be 2c ef 2e be 3c fe 42 3e
       -0.19252607 -0.46150088 -0.17083424 0.19042295
0000e0 77 d1 36 3f 64 93 b7 3e d4 15 1b 3e 8d 66 12 3e
       0.7141337 0.35854638 0.15145046 0.14296933
0000f0 39 aa 7a bf a0 e4 29 3d d3 48 15 3f 48 32 be 3e
       -0.9791599 0.0414778 0.58314246 0.37147737
000100 0a b7 98 3d 52 0d 2f 3b e5 a2 db bd ce 8c 1b 3d
       0.07456787 0.002671082 -0.10724429 0.03797608
000110 70 ad 62 3e 3e 32 c0 3c 5c 43 6c 3e 2f 8c f3 ba
       0.22136474 0.023461457 0.2307257 -0.0018581207
000120 34 e1 e2 3e aa a7 18 3f 20 1a 06 3f c1 27 7b 3e
       0.4431244 0.59630835 0.52383614 0.24526884
000130 6c 63 90 3e e0 99 38 3e e5 92 21 3e 59 c5 ba 3d
       0.28200853 0.18027449 0.15778692 0.09119672
000140 47 5a 4a 3f 2b 79 30 3e ed 4a b7 3e 02 78 09 3f
       0.79044 0.17233722 0.3579935 0.5369874
000150 77 12 a4 3d c6 da 83 3e d8 f2 be 3e 87 02 a6 3e
       0.080113344 0.25752848 0.3729465 0.32423803
000160 cd 50 5b 3e 0a d3 33 3e 1c a5 25 3e fa 13 db 3e
       0.21417542 0.17560974 0.16176265 0.42788678
000170 be d7 a3 3e 25 32 08 3f 50 ab 3d 3e 05 cc f3 bc
       0.32000536 0.53201514 0.18522382 -0.02976037
000180 85 79 1c bd dc 53 fd 3e ff fa bc 3f 25 d3 11 3f
       -0.038201828 0.49478042 1.4764098 0.56962806
000190 5d eb 06 3e 2f 40 6c bc 96 c1 c9 3d 89 f8 1c 3f
       0.13175721 -0.014419599 0.09851377 0.61316735
0001a0 a3 ce aa 3e 18 9b 29 3e ad c4 a1 3c a9 55 f5 3e
       0.33360776 0.1656307 0.019747103 0.47916916
0001b0 f3 5e 2e 3f 91 0d 68 3c 84 82 b4 3b 40 78 35 3f
       0.6811363 0.014163391 0.0055087227 0.7088661
0001c0 19 91 86 3e 32 71 39 3f a3 32 14 3d 8d ab f1 3d
       0.26282576 0.7243835 0.036181103 0.11800299
0001d0 29 41 78 3e 51 5f 3b bd be 32 7b 3e 78 64 11 3f
       0.24243607 -0.045745198 0.24531075 0.5679393
0001e0 9d d4 1b bb 65 66 19 3f ef cb 4a 3d 7b 75 69 3e
       -0.002377785 0.59921867 0.049510892 0.22798721
0001f0 0a 57 33 3f 3d f4 8c 3c a5 28 c2 bd 59 3e e0 be
       0.70054686 0.017206306 -0.094804086 -0.43797567

fc2.weight f4 [128, 128]
000000 57 3c 92 3d 50 c8 02 bd 9f a7 a2 3c 82 15 d4 bd
       0.07140415 -0.031929314 0.019855319 -0.10355665
000010 9a ad 3e bc 5d 01 60 bd b6 5d f9 bc e7 ae 44 bd
       -0.0116380695 -0.0546888 -0.030440193 -0.048018362
000020 b2 b3 b8 bd 94 aa 8f 3d f4 ba 81 bd c0 5e a7 3d
       -0.09018649 0.07014957 -0.063344866 0.08172369
000030 75 b4 1a bd 0e cf 89 3b 05 e5 9a bd b8 fc aa bd
       -0.037769753 0.004205591 -0.07563213 -0.083489835
000040 31 0a 49 bd 20 3b 34 3d 79 22 89 3d 25 8c a5 3d
       -0.049081985 0.0440017 0.06696028 0.08083371
000050 64 95 7d 3d bc cb b5 3d 0a af 95 bd 43 f0 ef 3c
       0.061910048 0.0887675 -0.07308777 0.02928937
000060 f6 08 f7 bc 0f 09 a4 bd d5 c2 66 bc 5e d4 95 3b
       -0.03015564 -0.0800954 -0.0140845375 0.0045724353
000070 7c 9c 51 3c d6 4a 96 3c a1 c2 8d 3d 97 84 9a bd
       0.012793656 0.018346231 0.06921888 -0.07544821
000080 06 ed 53 bc f8 3e 3f 3d 56 48 85 3d 78 b9 90 3d
       -0.012934929 0.04669091 0.065079376 0.07066625
000090 00 69 89 3b b4 9d 8f bd a7 4c 85 bd 2d 87 95 3d
       0.004193425 -0.07012501 -0.06508761 0.07301173
0000a0 56 5a 53 bc 2b a5 43 bc b8 04 4c bd 96 df 50 3d
       -0.012899956 -0.011941235 -0.049809188 0.05099448
0000b0 ba 01 71 bd 62 f9 28 bc b2 3d 28 3d 0a cf 50 3d
       -0.058839537 -0.010313364 0.041074462 0.050978698
0000c0 5e fa 9a bd 54 4b 74 3d f7 5c 44 3d b1 59 86 3d
       -0.07567285 0.05964215 0.04794022 0.06560076
0000d0 f4 71 09 bd 56 d4 a8 3c a5 82 ae bc 19 68 5e 3d
       -0.03355594 0.020609062 -0.02130253 0.054298494
0000e0 38 94 75 bd db 4d 2d bd 00 b4 8a bd 7d 76 03 3d
       -0.059955806 -0.042310577 -0.067726135 0.03209542
0000f0 33 55 2d 3d 97 11 e4 3c 7d b7 3d 3d f7 ad 51 bd
       0.04231758 0.027840419 0.046317566 -0.051191296
000100 e8 55 5f 3c 45 ae 78 3d 9b 22 4b bc 52 4e 20 bd
       0.0136313215 0.06071307 -0.012398387 -0.039137192
000110 30 7e 05 3d 1c ee 8b bd 84 a0 99 3d e5 f9 9a bc
       0.032591045 -0.06832525 0.07501319 -0.018917987
000120 77 11 2a 3c 09 4a 9e bd 83 ad cf bb 8c e7 8b bd
       0.0103801405 -0.07728965 -0.006337823 -0.068312734
000130 b8 b8 89 bd 96 d6 a4 3c 39 58 9e bd 27 dc 20 bd
       -0.067246854 0.020121854 -0.07731671 -0.039272454
000140 36 bc b1 bd bf 64 ac bd 8a 57 98 bd 2d e1 b4 bd
       -0.086784765 -0.08417653 -0.07438572 -0.08832011
000150 d3 0a a9 3d f8 ba 19 bd ab 4b 9d 3d 90 d9 80 3d
       0.08254018 -0.037531823 0.07680448 0.06291497
000160 ec 5c 22 3d d1 b4 3b 3d 7e d0 ac bb a3 5b f1 bb
       0.0396394 0.045826737 -0.0052738776 -0.0073656603
000170 d0 78 37 bd 3d c3 9b bb a4 ab 2b bd 58 39 b6 3c
       -0.04479295 -0.004753499 -0.041911736 0.02224414
000180 6c 42 1f 3c 6b e9 45 bd 7f 4a 9e bc 23 dc 1b 3d
       0.009720426 -0.048318308 -0.019322632 0.038051736
000190 20 f9 bd 3c 94 2e b7 ba 76 d7 d3 bc 9a af 82 3d
       0.023190081 -0.0013975673 -0.025859576 0.063811496
0001a0 06 52 86 bd a8 f1 c4 bc a8 61 51 3d 38 eb ca bd
       -0.065586135 -0.024041012 0.051118523 -0.09908146
0001b0 fd 2d 2a bc 43 70 ba ba f5 d1 36 bd cb 68 89 bd
       -0.010386941 -0.001422413 -0.044633824 -0.06709441
0001c0 71 78 ed bc 4c 2e a2 bd 9e bf db 3c 7d ad 7f bd
       -0.028988095 -0.07918987 0.026824769 -0.06242131
0001d0 ab 73 87 bc 85 48 9c bc 83 0a 7b bd 54 73 b3 bd
       -0.016534647 -0.019077549 -0.06128932 -0.087622315
0001e0 2f 4d 2b bd 72 0c a6 bd 9d 85 7a 3c 44 4b bd 3c
       -0.041821655 -0.081078425 0.015290645 0.023107179
0001f0 9a be 56 3d ea 42 2f 3b 93 68 a8 bc fc 6b 38 3d
       0.052427866 0.0026742765 -0.020557677 0.045024857
000200 3b 05 33 be b1 cc ba 3c 8c bc 5d be a1 10 96 be
       -0.17482464 0.022802683 -0.21653956 -0.29309562
000210 4b cd 96 be 32 de a8 bc 2e 7a 59 3c 6a 96 a5 be
       -0.294535 -0.020613763 0.013273759 -0.3234132
000220 9d 1f b8 be 01 3a f5 3d 00 ba 62 3e e4 c5 24 be
       -0.3596162 0.11973954 0.22141266 -0.16091114
000230 83 f7 20 bf c3 f2 45 be 11 fb d9 be 06 05 65 3e
       -0.6287767 -0.19330887 -0.4257436 0.22365198
000240 bf d8 dc 3d a5 7b db be 42 05 22 3d 86 b1 2d be
       0.107835285 -0.4286777 0.039555795 -0.16962251
000250 96 c0 97 be 41 30 5e bd a8 c8 9c be 8b 10 0f 3c
       -0.2963912 -0.054245237 -0.3062184 0.0087319715
000260 1e 3d 81 3e e7 09 18 be de 9e 3d bb ca 17 c2 bd
       0.2524194 -0.14847527 -0.0028933804 -0.09477194
000270 bb 6b 36 be 6f 61 48 be 14 4c 52 be 6b 4f 55 be
       -0.17814533 -0.19568418 -0.20536834 -0.20831077
000280 60 f2 d9 3e 9a f3 84 be 56 75 57 3e 4e 92 c5 bd
       0.4256773 -0.25967103 0.21040854 -0.09647046
000290 80 90 e4 3c 93 32 be be 80 c1 fa be 60 ad b8 3c
       0.027900934 -0.3714796 -0.48975754 0.02254361
0002a0 31 1e d0 bd 82 37 72 bd fa 5b 92 be 05 82 13 3d
       -0.101620086 -0.059134968 -0.28585798 0.03601267
0002b0 2c e7 08 bf 55 59 01 3f fa ad ef bb f3 e1 59 3c
       -0.5347774 0.50526935 -0.007314441 0.013298499
0002c0 e1 e9 9d 3d 84 62 23 bd 15 01 1d bf 35 c4 90 be
       0.077106245 -0.039888874 -0.61329776 -0.28274694
0002d0 5a 4f 17 be 0e 53 1b be c0 1a 3d be 44 1d 0d bd
       -0.14776364 -0.15168402 -0.18467236 -0.034451738
0002e0 b6 3c 15 3e 9a b3 1a bf 56 99 7b bc d0 51 73 3e
       0.1457394 -0.604303 -0.015356382 0.23761678
0002f0 f3 21 48 be b1 31 3d be 4f be 87 3e 0d 57 8f be
       -0.195442 -0.18475987 0.2651238 -0.27996102
000300 86 06 88 3e 11 ed 14 3c 2a 9b 41 3d 67 7c fd bc
       0.26567477 0.009089724 0.047267117 -0.030943109
000310 50 5b 98 bd 07 27 d9 be 5c ec a6 3d ee 06 8d 3e
       -0.074392915 -0.42412588 0.08150551 0.2754435
000320 4d bf 99 bd 75 4c 2f be a1 44 54 be 06 18 29 3d
       -0.07507191 -0.1711901 -0.20729305 0.041282676
000330 42 ce 3d 3e a8 cc 94 be 5a 3c a1 bd 50 27 74 3c
       0.18535712 -0.2906239 -0.07872839 0.014901951
000340 09 34 41 be 86 bc bd bd 63 6e a5 be 2c 87 d7 bc
       -0.18867506 -0.092644736 -0.3231078 -0.026309572
000350 84 01 20 be e2 41 56 3d 17 3f 33 be b1 da fc bd
       -0.15625578 0.052308924 -0.17504536 -0.123463996
000360 fb 3f 94 3e 54 6e be bd e4 ae 51 be 04 4b e2 3d
       0.28955063 -0.09298387 -0.20476872 0.11049464
000370 37 45 71 3d e7 84 31 bf 66 1f 75 3d c7 91 08 bf
       0.0589039 -0.6934342 0.059844397 -0.5334744
000380 1e fb 97 3e d8 61 e9 3d 81 0f 29 bf fa 17 23 be
       0.29683775 0.11395615 -0.6603928 -0.15927115
000390 2d 09 01 bd ae 74 0a 3d e8 04 87 3d 44 ed c9 3d
       -0.03150289 0.03380268 0.06592733 0.09859708
0003a0 88 d4 72 be 8c 0b a1 3e 50 b5 38 be 02 9b c4 3d
       -0.23713887 0.31454122 -0.18037915 0.09599878
0003b0 c8 0f c1 3d 79 16 36 3e ff d7 18 bf 28 d3 f5 be
       0.09426838 0.1778201 -0.59704584 -0.48012662
0003c0 7e fa f3 be 8f dc 4f bd dc 29 65 be 9e 57 30 3e
       -0.47652048 -0.05074745 -0.2237925 0.17220923
0003d0 c6 cd b9 3e 11 95 fb 3d 9b 5e 03 be 10 87 25 3f
       0.36289805 0.122842915 -0.12829058 0.64659214
0003e0 70 48 23 bc 8b fa d1 bd d5 d1 9a bb 0f 84 e4 be
       -0.009966001 -0.102528654 -0.004724721 -0.44632003
0003f0 15 77 49 3c 05 98 f4 bd fd 91 66 be ed 8c af 3d
       0.012296458 -0.11943058 -0.22516628 0.08571801

fc2.bias f4 [128]
000000 08 7a 4a 3d 2e 98 9a 3e 86 83 51 3d 56 a6 5a be
       0.049432784 0.3019423 0.05115082 -0.21352515
000010 ca a0 e0 bd ff e3 1b 3e 99 aa e1 3d 29 8e b0 3d
       -0.10968168 0.15223692 0.11018867 0.08620865
000020 c6 50 10 3f 9e cd d1 bc 91 a2 46 be 35 6b 20 3d
       0.5637325 -0.025610741 -0.19397952 0.03916474
000030 d1 5a a0 3d 79 68 3e 3e 7b 44 01 3e 49 37 b6 3d
       0.07829822 0.1859454 0.1262378 0.088972636
000040 65 1a 0d 3e 3b e7 02 3f 31 88 ab bd cf 79 04 3d
       0.137796 0.5113408 -0.08375586 0.03234273
000050 de 73 f5 3c 45 1a 89 3d ee 9c 59 bb bd be 39 3e
       0.029962476 0.06694464 -0.003320511 0.18139167
000060 db 87 b8 3c ba 26 94 3d 13 cb ae 3d 7b 99 8a be
       0.022525718 0.07233949 0.08534827 -0.2707022
000070 25 79 4c 3e d1 e6 6b 3e a6 ef dc 3c f0 0e b1 3c
       0.19968088 0.23037268 0.026969742 0.021613568
000080 9c e5 19 3f db 43 8a 3e 1d b2 de be 85 26 a6 3d
       0.6011598 0.27004895 -0.43495265 0.08112816
000090 4f 56 1a be bb 71 81 3d 10 32 e4 3e 18 a2 1c be
       -0.15071987 0.063205205 0.44569445 -0.15296209
0000a0 09 9c ac bd c7 dc d9 bd 7a dd 96 3d 90 60 cc 3d
       -0.08428199 -0.10637813 0.07366462 0.09979355
0000b0 b5 c6 c1 bd 48 cc 28 3c c3 f4 0a bd cf 77 19 3d
       -0.094617285 0.010302611 -0.03392483 0.037467774
0000c0 64 25 00 3f 44 fa d4 3d 4b 93 d6 3e db 88 59 3e
       0.50057054 0.10399297 0.4190925 0.21243612
0000d0 42 b9 d5 3d 62 62 2f 3e 50 43 2f bd 52 f4 55 3e
       0.10435726 0.17127374 -0.042788804 0.20893982
0000e0 44 38 38 3d fd 1f 86 3c c3 e2 fe 3d bf d7 98 3e
       0.044975534 0.016372675 0.12445595 0.298521
0000f0 01 37 35 3d 9e f5 8b bd 3f 07 8e 3d 13 92 75 3e
       0.04424191 -0.06833957 0.06934976 0.23981504
000100 70 a2 2a 3d 7a 1b 51 3c 35 18 de bc dd 56 6f 3d
       0.04165882 0.012762899 -0.027111152 0.05843245
000110 4a 11 2a 3d 11 61 73 3e 54 40 51 3d 8f 0f a2 3e
       0.041520394 0.23767497 0.05108674 0.31652495
000120 bc c9 be 3d a7 63 15 3f b0 9d 95 3e 84 fa d9 3e
       0.093158215 0.5835518 0.2922187 0.4257394
000130 f5 54 a2 3e fa 8b eb 3d 95 ce a7 3e ed 05 23 3d
       0.31705442 0.11501308 0.32774797 0.039800573
000140 9e 74 07 be 31 fc c0 3d ee 78 54 3d ec 41 3f 3e
       -0.1322808 0.09423102 0.05187314 0.18677491
000150 10 4b 05 3e aa ee 81 3d b9 19 c6 bd 07 2f 90 3e
       0.13016915 0.0634435 -0.09672875 0.2816088
000160 38 cd 0c ba 7d 66 a0 bd eb fb a2 3c d3 3d 02 3f
       -0.0005371156 -0.07832048 0.019895514 0.50875586
000170 ff cd 6e 3d b2 e8 85 3e af d7 e3 3e d9 fd bb bd
       0.058301922 0.26154095 0.4450049 -0.09179277
000180 e2 91 1f 3e 5c 53 e2 bc 41 8a b6 3c f2 70 c6 3e
       0.15582994 -0.02762764 0.022282721 0.38758045
000190 31 9f 83 3e a1 4b e4 3c a0 a6 9d 3c de 13 9f 3d
       0.2570739 0.027868094 0.019244492 0.07767461
0001a0 75 41 89 bd 0e de 5d 3d 0c 81 31 3e 1e 73 77 3d
       -0.06701938 0.054166846 0.17334384 0.06041252
0001b0 49 f6 2e 3e e0 7f f6 3e 42 0f 6e 3d 20 c7 43 bd
       0.17086138 0.48144436 0.05812002 -0.047797322
0001c0 a7 b6 bd 3e 1d 18 c9 3d f2 f9 82 3d 15 72 cf bd
       0.37053415 0.09819052 0.063953295 -0.10129181
0001d0 e9 dc 59 3e 1e e1 2a 3f 21 a2 e0 ba b7 74 43 3e
       0.21275677 0.6674975 -0.0017138162 0.19087492
0001e0 98 1c 36 3e 2a f4 ab 3e ce 35 9c 3e 81 14 b6 3d
       0.17784345 0.3358472 0.305098 0.088906296
0001f0 4c b3 41 3d a6 70 30 3f 30 bf df bd 44 58 aa bd
       0.04729013 0.6892189 -0.10925138 -0.083176166

out.weight f4 [5, 128]
000000 a1 ba a5 3d 22 28 9b be bd fb 45 be 50 62 bf be
       0.08092237 -0.30304056 -0.19334312 -0.37379694
000010 b0 7e 96 3e a6 01 1c bf 54 ac bc 3d 3c 3d 8e 3e
       0.2939353 -0.60940015 0.092125565 0.27781093
000020 b6 da 3d 3d 00 90 7e 3e 88 6b 08 bd 15 ad 6c be
       0.046351157 0.24859619 -0.033305675 -0.231129
000030 7d d1 d6 be b9 84 af 3e ce 0f bc 3e 64 31 1d bd
       -0.41956702 0.34280947 0.36730808 -0.03837718
000040 e5 d4 e8 bd fa 7e 5e 3d c4 54 88 be ba 94 5e 3b
       -0.113687314 0.054320313 -0.2662717 0.003396316
000050 d6 c1 9e be 5a f1 28 be c8 24 ec be ba 0e 05 3f
       -0.3100726 -0.16498318 -0.46121812 0.51975596
000060 7d 2a 73 be 4c 21 21 3e 61 11 b3 3d be 78 08 3e
       -0.23746677 0.15735358 0.08743549 0.1332731
000070 6d 9b e4 be 4e 1c b6 3d 02 7f 31 3e 3d 1b cd 3e
       -0.4464983 0.088921174 0.17333606 0.40059844
000080 12 ec a6 3d a8 df de 3e 14 c1 c2 bd 1d f4 5a be
       0.081504956 0.4353001 -0.09509483 -0.21382184
000090 04 05 26 3e 08 03 1b 3e 55 1d 5b 3d 03 20 a0 3d
       0.16212851 0.15137875 0.05349477 0.07818606
0000a0 a2 e7 3c 3e dd 9b 39 be bf 2e ff 3d ed 55 d5 bd
       0.18447736 -0.18125863 0.12460088 -0.1041678
0000b0 ca 38 a6 3e 35 81 dd 3e 73 cd a7 3d 0c 36 b4 be
       0.32465202 0.4326264 0.08193483 -0.35197484
0000c0 05 8f 77 3d 2d d7 cb 3d c7 f0 a3 3d 7c c3 05 3e
       0.06043913 0.09953151 0.08004909 0.13062853
0000d0 ac 68 89 3d 36 21 4a 3e bb 18 b6 be 15 6e a2 3d
       0.06709418 0.19739231 -0.35565743 0.07931153
0000e0 74 16 f8 3d ea ff c3 3d 45 a1 2d 3e df a1 2b 3e
       0.121136576 0.09570296 0.1695605 0.16760968
0000f0 4e e5 e6 3d 57 01 1b 3d 2f a4 66 be c0 b6 24 be
       0.11274205 0.037843075 -0.22523569 -0.16085339
000100 2b 59 6a be f2 17 2e be 67 12 9e be 23 5f b5 be
       -0.22885577 -0.17001322 -0.30873415 -0.35424146
000110 d4 c5 46 bd aa 07 01 bf 27 aa eb 3d 2b bb 0e be
       -0.048528507 -0.5040232 0.11507063 -0.13938586
000120 0a 0a e0 3c 00 92 bc 3d 72 65 5d be 7c 1c 4b 3d
       0.027348537 0.09207535 -0.2162073 0.04958771
000130 ea b2 72 bc 38 6c 6b be 4f 28 95 3d 06 01 ca 3e
       -0.014813164 -0.22990501 0.07283079 0.39453906
000140 f2 23 ba 3e a9 f9 a4 3e 69 4e 51 3e 19 5d e3 be
       0.3635555 0.32221726 0.20440067 -0.44406965
000150 aa 97 d9 3e f2 20 14 be ca 0c d2 3d ad 7f 30 be
       0.42498523 -0.14465693 0.102563456 -0.17236204
000160 df 92 39 3e 24 d7 03 bd 41 a2 ee 3d 92 ab af 3d
       0.18122433 -0.032187596 0.11652041 0.08577646
000170 97 1f 86 be be 63 bd 3e f9 2b e6 bc 6d d7 17 3d
       -0.26195976 0.3699016 -0.02809714 0.03707068
000180 fe 93 64 3e dc e7 e0 3e c4 87 97 3e c8 1e 60 bd
       0.2232208 0.43926895 0.29595768 -0.054716855
000190 06 45 b2 bd 3d 32 92 bd 5e 69 c8 3e 93 ab 91 be
       -0.087045714 -0.071384884 0.3914289 -0.28451213
0001a0 31 88 36 bd 13 5a 78 3e d6 e2 f2 bd 0f 47 7c 3e
       -0.044563476 0.2425311 -0.11859672 0.24636482
0001b0 10 50 db 3e b1 3e 77 3d 01 6f bb be 2e af e8 be
       0.4283452 0.06036252 -0.36608127 -0.45446151
0001c0 58 66 57 3d da 3e 29 be 8f a9 3c be 9a 2b 3e bd
       0.052587837 -0.16527882 -0.18424056 -0.0464283
0001d0 59 c9 f5 be 6d 08 c7 3d 6c 71 4e 3e 2e 6d 2b 3d
       -0.4800518 0.09718404 0.20160455 0.04185217
0001e0 52 46 78 be cd ae a0 3d 4e 20 c9 bd 9d 32 5e 3e
       -0.24245575 0.078458406 -0.09820615 0.21698995
0001f0 ff c9 ef be 68 f3 bd 3d 4e 56 02 3e 72 f2 45 3e
       -0.46833798 0.09274942 0.12728235 0.19330767
000200 41 47 96 bd 07 98 a7 3e ef a7 98 3d fb e3 72 be
       -0.07337809 0.32733175 0.07453906 -0.2371978
000210 b3 49 11 bf 3d ac c0 bd a5 48 e5 3e 9f 31 fa bc
       -0.5675308 -0.09407852 0.44781986 -0.03054124
000220 77 f1 0c 3d 21 18 79 be 77 f9 88 be 55 91 ce bb
       0.034409966 -0.2432561 -0.26752827 -0.006303946
000230 2b 5c 80 be 61 7e 9f be 47 aa 29 bd 8d 2f 5c 3d
       -0.2507032 -0.31151107 -0.041422155 0.053756285
000240 d2 98 5d be ad 24 94 3d e5 fb 53 3e b6 3e 20 3e
       -0.21640328 0.07233558 0.20701559 0.15648922
000250 08 5d cf 3e 74 ce b8 be 53 28 96 bd bb 0b 1b bf
       0.40500665 -0.3609501 -0.0733191 -0.60564774
000260 19 2a a1 be 46 7a ae be b7 54 91 3d 27 27 2c 3e
       -0.3147743 -0.34077662 0.07096236 0.1681181
000270 7e a3 a9 3e 8d 1f dd 3d ee eb 8d 3e 95 3f bc bd
       0.33132547 0.107970335 0.27719063 -0.09191815
000280 2a 38 ab 3d 2f c8 c9 be 0c ef a7 be fb 7c 26 bd
       0.08360322 -0.3941054 -0.32799566 -0.040646534
000290 b4 9b ff 3e f3 48 a0 3d 2c 4a ad 3d 1a 4a 6c bd
       0.4992348 0.07826414 0.08461413 -0.057687856
0002a0 19 74 75 3e 3a 17 15 be 77 b3 58 be 77 c5 09 3e
       0.23970069 -0.14559641 -0.2116221 0.13454233
0002b0 2c 01 0b be d7 f3 46 be 87 ed e7 3d ad b4 82 3d
       -0.13574666 -0.19428955 0.113246016 0.063821174
0002c0 0e e2 68 3d 3f 9d 1b 3e bd 18 6f 3d 31 45 e5 3e
       0.056856208 0.15196703 0.0583732 0.4477935
0002d0 0d bd 1b bc 1b 46 09 bf f1 cb 5f bf 23 b4 bc 3d
       -0.009505522 -0.536226 -0.87420565 0.09214046
0002e0 f3 28 e6 3d 68 6f a3 bc 3c 4c 7d be e5 28 fb bd
       0.11238279 -0.019950584 -0.24736112 -0.122636594
0002f0 d7 dc bd be 76 d2 09 be 3f 6e 44 be 4c a6 00 3e
       -0.3708255 -0.1345919 -0.1918268 0.12563437
000300 06 a8 35 3e f3 19 0c 3e ef 6a a6 be 8d 2c b6 3e
       0.17739877 0.13681774 -0.3250346 0.35580865
000310 02 30 ea 3e 75 8e a1 3d ad 5b 46 be 32 0d de bd
       0.45739752 0.078885 -0.19370909 -0.108423606
000320 d3 2b b2 bd 7e ca 75 3d 50 03 b1 3e be f7 4a 3d
       -0.08699765 0.060007565 0.3457284 0.04955267
000330 14 60 4e 3e ed fa ab 3e 28 36 87 3d 48 01 c3 3e
       0.20153838 0.3358988 0.06602126 0.38086915
000340 68 b3 fc bd 93 02 08 be d7 03 b6 3e 34 1f d3 be
       -0.123389065 -0.13282232 0.35549805 -0.41234744
000350 d9 fa c3 be 76 d1 d8 be cb 86 1d 3e a7 19 ff be
       -0.3827732 -0.42347306 0.1538345 -0.4982426
000360 0d ad cd bd 8c 04 73 3d d1 ca 5e be c0 9c d6 3d
       -0.100427724 0.059330508 -0.21757056 0.104791164
000370 29 9d 8f be 49 f8 3c bf 39 f4 11 3e 8d 4f 6c 3d
       -0.2804959 -0.73816353 0.1425332 0.057693053
000380 15 06 4b be e3 5f ef be 31 9a ff be 47 e1 d5 3e
       -0.19826539 -0.46752843 -0.49922326 0.41773435
000390 34 32 ca 3e f6 62 4b be ee f4 33 3e 9f d8 b9 bd
       0.39491427 -0.1986197 0.17573902 -0.0907452
0003a0 88 cf 65 bd c4 47 a7 3e 7c b6 3a 3e b4 7e b1 3e
       -0.05610612 0.3267194 0.18233675 0.3466698
0003b0 4f a1 39 be 75 fe ae 3d 7b e0 5e 3e 1d 39 d7 3d
       -0.1812794 0.085446276 0.2176532 0.1050894
0003c0 7f 06 8f 3d c3 db a9 3e 88 d9 80 be 62 33 fc 3d
       0.06983661 0.33175477 -0.25165963 0.12314488
0003d0 41 60 bf 3d cc dc 9f 3d 19 5e 08 be 0c 7b 22 bf
       0.09344531 0.078057855 -0.13317145 -0.63469005
0003e0 b8 14 62 3d 53 45 28 3d 59 3a 13 3e 6b 7d 83 bb
       0.05519554 0.041081738 0.14377727 -0.0040127537
0003f0 5a 16 a2 be 1a 84 c0 3d d5 6d 7d 3d c6 6e bc 3e
       -0.31657678 0.094001964 0.061872322 0.36803263

out.bias f4 [5]
000000 89 92 a5 3e c9 35 c8 3e bd 22 e4 3e 09 6f f8 3e
       0.3233836 0.39103535 0.44557753 0.48522213
000010 d6 16 bc 3e
       0.36736172
