SimplifiedSpaceWar/trained_models/dqn_bullets_2500.pth (torch, 89153 bytes, 6 tensors)

fc1.weight f4 [128, 33]
00000000: b01c aebe 738d 4fbd e0f6 8fbd 1769 823c
00000010: 61a0 5ebe e9d8 223d 16bb 9e3e 97fc 033f
00000020: cad4 81ba 4595 99be 1612 18bf 12f7 b5bd
00000030: 7460 8b3e cd5e fabd 0449 33be 3303 b03d
00000040: 60e1 01be bc1a 473e 0948 813d 9bde f33d
00000050: 95ba c8bd 5e35 d53d 3bad b43d 437d 49be
00000060: 94a5 f5be 4b95 3dbc 9569 96be 790f b6bd
00000070: 4720 153e 579d 21bb d4d9 583b 4cbd 31be
00000080: 3440 b53b 7258 433d 21ad 303f 91b6 453e
00000090: 31e5 693e 4b50 afbe ea48 44be 5914 86bd
000000a0: 8f33 a9be 57cf 78bd 5252 af3e e05f b0be
000000b0: af94 073e 0861 69be fca2 13be 9d6b a3bd
000000c0: fa24 80be e939 12be 33e0 933c bc09 01be
000000d0: 3f6d 9ebd 3e3e 5dbe fc4d 8e3d a57b 593e
000000e0: 142b 903e be39 233e 8e7b 0dba 4a23 173e
000000f0: 3753 bd3d 345b 253b 4149 dfbc 3979 ed3d
00000100: f775 9bbd 3f38 6bbd 4d86 9c3d 9a09 08be
00000110: f249 15bd a1c6 9bbd 48f4 28be b190 39bd
00000120: b484 92bd f31b 20bd 95fa c03d 6a77 d23c
00000130: 7bd6 61be 2608 70bc 2fee 313e 575a 4f3e
00000140: 9dc1 413e 19e5 8f3e ccc7 0e3e 75fc 80bd
00000150: 043d 58bd 319e e2bd ba6a e03d 2b38 42be
00000160: e104 a3bd 8fe4 14bd cdc5 8b3c d5dd 983c
00000170: c200 cebd b2cd f2bd e0b6 193e 916d a9be
00000180: 6dc6 d0bc 7325 1f3b 1b2c 8e3d 9369 babc
00000190: c639 fdbe bc0f 653d 143c 98bd 4148 c23e
000001a0: 5103 903d e2b9 a33d 6ef7 27bd 1a52 ce3b
000001b0: 0ae7 3e3e ab3e 6b3e 5f04 873e 19fc 0ebf
000001c0: 0c55 6ebe 47b3 17be d5fd 463e bcfb 5cba
000001d0: 06a7 eb3d f37b 81bb 79d3 cd3d 9ca4 e03d
000001e0: 6119 aa3d c399 d63d 1e05 f5bc 3a29 da3d
000001f0: b15a fabd 8e61 ec3d 0f1d 913e af80 33be
00000200: 001a 0bbc ca93 78be 2819 113e 14b5 52be
00000210: c8b1 1bbf ad3a b9be 8749 21be 27ad d8bd
00000220: 5eb4 623e 6a2e c43e 1c57 0abc e714 febe
00000230: 67cd 55bb 7c9c 943e e536 c5be e8a8 f93c
00000240: db7a c83c c27e 383e 971e 29be 784e 243e
00000250: 1c9e e9be ad09 c3bd 0293 d4be 83f7 563e
00000260: a850 91bd 9808 083e aec4 123e d3e2 2fbe
00000270: c766 2cbe 4773 8a3d 56eb 09be deab 923d
00000280: 5d4a 75bd dd22 f4b9 a713 95be 8a5c 1ebd
00000290: e298 83bd 5ea3 ee3c 01bc 6cbd 7628 88be
000002a0: a072 d6bd f915 c53d b52d 06be 092c 0e3e
000002b0: 7188 263e c29f 913c baac 923d f719 d33e
000002c0: 148f 8a3e f69b 6dbe 13f5 0c3d f020 3fbc
000002d0: 6b5d bb3d 5cbc 823e 065f 2cbe f83f a2bd
000002e0: 2f0f 3bbd 5581 21bd 3f13 b5bc baee 26be
000002f0: 84af 6f3c 2f60 39be d795 8b3d 7e85 1bbe
00000300: 7fde 89be f797 86bd bde3 28be c2d4 453d
00000310: f714 6cbd f536 43be 7d9a 39be fd1d dc3e
00000320: 1ff5 bc3b ccae 243e 463a 383e 727c aa3e
00000330: fe95 6fbe 0ec2 d63d 2eec 1538 1087 953e
00000340: 69e7 4fbe a28c 0c3e b40e 4bbe e998 043b
00000350: 8fb4 41be 1d84 263d 5dbe 823c b359 e1bd
00000360: 3a16 1e3e b66f 2f3e 0974 c2be e330 2ebe
00000370: 992b 1e3d f884 263e f840 37be c558 273e
00000380: 491a 263e e632 46bd bf37 063e 5dbc 7d3d
00000390: 1a6a d5bd ac2c 073e 401c 90be 3422 51be
000003a0: 83c1 2abf a569 6e3e d612 1ebe 1425 38be
000003b0: 2678 6fbe e6a7 aebe 9bb7 be3e 61a9 6a3c
000003c0: 4d98 073e 734a 27be f6c2 37be 9055 813d
000003d0: 9a8d 473e 0854 333e 027f 243d 02fb 383e
000003e0: 2452 f23d f7cd 2bbe 1412 9abd 87f1 463e
000003f0: 9936 2abe 73ab dabc 5477 32bd 74bc a23d
-0.34006262 -0.050672006 -0.070295095 0.015919251 -0.21740867 0.039757643 0.3100211 0.51557297
-0.0009905335 -0.29996696 -0.59402597 -0.088850155 0.27222025 -0.12225113 -0.17508322 0.0859436
-0.1268363 0.19443792 0.06312568 0.11907693 -0.09801213 0.104105696 0.088221036 -0.1967669
-0.4797789 -0.011571239 -0.29377428 -0.0888967 0.14563094 -0.0024660432 0.003308882 -0.17357367
0.0055313352 0.04769177 0.69014174 0.19307925 0.22841336 -0.34240946 -0.1916844 -0.0654685
-0.3304715 -0.06074461 0.34242493 -0.34448147 0.13240312 -0.2279092 -0.14417642 -0.0797951
-0.2502821 -0.14279903 0.018051242 -0.1260137 -0.07735681 -0.21605775 0.06948468 0.21238573
0.28157866 0.15939996 -0.0005397134 0.14759555 0.092443876 0.0025231363 -0.02725661 0.11595387
-0.075908594 -0.057426687 0.07642803 -0.13284913 -0.036447473 -0.07606245 -0.16499436 -0.045304004
-0.07154217 -0.039089154 0.09422795 0.025691707 -0.22054474 -0.01465038 0.17376016 0.20249306
0.18921514 0.28104475 0.13943404 -0.06298152 -0.052792564 -0.11065329 0.109578565 -0.18966739
-0.07959915 -0.036350783 0.017062092 0.018660465 -0.10058738 -0.118556395 0.15011168 -0.33091405
-0.025485242 0.0024283796 0.06942006 -0.02275542 -0.4945814 0.05592321 -0.07433334 0.3794575
0.070318826 0.07994439 -0.04100745 0.0062964084 0.18642822 0.22973125 0.26370522 -0.5585342
-0.2327463 -0.14814483 0.19432767 -0.00084298453 0.115064666 -0.0039515435 0.10050101 0.10968897
0.08305622 0.104785465 -0.029909667 0.106523946 -0.12224329 0.115420446 0.28342482 -0.17529558
-0.008490086 -0.24275127 0.14169753 -0.20576888 -0.6081815 -0.3617758 -0.15750705 -0.10579901
0.22139117 0.3831666 -0.00844362 -0.49625322 -0.003262365 0.29025638 -0.38518444 0.030476049
0.024472645 0.18017104 -0.16515575 0.16045558 -0.4562844 -0.0952333 -0.41518408 0.20992856
-0.07095462 0.13284528 0.1433284 -0.1717637 -0.16836081 0.06760269 -0.1346868 0.07161687
-0.05988537 -0.00046565282 -0.29116556 -0.03866247 -0.064256445 0.029130634 -0.057796482 -0.2659337
-0.10471082 0.096233316 -0.13103373 0.13883986 0.16262986 0.017776374 0.07161851 0.41230747
0.27062285 -0.23204026 0.03441341 -0.011665568 0.091486774 0.25534332 -0.16833124 -0.07922357
-0.045668777 -0.03942998 -0.022103904 -0.16302004 0.0146292485 -0.18103097 0.06815689 -0.15187642
-0.26927564 -0.06571954 -0.16493125 0.048298605 -0.05763718 -0.19063933 -0.18125339 0.4299163
0.0057665254 0.16082305 0.1799098 0.3329807 -0.23397061 0.10486232 3.5744328e-05 0.29204607
-0.2030312 0.13725522 -0.19829828 0.0020232743 -0.18916534 0.040653337 0.015959913 -0.11003437
0.15438166 0.17132458 -0.37979153 -0.17010836 0.038615797 0.16261661 -0.17895877 0.16342457
0.16220964 -0.048388384 0.13107203 0.061947215 -0.10420628 0.13200635 -0.28146553 -0.20423204
-0.66701525 0.23282488 -0.15436873 -0.17982894 -0.23385677 -0.3411247 0.37249455 0.01432261
0.13241692 -0.16336994 -0.17945465 0.06315148 0.1948761 0.17512524 0.040160187 0.18064502
0.11832073 -0.16777788 -0.075229794 0.19428073 -0.1662239 -0.026693081 -0.04357083 0.07946101

fc1.bias f4 [128]
00000000: 9e7c f6bd 4d38 c93d debf 81be 091b a4bd
00000010: d0b4 0a3e c92f 1ebd 4099 22bd 5009 c73d
00000020: 5755 9b3d d019 c3be 875b d6bb 238d e7bd
00000030: 26cc 9f3d ebe7 d5bb 06ac e2bd 2cd6 733d
00000040: e019 aa3d 698a 21be 3efa eb3e f191 b7bd
00000050: ebd4 6e3d e32e e5bd 9bd1 0bbe 0d26 193d
00000060: ec94 273e 2aeb e43c d040 bcbd d472 713e
00000070: 4972 1dbd 7451 80bd f13a c8bc 41fe a7bd
00000080: 7540 37be c048 90bd 86c3 813d 9239 a63d
00000090: 403d cabd a514 56be 1d7c 64bd a87c 393e
000000a0: 822b df3c 9f79 12be dde4 13be 268e c0bd
000000b0: 9434 75be ef0d 663c 8f2c 07be a7d1 c93c
000000c0: ffb0 ea3d 8c52 2dbe 4aef 9c3e 6bc3 b33c
000000d0: c444 b83e 7f15 82bc 7ac6 1b3e 1e40 4bbe
000000e0: 8df0 883d c6c9 91bb 10ef d4bd 0437 153e
000000f0: a2df 0c3e 42cc ae3e c238 e7bd 7ee3 40be
00000100: f899 793e f1cd 1dbe 2465 303a 4724 81bd
00000110: 9041 36be 9c34 03be 97d5 113e f7c0 123e
00000120: b533 0cbc 53fa 0d3e 2858 0a3d c014 6d3e
00000130: 08f6 e4bd 1821 623e 8236 81bd dcc4 e8bd
00000140: 2b47 5cbd 42e3 2f3e 7416 5cbe db75 f2bd
00000150: 3f76 e1bc 8d94 debd 0942 22bc 25a6 443e
00000160: 0571 853e c070 643e dd00 81bd 6100 8b3e
00000170: d937 05be 1155 793e e461 253e ccd0 81bd
00000180: abd5 6c3c 8dc0 de3d 134d 1e3e 01ad d03e
00000190: 91d1 1ebd a2a0 0f3e 6cbe d83d ebb3 98bd
000001a0: 1cae 563c 5120 913d bced c53c 358a 83be
000001b0: e530 8dbe 695a 35be 7e59 8e3d 51dd 2abd
000001c0: 7e23 0a3e 7e57 1abe b038 973d 75e7 353e
000001d0: 24e3 113e 7764 3bbe a1cd 1b3e e87c 823d
000001e0: 6897 173d 5e62 193a 2b9c cebc fd9d 0cbc
000001f0: b68b 67bd c12e 2abd a4e7 373c 58e2 2f3e
-0.120354876 0.09825192 -0.25341696 -0.08012969 0.13545537 -0.03861979 -0.03969693 0.09718573
0.07584637 -0.3810563 -0.0065416726 -0.113062166 0.0780261 -0.006527891 -0.11067967 0.059530422
0.083057165 -0.15775456 0.46089357 -0.08963383 0.058308523 -0.111905836 -0.13654177 0.037389804
0.16365403 0.027944166 -0.091920495 0.2357896 -0.03843907 -0.06265536 -0.024442168 -0.08202792
-0.17895682 -0.07045126 0.06336121 0.081164494 -0.09874964 -0.20906313 -0.055782426 0.18113959
0.027242426 -0.14304207 -0.14442773 -0.09402113 -0.23945838 0.014041408 -0.13200592 0.024636103
0.114595406 -0.1692602 0.30651313 0.021943768 0.35989964 -0.01587939 0.15212432 -0.19848678
0.066865064 -0.004449102 -0.1039716 0.14571768 0.13757184 0.3414021 -0.112901226 -0.18836781
0.2437514 -0.15410592 0.00067289383 -0.063057475 -0.17798448 -0.12813038 0.14241634 0.14331423
-0.00855725 0.13865022 0.03377548 0.23152447 -0.11179739 0.22082937 -0.06309225 -0.11365673
-0.05377881 0.17176536 -0.2149294 -0.118388854 -0.027522204 -0.108681776 -0.009903439 0.19204004
0.2606279 0.22308636 -0.06298993 0.27148727 -0.13009585 0.24348857 0.16150624 -0.06338653
0.014455239 0.1087657 0.15459089 0.40756992 -0.038774077 0.1402612 0.10583195 -0.07456192
0.013103034 0.07086242 0.024161212 -0.2569138 -0.27576366 -0.1771027 0.06950663 -0.04171497
0.13490102 -0.15072438 0.07383859 0.17764075 0.14246804 -0.18300043 0.1521516 0.0637148
0.037009627 0.00058511447 -0.025220951 -0.008582589 -0.056529723 -0.041548494 0.011224661 0.17176187

fc2.weight f4 [128, 128]
00000000: ba37 7ebc 09e4 813d 8fb2 0fbe fd30 3bbe
00000010: 1b0a 41bc cd71 89be ece0 003e 0bb4 90bd
00000020: df9c 823d 6989 53be c1ca 1d3d 1845 b33d
00000030: 8432 c73d eba6 743d 22cf a43d e6db dabd
00000040: 4324 6f3d d329 983d b1bd a93c e23d 92be
00000050: a5d6 13be 23ab c2bd 1c2b 91bd d415 b9bd
00000060: 2e75 873d f539 5abd 6262 183d eca1 45bd
00000070: a22d 52be da12 c53d b936 7dbe e1b6 85be
00000080: e454 743d 7831 4c3d b11b 0fbe 6392 82bd
00000090: 55cc 0fbd 2d31 a4bd b0b3 59bd 030c eebd
000000a0: a3f4 49bd f36c 993a 7671 aebe 17d1 80bd
000000b0: 5448 0b38 37de 803d d861 2f3d 50b9 3bbe
000000c0: 52a2 b73d 366e 84be e5b4 17bc 880c 4b3e
000000d0: 5b12 b1be 300d 463d e175 fdbd e5e7 cebd
000000e0: f445 973d c968 ef3c 410a 66bd 8e90 4abd
000000f0: a6a6 40be 377f c8bc 5496 01be 3ad7 393c
00000100: 7d50 febd 25cd 313c 0dde e23d b367 073e
00000110: 97cf 9cbd 97f1 6a3c cd9c 7dbd 368d 0dbf
00000120: bc52 043e 102d 94bd f093 94bc 5bd0 443e
00000130: 2154 f83c 1f85 ebbc e73e 06bc abb8 c63c
00000140: 5db8 04be 51b7 793b 895a 92be 9eff 2cbe
00000150: 33ae c83d a17d d2bd e7f6 103c 273a 5e3b
00000160: d89f 963d 615e e53d 8f73 8dbd bfa8 58be
00000170: 495f bc3c 8b83 6dbd 61cc 88bd 3314 033e
00000180: 308e e73c b92e 653d 95cc 953b 5aa1 ec3d
00000190: dfe7 633d 539d 8ebe e4ab 5bbd 1863 3cbe
000001a0: 38e0 afbd 4bfc ccbd d723 f0be d8c9 b9bd
000001b0: 4317 233b 8e5e 25be bec7 843d 8d99 973d
000001c0: ae4f 1dbd 7764 293d e3ba 1b3c 4385 16be
000001d0: 3347 9c3d 5b72 123d 465a 153e 105e c13d
000001e0: 4dd1 bbbc 3191 0e3e 54a9 0bbd f66e 59be
000001f0: 7e13 2fbe ef3d 453d e5b7 8ebd 9e8a 4ebc
00000200: 57ab eabd 78c9 233d 6ee4 63bc a71f b33d
00000210: e6c4 0c3d e116 c4bd 04fb 92bd c67d a3bd
00000220: 7b79 2ebd 2596 b7bd ccef 8fbd 3701 c5bd
00000230: 1bba 31bd f0cd b03d d22e 33bd 0019 abbb
00000240: 09f7 b8bd 3da3 98bd 9a8c 70bd 6478 e0bd
00000250: 4470 06bc 7c59 663b 8e85 6dbd a1db f1bc
00000260: 4cb4 c7bc 0ad0 68bb fc88 3b3d e83c 833d
00000270: c148 ddbd d995 c83b c2f6 013e 055e 5dbd
00000280: aa8c 0a3d a097 bd3d 64f0 8dbd e7ce 10bd
00000290: e8ee b1bc b164 513d 565a 9fbc ab26 d23c
000002a0: d205 8e3d 06db 22b9 950c 4abd ad59 1ebd
000002b0: f248 c7bc 4669 763d eb89 213d 7250 90bd
000002c0: 63a1 b3bb 5e87 98bd 672e 79bd 4fca 82bd
000002d0: ff97 c8bc 51a1 223e 9d38 0d3e d405 173c
000002e0: 2d13 893d 1cb8 a93c 2635 2d3c dd3f c53d
000002f0: a361 07bd fd65 75bd 295a b5ba bbd1 aa3c
00000300: ba9c cebc ce08 80bd 2b2e a3bc 5d0e a9bd
00000310: c115 0f3c 410f 2e3d b603 2639 5407 fd3c
00000320: be08 0dbd 8177 023e 9cae bdbd 6e01 77bd
00000330: df56 84bd f6cd 0e3d 505f 643d 5c8a 53bd
00000340: f3a2 903d 232c 33bd 4210 963d 9daa ff3c
00000350: 4e3b f13c 8594 7abd 16e4 77bd 623a 0a3d
00000360: 5404 95bb b3e9 ea3c 436a 23bd 634c 1abd
00000370: 7606 1a3d de3e 55bc 6099 7a3d dc5d 2bbd
00000380: d483 da3b 1583 e9bd 9ae0 4b3d b7bc 57bd
00000390: 6763 633c b898 bb3c f9a2 003d 0efe fa3c
000003a0: eede 263d 6f2f 0d3e af88 44bd 9c72 3b3d
000003b0: 2fc0 113d 78d8 12be e025 1bbd 2a1f 31bd
000003c0: e626 f03c be2a eebb 9990 4ab9 f126 56bd
000003d0: 5c44 b0bc 1dd5 80bd 4207 3cbd 4754 623d
000003e0: b907 bdbd 136d bd3d 902b 6a3d 4d47 823c
000003f0: 9e44 c7bd 08ea afbc bdf0 5ebd 2628 43bd
-0.015516216 0.063423224 -0.14032958 -0.18280406 -0.0117821945 -0.26844636 0.12585801 -0.070655905
0.06377577 -0.20657887 0.03852344 0.08753413 0.09726432 0.059729498 0.0804732 -0.106864735
0.05838419 0.07429852 0.020720335 -0.28562838 -0.14437349 -0.09505298 -0.070883006 -0.090373665
0.06614147 -0.05327793 0.0372032 -0.048250124 -0.2052522 0.09622736 -0.24727906 -0.26116088
0.05965127 0.049851865 -0.13975407 -0.06375577 -0.035106976 -0.08017192 -0.05314988 -0.11623385
-0.04930557 0.0011705443 -0.3407094 -0.06289881 3.3207543e-05 0.06292384 0.04281792 -0.1833241
0.08966507 -0.25865334 -0.009259437 0.19828999 -0.34584317 0.04835242 -0.12375999 -0.10102824
0.073863894 0.02922477 -0.056162123 -0.049454264 -0.18813571 -0.024474723 -0.12655002 0.011342818
-0.12417696 0.010852133 0.11077509 0.13223152 -0.07656782 0.014339826 -0.061917115 -0.55293596
0.12922186 -0.072351575 -0.018136948 0.19220106 0.030313553 -0.02875 -0.008193708 0.024257978
-0.12960954 0.003810365 -0.28584698 -0.16894385 0.09798851 -0.10277868 0.008847929 0.0033909173
0.073547065 0.11199642 -0.06906807 -0.21158122 0.022994654 -0.057986777 -0.06679607 0.12800674
0.028266042 0.05595276 0.004571507 0.11554213 0.05564105 -0.27854404 -0.053630725 -0.18397176
-0.08587688 -0.100090586 -0.46902344 -0.09071702 0.0024885691 -0.16149351 0.0648341 0.07402334
-0.038406067 0.041355576 0.0095050065 -0.14699273 0.07630768 0.03575359 0.14585218 0.09441769
-0.02292695 0.13922574 -0.03409703 -0.21233734 -0.1709728 0.048154768 -0.06968669 -0.012606291
-0.11458462 0.039987057 -0.013909442 0.087462716 0.034367464 -0.09574676 -0.07176784 -0.07982974
-0.04259632 -0.08964185 -0.070281595 -0.09619372 -0.043390375 0.086330295 -0.043745823 -0.005221486
-0.09031493 -0.0745301 -0.058727838 -0.10960463 -0.008205477 0.0035148552 -0.057988696 -0.029523673
-0.024377964 -0.0035524392 0.045784935 0.06408101 -0.10804892 0.006121379 0.12691787 -0.054044742
0.033825554 0.09257436 -0.069306165 -0.035353567 -0.021720365 0.051121417 -0.019452255 0.025653204
0.06934704 -0.00015531117 -0.049328405 -0.03865974 -0.024326775 0.06015899 0.03943817 -0.07046594
-0.0054818853 -0.07447694 -0.06083527 -0.063862436 -0.02448654 0.1588185 0.13791128 0.009217698
0.066931106 0.020717673 0.010571754 0.096313216 -0.033052098 -0.059911717 -0.0013836074 0.02085196
-0.025221217 -0.06251679 -0.019919476 -0.08254693 0.008733214 0.042495016 0.00015832376 0.030887283
-0.034432165 0.127409 -0.0926182 -0.060304098 -0.06461882 0.03486439 0.05575496 -0.05164562
0.0706233 -0.043743264 0.0732732 0.031209284 0.029447224 -0.061176796 -0.060520254 0.033747084
-0.004547635 0.02867589 -0.03989626 -0.037670504 0.037603818 -0.013015477 0.061181426 -0.04183756
0.006668547 -0.11401955 0.049774744 -0.052670207 0.01387868 0.02289997 0.031405423 0.03063872
0.040739946 0.13787626 -0.047981914 0.045763597 0.03558367 -0.14340389 -0.037877917 -0.04324261
0.029315423 -0.007268279 -0.00019318088 -0.05228323 -0.021516971 -0.06290648 -0.04590536 0.055256154
-0.092299886 0.0924932 0.05717045 0.01590314 -0.097298846 -0.0214739 -0.054428805 -0.04764571

fc2.bias f4 [128]
00000000: 6113 893d 0367 583d 1585 e2bc 122c c63b
00000010: b8c2 263e ab0d e2bd 5100 a13d 16c8 3e3e
00000020: 33bf c7bd 2f96 dc3d bb65 b43a 314e 31bc
00000030: 7eef e83d 6bdb 053e 78b2 9b3d 53de 1cbd
00000040: 17f5 9e3d a21c 253d a037 04bb c986 a13d
00000050: 1d26 23bb 76f2 a53d 923d c13c eeec 903c
00000060: 0f31 923d 81a1 8fbc 7f19 7e3d 3c46 acbb
00000070: 46b8 523d 77aa b83d 491b 1c3e 4ad6 bb3d
00000080: 61b6 883c 5957 c73c ea9b e1bd 7229 dcbd
00000090: b9e6 9d3e 5788 0c3d 443b 8d3d b424 193e
000000a0: ee46 f13d e52f ce3d af24 0a3e 6030 463e
000000b0: b0b8 08bc 1b50 ab3d 5cf0 98bd 396c 97bd
000000c0: 6840 af3d 7f11 e93d b617 a93d 578b 293d
000000d0: 4c51 e53d db00 233d f890 ba3d e47d 103e
000000e0: cb91 0a3d fad1 223e 4047 b43d cf06 9dbc
000000f0: 942c e63d b0bd 17be 9de7 123d b34e e2bc
00000100: b369 8d3d 0d4b 1c3e f3e7 afbc 3391 4ebd
00000110: a9c9 433e d1a1 8abc 5008 203e 18bf 91bd
00000120: b1a9 483d d765 793d 3a4d e13d 5b91 debb
00000130: f7a8 393d 1494 b43c a37f 30bd 28f3 093d
00000140: 4180 adbc 680f 88bd bb22 f3bc b223 4b3d
00000150: b583 db3c 6205 693c 987a 103e a045 833d
00000160: 0fe9 dd3d bf66 2a3e 06b2 3c3e 51a0 fbbc
00000170: c546 223d 27ee 58bd 30d4 753d 74e2 d2bc
00000180: ca1e 3c3d 8c5b 8b3d e180 19bd 378f 9abd
00000190: 70e2 633d eea0 e93c bb5a bdbb 123a f63c
000001a0: 5255 db3d ccad 72bc 3bbb b5bc cb0a d43d
000001b0: acdc f93d 4902 743d df17 a8bd a63d 0a3e
000001c0: 5d9f 213d 48a1 073e d765 e03c 282c 3a3e
000001d0: 52d7 af3d 4a99 5e3e a969 84b9 9589 7bbc
000001e0: b69d 643d 7137 9dbd 35b1 5a3d 8133 eb3c
000001f0: 1836 bd3c f3fd a3bc 4aae 2dbd cab4 efbd
0.06693149 0.052832615 -0.02765135 0.006047734 0.16285217 -0.11037763 0.078613885 0.18631014
-0.09753265 0.10770833 0.0013763228 -0.010821865 0.113738045 0.13071983 0.076023996 -0.038297962
0.07761591 0.04031051 -0.0020174757 0.07887036 -0.0024894543 0.081028864 0.02358893 0.017691102
0.071382634 -0.017533066 0.062036034 -0.005257396 0.051445268 0.090168886 0.15244783 0.09171732
0.016688528 0.024333643 -0.11016066 -0.107500926 0.3084009 0.03430971 0.0689607 0.14955407
0.11781107 0.10067729 0.13490556 0.19354391 -0.008344814 0.08364888 -0.0746772 -0.07393689
0.085572064 0.1138029 0.082564756 0.04139265 0.11197147 0.039795738 0.09109682 0.14110523
0.033830445 0.15900412 0.08802652 -0.019168286 0.11238971 -0.14818454 0.035865415 -0.027625417
0.06904926 0.15263005 -0.021472907 -0.05043144 0.19119896 -0.016922863 0.15628171 -0.07116526
0.048989955 0.060888138 0.11001058 -0.00679223 0.045327153 0.022043265 -0.043090474 0.033679157
-0.02117932 -0.066435635 -0.029679647 0.04959459 0.026796201 0.014222475 0.14109266 0.06409764
0.10835468 0.16640757 0.18427286 -0.030716093 0.039618272 -0.052961495 0.06001681 -0.025742747
0.0459278 0.068045706 -0.037476424 -0.07546847 0.05563587 0.02851912 -0.005778638 0.030056987
0.10709633 -0.014811944 -0.022184005 0.10353621 0.12200293 0.05957249 -0.08207678 0.1350008
0.03945862 0.13245118 0.027392311 0.18180907 0.08585991 0.21738163 -0.00025255725 -0.015352626
0.055814467 -0.0767659 0.053391654 0.028711082 0.023097083 -0.020018553 -0.042402543 -0.11704405

out.weight f4 [5, 128]
00000000: bd7e 4a3d 6e58 4ebd 1753 5dbd d53c 63bc
00000010: fa90 c33c bfca a0bb 183a 043e 9282 173d
00000020: 9741 6fbd c127 ab3d f96f c93d ca62 8bbd
00000030: f29b 993d 6332 97bd 6005 c03d 0fef 903c
00000040: fd37 793d cdf9 153e 381a aebd e4e3 0f3d
00000050: cc77 b7bd ef36 afbd 25e4 fa3c 29ec 713e
00000060: 99a2 0d3e 7dc3 26be d2d7 cd3d 7224 673d
00000070: ca8e 243e 0b12 93bd 2a08 d1bd f2f9 12be
00000080: 49f1 05bd 7727 67bd c624 4ebe d803 893d
00000090: 54bd 96bd c514 4bbd 43a0 9a3c b631 113d
000000a0: 1f5d a8bc 7283 c53c 6268 2a3e cce5 93bd
000000b0: 23ad d23c 1258 c63d 445b 1abc 9c72 eebd
000000c0: 0c37 cdbd 9464 07be 14cd 31be 52e7 04be
000000d0: 57d3 993d 0470 373e 7b51 fb3d 923a 33bd
000000e0: 6bff 953d 35d8 d5bd 6e2d 69bc 598e 6fbd
000000f0: b400 c8bc 441b ea3c 8b6c f6bb 27ee ef3d
00000100: 896e 733a a2e4 c33d 8ed5 6d3d 3da4 45bd
00000110: 1787 14bd 0a33 21bd 1292 c53c 2a54 e4bc
00000120: f934 873d 2c30 86bc 3fcf 453d 274a 99bc
00000130: 2b46 1bbd b90d 9abd fbe9 493d 4e59 90bd
00000140: fb3e 4a3d be0c 8bbd e8c3 cfbd 8b27 8abd
00000150: 21fa c5bd 25a0 5d3d 8244 d33d 6bad acbb
00000160: 6f7d c83d e22d 22bd b2c1 debd 6e50 c03d
00000170: 833e 1bbe f012 eb3d 8fe4 9ebd 965e 163e
00000180: 52d4 73bd eafc 1fbe 005c bc3d 1c5d a93c
00000190: 8be1 583d 85b6 803d c8ac 78bd 77a8 e2bd
000001a0: 209b 07be 506c a4bd 5c7c 88bd 55c9 2dbd
000001b0: d73c d93d 0143 513d 09e8 863d 5c9c 153e
000001c0: 70cb d83d 9ba6 04bd c1b0 6d3d 5a97 b839
000001d0: afb8 0f3e 1e3c a3bd 2f58 853e 8124 92bc
000001e0: 7d95 113e 6387 40be 8f9a 3f3d 829b 34bd
000001f0: 0ca3 14be c9d2 3f3d 4071 7d3d 080a 71be
00000200: 5082 f83d f7f3 593d 32ee 67bd 0e48 053e
00000210: e8b2 c33c 3624 113c 7952 9c3d 9965 163d
00000220: 5344 0bbe 03ad 263e e42e 983c 6be1 93bd
00000230: 73c9 333e 2b55 0a3e f444 e93c c795 773c
00000240: 499e 093e 72ea 24bd 3784 af3d 7285 0d3e
00000250: aa57 f1bd a814 21be 5f56 d23c 3046 9cba
00000260: 33df c5bc 18c2 67bd da72 d1bd 1d4e 663d
00000270: 31ee 073d 4900 09be d1ed 07be 778b 4d3d
00000280: b0a2 d0bc 0427 6dbd aef7 8ebd 95e0 ac3d
00000290: 595d 98bd 6e44 243d 07ff 123e 4dce d1bd
000002a0: 9659 343e b53c e43d a4fe c8bd 75d8 febb
000002b0: b699 183d e9a3 c83c e7d0 6f3d a731 bebd
000002c0: 9db6 cfba 6d5c 173c 0d27 c83d c4b5 933d
000002d0: 2e5d c6bc 13c7 0abe 9b65 0c3e 890d 41bd
000002e0: b221 103e a571 38be 3624 ef3d 3929 063e
000002f0: 81cb 033e 185b d5bd 21a3 953d 480a bbbd
00000300: 77a7 e9bd 4d28 eebc 2c01 f43d 90b1 e7bd
00000310: 9ea2 aabc befc a2bd 4fee ae3d 63ef 5ebd
00000320: ac13 84bc dc7d e73d 6385 333d 4176 c0bc
00000330: c432 c93c c789 22bd 4e28 1ebd 467c b9bd
00000340: 52e5 fc3d 76a9 ccbd 34f0 043e a994 00bd
00000350: 002e 0d3d 2054 34bd 2f5e 9d3c 847b ed3d
00000360: 63a1 9a3c 0f5c 09be 4561 863d 7f76 27bd
00000370: 404a 4cbe 23ab 34be ef64 503d 3744 483d
00000380: 93bd 10be e12d 9ebb e5c0 103e a9cd 17be
00000390: 8c81 96bd d98f 183e c6c5 b53d fa99 933d
000003a0: a39f 7b3e e3bf cebd eae2 d3bd bd48 dabd
000003b0: 0b90 d5bd 45b9 87bd eedb fbbd 4cf9 6d3e
000003c0: dac1 1f3e 9e28 bbbd df01 98bc 69fe c3bd
000003d0: 7ed3 5b3d 2cb3 013e 6c5d 0e3e 9185 0cbe
000003e0: 9a11 a73d 151b 23be df39 2f3e 9230 413e
000003f0: 0226 b33d 841a 043d afbd ed3d 67a7 bebd
0.049437273 -0.050377302 -0.05403432 -0.013869484 0.023872841 -0.0049069817 0.12912786 0.036989756
-0.05841216 0.08357192 0.0983581 -0.06805952 0.07500447 -0.073826574 0.09376025 0.017692117
0.06084441 0.14646073 -0.085010946 0.035129443 -0.08958396 -0.085553996 0.030626366 0.23625244
0.13831557 -0.1628551 0.1005093 0.05643124 0.16070095 -0.07181176 -0.10206635 -0.14353159
-0.03270081 -0.05643412 -0.20131215 0.06690186 -0.0736033 -0.049580354 0.018875247 0.0354478
-0.020552216 0.02411053 0.16641381 -0.07221565 0.025717324 0.09684767 -0.0094211735 -0.11642954
-0.10020265 -0.13221961 -0.17363387 -0.12978867 0.07511013 0.17913824 0.122714005 -0.04375703
0.07324108 -0.10441629 -0.014232023 -0.058485363 -0.024414398 0.028577454 -0.0075202635 0.11715346
0.00092861854 0.095650926 0.05806499 -0.048252333 -0.036261644 -0.039355315 0.024117503 -0.027872164
0.066019006 -0.016380392 0.04829335 -0.018712116 -0.037908714 -0.07522149 0.049295407 -0.070482835
0.04937647 -0.0678954 -0.10144788 -0.067458235 -0.09666849 0.054107804 0.10315801 -0.0052696965
0.097895496 -0.03959454 -0.10876788 0.09390341 -0.15160565 0.114782214 -0.07758438 0.14684519
-0.059528656 -0.15623823 0.09197235 0.02067428 0.05294947 0.06284813 -0.060711652 -0.11067288
-0.13242769 -0.080284715 -0.06664345 -0.042428333 0.106073074 0.05108929 0.06587226 0.14610428
0.105856776 -0.03238545 0.058029894 0.0003520798 0.14035295 -0.07970451 0.2604384 -0.017839672
0.14217182 -0.18801646 0.046778258 -0.044093616 -0.14515322 0.04683188 0.06187558 -0.23538983
0.1213423 0.05321118 -0.056623645 0.13015768 0.02388902 0.008858731 0.07632918 0.036717985
-0.13600282 0.16276936 0.018577047 -0.072207294 0.17557316 0.13509052 0.028475262 0.015111393
0.13439287 -0.040262647 0.0857014 0.13820437 -0.11784299 -0.15730536 0.02567595 -0.0011922773
-0.024154281 -0.056581587 -0.10226984 0.05622684 0.03318614 -0.13379015 -0.13274314 0.050181832
-0.0254682 -0.057898536 -0.06980835 0.08441273 -0.0743968 0.040104322 0.14355098 -0.10244427
0.176123 0.111443914 -0.09814194 -0.0077772685 0.037255965 0.024492221 0.058548834 -0.09286814
-0.001584727 0.009238345 0.09773073 0.072124034 -0.024214353 -0.13552503 0.13710634 -0.04713205
0.14075354 -0.18012102 0.116768286 0.13101663 0.128706 -0.104177654 0.07306505 -0.0913282
-0.114088945 -0.029071951 0.11914286 -0.11313164 -0.020829495 -0.07958363 0.085415475 -0.054427516
-0.016122662 0.11303303 0.04382838 -0.023493888 0.02456034 -0.039682176 -0.038612656 -0.090569064
0.12348427 -0.099932596 0.12982255 -0.031391773 0.034467697 -0.04402554 0.01920995 0.11595824
0.018875783 -0.13414024 0.065615214 -0.04088449 -0.19950199 -0.17643408 0.050877508 0.04889318
-0.14134817 -0.0048272465 0.14136083 -0.14824547 -0.07348928 0.14898624 0.08875613 0.07207103
0.24572615 -0.10095193 -0.10346015 -0.10658405 -0.10427865 -0.06627134 -0.12297808 0.2323963
0.15601292 -0.091386065 -0.01855558 -0.09570009 0.05366849 0.12666005 0.13902825 -0.13722827
0.08157654 -0.159283 0.1711192 0.18866184 0.08747484 0.03225185 0.11608445 -0.09309273

out.bias f4 [5]
00000000: 4396 c33d fade dd3d 99c4 c33d d6e3 e43d
00000010: 24ee c93d
0.095501445 0.10833545 0.095589824 0.11176269 0.09859875
