SimplifiedSpaceWar/trained_models/dqn_bullets_12000.pth (torch, 89165 bytes, 6 tensors)

fc1.weight f4 [128, 33]
0	0x3ea157a4	0.31512177
1	0xbd05b950	-0.03264743
2	0xbe2feb9e	-0.17179725
3	0x3ee7cc08	0.4527285
4	0x3e6dbc3e	0.2321634
5	0x3d32c21c	0.04364215
6	0x3f137883	0.5760576
7	0x3f38f133	0.7224304
8	0xbd44ff7c	-0.04809521
9	0x3e75dd64	0.24010235
10	0xbe92d145	-0.28675285
11	0xbd57d78e	-0.052695803
12	0xbec4b2cb	-0.38417658
13	0xbe95bf11	-0.29247335
14	0xbfa1b2da	-1.2632706
15	0x3ec728ef	0.38898417
16	0xbedb5e2d	-0.42845288
17	0x3e39236d	0.1807992
18	0x3b97531b	0.0046180612
19	0x3ef724b1	0.4827018
20	0xbec50ce5	-0.384864
21	0x3e68f2ff	0.22748946
22	0x3e658f79	0.22418012
23	0xbe0a5775	-0.13509925
24	0xbe6e119e	-0.23248908
25	0x3d704384	0.058658138
26	0xbe3d90a2	-0.18512204
27	0x3ef33b30	0.47506094
28	0xbdf8a68d	-0.12141142
29	0xbe4c91f0	-0.19977546
30	0xbe466eff	-0.19378279
31	0x3d02feda	0.031981327
32	0xbeb10cb9	-0.3458002
33	0x3ffd2212	1.9776022
34	0x40068e19	2.102423
35	0x3ece4695	0.40288225
36	0x3eb1ba1e	0.3471231
37	0x3defca96	0.11708562
38	0xbe962b24	-0.2932979
39	0xbe42c353	-0.19019823
40	0xbbba9c5f	-0.0056949104
41	0xbd93a752	-0.07209648
42	0x3d2442b4	0.040102676
43	0xbf7c0af4	-0.98454213
44	0xbecf076d	-0.40435353
45	0xbdd6e980	-0.10493755
46	0xbe1d54d2	-0.15364388
47	0x3e11afbf	0.14227198
48	0xbe2fdb11	-0.17173411
49	0xbe3ac531	-0.18239285
50	0xbd8ef060	-0.06979442
51	0xbdf9b8bf	-0.12193441
52	0xbd027b1b	-0.031855684
53	0x3d1ce4b2	0.03830404
54	0x3abb4acc	0.0014289259
55	0x3de86ff5	0.11349479
56	0x3e8809e8	0.26570058
57	0xbd12328c	-0.035692737
58	0xbe2256dc	-0.15853447
59	0x3b1576cc	0.0022806404
60	0xbd8fba37	-0.070179395
61	0xbdf65f8c	-0.12029943
62	0x3c5390b9	0.012912923
63	0x3e2088ba	0.15677157
64	0x3ec0907b	0.3761023
65	0xbd353824	-0.044242993
66	0x3de1b05e	0.110199675
67	0xbeccb225	-0.39979663
68	0x3e1d44e9	0.15358318
69	0xbd36b573	-0.044606637
70	0xbec617d2	-0.38690048
71	0x3ce3a75f	0.02778977
72	0x3bd868a2	0.00660427
73	0x3d4e205e	0.050323837
74	0x3dac5457	0.08414524
75	0xbefaf143	-0.49012193
76	0xbc56bfeb	-0.01310728
77	0xbd8977ed	-0.06712327
78	0x3e3f84a2	0.18702939
79	0x3ed1119b	0.40833744
80	0x3eac2382	0.3362084
81	0x3e752304	0.23939139
82	0x3d817e47	0.063229136
83	0x3cb124dd	0.021624023
84	0xbd718ab2	-0.05897016
85	0xbe977c87	-0.29587194
86	0x3e378972	0.17923525
87	0xbe570422	-0.2099767
88	0xbdec72af	-0.11545312
89	0xbd2e3376	-0.042529546
90	0x3de8ac7b	0.11361023
91	0x3db045ec	0.086070865
92	0xbddf6f4f	-0.10909902
93	0xbd98f4e2	-0.07468583
94	0x3e5cd35f	0.21565007
95	0xbeb1b890	-0.34711123
96	0x3d8ec5ea	0.06971343
97	0x3d6dd0dd	0.058060516
98	0xbe1d834f	-0.15382122
99	0x3fd61d0a	1.6727612
100	0xbf20408a	-0.6259848
101	0xbe295d26	-0.1653944
102	0xbc1cdf67	-0.009574748
103	0x3f18b8e0	0.59657097
104	0x3d944fe0	0.072417974
105	0x3e7c063d	0.24611755
106	0xbe04573b	-0.12923901
107	0x3d1d6234	0.038423732
108	0x3f0d0f5c	0.5510156
109	0x3e486f11	0.19573618
110	0x3e9e64d7	0.3093631
111	0x3eceb0d7	0.40369293
112	0x3d7dea74	0.06199117
113	0x3d0fe922	0.035134442
114	0x3ee40faf	0.44543216
115	0xbf0fa57e	-0.56111896
116	0x3e9b29d4	0.3030535
117	0x3d4a5601	0.049398426
118	0x3e3eb614	0.18624145
119	0xbd5a2495	-0.053257544
120	0x3dcfb47c	0.101418465
121	0x3db9681d	0.09053061
122	0x397f2c9e	0.00024335316
123	0x3e8cf216	0.27528447
124	0xbe396c66	-0.18107757
125	0xbc88152d	-0.01661166
126	0x3e30cccd	0.17265625
127	0x3d139d5e	0.03603875
128	0xbe6803bc	-0.22657675
129	0xbeb94352	-0.36184174
130	0x3d843469	0.06455309
131	0xbdac7686	-0.08421044
132	0xbe968a46	-0.2940237
133	0xbff4d3af	-1.9127101
134	0xbec53827	-0.38519403
135	0x3e388d5f	0.18022679
136	0x3c6ab9c3	0.014326516
137	0x3e0b5074	0.13604909
138	0xbe259137	-0.16168676
139	0xbf0d8686	-0.5528339
140	0xbd8951c4	-0.06705049
141	0x3ca78066	0.020446967
142	0x3e92738d	0.28603783
143	0xbe2e299e	-0.17008063
144	0x3ef38254	0.4756037
145	0xbe22a4be	-0.15883157
146	0xbeb777a9	-0.3583348
147	0x3ec6b1a4	0.38807404
148	0xbf936ab8	-1.1516943
149	0x3f268772	0.65050423
150	0xbf313b14	-0.6923077
151	0xbdbfe7e0	-0.093703985
152	0xbe89a538	-0.26883864
153	0x3dc8641f	0.097847216
154	0x3eb562b9	0.35426882
155	0x3e1def38	0.15423286
156	0xbebc2b46	-0.36751765
157	0x3e425086	0.1897603
158	0x3e16bcd0	0.14720464
159	0x3e1c397b	0.15256302
160	0x3f41d8bc	0.75721335
161	0xbe6a2133	-0.22864227
162	0xbf013159	-0.50465924
163	0xbdd2978e	-0.10282813
164	0xbec462cd	-0.3835663
165	0x3e45b5cf	0.19307636
166	0xbf32816c	-0.6972873
167	0xbe85d761	-0.26140884
168	0xbde5f13c	-0.112276524
169	0xbe753960	-0.23947668
170	0xbc87b635	-0.016566375
171	0x3e7dc024	0.24780327
172	0x3f600ee1	0.87522703
173	0xbb30d116	-0.0026980094
174	0x3f09f1f4	0.53884816
175	0x3e979503	0.29605874
176	0x3f80c7db	1.0060991
177	0xbeafbb9b	-0.3432282
178	0x3e99ab18	0.30013347
179	0x3d30a9bb	0.043130618
180	0x3d137c75	0.036007363
181	0x3f01fc33	0.5077545
182	0xbe1b2997	-0.15152584
183	0xbe4ac583	-0.19801907
184	0xbebe9b38	-0.37227798
185	0x3e3be5e8	0.18349421
186	0xbd3e2aaa	-0.046427406
187	0xbe1a343d	-0.1505899
188	0x3dabbbfc	0.083854645
189	0xbe0b197e	-0.13583943
190	0x3dcf0a43	0.10109379
191	0xbe2b0a7a	-0.16703215
192	0xbedde959	-0.43342093
193	0xbcff3bf1	-0.031156512
194	0xbe006988	-0.12540257
195	0x3deb5b87	0.11492067
196	0xbe8c3ed6	-0.2739169
197	0xbd73ed2a	-0.05955235
198	0xbdd7deb2	-0.10540523
199	0x3f14d95c	0.58144164
200	0x3e314577	0.17311655
201	0x3eb31422	0.34976298
202	0x3e4900ff	0.19629286
203	0x3f392eb0	0.72336864
204	0x3e286e75	0.16448386
205	0xbde86df7	-0.11349099
206	0xbade1cbd	-0.001694582
207	0xbe2487d5	-0.16067441
208	0x3f037f6d	0.5136631
209	0xbdc6df9d	-0.097106196
210	0xbec95c0d	-0.39328042
211	0x3e04c0eb	0.12964217
212	0x3e083d02	0.13304523
213	0x3e60905a	0.21930066
214	0xbf12424c	-0.5713241
215	0xbe7957a4	-0.24349838
216	0x3e09ee2a	0.13469759
217	0xbe1b7d9e	-0.15184638
218	0xbf20d4ec	-0.62824893
219	0xbe6b3a87	-0.22971545
220	0x3d113bd4	0.035457447
221	0x3da2d5ad	0.07950912
222	0xbe2dacab	-0.16960399
223	0x3d9f71d4	0.07785383
224	0x3e67cb95	0.22636254
225	0xbd354c34	-0.044262126
226	0x3b2109c0	0.0024572462
227	0x3e32ce7f	0.17461585
228	0xbdb66674	-0.0890626
229	0x3dbcd02e	0.092193946
230	0xbf0e12dc	-0.5549753
231	0xbf4a6814	-0.7906506
232	0xc004c7f3	-2.074704
233	0xbd79418f	-0.060853537
234	0xbe471e96	-0.19445261
235	0x3f1288c2	0.57239926
236	0xbf0fdf9d	-0.5620058
237	0xbeea6fb9	-0.45788363
238	0x3f063257	0.5242056
239	0x3c75f933	0.015013027
240	0x3ec6804d	0.3876976
241	0xbe1af03f	-0.15130709
242	0xbdc9b4fd	-0.09848974
243	0x3e73f5d7	0.23824249
244	0x3da6877d	0.08131311
245	0x3dbf90d9	0.093537994
246	0x3e3deec9	0.1854812
247	0x3e96746c	0.29385698
248	0x3e0702e9	0.13184704
249	0xbe89c8de	-0.26911062
250	0xbde8c4f1	-0.113656886
251	0x3e83ff75	0.25780836
252	0xbddcff53	-0.10790887
253	0x3ca3331a	0.019921828
254	0x3c890cae	0.016729679
255	0xbe925ae8	-0.2858498

fc1.bias f4 [128]
0	0xbcd1830f	-0.025575189
1	0x3e8c5b3d	0.2741336
2	0xbe6632d1	-0.22480322
3	0xbf2597d1	-0.6468478
4	0x3ea2ae04	0.31773388
5	0x3f195a94	0.59903836
6	0x3ef26645	0.4734365
7	0xbe64e062	-0.2235122
8	0x3ead440e	0.33840984
9	0x3d95c0df	0.07312178
10	0x3e5eb722	0.21749547
11	0x3e656168	0.22400439
12	0x3f2f4093	0.6845791
13	0xbdbb7e3b	-0.09154936
14	0xbf06fed3	-0.5273258
15	0x3ea4905c	0.32141387
16	0x3e8ec4ae	0.2788443
17	0xbd84e634	-0.0648922
18	0x3f246525	0.64216834
19	0x3e2c547e	0.16829106
20	0xbeb52600	-0.35380554
21	0x3ed578f5	0.41693845
22	0x3eeec87c	0.46637332
23	0xbecd7556	-0.40128583
24	0x3e1cf9f8	0.1532973
25	0xbf4cf3e8	-0.8005967
26	0x3c23f946	0.010008162
27	0x3e319c95	0.17344888
28	0x3e24f512	0.16109112
29	0xbc9a2203	-0.018815046
30	0x3e422ffe	0.1896362
31	0x3e0d3f01	0.13793565
32	0xbe079ae9	-0.13242687
33	0xbe2e415c	-0.1701712
34	0x3c953dff	0.018218039
35	0xbcf162f7	-0.029466135
36	0x3f01e9c9	0.5074735
37	0x3de6610f	0.11248981
38	0xbdad0271	-0.08447731
39	0x3e38e617	0.18056522
40	0xbc3de307	-0.011589772
41	0x3d98871b	0.07447644
42	0xbea06181	-0.3132439
43	0x3da8981c	0.082321376
44	0xbee00054	-0.4375025
45	0x3e3aed9d	0.18254705
46	0xbdc8dcec	-0.098077625
47	0x3e317451	0.17329527
48	0xbefe86af	-0.4971213
49	0xbed2f7d6	-0.4120471
50	0xbdffe1b3	-0.124942206
51	0x3e80dda1	0.2516909
52	0x3f4534b2	0.7703353
53	0x3e2b260a	0.1671373
54	0x3f5fd189	0.874291
55	0xbe90c683	-0.28276452
56	0x3e478626	0.19484767
57	0xbc227468	-0.009915449
58	0x3e8db9a8	0.27680707
59	0x3ed1c1eb	0.4096826
60	0x3e491919	0.1963848
61	0x3f87439a	1.0567505
62	0xbe99f24b	-0.30067667
63	0xbe6095b6	-0.2193211
64	0x3e65c260	0.2243743
65	0xbf0de0be	-0.55421054
66	0x3e8f28f0	0.2796092
67	0xbe9877be	-0.29778856
68	0x3dfb064f	0.12257063
69	0xbe0a4351	-0.13502242
70	0x3e6947c5	0.22781284
71	0x3ef34ce7	0.4751961
72	0x3db176f2	0.08665265
73	0x3ec6657f	0.3874931
74	0x3de5a404	0.11212924
75	0x3f983ab8	1.189292
76	0xbdabd4e2	-0.083902135
77	0x3e947561	0.28995803
78	0x3d6ef499	0.058338735
79	0x3e1837fa	0.14865103
80	0xbf22c342	-0.6357919
81	0x3e33ff52	0.17577866
82	0xbe126016	-0.14294466
83	0x3e48f478	0.19624507
84	0x3f2f45c7	0.68465847
85	0xbd5800e5	-0.052735228
86	0x3fb6bf27	1.4277085
87	0x3f0bba74	0.5458138
88	0x3ea99459	0.33120993
89	0xbd862b3f	-0.06551217
90	0x3e79ca47	0.24393569
91	0x3e8c9114	0.27454436
92	0xbe09cada	-0.13456288
93	0x3f08af3e	0.533924
94	0x3e6d9873	0.23202686
95	0xbef55bf3	-0.47921714
96	0x3e8d8c24	0.2764598
97	0x3ec068fc	0.37580097
98	0x3eb6ace0	0.35678768
99	0x3f3e6c52	0.74384034
100	0xbea3dcec	-0.32004488
101	0x3cd5822a	0.026063044
102	0x3e3d1c5d	0.18467851
103	0xbdd768e0	-0.1051805
104	0x3e67bda8	0.22630942
105	0x3e3b115f	0.18268345
106	0x3b8ac077	0.0042343694
107	0xbe06b72a	-0.13155809
108	0x3d6f35c8	0.0584009
109	0xbe0aa6bc	-0.13540167
110	0x3eeca486	0.4621927
111	0x3d75b540	0.059987307
112	0x3a900647	0.0010988199
113	0xbe9d6ff8	-0.30749488
114	0x3e35f52c	0.17769307
115	0xbf09a2a6	-0.53763807
116	0x3e98d8d7	0.29852936
117	0x3e042e03	0.12908177
118	0x3e1fab44	0.15592676
119	0xbd8cd326	-0.06876211
120	0x3e969d1c	0.2941674
121	0xbe1147cc	-0.14187545
122	0x3decd648	0.115643084
123	0xbb115157	-0.0022173726
124	0x3c746080	0.0149155855
125	0x3d0b5a3e	0.03402161
126	0x3f022e9d	0.50852376
127	0x3f09668e	0.5367211

fc2.weight f4 [128, 128]
0	0xbda1f06f	-0.07907187
1	0x3e217b7a	0.15769759
2	0xbdc8117d	-0.097689606
3	0xbe82e8f4	-0.25568354
4	0xbe2cc777	-0.16872965
5	0xbeddbf04	-0.43309796
6	0x3db7ab7a	0.089682534
7	0xbda1308e	-0.07870589
8	0x3d829cdf	0.06377577
9	0xbe8cfe81	-0.2753792
10	0x3cdf72a6	0.027276348
11	0xbccee97b	-0.025257817
12	0x3d71ce15	0.059034426
13	0xbe0d7de7	-0.13817559
14	0xbcc18fab	-0.023628077
15	0xbe5e8a8b	-0.21732537
16	0x3d0b3cb5	0.03399344
17	0x3db06d88	0.086146414
18	0xbcb71638	-0.022349462
19	0xbe67de6d	-0.22643442
20	0xbd5e96fc	-0.05434321
21	0xbe789462	-0.24275354
22	0x3d938bb4	0.07204381
23	0xbe84b0c5	-0.25916114
24	0x3d87752e	0.06614147
25	0xbe040598	-0.12892759
26	0x3c5cc472	0.013474571
27	0xbd5af803	-0.05345918
28	0xbee21dec	-0.44163454
29	0x3dc676b9	0.09690613
30	0xbeee8654	-0.4658686
31	0xbda692b6	-0.08133452
32	0x3d6c84dd	0.057743896
33	0x3cf0d98e	0.029400613
34	0x3e0f9a3a	0.14023677
35	0xbd8905c3	-0.06690552
36	0xbd84817d	-0.064700104
37	0xbdfd5488	-0.12369639
38	0xbd5f5c80	-0.054531574
39	0xbe5cd9ed	-0.21567507
40	0xbdf3a92c	-0.11897501
41	0xbd46168f	-0.048361357
42	0xbf051901	-0.5199128
43	0xbdf98bf8	-0.121849
44	0xbd3b8541	-0.045781378
45	0xbe1024fa	-0.14076605
46	0x3d5f452e	0.054509334
47	0xbe951bad	-0.29122677
48	0x3d6d30dc	0.057907924
49	0xbe3cfca5	-0.18455751
50	0xbe24667a	-0.16054717
51	0x3e35b411	0.17744471
52	0xbef536d5	-0.47893396
53	0xbedc589f	-0.43036363
54	0xbec61689	-0.38689068
55	0xbd4c9219	-0.049944017
56	0xbd0b4942	-0.03400541
57	0x3db154f6	0.08658783
58	0x3d1721d6	0.036897503
59	0xbe78b4e1	-0.2428775
60	0xbe228d28	-0.1587416
61	0x3d8bbbc4	0.06822923
62	0xbede9dca	-0.43479759
63	0x3c4c5dbd	0.012473521
64	0xbefb8c5a	-0.49130517
65	0xbe3009a4	-0.17191178
66	0xbd8139d8	-0.06309861
67	0x3e68f591	0.22749926
68	0x3d1c3ebc	0.038145766
69	0x3c6af197	0.014339826
70	0xbe4d5abe	-0.20054147
71	0xbf3cd40a	-0.73761046
72	0x3dae46e2	0.085096136
73	0x3d3f2a61	0.046671275
74	0x3d7a1002	0.061050422
75	0x3e1a6000	0.15075684
76	0x3cf85421	0.030313553
77	0xbe1cca45	-0.15311535
78	0xbcc74115	-0.024323026
79	0xbe904624	-0.28178513
80	0x3d28079c	0.041022882
81	0xbe28bece	-0.16479036
82	0xbcda6a2f	-0.02666196
83	0xbdee9ee0	-0.11651397
84	0xbd0a5f9f	-0.033782598
85	0xbd083e2e	-0.033262424
86	0xbdeb3448	-0.11484581
87	0xbe0ff6f8	-0.14059055
88	0x3d810d84	0.06301406
89	0x3d3e1a9f	0.046412107
90	0xbe9e6db8	-0.30943084
91	0xbe86b488	-0.2630961
92	0x3cbc5f49	0.022994654
93	0xbe3b44fe	-0.18288037
94	0xbd872da7	-0.06600504
95	0x3dd5256e	0.1040753
96	0x3ce78e30	0.028266042
97	0x3db087f1	0.08619679
98	0xbe198ff7	-0.14996324
99	0x3e2ac153	0.1667531
100	0x3e23f96d	0.16013117
101	0xbebec88c	-0.3726238
102	0xbd5babe4	-0.053630725
103	0xbe610839	-0.21975793
104	0xbdb4585f	-0.08805918
105	0xbe8de928	-0.27716947
106	0xbf822752	-1.016825
107	0xbdf5b131	-0.11996687
108	0xbe547ae7	-0.20750009
109	0xbdaa664b	-0.08320292
110	0xbe61e54d	-0.22060128
111	0x3e2f8b6c	0.17143029
112	0xbe28b726	-0.16476116
113	0x3d59253f	0.053014036
114	0x3c921d91	0.017836364
115	0xbed990da	-0.42493325
116	0x3d9c4733	0.07630768
117	0xbd8962a2	-0.06708266
118	0x3dab01cc	0.08349952
119	0x3de8965f	0.11356806
120	0x3bb9e6b1	0.0056732525
121	0x3e2810d7	0.16412674
122	0xbd0c1961	-0.03420389
123	0xbdcea436	-0.100899145
124	0xbe923fa3	-0.28564176
125	0x3e1d0f32	0.15337828
126	0xbe2a846c	-0.16652077
127	0xbde1cbc0	-0.1102519
128	0xbd3770ec	-0.044785425
129	0xbe532a8c	-0.20621699
130	0xbd908062	-0.07055737
131	0xbe1192cf	-0.1421616
132	0xbe710d3d	-0.23540206
133	0xbd766254	-0.060152367
134	0xbe829413	-0.25503597
135	0x3d66ffc8	0.056396276
136	0xbcaa8754	-0.020816483
137	0xbe6c9e2c	-0.23107213
138	0xbe36a154	-0.1783498
139	0x3c0731ea	0.0082516465
140	0x3c60b14c	0.013714146
141	0x3dc3525d	0.09537194
142	0xbde2e6bb	-0.110791646
143	0xbda9659a	-0.08271332
144	0x3ce08ce6	0.027410936
145	0xbdae6e95	-0.085171856
146	0xbe242431	-0.16029431
147	0xbf7c30a7	-0.9851174
148	0xbf09521a	-0.536409
149	0x3dbfa268	0.093571484
150	0x3bd1d7f1	0.006403916
151	0xbe593a34	-0.21213609
152	0xbe0bec0f	-0.13664268
153	0xbde755be	-0.11295651
154	0x3ca7b5b1	0.02047238
155	0x3b623c99	0.0034520982
156	0xbe9461d9	-0.28980902
157	0x3e886d7e	0.26646036
158	0xbb467756	-0.0030283532
159	0x3e0a941b	0.1353306
160	0xbea6eba4	-0.32601655
161	0x3de09752	0.10966362
162	0xbd2909a8	-0.041268975
163	0xbc5a1712	-0.013311164
164	0xbe5f21e9	-0.2179028
165	0x3d410d06	0.04713156
166	0xbe104660	-0.14089346
167	0xbdfd1b35	-0.12358705
168	0x3d019565	0.031636614
169	0x3e09077c	0.13381761
170	0xbe02d54e	-0.12776682
171	0xbda2fb40	-0.079580784
172	0x3cbc5448	0.022989407
173	0x3e7fc7fa	0.24978629
174	0x3dfaed4d	0.12252293
175	0xbe1cb298	-0.15302503
176	0x3d8002dd	0.06250546
177	0xbebcb9db	-0.36860546
178	0xbd02e53a	-0.03195689
179	0xbf0e6a86	-0.5563129
180	0xbe6c25ea	-0.23061338
181	0xbd873545	-0.06601957
182	0x3df7a279	0.12091536
183	0xbe65d85a	-0.22445813
184	0x3cebb243	0.028771525
185	0xbbc3606a	-0.005962421
186	0x3ce2f3f2	0.027704213
187	0x3e6360a5	0.22204836
188	0xbf04a38c	-0.5181205
189	0x3d39c4d2	0.045353718
190	0xbdceb8a4	-0.10093811
191	0xbc95e854	-0.01829926
192	0xbc45ac77	-0.012065045
193	0xbe4419e5	-0.19150503
194	0xbe813a62	-0.25239855
195	0xbe838de4	-0.2569419
196	0x3e4083a7	0.18800221
197	0x3d3aef72	0.04563851
198	0xbda25c88	-0.07927805
199	0x3e3b346f	0.1828172
200	0x3a828b45	0.0009959718
201	0x3e959545	0.29215446
202	0xbe15b7a0	-0.14620829
203	0x3e34c4dd	0.17653222
204	0xbdca6711	-0.098829396
205	0x3e635369	0.22199787
206	0x3d832bfd	0.064048745
207	0x3da90d97	0.08254545
208	0x3d84fc7b	0.06493469
209	0xbecd5f4e	-0.40111774
210	0xbe2a17dc	-0.16610664
211	0x3e10b8b6	0.14132962
212	0x3dc6a3b3	0.09699192
213	0xbe5df8ae	-0.21676895
214	0xbe363b88	-0.17796147
215	0x3c3b9063	0.011447999
216	0x3cac083c	0.02100002
217	0x3e4fe442	0.20301917
218	0xbeccc331	-0.3999267
219	0xbe89db47	-0.26925108
220	0xbd0bfa6c	-0.034174368
221	0x3c87db6b	0.016584119
222	0x3df26b8f	0.118369214
223	0xbe4f858d	-0.2026579
224	0x3b8d5639	0.004313257
225	0xbef4c193	-0.47803935
226	0xbe82c257	-0.25538895
227	0x3d758440	0.059940577
228	0xbdcf7abd	-0.10130832
229	0xbdd4c526	-0.103891656
230	0x3c9c99c7	0.019116296
231	0xbdd6676e	-0.104689464
232	0xbdaead0e	-0.08529101
233	0xbd3848a1	-0.04499114
234	0xbe64465c	-0.22292465
235	0xbe88754b	-0.26651987
236	0xbde84143	-0.11340573
237	0xbd9e799d	-0.0773804
238	0xbe46c16f	-0.19409727
239	0xbe1c8770	-0.1528604
240	0xbe2995ec	-0.16561097
241	0xbd0f0d76	-0.034924947
242	0xbd69c888	-0.057076007
243	0x3dc83a7c	0.0977678
244	0x3d07b9d6	0.03313621
245	0xbe5f95f2	-0.21834543
246	0xbe3d4f64	-0.18487316
247	0x3bb0d810	0.0053968504
248	0xbea80b63	-0.32821187
249	0x3e9ee2a5	0.3103229
250	0x3df9d2ed	0.12198434
251	0x3d886aad	0.06660972
252	0xbe8aba3b	-0.27095208
253	0xbde0b0a2	-0.1097119
254	0x3ca14a5e	0.019688781
255	0xbe13b477	-0.1442431

fc2.bias f4 [128]
0	0x3d654e13	0.05598266
1	0x3ded59e0	0.11589408
2	0x3cb8ff96	0.02258281
3	0xbd01d39f	-0.03169596
4	0x3dd75a31	0.105152495
5	0xbe7aa8cd	-0.24478455
6	0xbd88cd61	-0.06679798
7	0x3dffe4cd	0.12494812
8	0xbe0e6ad0	-0.13907933
9	0x3db4d2b4	0.08829251
10	0xbdafa569	-0.08576471
11	0xbdbcce9f	-0.09219097
12	0x3e3996c8	0.18123925
13	0x3e5a525b	0.21320479
14	0x3da86baa	0.0822366
15	0xbcc73e99	-0.024321841
16	0x3d32149d	0.04347669
17	0x3c15851f	0.009125977
18	0xbd2dfc5b	-0.042476993
19	0xbb30a67f	-0.0026954708
20	0x3e5007c2	0.2031546
21	0x3ce77a4b	0.028256556
22	0x3d957cc7	0.0729919
23	0x3d16498a	0.036691226
24	0x3df99adb	0.121877395
25	0xbde09fee	-0.10968004
26	0x3d95cf04	0.07314876
27	0xbc3755fa	-0.011189932
28	0x3d15c78f	0.036567267
29	0x3db9be72	0.09069528
30	0x3dd135f4	0.10215369
31	0x3c6a87dd	0.014314619
32	0xbd1a221d	-0.03763019
33	0xbc66d198	-0.014088057
34	0xbe2ba0ed	-0.16760607
35	0xbe0cced4	-0.13750774
36	0x3ea16d7d	0.31528845
37	0x3c637456	0.013882717
38	0x3d6a5a5e	0.057215087
39	0x3e0f5707	0.13998042
40	0x3e0fbfc0	0.1403799
41	0x3d58462c	0.052801296
42	0x3de99a4d	0.11406384
43	0x3e2ff7e5	0.17184408
44	0xbe6a849c	-0.22902149
45	0x3d15204b	0.03640775
46	0xbd373a80	-0.044733524
47	0xbe23c661	-0.15993644
48	0xbba21e17	-0.0049474346
49	0x3d5c8436	0.053837024
50	0x3d61afcb	0.05509929
51	0x3dda70bb	0.10666033
52	0x3e136dd2	0.14397362
53	0x3c8dc78c	0.017307065
54	0x3d2b181f	0.04177105
55	0x3d3caaa5	0.046061177
56	0x3d451dd8	0.048124164
57	0x3e616b17	0.22013508
58	0x3d4659d8	0.048425525
59	0xbd89ea20	-0.06734109
60	0x3dd32b73	0.10311022
61	0xbdb4b5e6	-0.08823757
62	0xbc22deaf	-0.009940787
63	0xbdc46df2	-0.09591283
64	0x3c86abea	0.016439397
65	0x3dd769e2	0.105182424
66	0xbc952675	-0.018206814
67	0xbcd1a8e0	-0.025593221
68	0xbc44d11a	-0.012012744
69	0x3d057c21	0.03258908
70	0x3ddd17b4	0.10795537
71	0xbdd49a57	-0.103810005
72	0x3af92f15	0.0019011224
73	0xbcc3b407	-0.023889555
74	0x3e0846db	0.13308279
75	0x3f847a51	1.0349828
76	0x3d5fcb5d	0.0546373
77	0xbd946a46	-0.072468325
78	0xbd349f9e	-0.044097535
79	0xbd248c34	-0.04017277
80	0x3c95e7fc	0.018299095
81	0xbdffc469	-0.12488634
82	0xbd0112ab	-0.031511944
83	0x3df8ee6c	0.1215485
84	0xbd9d93ad	-0.076941825
85	0x3ba55dff	0.0050466056
86	0x3dffba90	0.12486756
87	0x3d98187e	0.074265465
88	0x3e0ae0c5	0.13562305
89	0x3de285ab	0.110606514
90	0x3e1472ba	0.1449689
91	0x3c33e60e	0.010980142
92	0x3d8dfb5d	0.06932709
93	0x3c937275	0.017998913
94	0x3d45da83	0.048304092
95	0xbe09140d	-0.13386555
96	0xbc3a0322	-0.011353286
97	0x3d7cc2f5	0.061709363
98	0xbda6ae7b	-0.08138748
99	0xbdd46490	-0.10370743
100	0x3de556e1	0.111982115
101	0x3d38e63b	0.04514144
102	0xbd5e50bd	-0.054276217
103	0x3ce46cdb	0.027883938
104	0x3e49699a	0.1966919
105	0xbe04a940	-0.12955189
106	0xbd33a6ed	-0.043860365
107	0x3c530e5b	0.012881841
108	0x3dba233f	0.09088754
109	0x3db72b8e	0.08943854
110	0xbe15ed7f	-0.14641379
111	0x3e1cba3c	0.15305418
112	0xbcea9377	-0.02863477
113	0xba31926f	-0.00067738345
114	0x3d86edd2	0.065883294
115	0x3e1a9f67	0.1509987
116	0x3e0fe22e	0.14051124
117	0x3e4d481d	0.2004704
118	0xbd7d883b	-0.061897498
119	0x3ac9e897	0.00154044
120	0x3d2426f9	0.04007623
121	0xbe211e63	-0.15734248
122	0xbd3902ce	-0.04516869
123	0x3b543c9a	0.0032384754
124	0x3a447f3b	0.00074957655
125	0xbda7a89a	-0.08186455
126	0xbe2a02da	-0.1660265
127	0xbd75ee00	-0.060041428

out.weight f4 [5, 128]
0	0x3e3b28c3	0.18277268
1	0x3cd4ef48	0.025993004
2	0xbd95f15e	-0.07321428
3	0x3c94c3be	0.018159743
4	0x3e04fc04	0.12986761
5	0x3cbe5876	0.02323554
6	0x3d983511	0.074319966
7	0x3d499844	0.049217477
8	0xbd6300d3	-0.055420708
9	0x3c249120	0.010044366
10	0x3e0e8be5	0.13920553
11	0x3cadd7ac	0.021221004
12	0xbde46b01	-0.11153222
13	0x3d9a2a5d	0.075276114
14	0x3dd6b6f4	0.10484114
15	0x3dd57abe	0.10423802
16	0x3da568c0	0.0807662
17	0xbdc308a0	-0.095231295
18	0xbe74f730	-0.2392242
19	0x3828cfb6	4.0247767e-05
20	0xbd07070c	-0.032965705
21	0x3d14c8c4	0.036324278
22	0x3e4a7c9d	0.19774099
23	0x3e836132	0.25660092
24	0xbd9d0041	-0.07666064
25	0xbe2c5c38	-0.16832054
26	0x3e10c9dd	0.14139505
27	0x3e170061	0.14746238
28	0x3e577fc4	0.21044832
29	0x3b098e57	0.0020989382
30	0xbdb5a62a	-0.08869584
31	0x3e069e86	0.1314641
32	0xbd8fd34f	-0.07022726
33	0xbca15338	-0.019693002
34	0xbe3e7c94	-0.1860221
35	0x3d9d2c61	0.0767448
36	0xbc279583	-0.010228517
37	0x3e71875e	0.23586795
38	0xbdee6a0e	-0.11641322
39	0x3e9c8469	0.3056977
40	0xbe4665d8	-0.19374788
41	0x3d362026	0.044464253
42	0x3e2d986a	0.16952673
43	0xbe5fb035	-0.21844561
44	0xbd85ed27	-0.06539374
45	0x3d2381cd	0.03991871
46	0x3e06fcc7	0.13182364
47	0xbe02ba83	-0.12766461
48	0xbdf8aba3	-0.12142112
49	0xbe769d85	-0.24083526
50	0xbd6eac31	-0.058269683
51	0xbdfea055	-0.12432925
52	0x3e07dee1	0.13268615
53	0x3e6bd691	0.2303107
54	0x3dd25ca4	0.10271576
55	0xbd122039	-0.03567526
56	0x3e6c30ae	0.23065445
57	0xbac30109	-0.0014877628
58	0xbd919c4a	-0.07109888
59	0xbdc0bf5c	-0.09411499
60	0xbd9cf4c0	-0.0766387
61	0x3e1949bd	0.14969535
62	0xbcf8aa8c	-0.03035476
63	0x3e1ec2ca	0.15503994
64	0x3ddac047	0.10681205
65	0x3e45c61e	0.19313857
66	0x3e083e8d	0.13305111
67	0x3e8236fe	0.2543258
68	0xbcae6e32	-0.02129278
69	0xbe03123a	-0.12799922
70	0x3e01b40d	0.1266634
71	0xbd608cb8	-0.0548217
72	0x3d0eec8c	0.034893557
73	0xbd844cfd	-0.06459997
74	0x3dcdc715	0.100477375
75	0xbd54e7ef	-0.051979
76	0xbe1b1fc8	-0.15148842
77	0xbd42ddd2	-0.047574826
78	0xbce08864	-0.027408786
79	0x3d4441a0	0.047914147
80	0x3dcf37b1	0.10118044
81	0xbcbc3d08	-0.02297832
82	0xbdcfc3e8	-0.10144788
83	0x3da07e1f	0.07836556
84	0x3d84401a	0.06457539
85	0x3e0e1e57	0.13878761
86	0x3e1492a2	0.14509061
87	0x3c65e227	0.01403097
88	0x3e597cbf	0.21238993
89	0xbe7d368e	-0.24727842
90	0xbe0053ff	-0.12532042
91	0x3c5aa496	0.013344904
92	0xbdd12b86	-0.102133796
93	0x3d76b8fa	0.060235
94	0xbdb9000e	-0.090332136
95	0x3cd586d6	0.026065271
96	0x3d23c4e1	0.03998268
97	0xbda1a586	-0.07892899
98	0x3e03742f	0.1283729
99	0xbdf994be	-0.121865734
100	0x3e9e5aba	0.30928594
101	0x3e326e04	0.1742478
102	0xbe0c9544	-0.13728815
103	0xbddc2797	-0.10749739
104	0xbd5c22a7	-0.053743985
105	0xbd7595ae	-0.0599572
106	0xbd8aa795	-0.06770245
107	0x3b8abed2	0.0042341733
108	0x3e069f1d	0.13146634
109	0xbdfb77b6	-0.122786924
110	0x3e08b1df	0.13349102
111	0x3e20aab4	0.15690118
112	0x3e398ac2	0.18119338
113	0xbd515514	-0.051106527
114	0x3e54d99a	0.20786133
115	0xbd9c656f	-0.076365344
116	0x3d3dedb2	0.046369262
117	0xbe818394	-0.252957
118	0x3e5f5988	0.21811497
119	0x3e3fd6a6	0.18734226
120	0x3d64451a	0.055729963
121	0xbcda516d	-0.026650155
122	0x3de20f1c	0.11038038
123	0x3d6960a6	0.056976937
124	0xbd13eb7b	-0.036113244
125	0xbd8372a6	-0.06418352
126	0x3e109dd8	0.14122713
127	0xbbe31da0	-0.006931022
128	0x3dc49c27	0.09600096
129	0x3e2acde8	0.1668011
130	0x3e1a5de5	0.1507488
131	0x3d8b1781	0.067915924
132	0xbd9255ec	-0.071452945
133	0x3d8ff0e3	0.07028367
134	0xbdaa76c6	-0.083234355
135	0xbdc9fe25	-0.09862927
136	0xbe400e53	-0.18755464
137	0xbdac0a2d	-0.084003784
138	0x3b8e0278	0.0043337904
139	0xbda6dbe5	-0.0814741
140	0x3ae443cb	0.0017415223
141	0x3db22c33	0.086998366
142	0x3e147ede	0.14501521
143	0xbd531cee	-0.05154126
144	0xbde92359	-0.11383695
145	0xbd861c00	-0.06548309
146	0x3d972ce7	0.07381611
147	0x3da36675	0.079785265
148	0xbd28dbb3	-0.041225147
149	0xbeb25e96	-0.34837788
150	0x3df371d4	0.11886945
151	0x3e2df362	0.16987374
152	0xbe2b3aba	-0.16721621
153	0xbe3032a2	-0.17206815
154	0x3e11b523	0.14229254
155	0xbd5a9013	-0.053360056
156	0xbdbcb677	-0.0921449
157	0xbe06aae8	-0.13151133
158	0xbd91865d	-0.07105706
159	0x3e0c1e42	0.13683417
160	0xbd0f8442	-0.03503824
161	0xbdcff42b	-0.10153993
162	0xbd305a99	-0.04305515
163	0x3d19f176	0.03758379
164	0xbe0d860e	-0.13820669
165	0x3e2e2a77	0.17008387
166	0x3e789632	0.24276045
167	0x3d0bf9a2	0.034173615
168	0xbd6a340c	-0.057178542
169	0x3e8e28ef	0.27765605
170	0xbdd1a914	-0.10237327
171	0xbd690dbc	-0.056897864
172	0x3d63aafd	0.05558299
173	0x3e409fa0	0.18810892
174	0x3e01ea3d	0.12687011
175	0xbe3e07c3	-0.18557648
176	0x3e1d62aa	0.15369669
177	0xbd82d15b	-0.06387588
178	0xbe5f6829	-0.21817078
179	0x3e147704	0.14498526
180	0xbe8beb8e	-0.2732815
181	0xbe04b4a0	-0.12959528
182	0x3e11e80c	0.14248675
183	0xbc1e0d41	-0.009646715
184	0x3e07651c	0.13222164
185	0xbda92f37	-0.08260959
186	0x3daaa67c	0.083325356
187	0x3e059c96	0.13048014
188	0x3e3d3164	0.18475872
189	0x3e234931	0.15945889
190	0x3d31183d	0.043236006
191	0xbd45dbcd	-0.04830532
192	0xbe8d9758	-0.2765453
193	0x3e315839	0.1731881
194	0x3cccea25	0.025013993
195	0xbd744a5a	-0.05964122
196	0x3d878546	0.06617217
197	0xbd805d7e	-0.06267832
198	0x3d14f1fa	0.03636358
199	0xbd9c3fa2	-0.076293245
200	0x3e545c57	0.2073835
201	0x3dafad4a	0.08577974
202	0x3dce9f06	0.10088925
203	0xbd5250ff	-0.051346775
204	0x3dc7726a	0.097386196
205	0x3e4eaa72	0.20182207
206	0x3e0a764b	0.13521688
207	0xbdc60ac5	-0.09670023
208	0x3d923400	0.071388245
209	0xbe09d750	-0.13461041
210	0x3e04f034	0.12982255
211	0x3d63b002	0.055587776
212	0x3e86054d	0.2617592
213	0x3dcd80a3	0.10034301
214	0x3d028772	0.031867452
215	0x3e32b499	0.17451705
216	0x3c7e3628	0.015515842
217	0xbdf1f79c	-0.11814806
218	0x3d79513d	0.06086849
219	0x3e50ac7e	0.203783
220	0x3d06bf71	0.032897417
221	0x3c9fe6a7	0.019519163
222	0x3df6cff1	0.120513804
223	0x3db53a2f	0.08848988
224	0x3d7a76f4	0.0611486
225	0xbd9df535	-0.07712785
226	0x3db3cc40	0.08779192
227	0xbe4606e9	-0.19338574
228	0x3cd34b7f	0.025792835
229	0x3e417864	0.18893582
230	0x3e2907de	0.16506907
231	0x3d9399fa	0.07207103
232	0xbd80b083	-0.06283667
233	0xbd910d96	-0.070826694
234	0x3b03885b	0.0020070288
235	0xbd83b42f	-0.06430852
236	0xbbe0990f	-0.0068541835
237	0x3d560c5c	0.05225788
238	0xbe4e1df0	-0.20128608
239	0x3e0c6b96	0.13712916
240	0x3e5ed7e1	0.21762039
241	0x3e1321bf	0.14368342
242	0x3d7d288d	0.06180625
243	0x3e06d924	0.1316877
244	0x3e26826e	0.16260692
245	0x3d81cc30	0.06337774
246	0x3e0e5d6c	0.13902825
247	0xbe0ce521	-0.1375928
248	0x3de77ce3	0.11303117
249	0xbde2edcb	-0.11080512
250	0x3d87b8ed	0.06627069
251	0x3e1e274b	0.15444677
252	0xbe72fbbe	-0.23728845
253	0xbc5e2838	-0.013559394
254	0x3e21dcb5	0.1580685
255	0xbe37d58b	-0.17952554

out.bias f4 [5]
0	0x3e18c9ed	0.14920779
1	0x3e10959a	0.14119568
2	0x3e1b772a	0.15182176
3	0x3e087bb4	0.13328439
4	0x3e0d1ebb	0.13781254
