SimplifiedSpaceWar/trained_models/dqn_bullets_19000.pth (torch, 89165 bytes, 6 tensors)

fc1.weight f4 [128, 33]
0.07154446 0.5705578 -0.21652447 0.30343956 1.0342464 -0.22434561 0.67911977 0.54708034
-0.19592968 0.20080595 0.017863987 -0.025784835 -0.26027364 -0.28285426 -0.78473103 0.2987523
-0.34829196 0.059739597 -0.3083143 0.10996833 0.044440087 0.20155774 0.23196414 -0.048277855
-0.12082983 -0.044293642 -0.36020997 0.24925911 -0.0012671025 -0.14334665 0.08219793 -0.01914754
0.0021059283 2.0578659 2.973887 0.20144223 0.45175815 0.027458806 -0.27737978 -0.4431176
0.10088239 -0.13995193 0.059960254 -0.487213 -0.2117048 -0.08223537 -0.07647914 -0.023389176
0.16117539 -0.00572392 0.0043471693 -0.021625157 -0.24481553 0.06634322 -0.14501768 -0.04907492
0.26091194 -0.7030087 -0.1819788 0.0038443815 -0.31185287 -0.14306556 0.107771866 0.23612866
0.040049028 0.3814986 0.45743862 -1.1192294 0.14051352 -0.10934334 -1.0076339 0.095414564
0.0942829 0.10198463 0.06966369 -0.28431475 -0.22587639 -0.06457651 0.18540664 0.33319882
0.37634483 0.42748952 0.24042718 0.07251534 -0.0714694 -0.13600314 0.28914678 -0.08643662
-0.028845232 0.24899893 0.1881504 0.061449345 -0.17004973 0.050129183 0.16677037 -0.38610765
0.1184029 0.007357493 -0.35859087 1.7976873 0.23256887 -0.2639877 -0.21555486 0.32596815
0.11482715 0.44348195 -0.122370094 0.033231106 0.9444242 0.33859676 0.6402254 0.5906143
-0.2561379 -0.17919675 0.5038707 -0.52731985 0.15592246 -0.096364014 -0.30706367 0.032628216
0.09762943 0.06342755 -0.09920363 0.5261712 -0.21561071 -0.14721838 -0.27403712 0.3157496
-0.20345432 -0.22576778 -0.190908 0.04126827 -2.3833385 -0.8240819 -0.37587497 -0.30234078
0.96659654 0.41574994 -0.16231263 -0.48773918 -0.115021475 0.117886 -0.280931 -0.2057603
-0.3460074 -0.1605897 -0.22235888 0.51428735 -0.34711587 0.6324247 -0.6665383 -0.41267234
-0.06266143 0.21451886 0.45462278 -0.32554486 -0.038772427 0.14791015 0.09028025 -0.16298571
0.6403342 -0.27749574 -0.5497841 -0.39997625 -0.19377747 0.44818342 -1.139154 -0.41277197
-0.10424427 -0.7248597 -0.41266137 0.05827258 0.5785499 -0.15033674 0.6146295 0.405506
1.2834022 -0.34017012 0.37311286 -0.42188022 0.08822164 0.5958516 -0.06322978 -0.35993314
-0.26822016 -0.051712964 0.33554444 -0.082650684 -0.019601822 -0.3304326 -0.194113 -0.049854618
-0.34570056 0.0501634 -0.19725165 -0.035457388 -0.023211416 -0.16379318 0.76040566 0.9503875
-0.15752356 0.60338837 1.0432755 0.6737914 -0.29767865 -0.49417436 -0.011401765 -0.7945327
0.20879947 0.14195602 -0.18067029 0.09936867 0.08460072 0.10462416 -0.44083983 -0.24364467
0.19994615 -0.249319 -1.1764979 -0.085381985 0.25164846 0.21842676 -0.6646642 0.027130634
0.21668564 0.23334852 0.3723004 0.18463726 -0.11838688 0.46447822 -0.36578274 -1.1058924
-1.6350181 0.034738895 -0.29131708 0.647648 -0.59209114 -0.5496628 0.3238416 0.025640067
0.026237179 -0.028294967 0.16549751 0.3119791 0.016112048 0.07183876 -0.072328076 0.47503144
0.062576875 -0.38365817 -0.34854683 0.2933877 -0.08061474 0.01588841 -0.016048498 -0.23289908
00000000: e785 923d 1310 123f 97b8 5dbe 6e5c 9b3e
00000010: 3062 843f dbba 65be cbda 2d3f 750d 0c3f
00000020: caa1 48be 13a0 4d3e 7f57 923c b83a d3bc
00000030: 9642 85be 46d2 90be 22e4 48bf 10f6 983e
00000040: 5353 b2be 82b1 743d 5fdb 9dbe 1337 e13d
00000050: cf06 363d 2765 4e3e 0288 6d3e 00bf 45bd
00000060: a175 f7bd 406d 35bd 716d b8be c83d 7f3e
00000070: e814 a6ba 77c9 12be 6357 a83d 4ddb 9cbc
00000080: 9d03 0a3b 13b4 0340 2a54 3e40 df46 4e3e
00000090: d84c e73e 4af1 e03c b904 8ebe 4fe0 e2be
000000a0: 6d9b ce3d 8f4f 0fbe e298 753d fb73 f9be
000000b0: 25c9 58be 056b a8bd 18a1 9cbd a89a bfbc
000000c0: 290b 253e b98f bbbb b372 8e3b 3e27 b1bc
000000d0: ecb0 7abe f4de 873d 847f 14be c902 49bd
000000e0: 4096 853e 61f8 33bf a758 3abe 05f2 7b3b
000000f0: 2eab 9fbe c77f 12be 7fb7 dc3d b6cb 713e
00000100: 730a 243d c953 c33e 6535 ea3e e942 8fbf
00000110: c7e2 0f3e 67ef dfbd 26fa 80bf b668 c33d
00000120: 6517 c13d 51dd d03d d6ab 8e3d b491 91be
00000130: 244c 67be b040 84bd 3ddb 3d3e 0999 aa3e
00000140: 45b0 c03e e8df da3e 8b32 763e ec82 943d
00000150: 8c5e 92bd 6844 0bbe 0c0b 943e af05 b1bd
00000160: d64c ecbc 93f9 7e3e 80aa 403e 4fb2 7b3d
00000170: 8421 2ebe 4254 4d3d dac5 2a3e e7af c5be
00000180: 387d f23d 2017 f13b 3999 b7be 9e1a e63f
00000190: 8926 6e3e 6529 87be 6aba 5cbe 4ce5 a63e
000001a0: 7f2a eb3d 1110 e33e 2c9d fabd 571d 083d
000001b0: c9c5 713f 8e5c ad3e d0e5 233f 8032 173f
000001c0: 8224 83be 5a7f 37be acfd 003f 6ffe 06bf
000001d0: 23aa 1f3e 7f5a c5bd 7337 9dbe 2aa5 053d
000001e0: f0f1 c73d 4ee6 813d 462b cbbd 28b3 063f
000001f0: 0ec9 5cbe 6ac0 16be 984e 8cbe eea9 a13e
00000200: 5456 50be ab2f 67be 637d 43be eb08 293d
00000210: 9e88 18c0 08f7 52bf af72 c0be 69cc 9abe
00000220: df72 773f 2ddd d43e 4835 26be f3b8 f9be
00000230: 6190 ebbd 376e f13d 30d6 8fbe d4b2 52be
00000240: e227 b1be a071 24be 0cb2 63be 56a8 033f
00000250: 2cb9 b1be 96e6 213f 41a2 2abf ca49 d3be
00000260: a354 80bd d5aa 5b3e 51c4 e83e d1ad a6be
00000270: d6cf 1ebd c275 173e dae4 b83d bae5 26be
00000280: f1ec 233f ec13 8ebe a7be 0cbf b0c9 ccbe
00000290: 9a6d 46be 4c78 e53e cccf 91bf d956 d3be
000002a0: 057e d5bd 6890 39bf 5a48 d3be 3baf 6e3d
000002b0: d91b 143f e0f1 19be 5c58 1d3f 7c9e cf3e
000002c0: 8646 a43f c72a aebe a608 bf3e af00 d8be
000002d0: 8cad b43d bb89 183f 9d7e 81bd 2849 b8be
000002e0: 2754 89be f9d0 53bd 7bcc ab3e c344 a9bd
000002f0: 0094 a0bc 762e a9be 8fc5 46be 5b34 4cbd
00000300: aaff b0be 2378 4d3d 56fc 49be c43b 11bd
00000310: de25 bebc 66b9 27be f2a9 423f 984c 733f
00000320: db4d 21be a977 1a3f 0d8a 853f 987d 2c3f
00000330: 5669 98be 6c04 fdbe 78ce 3abc 7f66 4bbf
00000340: 87cf 553e eb5c 113e a201 39be cd81 cb3d
00000350: 2443 ad3d 3145 d63d c2b5 e1be fd7d 79be
00000360: afbe 4c3e 7b4d 7fbe 7c97 96bf c0dc aebd
00000370: 11d8 803e 44ab 5f3e 6f27 2abf 1041 de3c
00000380: d7e2 5d3e eaf2 6e3e 289e be3e 8d11 3d3e
00000390: d274 f2bd 17d0 ed3e e047 bbbe e28d 8dbf
000003a0: 4648 d1bf 5f4a 0e3d 8327 95be 42cc 253f
000003b0: 4993 17bf b4b6 0cbf 91ce a53e 1e0b d23c
000003c0: 5aef d63c d9ca e7bc 2e78 293e b9bb 9f3e
000003d0: 6afd 833c 3320 933d be20 94bd 5237 f33e
000003e0: 4e28 803d d86e c4be bb74 b2be ea36 963e
000003f0: 5719 a5bd 6928 823c 2478 83bc 197d 6ebe

fc1.bias f4 [128]
-0.035185575 0.39148208 -0.20532209 -1.0725727 0.40598878 0.78594357 0.38070178 -0.6865717
0.115261644 -0.2881715 0.23953605 0.25763482 0.923821 0.18609174 -0.72994006 0.039747905
0.2701899 -0.36974084 0.92585534 0.50745565 -1.0298926 0.9544469 1.0847658 -0.13353534
0.011688379 -1.514627 -0.23221184 0.35934037 0.1625291 0.19356707 -0.019094389 0.14896192
-0.20583504 -0.5018988 -0.13626868 0.26099426 1.4695934 0.12817815 -0.3145956 0.14650474
-0.030629035 0.15698278 -0.16133168 0.046873208 -0.5335063 0.123043716 0.13616866 0.53061205
-0.73706114 -0.91145486 -0.85325277 0.7280519 1.2205461 0.20933497 1.053115 -0.37180227
0.16603088 -0.22406845 0.55298805 0.59982634 -0.116538525 0.8301111 -0.83382136 -0.38257658
0.2441308 -0.7557232 0.7351111 -0.48323637 0.36777264 -0.13502242 0.7496852 0.46896052
0.1026913 0.052364405 0.096827455 1.5839653 -0.080028646 0.3299896 -0.09601888 -0.11039079
-0.55901235 0.17306837 -0.029510735 0.018968424 1.4667054 0.10223746 2.7836683 0.4424139
0.27700436 -0.19730316 0.27052054 0.20575278 0.063939266 0.39386305 0.19705303 -0.9750136
0.29631272 0.6240242 0.19459417 0.8320223 -0.73538405 -0.08790557 0.31412217 -0.07232374
0.17617463 -0.12843119 -0.060164105 0.097183384 -0.080068514 0.07351921 1.1092696 0.33770424
-0.40009606 -0.16246787 0.1410608 -1.3691217 0.3965823 0.068916656 0.05435111 -0.07272122
0.32362622 -0.17079698 0.11754637 0.207332 0.60282135 0.3302053 0.6921438 0.7061041
00000000: c01e 10bd 5770 c83e f43f 52be 104a 89bf
00000010: c3dd cf3e 9933 493f 58eb c23e 2ac3 2fbf
00000020: 4c0e ec3d 378b 93be f048 753e b6e8 833e
00000030: 887f 6c3f d58e 3e3e 5add 3abf b3ce 223d
00000040: 5556 8a3e ac4e bdbe db04 6d3f 9de8 013f
00000050: 85d3 83bf a256 743f 9bd9 8a3f 7dbd 08be
00000060: 9d80 3f3c 4cdf c1bf f1c8 6dbe 76fb b73e
00000070: 076e 263e 7236 463e d66b 9cbc 7989 183e
00000080: 6cc6 52be 717c 00bf 048a 0bbe 0aa1 853e
00000090: a31b bc3f 2241 033e ad12 a1be 5705 163e
000000a0: bee9 fabc 18c0 203e 2234 25be 1ffe 3f3d
000000b0: de93 08bf 58fe fb3d cc6f 0b3e 31d6 073f
000000c0: 0ab0 3cbf 1b55 69bf c66e 5abf 9c61 3a3f
000000d0: db3a 9c3f e85b 563e 79cc 863f de5c bebe
000000e0: 0004 2a3e 3372 65be a090 0d3f 388e 193f
000000f0: c0ab eebd 2982 543f 5175 55bf 14e1 c3be
00000100: 6dfd 793e 1377 41bf 3e30 3c3f c26a f7be
00000110: b24c bc3e 5143 0abe 5feb 3f3f 981b f03e
00000120: d14f d23d 0f7c 563d 794d c63d 60bf ca3f
00000130: 0fe6 a3bd 66f4 a83e 8ca5 c4bd 9114 e2bd
00000140: 6f1b 0fbf d638 313e 7fc0 f1bc ab63 9b3c
00000150: 01bd bb3f e061 d13d 9f27 3240 1384 e23e
00000160: 84d3 8d3e d709 4abe ab81 8a3e dbb0 523e
00000170: 97f2 823d 6ba8 c93e 45c8 493e 7e9a 79bf
00000180: 4db6 973e 0dc0 1f3f b243 473e 6aff 543f
00000190: 2142 3cbf d607 b4bd 9fd4 a03e 781e 94bd
000001a0: 1f67 343e 7783 03be a36e 76bd 1508 c73d
000001b0: f6fa a3bd 3d91 963d 8cfc 8d3f 92e7 ac3e
000001c0: 64d9 ccbe fa5d 26be 3e72 103e 613f afbf
000001d0: d60c cb3e 2d24 8d3d 459f 5e3d ddee 94bd
000001e0: 56b2 a53e 67e5 2ebe 27bc f03d d74e 543e
000001f0: 8052 1a3f ab10 a93e 5630 313f 3dc3 343f

fc2.weight f4 [128, 128]
-0.07907187 0.15769759 -0.2128867 -0.29927298 -0.16872965 -0.43309796 0.089682534 -0.08926619
0.06377577 -0.2753792 0.027276348 -0.025257817 0.043952152 -0.13817559 -0.023628077 -0.21732537
0.03399344 0.086146414 -0.02506033 -0.22537147 -0.05434321 -0.27429962 0.053942427 -0.25916114
0.06614147 -0.12892759 0.013474571 -0.06840775 -0.45153117 0.09684189 -0.4795143 -0.08133452
0.057743896 0.029400613 0.12581988 -0.06690552 -0.064700104 -0.1244823 -0.054531574 -0.21567507
-0.11897501 -0.048361357 -0.5199128 -0.121849 -0.045781378 -0.14076605 0.04315852 -0.26874965
0.057907924 -0.19149008 -0.16054717 0.15480053 -0.47893396 -0.4201079 -0.38934052 -0.019972822
-0.039384656 0.08658783 0.02619477 -0.2428775 -0.14045522 0.06822923 -0.43479759 0.018053161
-0.49130517 -0.17191178 -0.06309861 0.22749926 0.04809117 0.014339826 -0.21097799 -0.73761046
0.085096136 0.046671275 0.061050422 0.14715864 0.030313553 -0.15311535 -0.05912881 -0.28178513
0.035115346 -0.16479036 -0.010462198 -0.11651397 -0.050525893 -0.033262424 -0.11484581 -0.14059055
0.06301406 0.046412107 -0.30943084 -0.2630961 0.022994654 -0.19126488 -0.06600504 0.09603311
0.007390547 0.08619679 -0.14996324 0.1667531 0.16013117 -0.3726238 -0.053630725 -0.21975793
-0.08805918 -0.27716947 -1.016825 -0.12579006 -0.20750009 -0.08320292 -0.22405069 0.16574968
-0.20905091 0.053014036 0.017836364 -0.42810628 0.07630768 -0.06708266 0.08349952 0.11356806
0.0056732525 0.16412674 -0.03420389 -0.109594546 -0.28564176 0.15020584 -0.16652077 -0.1102519
0.024781264 -0.17823099 -0.28499627 -0.16077073 -0.20718744 -0.15006046 -0.1697 -0.10811888
-0.03473809 -0.2298264 -0.113593094 0.065638736 -0.06594639 0.052618194 -0.27656215 -0.13450003
0.1455017 -0.12058002 -0.27697033 -0.81355 -0.5756201 0.006801926 -0.1403095 -0.18413702
-0.13664268 -0.04634108 -0.015041099 0.02596084 -0.29768127 0.18639424 0.061238933 0.15152574
-0.2866055 0.17647679 -0.22149082 -0.12704913 -0.34205297 0.2319406 -0.21174797 -0.29641914
0.090656206 0.022958033 -0.068410106 0.015874887 0.022989407 0.16058733 0.031060794 -0.38165477
0.031596914 -0.58244133 -0.10367492 -0.58277416 -0.39032117 -0.123025395 0.046226818 -0.38869643
-0.055489816 -0.005962421 -0.105856635 0.22242692 -0.7920901 0.042792924 -0.30724943 0.05534273
-0.39022937 -0.1721813 -0.25477254 -0.2569419 0.107673295 0.04563851 0.11881608 0.07949232
0.057014257 0.41496265 -0.14586951 0.19699518 -0.098829396 0.26574072 0.0756596 0.092982374
0.050999 -0.4777802 -0.13431302 -0.03382325 -0.012553463 -0.10124984 -0.1872268 0.09623294
0.02100002 0.20301917 -0.3822433 -0.26925108 -0.04042181 -0.05117296 0.117921986 -0.23935506
-0.029652592 -0.5003707 -0.25538895 -0.09569603 -0.10291342 -0.103891656 0.15790364 -0.13871542
-0.16776203 0.011795691 0.028059429 -0.27161193 -0.19228402 -0.038817372 -0.43461058 -0.3561551
-0.22916044 -0.02600056 -0.07451405 0.08599809 0.08228518 -0.10730984 -0.18487316 0.01971085
0.0056030657 0.20763361 0.12198434 -0.04598723 -0.5370479 -0.073864624 -0.015962081 -0.2250368
00000000: 6ff0 a1bd 7a7b 213e f9fe 59be 4f3a 99be
00000010: 77c7 2cbe 04bf ddbe 7aab b73d 31d1 b6bd
00000020: df9c 823d 81fe 8cbe a672 df3c 7be9 cebc
00000030: 2c07 343d e77d 0dbe ab8f c1bc 8b8a 5ebe
00000040: b53c 0b3d 886d b03d 524b cdbc c7c7 66be
00000050: fc96 5ebd 0071 8cbe bcf2 5c3d c5b0 84be
00000060: 2e75 873d 9805 04be 72c4 5c3c 5d19 8cbd
00000070: 182f e7be 0a55 c63d e682 f5be b692 a6bd
00000080: dd84 6c3d 8ed9 f03c edd6 003e c305 89bd
00000090: 7d81 84bd 93f0 febd 805c 5fbd edd9 5cbe
000000a0: 2ca9 f3bd 8f16 46bd 0119 05bf f88b f9bd
000000b0: 4185 3bbd fa24 10be fdc6 303d 8e99 89be
000000c0: dc30 6d3d fa15 44be 7a66 24be 0884 1e3e
000000d0: d536 f5be 6218 d7be a457 c7be 0b9e a3bc
000000e0: ce51 21bd f654 b13d 6a96 d63c e1b4 78be
000000f0: 7ed3 0fbe c4bb 8b3d ca9d debe 39e4 933c
00000100: 5a8c fbbe a409 30be d839 81bd 91f5 683e
00000110: 3ffb 443d 97f1 6a3c 9d0a 58be 0ad4 3cbf
00000120: e246 ae3d 612a 3f3d 0210 7a3d c1b0 163e
00000130: 2154 f83c 45ca 1cbe 0d31 72bd 2446 90be
00000140: 1cd5 0f3d cebe 28be a469 2bbc e09e eebd
00000150: 3df4 4ebd 2e3e 08bd 4834 ebbd f8f6 0fbe
00000160: 840d 813d 9f1a 3e3d b86d 9ebe 88b4 86be
00000170: 495f bc3c f1da 43be a72d 87bd 02ad c43d
00000180: 672c f23b f187 b03d f78f 19be 53c1 2a3e
00000190: 6df9 233e 8cc8 bebe e4ab 5bbd 3908 61be
000001a0: 5f58 b4bd 28e9 8dbe 5227 82bf 1ccf 00be
000001b0: e77a 54be 4b66 aabd 8b6d 65be 49ba 293e
000001c0: 7111 56be 3f25 593d 911d 923c bf30 dbbe
000001d0: 3347 9c3d a262 89bd cc01 ab3d 5f96 e83d
000001e0: b1e6 b93b d710 283e 6119 0cbd 1b73 e0bd
000001f0: a33f 92be 8fcf 193e 6c84 2abe c0cb e1bd
00000200: 1402 cb3c 2f82 36be 08eb 91be 15a1 24be
00000210: f228 54be 73a9 19be d6c5 2dbe 6e6d ddbd
00000220: 8749 0ebd 9d57 6bbe 7fa3 e8bd 9a6d 863d
00000230: e70e 87bd 2d86 573d 8e99 8dbe 60ba 09be
00000240: 66fe 143e a8f2 f6bd 0ecf 8dbe d044 50bf
00000250: d75b 13bf b1e2 de3b 4bad 0fbe 6a8e 3cbe
00000260: 0fec 0bbe 25d0 3dbd f16e 76bc d4ab d43c
00000270: ae69 98be 22de 3e3e add5 7a3d 9029 1b3e
00000280: f5bd 92be 55b6 343e 7dce 62be 2b19 02be
00000290: 9121 afbe d681 6d3e 76d4 58be 40c4 97be
000002a0: f6a9 b93d 7c12 bc3c 991a 8cbd 0d0c 823c
000002b0: 4854 bc3c 0171 243e 3573 fe3c 4168 c3be
000002c0: c46b 013d e01a 15bf 8453 d4bd b030 15bf
000002d0: 2dd8 c7be bdf4 fbbd 5558 3d3d 3803 c7be
000002e0: 4a49 63bd 6a60 c3bb 5dcb d8bd e2c3 633e
000002f0: 6bc6 4abf a247 2f3d cc4f 9dbe 0faf 623d
00000300: 25cc c7be 4b50 30be 8c71 82be e48d 83be
00000310: d183 dc3d 72ef 3a3d d855 f33d dfcc a23d
00000320: c887 693d fc75 d43e d15e 15be 1bb9 493e
00000330: 1167 cabd 2b0f 883e 6cf3 9a3d 8b6d be3d
00000340: 54e4 503d 9b9f f4be 5a89 09be 408a 0abd
00000350: 0aad 4dbc 135c cfbd 62b8 3fbe c715 c53d
00000360: 3c08 ac3c 42e4 4f3e 65b5 c3be 47db 89be
00000370: 5791 25bd bd9a 51bd 1581 f13d 7e19 75be
00000380: fee9 f2bc 4b18 00bf 57c2 82be 48fc c3bd
00000390: 45c4 d2bd 26c5 d4bd 7eb1 213e 6a0b 0ebe
000003a0: cfc9 2bbe b742 413c e3dc e53c b810 8bbe
000003b0: 1ae6 44be f7fe 1ebd 4785 debe f659 b6be
000003c0: 09a9 6abe 20ff d4bc d29a 98bd c41f b03d
000003d0: 2285 a83d 43c5 dbbd 644f 3dbe a678 a13c
000003e0: ec99 b73b e89d 543e edd2 f93d 1b5d 3cbd
000003f0: f97b 09bf 5646 97bd e9c2 82bc 0c70 66be

fc2.bias f4 [128]
0.044325426 -0.02499729 0.014686622 -0.03575697 0.074946076 -0.25996086 -0.08541871 0.07774759
-0.17620374 0.04835883 -0.09186586 -0.10848567 0.16997038 0.12300332 0.058035713 -0.024321841
0.030476842 -0.029030895 -0.042476993 -0.0027719883 0.010908075 0.03529956 0.06981962 0.018305255
0.045120012 -0.10968004 0.006422182 -0.011189932 0.02043725 0.10462849 0.07499812 -0.035689197
-0.041457616 -0.025407279 -0.16760607 -0.17022023 0.24079768 -0.10815945 0.05086232 0.116176255
0.035683475 -0.012151901 0.11406384 0.1549039 -0.31798932 0.03640775 -0.059898995 -0.18744121
-0.008116357 0.053837024 -0.0036819526 0.050330732 0.111330375 -0.0006239151 0.040280778 0.18339674
0.012004638 0.19122672 0.03684261 -0.09619013 0.038476598 0.09930488 -0.009940787 -0.09563364
0.026235264 0.065143324 -0.024089606 -0.06427806 -0.077920355 -0.05975606 0.0847285 -0.14224815
-2.6196556e-05 -0.0707002 -0.04097608 1.8373019 0.022353113 -0.1469602 -0.044097535 -0.03570228
-0.046765156 -0.151578 -0.050183516 0.08141643 -0.09072792 0.04454729 0.10480612 0.074265465
0.13562305 0.102203354 0.10127516 0.0014538136 0.012533528 -0.119118504 0.037854627 -0.14587863
-0.039499857 0.048214223 -0.08138748 -0.112620346 0.111982115 -0.015503289 -0.07313227 0.020593723
0.14832641 -0.11802392 -0.15062453 0.03126134 0.0983034 0.0714659 -0.17677449 0.083914995
-0.060116284 -0.053054422 0.06722837 0.12030791 0.061700966 0.17833045 -0.06507314 -0.026696984
0.027202146 -0.16404569 -0.084530994 -0.025084686 -0.0072003286 -0.11954806 -0.1660265 -0.06889591
00000000: 948e 353d 1ec7 ccbc 28a0 703c e775 12bd
00000010: 547d 993d 9719 85be 01f0 aebd 213a 9f3d
00000020: c16e 34be e913 463d 2b24 bcbd bc2d debd
00000030: b70c 2e3e 2ae9 fb3d dbb6 6d3d 993e c7bc
00000040: 92aa f93c 33d2 edbc 5bfc 2dbd 3faa 35bb
00000050: c8b7 323c 4596 103d 97fd 8e3d e7f4 953c
00000060: c3cf 383d ee9f e0bd 2b71 d23b fa55 37bc
00000070: 056c a73c 7647 d63d 9d98 993d d62e 12bd
00000080: 76cf 29bd ed22 d0bc eda0 2bbe 364e 2ebe
00000090: ab93 763e b482 ddbd 0255 503d d1ed ed3d
000000a0: d628 123d c418 47bc 4d9a e93d 219f 1e3e
000000b0: 7fcf a2be 4b20 153d a658 75bd 97f0 3fbe
000000c0: 78fa 04bc 3684 5c3d ea4c 71bb 9927 4e3d
000000d0: 2e01 e43d 3c8e 23ba 75fd 243d 5bcc 3b3e
000000e0: 1aaf 443c f0d0 433e 47e8 163d 55ff c4bd
000000f0: a399 1d3d 5b60 cb3d afde 22bc 92db c3bd
00000100: 56eb d63c dd69 853d 9157 c5bc 37a4 83bd
00000110: b594 9fbd c5c2 74bd 2386 ad3d 80a9 11be
00000120: adc0 dbb7 44cb 90bd 89d6 27bd b52c eb3f
00000130: e01d b73c bc7c 16be 9e9f 34bd 8e3c 12bd
00000140: d28c 3fbd 4337 1bbe 3b8d 4dbd a8bd a63d
00000150: 8fcf b9bd 3877 363d 97a4 d63d 7e18 983d
00000160: c5e0 0a3e fe4f d13d 5a69 cf3d e48d be3a
00000170: 6d59 4d3c 67f4 f3bd 740d 1b3d 3561 15be
00000180: 9aca 21bd 477c 453d 7bae a6bd 7fa5 e6bd
00000190: e156 e53d 8201 7ebc 5fc6 95bd 2bb4 a83c
000001a0: e1e2 173e 86b6 f1bd 513d 1abe e40b 003d
000001b0: 4b53 c93d b75c 923d 5f04 35be a0db ab3d
000001c0: 7e3c 76bd 984f 59bd 07af 893d fe63 f63d
000001d0: 27ba 7c3d 429c 363e 1145 85bd a2b3 dabc
000001e0: 09d7 de3c 98fb 27be 961e adbd 667e cdbc
000001f0: bcf0 ebbb 9dd5 f4bd da02 2abe 4d19 8dbd

out.weight f4 [5, 128]
0.18065871 0.1299941 -0.03805557 0.018159743 -0.005998935 0.02323554 0.13317768 0.08993667
0.06475 -0.13938782 0.12661666 -0.017832343 -0.11153222 -0.016651208 0.112651385 0.10423802
0.18633722 -0.19614613 -0.2392242 0.105972126 -0.14475954 -0.13916263 0.19458145 0.21155182
0.115717694 -0.16832054 0.09863349 0.14746238 0.21044832 -0.13727012 -0.09434079 0.124761775
-0.19926842 -0.019693002 -0.1860221 0.0767448 -0.046250585 0.23018424 -0.11641322 0.21855353
-0.00071670103 -0.021278016 0.16952673 -0.113916434 0.026255287 0.03991871 0.2820596 -0.14478074
-0.12142112 -0.24083526 -0.021473186 -0.23167644 0.26635197 0.2303107 0.10271576 -0.05970782
0.19006701 0.024004847 -0.059314676 -0.09411499 0.11228734 0.0402873 -0.03035476 0.15503994
0.020279497 -0.07695912 0.1267062 0.0798758 0.083015636 -0.18370168 0.10380061 -0.073160216
0.015019253 -0.06459997 0.13245305 -0.10582228 -0.14183587 -0.05768427 -0.027408786 0.09689322
0.12926964 -0.02297832 -0.123322695 0.036617704 0.059029166 0.08446842 0.18362331 0.01403097
0.21238993 -0.24727842 -0.20542297 0.013344904 0.11244806 -0.044938024 0.14595318 0.24100861
0.03998268 0.0740281 0.1283729 -0.121865734 0.30928594 0.10888348 -0.16459703 -0.10749739
0.061241347 -0.02868936 -0.05780057 -0.028017176 -0.049262118 -0.09632766 0.13031742 0.118911184
0.18119338 -0.06617543 0.20752323 -0.06786654 0.16332774 -0.24894364 0.21811497 0.19803663
0.018423045 0.035076898 0.022055745 -0.052351844 -0.036113244 -0.043099426 0.14122713 -0.006931022
0.083404824 0.123906605 -0.10173231 0.069497116 -0.0004148653 0.07028367 -0.0317471 0.07678663
-0.14082734 -0.14606844 0.0043337904 -0.0814741 0.0017415223 0.11165226 0.13994789 -0.05154126
0.103499815 -0.09304195 0.07381611 0.13301252 0.09810407 -0.12826903 0.11886945 0.19848754
0.015349557 -0.17206815 0.11501261 -0.053360056 -0.0921449 -0.08676972 -0.0042079757 0.11875064
-0.06681932 -0.10153993 -0.04305515 0.059099644 -0.14338143 0.15349136 0.23958392 0.05090776
-0.039472044 0.109211296 -0.10237327 -0.15191212 0.06525783 0.18810892 0.10495987 -0.038320795
0.15055916 -0.06387588 -0.2869649 0.11400461 -0.05642127 -0.12959528 0.13831088 -0.061825365
0.15305042 -0.07951572 0.011664606 0.16041778 0.121992305 0.03108082 0.043236006 -0.0483451
0.11297113 0.010571732 0.017997134 -0.06389517 -0.09317185 -0.12885436 0.12464929 -0.0743109
0.24739742 0.08577974 0.13357505 -0.104939654 0.06614589 0.15587367 0.13521688 -0.083759926
0.09872414 -0.13461041 0.18264997 0.086086676 0.25804022 0.111019045 0.06996766 0.17451705
0.015515842 -0.09983109 0.060397085 0.19743548 -0.0680363 0.1582545 0.094585106 -0.06410824
0.04124846 -0.3334839 0.08779192 -0.22704448 0.025792835 0.128436 0.02033432 0.07207103
0.188083 -0.04723798 -0.031933457 -0.16631494 0.05927693 0.021050587 -0.19494452 0.07965175
0.21129028 0.1001157 0.052364904 0.1206281 0.08986489 -8.5423264e-05 0.13585788 -0.023082549
0.1531022 0.04751021 0.054517657 0.13138425 -0.23728845 -0.03807849 0.1580685 -0.17644274
00000000: 99fe 383e 2c1d 053e 28e0 1bbd bec3 943c
00000010: b792 c4bb 7658 be3c bb5f 083e b830 b83d
00000020: a69b 843d aebb 0ebe cca7 013e 2215 92bc
00000030: 016b e4bd 1d68 88bc c5b5 e63d be7a d53d
00000040: 2fcf 3e3e 88da 48be 30f7 74be ea07 d93d
00000050: d83b 14be a680 0ebe 5c40 473e 0aa1 583e
00000060: 66fd ec3d 385c 2cbe 5b00 ca3d 6100 173e
00000070: c47f 573e 8a90 0cbe be35 c1bd 1a83 ff3d
00000080: 050d 4cbe 3853 a1bc 947c 3ebe 612c 9d3d
00000090: 4171 3dbd 6bb5 6b3e 0e6a eebd 7fcc 5f3e
000000a0: fee0 3bba 3c4f aebc 6a98 2d3e 054d e9bd
000000b0: 5415 d73c cd81 233d 1e6a 903e 6741 14be
000000c0: a3ab f8bd 859d 76be 89e8 afbc 973c 6dbe
000000d0: 495f 883e 91d6 6b3e a45c d23d 3090 74bd
000000e0: eda0 423e d0a5 c43c f2f3 72bd 5cbf c0bd
000000f0: e8f6 e53d 4c04 253d 8caa f8bc cac2 1e3e
00000100: 3021 a63c be9c 9dbd 45bf 013e ec95 a33d
00000110: 1a04 aa3d 4b1c 3cbe 6a95 d43d 06d5 95bd
00000120: 5013 763c fd4c 84bd c6a1 073e 5ab9 d8bd
00000130: 6c3d 11be 5746 6cbd 6488 e0bc f46f c63d
00000140: 435f 043e 083d bcbc 9c90 fcbd 72fc 153d
00000150: 91c8 713d c7fd ac3d c007 3c3e 27e2 653c
00000160: bf7c 593e 8e36 7dbe 665a 52be 96a4 5a3c
00000170: 2b4b e63d ef10 38bd c074 153e f6ca 763e
00000180: e1c4 233d 0b9c 973d 2f74 033e be94 f9bd
00000190: ba5a 9e3e 4dfe de3d 208c 28be 9727 dcbd
000001a0: 35d8 7a3d f305 ebbc 4ac0 6cbd 4784 e5bc
000001b0: 13c7 49bd 7047 c5bd ee71 053e b587 f33d
000001c0: c28a 393e fc86 87bd f880 543e 9dfd 8abd
000001d0: 633f 273e 15eb 7ebe 8859 5f3e 1dca 4a3e
000001e0: edeb 963c cbac 0f3d 40ae b43c e36e 56bd
000001f0: 7beb 13bd 0689 30bd d89d 103e a01d e3bb
00000200: 26d0 aa3d bfc2 fd3d 0859 d0bd 8154 8e3d
00000210: 4782 d9b9 e3f0 8f3d 3f09 02bd 4f42 9d3d
00000220: 0b35 10be f792 15be 7802 8e3b e5db a6bd
00000230: cb43 e43a f1a9 e43d 804e 0f3e ee1c 53bd
00000240: b6f7 d33d c78c bebd e72c 973d 6f34 083e
00000250: c9ea c83d f558 03be d471 f33d 5140 4b3e
00000260: b57c 7b3c a232 30be bb8b eb3d 1390 5abd
00000270: 77b6 bcbd 53b4 b1bd 0fe3 89bb 8933 f33d
00000280: 91d8 88bd 2bf4 cfbd 995a 30bd 7812 723d
00000290: 95d2 12be d72c 1d3e 7d55 753e a884 503d
000002a0: 70ad 21bd 2caa df3d 14a9 d1bd da8e 1bbe
000002b0: e6a5 853d a09f 403e 33f5 d63d 44f6 1cbd
000002c0: 2e2c 1a3e 5bd1 82bd 10ed 92be 407b e93d
000002d0: fd19 67bd a0b4 04be 5ea1 0d3e 983c 7dbd
000002e0: 40b9 1c3e 23d9 a2bd e71c 3f3c 8f44 243e
000002f0: 1ad7 f93d 349d fe3c 3d18 313d 8305 46bd
00000300: 685d e73d 0f35 2d3c ba6e 933c 79db 82bd
00000310: e2d0 bebd 66f2 03be 2148 ff3d 5030 98bd
00000320: c055 7d3e 4aad af3d e6c7 083e 9aea d6bd
00000330: 7f77 873d 599d 1f3e 4b76 0a3e 538a abbd
00000340: e22f ca3d 50d7 09be 9808 3b3e 364e b03d
00000350: d91d 843e f45d e33d 344b 8f3d 99b4 323e
00000360: 2836 7e3c 3e74 ccbd ef62 773d 872c 4a3e
00000370: 9e56 8bbd 780d 223e d6b5 c13d 2e4b 83bd
00000380: 25f4 283d 67be aabe 40cc b33d 597e 68be
00000390: 7f4b d33c ba84 033e 2994 a63c fa99 933d
000003a0: d498 403e 9d7c 41bd a8cc 02bd 774e 2abe
000003b0: 5ecc 723d 4872 ac3c 899f 47be 7520 a33d
000003c0: 7b5c 583e 7609 cd3d 957c 563d de0b f73d
000003d0: 150b b83d 4425 b3b8 541e 0b3e 9d17 bdbc
000003e0: d3c6 1c3e 119a 423d e84d 5f3d 9889 063e
000003f0: befb 72be 31f8 1bbd b5dc 213e 68ad 34be

out.bias f4 [5]
0.37346652 0.37271172 0.35793027 0.3723721 0.38038412
00000000: 0137 bf3e 12d4 be3e a342 b73e 8ea7 be3e
00000010: b5c1 c23e
