SimplifiedSpaceWar/trained_models/dqn_bullets_9000.pth (torch, 89153 bytes, 6 tensors)

fc1.weight f4 [128, 33]
1.0231279 0.26323673 -0.05093737 0.38966328 -0.010365488 0.085207194 0.28229687 0.46839046
-0.016950872 0.41803578 -0.3943641 0.0033373793 0.02690323 -0.5794677 -0.8064872 0.33354485
-0.41838625 0.2105158 0.029877229 0.39726934 -0.33353958 0.15777902 0.15676834 0.061231606
-0.46723333 0.07545139 -0.19875342 0.5323864 0.028154513 -0.0791863 -0.06642561 0.0105250105
-0.38383663 1.6368397 1.943801 0.25300014 0.32087514 -0.4462493 -0.22767937 -0.22548501
-0.42785934 -0.08643285 0.2751058 -0.73334026 -0.068909645 0.0979992 -0.047498327 -0.05004287
-0.17164251 -0.44371372 0.12253425 -0.007491236 0.10690535 -0.09977335 0.037365817 0.17583294
0.2622898 -0.26833665 -0.057357334 0.0940281 -0.045744393 0.0056615123 -0.020589495 0.116589166
0.1590416 0.0309639 0.2295094 -0.3775254 0.12406258 -0.14747168 -0.12359156 0.06796201
0.032125868 0.13918902 0.07498215 -0.51786536 -0.1485641 -0.20594247 0.24097306 0.42794576
0.34138674 0.18712068 0.31505558 -0.10581517 -0.14915639 -0.1514106 0.3706188 -0.26865053
-0.16037756 0.08245262 0.27740222 0.03589213 -0.11739239 -0.13856803 0.20140623 -0.35570756
0.03190419 0.040338103 -0.24323188 1.2182713 -0.3117378 -0.12014926 0.009073728 0.63518816
0.13751131 0.004854284 0.054384276 0.03161028 0.5768266 0.13297635 0.45490217 0.10851922
0.13176718 0.08817818 0.39605117 -0.56098336 0.23421796 0.05006839 0.12773766 -0.020691114
0.0843577 0.10021414 -0.13339278 0.0821061 -0.26329115 -0.038547203 0.0717589 -0.24400297
-0.19378135 -0.36721697 -0.016649619 -0.224745 0.14562012 -1.8468153 -0.29473752 0.07522891
-0.14489406 0.1733856 -0.05797482 -0.6063225 -0.009499162 -0.17404786 -0.16620268 -0.13783237
0.067127265 -0.17036645 -0.2130463 0.6669614 -0.9211985 -0.15691632 -0.3098845 0.153621
-0.170198 -0.059196565 -0.049319055 0.33691084 -0.1568586 0.13342457 -0.060247928 0.55157197
0.4284891 -0.139302 -0.48752606 -0.050878443 -0.32819197 0.26264903 0.0858851 -0.2625571
-0.16707313 0.064577304 -0.050195854 0.31304494 0.6807673 0.042043768 0.39400235 -0.11284788
0.76588017 0.008196625 0.28120816 0.16511232 0.123005256 0.40416583 -0.074316606 -0.11071444
-0.296951 0.2486196 -0.14475363 -0.23458213 0.075869 0.12315039 0.17704812 -0.1106396
-0.18164195 0.12880933 -0.16841026 0.08782311 0.010658643 -0.078381285 -0.43423614 0.5778397
0.10885794 0.33825868 0.24841668 0.6248839 0.021762557 0.07764387 0.00031801502 0.24486448
0.59344816 -0.032642312 -0.11694807 0.18577957 0.12785292 0.090591945 -0.20017059 -0.21317896
0.10553251 -0.14528693 -0.6489079 -0.25478485 -0.02013608 -0.06090265 -0.22387832 0.14464122
0.22235787 -0.36326647 -0.21600862 0.16531684 -0.07531531 -0.14104141 -0.48714036 -1.065892
-2.0038183 0.1819816 -0.05825128 0.5036772 -0.46434137 -0.45751163 0.59230566 0.019359954
0.26157773 0.03690643 -0.08037816 0.22426146 0.008871035 0.0067981738 0.25742343 0.2477278
0.014863294 -0.29331905 -0.035113465 0.24999408 -0.1152782 0.04498601 -0.084702544 -0.116756
00000000: dbf5 823f f7c6 863e b4a3 50bd f281 c73e
00000010: 02d4 29bc 1c81 ae3d 3789 903e e0d0 ef3e
00000020: 8edc 8abc c908 d63e 17ea c9be efb7 5a3b
00000030: 2a64 dc3c ff57 14bf f275 4ebf 64c6 aa3e
00000040: b936 d6be 7491 573e 17c1 f43c e366 cb3e
00000050: b3c5 aabe d390 213e e187 203e fecd 7a3d
00000060: 3539 efbe 4286 9a3d 0486 4bbe 7a4a 083f
00000070: 4ba4 e63c 6d2c a2bd 260a 88bd 1871 2c3c
00000080: 3c86 c4be f783 d13f 79ce f83f 3c89 813e
00000090: bf49 a43e ca7a e4be c824 69be 8be5 66be
000000a0: 6110 dbbe b503 b1bd abda 8c3e 30bc 3bbf
000000b0: 8020 8dbd ceb3 c83d 9b8d 42bd c1f9 4cbd
000000c0: 0ec3 2fbe 722e e3be 3df3 fa3d 0b79 f5bb
000000d0: 31f1 da3d f855 ccbd e60c 193d 8d0d 343e
000000e0: d94a 863e 6c63 89be 86ef 6abd ce91 c03d
000000f0: 795e 3bbd 3584 b93b 4dab a8bc 4dc6 ee3d
00000100: cddb 223e 01a8 fd3c 8304 6b3e 024b c1be
00000110: 8614 fe3d d102 17be 921d fdbd ab2f 8b3d
00000120: 6a96 033d 9187 0e3e 3e90 993d d392 04bf
00000130: 3021 18be 95e2 52be a4c1 763e b51b db3e
00000140: 3eca ae3e 909c 3f3e f74e a13e a0b5 d8bd
00000150: 74bc 18be 610b 1bbe bfc1 bd3e 908c 89be
00000160: 043a 24be ebdc a83d aa07 8e3e a003 133d
00000170: 6c6b f0bd c7e4 0dbe 6f3d 4e3e 4d1f b6be
00000180: f8ad 023d 9139 253d c711 79be 50f0 9b3f
00000190: 199c 9fbe d110 f6bd f9a9 143c b19b 223f
000001a0: c4cf 0c3e b010 9f3b 0cc2 5e3d c879 013d
000001b0: e8aa 133f f42a 083e f0e8 e83e 533f de3d
000001c0: faed 063e c396 b43d 38c7 ca3e 9b9c 0fbf
000001d0: d5d6 6f3e 8314 4d3d a9cd 023e 6980 a9bc
000001e0: bbc3 ac3d 123d cd3d 1e98 08be 3e27 a83d
000001f0: 19ce 86be ace3 1dbd 55f6 923d eadb 79be
00000200: 9e6e 46be dd03 bcbe c864 88bc 8e23 66be
00000210: 711d 153e 7264 ecbf d6e7 96be 9d11 9a3d
00000220: 1c5f 14be ff8b 313e 0177 6dbd f437 1bbf
00000230: 60a2 1bbc 9a39 32be 0931 2abe ee23 0dbe
00000240: 057a 893d 8b74 2ebe cf28 5abe fbbd 2a3f
00000250: aad3 6bbf acae 20be 2ea9 9ebe d34e 1d3e
00000260: 6248 2ebe 1978 72bd c702 4abd 947f ac3e
00000270: 8a9f 20be 73a0 083e 88c6 76bd d233 0d3f
00000280: ec62 db3e 2fa5 0ebe 049d f9be ea65 50bd
00000290: c708 a8be ef79 863e 87e4 af3d e26d 86be
000002a0: 3815 2bbe 1b41 843d 2b9a 4dbd 6d47 a03e
000002b0: c446 2e3f 1636 2c3d adba c93e ca1c e7bd
000002c0: b910 443f 234b 063c 84fa 8f3e 3413 293e
000002d0: 2eea fb3d d3ee ce3e 4e33 98bd 41be e2bd
000002e0: f609 98be 2396 7e3e 4c3a 14be 4c36 70be
000002f0: 3561 9b3d 4636 fc3d 1a4c 353e 0497 e2bd
00000300: 5900 3abe 98e6 033e bd73 2cbe 9adc b33d
00000310: 97a1 2e3c 5e86 a0bd 3354 debe 4ded 133f
00000320: e9f0 de3d 3e30 ad3e f160 7e3e 64f8 1f3f
00000330: 6447 b23c c003 9f3d 41bb a639 c1bd 7a3e
00000340: 38ec 173f f2b3 05bd 7882 efbd 003d 3e3e
00000350: e0eb 023e 4588 b93d 85f9 4cbe 964b 5abe
00000360: 6e21 d83d 19c6 14be d41e 26bf 2973 82be
00000370: 6cf4 a4bc 0f75 79bd 5c40 65be d41c 143e
00000380: c8b1 633e 10fe b9be 5d31 5dbe d148 293e
00000390: ea3e 9abd 296d 10be 766a f9be 266f 88bf
000003a0: 8f3e 00c0 6259 3a3e e598 6ebd fdf0 003f
000003b0: 27be edbe f73e eabe 58a1 173f c498 9e3c
000003c0: 84ed 853e 322b 173d 4e9d a4bd cca4 653e
000003d0: d157 113c 37c3 de3b 01cd 833e 5bac 7d3e
000003e0: 2c85 733c ea2d 96be 23d3 0fbd 73fe 7f3e
000003f0: fa16 ecbd 4043 383d 8778 adbd c51d efbd

fc1.bias f4 [128]
-0.12278418 0.023607993 -0.26921204 -0.40852806 0.12241744 0.21143547 0.13298671 0.050110105
0.2698568 -0.07049984 0.10814369 0.08759386 0.17990242 0.011915153 -0.1430263 0.20498109
0.2880903 -0.084493 0.6481018 0.14100358 -0.15383965 0.09247067 0.019346494 -0.2472269
-0.026651954 -0.4781424 0.110811256 0.17973557 0.06860423 -0.0065477807 0.1373381 0.1453278
-0.17701933 -0.06697244 0.12895261 0.26822558 -0.0618981 -0.0955078 0.14167957 0.27932063
-0.028060071 -0.007711509 -0.21268421 0.11889813 -0.26317048 0.24955751 -0.25430572 0.030577438
-0.018583864 -0.19821173 0.21437752 0.20681092 0.69052136 0.2651759 0.6126961 -0.27303755
0.14600794 -0.030356983 0.046286773 0.32578474 0.25107107 0.9141596 -0.15492742 -0.1725902
0.24308734 -0.19659662 0.1043795 -0.067654386 -0.11086822 -0.13502242 0.22257729 0.27569184
0.020300645 0.2971899 0.046725817 0.98946977 -0.08485807 0.28221756 0.02673412 -0.023794163
-0.64317304 0.24689718 -0.12544978 0.11314621 0.46927637 0.060905226 0.35513625 0.2691261
0.29603502 -0.02868123 0.011716825 0.39638948 -0.13562004 0.47626722 0.2686097 -0.046312097
0.10834492 0.20371565 0.22078598 0.76805884 -0.11864616 0.02682977 0.05389373 -0.0014694949
0.22835988 0.17631234 0.052060958 -0.13786091 -0.2832858 -0.3159614 0.33677766 0.04985677
0.119000696 -0.21368067 0.08155896 -0.061160948 0.32535633 0.025822429 0.24788815 -0.020377284
0.27257046 0.02869002 0.13071021 -0.0027904778 0.028773531 -0.11847459 0.2591873 0.4576753
00000000: 4676 fbbd 8d65 c13c 29d6 89be 972a d1be
00000010: ffb5 fa3d 8a82 583e ab2d 083e 4140 4d3d
00000020: ac2a 8a3e 3862 90bd 707a dd3d 6964 b33d
00000030: 5738 383e c637 433c 7d75 12be 90e6 513e
00000040: 9280 933e aa0a adbd 00ea 253f 3e63 103e
00000050: 2488 1dbe 4361 bd3d 8a7c 9e3c 0c29 7dbe
00000060: 3355 dabc 15cf f4be 03f1 e23d 9a0c 383e
00000070: 6080 8c3d c48e d6bb 5ca2 0c3e d0d0 143e
00000080: 8e44 35be d928 89bd 270c 043e dd54 893e
00000090: dd88 7dbd 9899 c3bd 7314 113e 1d03 8f3e
000000a0: 3cde e5bc d3b0 fcbb e4c9 59be dd80 f33d
000000b0: 48be 86be 018c 7f3e 5c34 82be 897d fa3c
000000c0: 303d 98bc 04f8 4abe c885 5b3e 3ec6 533e
000000d0: 02c6 303f 23c5 873e a7d9 1c3f 94cb 8bbe
000000e0: 1b83 153e 35af f8bc 3397 3d3d 42cd a63e
000000f0: 638c 803e 5d06 6a3f 4ba5 1ebe 7cbb 30be
00000100: e3eb 783e a050 49be ebc4 d53d 628e 8abd
00000110: e10e e3bd 5143 0abe 4deb 633e 7b27 8d3e
00000120: 8a4d a63c 4629 983e 9263 3f3d e44d 7d3f
00000130: 11ca adbd d27e 903e 8301 db3c faeb c2bc
00000140: fda6 24bf 9dd2 7c3e e875 00be 33b9 e73d
00000150: fe44 f03e c277 793d 6bd4 b53e e5ca 893e
00000160: e791 973e e6f4 eabc edf7 3f3c 90f3 ca3e
00000170: fbdf 0abe 4cd9 f33e 3687 893e c1b1 3dbd
00000180: f1e3 dd3d d69a 503e b815 623e 819f 443f
00000190: c2fc f2bd 1bca db3c acbf 5c3d 119c c0ba
000001a0: 2cd7 693e 398b 343e df3d 553d 692b 0dbe
000001b0: d60a 91be b1c5 a1be 1f6e ac3e 9d36 4c3d
000001c0: a3b6 f33d 1bcf 5abe 6208 a73d e783 7abd
000001d0: 1b95 a63e 8f89 d33c 64d6 7d3e 43ee a6bc
000001e0: 5b8e 8b3e 5507 eb3c e6d8 053e 73e0 36bb
000001f0: 78b6 eb3c cea2 f2bd 33b4 843e 6b54 ea3e

fc2.weight f4 [128, 128]
-0.07907187 0.15769759 -0.097689606 -0.25251222 -0.16872965 -0.43309796 0.09285282 -0.066840746
0.06377577 -0.2753792 0.027276348 -0.025257817 0.059034426 -0.13817559 -0.023628077 -0.21732537
0.03399344 0.086146414 -0.016336279 -0.21708709 -0.048660856 -0.23049405 0.084299065 -0.25916114
0.06614147 -0.12892759 0.013474571 -0.048650164 -0.44163454 0.10324976 -0.4658686 -0.08133452
0.057743896 0.029400613 0.15248573 -0.06690552 -0.064700104 -0.11735824 -0.054531574 -0.21567507
-0.11897501 -0.048361357 -0.5199128 -0.121849 -0.045781378 -0.13443957 0.06678661 -0.29122677
0.057907924 -0.17221238 -0.16054717 0.18341278 -0.47893396 -0.43036363 -0.38689068 -0.037827708
-0.03400541 0.08658783 0.049132336 -0.2428775 -0.1587416 0.06822923 -0.43479759 0.012473521
-0.49130517 -0.17191178 -0.06309861 0.22749926 0.041311014 0.014339826 -0.20054147 -0.73761046
0.085096136 0.046671275 0.061050422 0.15709898 0.030313553 -0.15311535 -0.024323026 -0.28178513
0.041022882 -0.16479036 -0.014221141 -0.11651397 -0.027485251 -0.033262424 -0.11484581 -0.14059055
0.06301406 0.046412107 -0.30943084 -0.2630961 0.022994654 -0.17401154 -0.06600504 0.1040753
0.028266042 0.08619679 -0.14996324 0.1667531 0.16013117 -0.3726238 -0.053630725 -0.21975793
-0.08805918 -0.27716947 -1.016825 -0.107702725 -0.20750009 -0.08005665 -0.20878069 0.17143029
-0.15858223 0.053014036 0.017836364 -0.42493325 0.07630768 -0.06708266 0.08349952 0.11356806
0.0056732525 0.16412674 -0.03420389 -0.08857443 -0.28269666 0.15337828 -0.16652077 -0.1102519
-0.2449336 -0.17723241 -0.058985397 0.15851149 -0.18971659 0.0015538092 -0.21076168 -0.07979005
-0.020816483 -0.25971273 -0.112706766 -0.07156816 0.047716197 0.12577099 -0.12935062 -0.17224306
-0.04584075 -0.085171856 -0.027405614 -0.53285104 -0.04427794 0.15088081 0.009547489 -0.21205615
-0.13664268 -0.09341466 0.05537995 0.17244056 -0.19900537 0.13235286 -0.066888295 0.168291
-0.25694585 0.123144455 -0.08539187 0.057656616 -0.12826385 -0.14282793 -0.17408764 -0.229104
0.09234813 0.15567906 -0.020161675 -0.07593268 0.012400391 0.27705854 0.021352185 -0.11489314
0.11468494 -0.29625466 0.0741996 -0.10089733 -0.2507628 0.026536562 0.09911906 -0.18950284
0.1758891 -0.049333654 0.029174402 0.18066718 -0.4326551 -0.0053543416 -0.10975901 -0.0879322
0.068870105 -0.15418729 -0.19028556 -0.24261548 -0.028453302 0.04563851 -0.051729288 0.09068506
0.09081776 0.27188244 -0.12051606 -0.04426315 -0.098829396 0.024851251 -0.08115881 -0.01695227
0.094628 -0.34912017 -0.014750953 0.1387778 0.0445456 -0.21422419 -0.17796147 -0.0039741057
0.02100002 0.19939472 -0.39641154 -0.26925108 -0.034174368 0.01506374 0.098498076 -0.13708425
-0.118920036 -0.43278998 -0.14791733 0.08690734 -0.08661773 -0.07078076 0.012897357 -0.10141037
0.02276632 -0.08224996 -0.17062399 -0.046561636 0.0130222505 -0.25322023 -0.2982733 0.0051097213
-0.21528782 0.06380829 -0.1641622 0.09555631 -0.05931115 -0.25649288 -0.17734809 0.019528946
-0.09722081 0.29554617 0.12198434 0.026962528 -0.22242038 0.09895706 -0.07524267 -0.1442431
00000000: 6ff0 a1bd 7a7b 213e 7d11 c8bd 4849 81be
00000010: 77c7 2cbe 04bf ddbe 9f29 be3d cde3 88bd
00000020: df9c 823d 81fe 8cbe a672 df3c 7be9 cebc
00000030: 15ce 713d e77d 0dbe ab8f c1bc 8b8a 5ebe
00000040: b53c 0b3d 886d b03d a9d3 85bc 144c 5ebe
00000050: 9b50 47bd a206 6cbe fda4 ac3d c5b0 84be
00000060: 2e75 873d 9805 04be 72c4 5c3c 6545 47bd
00000070: ec1d e2be 9c74 d33d 5486 eebe b692 a6bd
00000080: dd84 6c3d 8ed9 f03c 3825 1c3e c305 89bd
00000090: 7d81 84bd 8459 f0bd 805c 5fbd edd9 5cbe
000000a0: 2ca9 f3bd 8f16 46bd 0119 05bf f88b f9bd
000000b0: 4185 3bbd 87aa 09be 6bc7 883d ad1b 95be
000000c0: dc30 6d3d 7158 30be 7a66 24be 8fd0 3b3e
000000d0: d536 f5be 9f58 dcbe 8916 c6be 3af1 1abd
000000e0: 4249 0bbd f654 b13d fd3e 493d e1b4 78be
000000f0: 288d 22be c4bb 8b3d ca9d debe bd5d 4c3c
00000100: 5a8c fbbe a409 30be d839 81bd 91f5 683e
00000110: bd35 293d 97f1 6a3c be5a 4dbe 0ad4 3cbf
00000120: e246 ae3d 612a 3f3d 0210 7a3d 8ede 203e
00000130: 2154 f83c 45ca 1cbe 1541 c7bc 2446 90be
00000140: 9c07 283d cebe 28be caff 68bc e09e eebd
00000150: c028 e1bc 2e3e 08bd 4834 ebbd f8f6 0fbe
00000160: 840d 813d 9f1a 3e3d b86d 9ebe 88b4 86be
00000170: 495f bc3c 1530 32be a72d 87bd 6e25 d53d
00000180: 308e e73c f187 b03d f78f 19be 53c1 2a3e
00000190: 6df9 233e 8cc8 bebe e4ab 5bbd 3908 61be
000001a0: 5f58 b4bd 28e9 8dbe 5227 82bf 3f93 dcbd
000001b0: e77a 54be bef4 a3bd 9bca 55be 6c8b 2f3e
000001c0: 6163 22be 3f25 593d 911d 923c da90 d9be
000001d0: 3347 9c3d a262 89bd cc01 ab3d 5f96 e83d
000001e0: b1e6 b93b d710 283e 6119 0cbd 8366 b5bd
000001f0: 9ebd 90be 320f 1d3e 6c84 2abe c0cb e1bd
00000200: e0cf 7abe 6a7c 35be ac9a 71bd d650 223e
00000210: 1145 42be 2fa9 cb3a e9d1 57be f768 a3bd
00000220: 5487 aabc 11f9 84be ced2 e6bd 5492 92bd
00000230: 0f72 433d 1cca 003e 7d74 04be 7c60 30be
00000240: 83c3 3bbd 956e aebd bd81 e0bc ed68 08bf
00000250: c95c 35bd 8080 1a3e 126d 1c3c 3f25 59be
00000260: 0fec 0bbe 2f50 bfbd 16d6 623d 4294 303e
00000270: 10c8 4bbe 8287 073e bbfc 88bd 7a54 2c3e
00000280: 688e 83be 2933 fc3d efe1 aebd 5829 6c3d
00000290: 9957 03be 7c41 12be 0844 32be 3d9a 6abe
000002a0: 0421 bd3d 556a 1f3e 192a a5bc 9882 9bbd
000002b0: 022b 4b3c 9eda 8d3e c7ea ae3c 184d ebbd
000002c0: f0df ea3d b1ae 97be f6f5 973d 42a3 cebd
000002d0: fb63 80be 3463 d93c effe ca3d 080d 42be
000002e0: 461c 343e 1612 4abd 28ff ee3c d100 393e
000002f0: f884 ddbe 7973 afbb 55c9 e0bd cc15 b4bd
00000300: c50b 8d3d 46e3 1dbe 38da 42be 3170 78be
00000310: e616 e9bc 72ef 3a3d 17e2 53bd 17b9 b93d
00000320: a9fe b93d 2d34 8b3e 20d1 f6bd 474d 35bd
00000330: 1167 cabd da94 cb3c 9736 a6bd 7ddf 8abc
00000340: 53cc c13d e1bf b2be fbad 71bc c51b 0e3e
00000350: 7275 363d 965d 5bbe 883b 36be 3739 82bb
00000360: 3c08 ac3c 212e 4c3e 74f6 cabe 47db 89be
00000370: 6cfa 0bbd e8cd 763c 5cb9 c93d d05f 0cbe
00000380: 598c f3bd a696 ddbe a477 17be 7afc b13d
00000390: a364 b1bd 81f5 90bd 704f 533c 3db0 cfbd
000003a0: 6f80 ba3c ab72 a8bd 0eb8 2ebe 6ab7 3ebd
000003b0: 475b 553c 15a6 81be 47b7 98be 736f a73b
000003c0: 6974 5cbe ecad 823d 231a 28be 07b3 c33d
000003d0: 40f0 72bd 0953 83be bd9a 35be 2bfb 9f3c
000003e0: b41b c7bd d451 973e edd2 f93d 85e0 dc3c
000003f0: 2bc2 63be 00aa ca3d d418 9abd 77b4 13be

fc2.bias f4 [128]
0.068235874 0.043830007 0.017673602 -0.03169596 0.1061714 -0.23101963 -0.032922234 0.1713738
-0.12968124 0.09514525 -0.05656599 -0.05420506 0.20594499 0.14844015 0.10228239 -0.0363051
0.04347669 -0.014756765 -0.042476993 0.058440566 0.13720141 0.028256556 0.098336875 0.041999485
0.11125018 -0.10968004 0.08969557 -0.011189932 0.024231851 0.09069528 0.10215369 0.10585641
-0.05678949 -0.014088057 -0.16134866 -0.12593527 0.28567046 0.0255468 0.055780645 0.13998042
0.101862304 0.05973555 0.11406384 0.17184408 -0.19855022 0.040708978 -0.011190675 -0.15141267
0.067062095 0.053837024 0.05509929 0.087368555 0.14561756 0.034615785 0.04177105 0.18030003
0.07764998 0.2211727 0.048425525 -0.018551892 0.10523663 -0.09613687 -0.003171706 -0.09591283
0.027858509 0.14058128 -0.006968407 0.019974556 0.03920676 0.0032725257 0.11635403 -0.103810005
0.0268394 -0.03197251 0.1440966 0.54662037 0.070785396 -0.042644706 -0.044097535 -0.014015363
-0.054040715 -0.12074726 -0.031511944 0.11709476 -0.076941825 -0.0012629869 0.1280261 0.074265465
0.13525628 0.174146 0.15443611 0.018272405 0.102116056 -0.030664997 0.05122464 -0.07458102
-0.011353286 0.08453934 -0.08138748 -0.10114836 0.111982115 0.048316248 -0.054276217 0.022548793
0.14126992 -0.103891455 -0.03692663 -0.025912978 0.09088754 0.095814966 -0.14641379 0.10823195
-0.019145252 0.17765835 0.065883294 0.18651776 0.13010462 0.22630706 -0.061897498 -0.00096380303
0.044005673 -0.15586561 -0.04516869 0.0094216475 0.00074957655 -0.08186455 -0.15968868 -0.060041428
00000000: 40bf 8b3d 1887 333d 3bc8 903c 9fd3 01bd
00000010: 6470 d93d 6990 6cbe 77d9 06bd 9d7c 2f3e
00000020: 29cb 04be 83db c23d bdb1 67bd 2006 5ebd
00000030: 3ee3 523e b200 183e 6e79 d13d a8b4 14bd
00000040: 9d14 323d 5cc6 71bc 5bfc 2dbd 605f 6f3d
00000050: 877e 0c3e 4b7a e73c d864 c93d a707 2c3d
00000060: 22d7 e33d ee9f e0bd 50b2 b73d fa55 37bc
00000070: e081 c63c 72be b93d f435 d13d 3fcb d83d
00000080: 199c 68bd 98d1 66bc 9538 25be 2df5 00be
00000090: 6643 923e 8647 d13c 3f7a 643d 0757 0f3e
000000a0: 2f9d d03d 44ad 743d 4d9a e93d e5f7 2f3e
000000b0: c050 4bbe 75be 263d 1859 37bc ec0b 1bbe
000000c0: da57 893d 3684 5c3d cbaf 613d 49ee b23d
000000d0: c51c 153e 48c9 0d3d 1f18 2b3d 92a0 383e
000000e0: f406 9f3d 197b 623e d859 463d 23fa 97bc
000000f0: 4d86 d73d 68e3 c4bd 66dc 4fbb f26d c4bd
00000100: 8737 e43c 8af4 0f3e 3c57 e4bb aea1 a33c
00000110: 4497 203d df77 563b 064b ee3d 579a d4bd
00000120: 4dde db3c 9bf5 02bd 0f8e 133e 50ef 0b3f
00000130: eff7 903d 37ac 2ebd 9e9f 34bd b1a0 65bc
00000140: cc59 5dbd 574a f7bd ab12 01bd 61cf ef3d
00000150: ad93 9dbd cf8a a5ba 4619 033e 7e18 983d
00000160: 9f80 0a3e 5453 323e 8024 1e3e 03b0 953c
00000170: 3922 d13d 2935 fbbc eed0 513d efbd 98bd
00000180: 2203 3abc f622 ad3d 7bae a6bd df26 cfbd
00000190: e156 e53d 42e7 453d bd50 5ebd 3fb8 b83c
000001a0: 10a9 103e 0bc5 d4bd 6140 17bd 7447 d4bc
000001b0: 3f23 ba3d a33a c43d 7fed 15be b6a8 dd3d
000001c0: 81d6 9cbc 12ec 353e d2ed 863d 83fe 3e3e
000001d0: 253a 053e 0abd 673e 3b88 7dbd baa7 7cba
000001e0: 4b3f 343d 3c9b 1fbe ce02 39bd 415d 1a3c
000001f0: 3b7f 443a 9aa8 a7bd 6e85 23be 00ee 75bd

out.weight f4 [5, 128]
0.18277268 0.22491235 -0.08050197 0.018159743 0.113216735 0.02323554 0.047403038 0.026732046
-0.12529354 0.08097537 0.1506627 0.013707985 -0.1335231 -0.08420943 0.100986086 0.15026921
0.0807662 0.16868758 -0.2392242 0.08514432 -0.120043166 0.036324278 0.19774099 0.25660092
-0.060676057 -0.16832054 0.14139505 0.14746238 0.21044832 0.0020989382 -0.08869584 -0.022047363
0.024089534 -0.019693002 -0.1860221 0.07675146 0.09033978 0.14193527 -0.028512519 0.3056977
-0.019680507 0.044464253 0.16952673 -0.21844561 -0.06664844 0.19860609 0.13794942 -0.11884818
-0.12746559 -0.24083526 -0.058269683 -0.017611386 0.0018617652 0.112164855 0.10271576 -0.09644128
0.19020228 -0.11013031 -0.07109888 -0.1715626 -0.09135006 0.07864339 0.06316436 0.15503994
0.110187896 0.24790935 0.13939878 0.31131643 -0.04499043 -0.021016356 0.1266634 -0.0548217
0.034893557 -0.067758314 0.07896346 -0.03566355 -0.15148842 -0.053865492 -0.027408786 0.047914147
0.17672892 -0.02297832 -0.10144788 0.11427348 0.06457539 0.1171235 0.14509061 0.01403097
0.21585798 -0.22039084 -0.14015922 0.013344904 -0.102133796 0.11948362 -0.07511367 -0.04552428
0.03998268 -0.10995123 0.1283729 -0.121865734 0.30928594 0.17742305 -0.13728815 -0.10749739
0.11694486 -0.0599572 -0.16431262 0.07721937 0.13146634 -0.023934094 0.13349102 0.11440632
0.18129562 -0.06989661 0.20786133 0.10928486 0.042207655 -0.252957 0.21811497 0.23010738
0.055729963 0.11287066 0.11038038 0.06082521 -0.036113244 -0.06418352 0.14122713 -0.006931022
0.09600096 0.23196575 0.21026213 0.067915924 -0.038216196 0.07028367 -0.070276015 -0.015699489
-0.20479377 0.1418338 0.0043337904 -0.06990095 -0.05058774 0.15244834 0.153554 0.25243154
-0.11383695 -0.14733212 0.07381611 -0.033168226 -0.07600899 -0.34837788 0.12835537 0.16987374
-0.20204501 -0.17206815 0.14229254 -0.053360056 -0.0921449 -0.13151133 -0.07105706 -0.050673123
0.18397099 -0.10153993 -0.04305515 0.0407247 -0.079764016 0.13085051 0.2668895 0.034173615
-0.076959305 0.27765605 -0.10237327 -0.056897864 0.09618027 0.2013863 0.13427348 -0.15718189
0.14311409 -0.06387588 -0.21817078 0.1340259 -0.20378017 -0.17679513 0.14248675 -0.035887856
0.21478863 -0.015640488 0.083325356 0.14303139 0.2328489 0.1459086 0.058583885 -0.04830532
-0.27971753 0.18538381 0.025013993 -0.012933746 0.0460921 -0.08451664 0.03636358 -0.076293245
0.21425943 0.08577974 0.08007301 -0.03150789 0.097386196 0.21134087 0.13521688 -0.09670023
0.11596847 -0.13461041 0.12982255 0.06525877 0.2617592 0.06847533 0.031867452 0.17451705
0.018689549 -0.11113035 -0.011967466 0.21081758 0.032897417 -0.04453559 0.16744384 0.0119864065
0.0611486 -0.026244834 0.08779192 -0.19338574 0.025792835 0.18893582 0.16506907 0.07207103
-0.13508956 -0.07545526 -0.05550673 -0.08650262 -0.0068541835 0.014969897 -0.20128608 0.02780742
0.22877769 -0.13462394 0.06180625 0.090980336 0.05514618 0.080610126 0.13902825 -0.1375928
0.1033633 -0.14146708 0.06627069 0.15444677 -0.23728845 -0.013559394 0.1580685 -0.17952554
00000000: c328 3b3e 6c4f 663e 38de a4bd bec3 943c
00000010: 2dde e73d 7658 be3c b029 423d 2afd da3c
00000020: f34c 00be 6ad6 a53d 5347 1a3e 7597 603c
00000030: 48ba 08be fe75 acbd cbd1 ce3d 2ce0 193e
00000040: c068 a53d 70bc 2c3e 30f7 74be 2560 ae3d
00000050: 31d9 f5bd c4c8 143d 9d7c 4a3e 3261 833e
00000060: 7587 78bd 385c 2cbe ddc9 103e 6100 173e
00000070: c47f 573e 578e 093b 2aa6 b5bd ac9c b4bc
00000080: 6a57 c53c 3853 a1bc 947c 3ebe df2f 9d3d
00000090: 1004 b93d 7b57 113e 1693 e9bc 6984 9c3e
000000a0: 0439 a1bc 2620 363d 6a98 2d3e 35b0 5fbe
000000b0: fa7e 88bd 655f 4b3e 9d42 0d3e ad66 f3bd
000000c0: 5786 02be 859d 76be 31ac 6ebd c145 90bc
000000d0: 7906 f43a b0b6 e53d a45c d23d 0183 c5bd
000000e0: 63c4 423e 008c e1bd 4a9c 91bd 1bae 2fbe
000000f0: be15 bbbd c90f a13d 515c 813d cac2 1e3e
00000100: 31aa e13d f3db 7d3e 8ebe 0e3e de64 9f3e
00000110: e347 38bd 7e2a acbc 0db4 013e b88c 60bd
00000120: 8cec 0e3d dfc4 8abd 98b7 a13d f113 12bd
00000130: c81f 1bbe 10a2 5cbd 6488 e0bc a041 443d
00000140: 6df8 343e 083d bcbc e8c3 cfbd 3708 ea3d
00000150: 1a40 843d 72de ef3d a292 143e 27e2 653c
00000160: e009 5d3e 23ae 61be e685 0fbe 96a4 5a3c
00000170: 862b d1bd d4b3 f43d 32d5 99bd ab77 3abd
00000180: e1c4 233d 1c2e e1bd 2f74 033e be94 f9bd
00000190: ba5a 9e3e 63ae 353e 4495 0cbe 9727 dcbd
000001a0: c980 ef3d ae95 75bd 9141 28be 3025 9e3d
000001b0: 1d9f 063e 6f11 c4bc dfb1 083e dc4d ea3d
000001c0: 8fa5 393e f425 8fbd 9ad9 543e bed0 df3d
000001d0: efe1 2c3d 9483 81be 8859 5f3e 45a1 6b3e
000001e0: 1a45 643d bc28 e73d 1c0f e23d db23 793d
000001f0: 7beb 13bd a672 83bd d89d 103e a01d e3bb
00000200: 279c c43d 6e88 6d3e f54e 573e 8117 8b3d
00000210: 9688 1cbd e3f0 8f3d dfec 8fbd 379c 80bc
00000220: 75b5 51be e13c 113e 7802 8e3b 3b28 8fbd
00000230: 1735 4fbd 6b1b 1c3e 433d 1d3e b53e 813e
00000240: 5923 e9bd 3bde 16be e72c 973d 68db 07bd
00000250: 9aaa 9bbd 965e b2be 976f 033e 62f3 2d3e
00000260: e3e4 4ebe a232 30be 23b5 113e 1390 5abd
00000270: 77b6 bcbd e8aa 06be 5d86 91bd 9f8e 4fbd
00000280: e462 3c3e 2bf4 cfbd 995a 30bd f1ce 263d
00000290: 515b a3bd adfd 053e bea5 883e a2f9 0b3d
000002a0: d79c 9dbd ef28 8e3e 14a9 d1bd bc0d 69bd
000002b0: 29fa c43d 3638 4e3e fd7e 093e 4af4 20be
000002c0: 808c 123e 5bd1 82bd 2968 5fbe 163e 093e
000002d0: c0ab 50be c809 35be 0ce8 113e 25ff 12bd
000002e0: 8df1 5b3e 7b20 80bc 7ca6 aa3d d276 123e
000002f0: f16f 6e3e 1069 153e a8f5 6f3d cddb 45bd
00000300: 2337 8fbe 41d5 3d3e 25ea cc3c 10e8 53bc
00000310: 12cb 3c3d 0f17 adbd faf1 143d a23f 9cbd
00000320: d366 5b3e 4aad af3d 51fd a33d 6b0e 01bd
00000330: 6a72 c73d be69 583e 4b76 0a3e c50a c6bd
00000340: e180 ed3d 50d7 09be 34f0 043e 64a6 853d
00000350: 4d05 863e cb3c 8c3d 7287 023d 99b4 323e
00000360: d31a 993c 4f98 e3bd 3113 44bc 90e0 573e
00000370: 71bf 063d f36a 36bd 6676 2b3e a262 443c
00000380: f476 7a3d 68ff d6bc 40cc b33d e906 46be
00000390: 7f4b d33c 6478 413e de07 293e fa99 933d
000003a0: eb54 0abe 4a88 9abd 065b 63bd 4928 b1bd
000003b0: 0f99 e0bb 4d44 753c f01d 4ebe 63cc e33c
000003c0: b344 6a3e dcda 09be 8d28 7d3d e653 ba3d
000003d0: f6e0 613d ec16 a53d 6c5d 0e3e 21e5 0cbe
000003e0: 23b0 d33d bfdc 10be edb8 873d 4b27 1e3e
000003f0: befb 72be 3828 5ebc b5dc 213e 8bd5 37be

out.bias f4 [5]
0.124211036 0.10163521 0.1287704 0.10457126 0.10001759
00000000: 5b62 fe3d 1f26 d03d 63dc 033e 7529 d63d
00000010: 06d6 cc3d
