SimplifiedSpaceWar/trained_models/dqn_bullets_3000.pth (torch, 89153 bytes, 6 tensors)

fc1.weight f4 [128, 33]
-0.27570134 -0.1674837 -0.0840792 0.04167253 -0.19027153 0.029807724 0.32325006 0.43774542
-0.0035713979 -0.17438054 -0.75542635 -0.09067311 0.28215486 -0.09446149 -0.18395008 0.17832002
-0.1517265 0.18694066 0.049254898 0.11607298 -0.15824755 0.13652523 0.12389337 -0.15707688
-0.506678 0.032458365 -0.25290117 -0.05822159 0.146707 0.012212699 0.021029366 -0.26681188
-0.09369108 0.24064691 0.7970458 0.21315646 0.242385 -0.43171194 -0.23664054 -0.07338927
-0.38424468 -0.06051232 0.52893424 -0.41503543 -0.034971803 -0.33992597 -0.13627006 -0.098289
-0.23908484 -0.12354841 0.028201804 -0.10697691 -0.09503254 -0.23414974 0.068472564 0.20248185
0.27630326 0.08995316 0.0016854183 0.14676183 0.083987236 0.050655644 -0.04472611 0.09896859
-0.06838091 -0.009911322 0.07493513 -0.24379286 -0.03661264 -0.074276134 -0.32122138 -0.012770227
-0.09952135 -0.0026691873 0.09603708 0.09199952 -0.22563352 -0.0062876833 0.2533118 0.202706
0.17613918 0.28821957 0.11080036 -0.07559966 -0.07798707 -0.10039067 0.13525297 -0.19712135
-0.09546773 -0.03135474 0.06287154 0.00423019 -0.11972086 -0.07883917 0.21631499 -0.33914468
-0.030766001 0.0055974904 0.06740768 0.17175122 -0.5330758 0.06318867 -0.12065049 0.57716703
0.039040014 0.0498845 0.117773026 0.009574951 0.29906076 0.37523466 0.28046244 -0.48914212
-0.16580056 -0.12864606 0.18551403 0.0095920395 0.14093074 0.01772406 0.13530816 0.16159374
0.108841315 0.12843838 -0.0874328 0.10558166 -0.15428197 0.086828336 0.38211367 -0.19580358
-0.041971322 -0.27328706 0.1852151 -0.14187874 -0.6249622 -0.38521242 -0.18066676 -0.14772351
0.12919849 0.3600174 -0.118416555 -0.39222196 -0.010686364 0.2787827 -0.49990085 0.1022535
0.2642446 0.225487 -0.0668577 0.21652511 -0.52910954 -0.06317061 -0.41840783 0.17200164
-0.16176863 0.13027267 0.14518458 -0.07819244 -0.20204292 0.05349343 -0.1385181 0.03747569
-0.011495762 -0.016962314 -0.30455974 -0.056256283 0.009133115 0.031841934 -0.11372185 -0.2685464
-0.1714482 -0.097025156 -0.12672855 0.21869567 0.057887938 0.02034601 0.038528785 0.33142313
0.5031289 -0.1932385 0.085274994 0.027733648 0.10154147 0.27740628 -0.14476368 -0.07030218
-0.024626488 0.034355853 -0.05880178 -0.20674945 -0.0599406 -0.09949085 0.06022209 -0.17020668
-0.22870494 -0.02526798 -0.17817308 0.047884967 0.0016631176 -0.2106923 -0.43574432 0.54019725
0.028369056 0.14366738 0.196459 0.3602181 -0.21540932 0.23901187 0.0045108953 0.3926971
-0.10408884 0.12790172 -0.30987146 -0.03809213 -0.1849372 0.07366764 0.0051211836 -0.16291393
0.11908033 0.16720112 -0.357799 -0.1929601 0.024615731 0.14980438 -0.08794724 0.16367093
0.16210899 -0.098210596 0.024980122 0.048431415 -0.12107719 -0.02027759 -0.35158357 -0.32663915
-0.7419144 0.298402 -0.06644572 -0.13774028 -0.2853767 -0.2975811 0.5834346 0.01641014
0.10408472 -0.08968466 -0.13126147 0.088691846 0.17760248 0.15017878 0.027011443 0.12635759
0.084489994 -0.20125473 -0.12560815 0.10332046 -0.1551604 -0.022543227 -0.04207761 0.06026523
00000000: ba28 8dbe d980 2bbe b731 acbd d1b0 2a3d
00000010: 8ad6 42be 542f f43c 0881 a53e 2b20 e03e
00000020: 1d0e 6abb d090 32be 9f63 41bf d3b2 b9bd
00000030: 9a76 903e 0775 c1bd 695d 3cbe 8699 363e
00000040: 315e 1bbe 5f6d 3f3e 81bf 493d acb7 ed3d
00000050: a50b 22be 45cd 0b3e cfbb fd3d c3d8 20be
00000060: a6b5 01bf 10f3 043d 437c 81be c379 6ebd
00000070: 5c3a 163e c617 483c c745 ac3c 919b 88be
00000080: 1ce1 bfbd 256c 763e 320b 4c3f b045 5a3e
00000090: c633 783e 5909 ddbe e651 72be 1d4d 96bd
000000a0: b8bb c4be c4db 77bd 3c68 073f 867f d4be
000000b0: 983e 0fbd c70a aebe 618a 0bbe be4b c9bd
000000c0: a8d2 74be f306 fdbd 7807 e73c b616 dbbd
000000d0: 6ca0 c2bd f3c4 6fbe 583b 8c3d 6757 4f3e
000000e0: 9f77 8d3e 5d39 b83d 41e9 dc3a bc48 163e
000000f0: 8001 ac3d 4b7c 4f3d ba32 37bd 0bb0 ca3d
00000100: 4a0b 8cbd 1963 22bc 9777 993d d6a4 79be
00000110: 23f7 15bd 161e 98bd 2177 a4be 373a 51bc
00000120: d9d1 cbbd 88ed 2ebb 17af c43d 3f6a bc3d
00000130: 790c 67be e908 cebb 16b2 813e 2992 4f3e
00000140: d45d 343e 8491 933e 4deb e23d ffd3 9abd
00000150: afb7 9fbd a099 cdbd c17f 0a3e 2eda 49be
00000160: 9684 c3bd d46d 00bd cbc2 803d 689d 8a3b
00000170: 3630 f5bd 6e76 a1bd ad81 5d3e 5fa4 adbe
00000180: fb08 fcbc 276b b73b 0a0d 8a3d 8ddf 2f3e
00000190: a877 08bf 1069 813d 9b17 f7bd 38c1 133f
000001a0: 6ce8 1f3d b153 4c3d fc32 f13d 41e0 1c3c
000001b0: 7e1e 993e c21e c03e c698 8f3e d670 fabe
000001c0: 9fc7 29be cbbb 03be 64f7 3d3e ee27 1d3c
000001d0: 2650 103e 0c32 913c 398e 0a3e d478 253e
000001e0: 32e8 de3d 5a85 033e f80f b3bd 333b d83d
000001f0: 18fc 1dbe 0ed3 b13d 67a4 c33e bc80 48be
00000200: 1fea 2bbd 48ec 8bbe 07a9 3d3e a948 11be
00000210: 86fd 1fbf 903a c5be b500 39be d544 17be
00000220: 9c4c 043e 3354 b83e 6184 f2bd 51d1 c8be
00000230: dc15 2fbc 9bbc 8e3e 01f3 ffbe 486a d13d
00000240: 114b 873e 10e6 663e b1ec 88bd c2b8 5d3e
00000250: b973 07bf 985f 81bd 8d39 d6be 3321 303e
00000260: ada6 25be 3366 053e 44ab 143e 5c23 a0bd
00000270: 57e4 4ebe ed1b 5b3d b0d7 0dbe 1c80 193d
00000280: b858 3cbc 8df4 8abc 41ef 9bbe fd6c 66bd
00000290: 10a3 153c b06c 023d 00e7 e8bd ea7e 89be
000002a0: 1e90 2fbe 20b5 c6bd 21c5 01be c2f1 5f3e
000002b0: e71b 6d3d adac a63c 5cd0 1d3d 4bb0 a93e
000002c0: 0ecd 003f 50e0 45be a8a4 ae3d ad31 e33c
000002d0: f9f4 cf3d 3208 8e3e ee3c 14be 97fa 8fbd
000002e0: 7dbd c9bc b9b8 0c3d 23da 70bd 21b6 53be
000002f0: 4684 75bd dcc1 cbbd 70ab 763d a94a 2ebe
00000300: a131 6abe cbfe cebc 0173 36be 0723 443d
00000310: f7fc d93a b9bf 57be e119 dfbe 5e4a 0a3f
00000320: 3966 e83c 8b1d 133e 8c2c 493e 826e b83e
00000330: 4394 5cbe 87bf 743e 22d0 933b 980f c93e
00000340: 882c d5bd abf8 023e 79a7 9ebe 7e06 1cbd
00000350: 2d60 3dbe 0fdf 963d 9acf a73b e9d2 26be
00000360: 63e0 f33d c536 2b3e 6e31 b7be 5597 45be
00000370: eea6 c93c 5266 193e af1d b4bd 5a99 273e
00000380: e6ff 253e a322 c9bd 1da3 cc3c 0560 463d
00000390: 51f7 f7bd 301d a6bc c302 b4be 3f3d a7be
000003a0: 1aee 3dbf 26c8 983e b214 88bd ca0b 0dbe
000003b0: e51c 92be 8d5c 98be f85b 153f 8f6e 863c
000003c0: 5f2a d53d 97ac b7bd 6869 06be 12a4 b53d
000003d0: 6ddd 353e 77c8 193e 1a47 dd3c e263 013e
000003e0: 1709 ad3d b815 4ebe 6c9f 00be ad99 d33d
000003f0: 5ee2 1ebe 93ac b8bc 9259 2cbd acd8 763d

fc1.bias f4 [128]
-0.06544209 0.111549504 -0.25732958 -0.08489165 0.15750973 -0.002933698 -0.034797225 0.13280962
0.08739424 -0.3937246 -0.02655869 -0.1528324 0.07537929 0.006151084 -0.11261514 0.052671876
0.07847858 -0.16765977 0.50377375 -0.1278959 0.082339585 -0.060295887 -0.111566365 0.012940751
0.11192626 0.03185582 -0.09768223 0.21077988 -0.026718045 -0.06638443 -0.004233475 -0.012811088
-0.1979141 -0.19627896 0.109375715 0.081164494 -0.10828429 -0.23045151 -0.060101528 0.16856828
0.03910783 -0.17384039 -0.13363798 -0.12535456 -0.23930293 0.05211789 -0.1488399 0.034432687
0.14203052 -0.15335485 0.3313728 -0.008837102 0.37092343 -0.034700304 0.17994785 -0.19691077
0.08894316 0.012026198 -0.097094424 0.15905845 0.10595051 0.35815862 -0.107499376 -0.20862113
0.2324046 -0.0959544 -0.02127401 -0.07748081 -0.15983517 -0.13132703 0.13640055 0.19134158
0.00038685312 0.14423543 0.016371502 0.32917613 -0.13597862 0.22525316 -0.06814137 -0.14338703
-0.06512885 0.15185264 -0.22011885 -0.12335096 -0.02671936 -0.08314949 -0.05061898 0.21503085
0.2784504 0.14714222 -0.04723973 0.2898285 -0.13673915 0.2762939 0.13902609 -0.07289645
0.01390756 0.09309075 0.19560353 0.42208618 -0.04879763 0.14451544 0.10643037 -0.0313136
0.0133412685 0.049073476 0.051873323 -0.24083492 -0.28238466 -0.20891829 0.023381071 -0.037354883
0.16061923 -0.13495311 0.0868739 0.22964185 0.13238907 -0.16276829 0.16412252 0.043696813
0.03302058 -0.0025483514 -0.055218775 -0.00084742263 -0.02738477 -0.030216454 0.011529434 0.20086722
00000000: 8106 86bd 1174 e43d b4c0 83be acdb adbd
00000010: 3b4a 213e 4943 40bb 8987 0ebd 3fff 073e
00000020: c0fb b23d 4596 c9be 9c91 d9bc 1980 1cbe
00000030: 7560 9a3d 088f c93b c4a2 e6bd 77be 573d
00000040: 61b9 a03d 01af 2bbe 51f7 003f 25f7 02be
00000050: a8a1 a83d d2f8 76bd e87c e4bd 7205 543c
00000060: 9839 e53d 407b 023d 9f0d c8bd aed6 573e
00000070: cddf dabc 8ff4 87bd f6b8 8abb 99e5 51bc
00000080: fea9 4abe 5afd 48be 6000 e03d 9239 a63d
00000090: 27c4 ddbd 7bfb 6bbe 052d 76bd 2a9d 2c3e
000000a0: 882f 203d 3703 32be 65d8 08be f25c 00be
000000b0: d40b 75be 9279 553d 7d69 18be 4a09 0d3d
000000c0: 7370 113e 0e09 1dbe b2a9 a93e 7ec9 10bc
000000d0: ade9 bd3e e821 0ebd 4044 383e faa2 49be
000000e0: d527 b63d 8809 453c 71d9 c6bd 38e0 223e
000000f0: 95fc d83d 9160 b73e a228 dcbd c7a0 55be
00000100: 79fb 6d3e be83 c4bd d546 aebc 42ae 9ebd
00000110: d5ab 23be 987a 06be 96ac 0b3e 0cef 433e
00000120: 8cd2 ca39 74b2 133e 871d 863c c689 a83e
00000130: fb3d 0bbe c4a8 663e b48d 8bbd 0dd4 12be
00000140: 4662 85bd 427f 1b3e d666 61be 6e9f fcbd
00000150: 8fe2 dabc 484a aabd d955 4fbd 0c31 5c3e
00000160: 0d91 8e3e 73ac 163e 727e 41bd 6764 943e
00000170: 5905 0cbe 6576 8d3e db5c 0e3e bc4a 95bd
00000180: 89dc 633c 5da6 be3d 4b4c 483e ae1b d83e
00000190: 06e0 47bd dbfb 133e 2af8 d93d b042 00bd
000001a0: 5695 5a3c 4501 493d 1f79 543d 6e9d 76be
000001b0: b994 90be adee 55be a989 bf3c 6f01 19bd
000001c0: 5e79 243e 2631 0abe f1ea b13d 3c27 6b3e
000001d0: 0091 073e bbac 26be bc0f 283e 6efb 323d
000001e0: 9640 073d 3e02 27bb 152d 62bd 9225 5eba
000001f0: 0656 e0bc 7f88 f7bc f3e5 3c3c 23b0 4d3e

fc2.weight f4 [128, 128]
-0.05836947 0.044840235 -0.057698507 -0.17383794 -0.008452148 -0.26108894 0.13135202 -0.08361915
0.06377577 -0.1979217 0.013816074 0.11200123 0.07027741 0.028976178 0.05608296 -0.1648546
0.08913749 0.107847996 0.0018818537 -0.32098493 -0.07443494 -0.26597267 -0.12329693 -0.15399978
0.06614147 -0.05066123 0.014190911 -0.06358213 -0.2388029 0.12674303 -0.24702945 -0.18048784
0.032506995 0.021234378 -0.073477276 -0.06375577 -0.07042592 -0.08295306 -0.054531574 -0.15026833
-0.11234393 0.021579517 -0.32482147 -0.05538753 -0.0046586073 0.04439416 0.04573951 -0.18608901
0.15086465 -0.22579737 -0.059041753 0.1764491 -0.3756561 0.0032494538 -0.12444206 -0.12834695
0.09216318 0.030030826 -0.0028841514 -0.06529218 -0.10899816 -0.011852244 -0.113715835 0.011342818
-0.08738947 -0.030400125 0.098413825 0.12632903 -0.012911888 0.014339826 -0.07054928 -0.6292353
0.11903971 -0.031240335 -0.05232208 0.17366053 0.030313553 -0.010543 -0.008193708 0.0048554162
-0.12232808 -0.03578168 -0.24208307 -0.1790267 0.10530957 -0.12012757 0.008847929 0.008845559
0.073547065 0.09665672 -0.1271897 -0.19668354 0.022994654 -0.10907988 -0.09282789 0.0917032
0.028266042 0.05161567 -0.011774104 0.014803222 0.05364448 -0.31722322 -0.053630725 -0.17046134
-0.08587688 -0.1016342 -0.5453481 -0.10737781 -0.057292018 -0.17205557 0.07002414 0.09923087
-0.004597419 0.050847914 0.0138863325 -0.16302167 0.07630768 0.009556556 0.15576094 0.11700083
0.008440855 0.16521034 -0.010088975 -0.22124809 -0.25594848 0.063990295 -0.07438012 -0.012606291
-0.062114477 -0.025918612 0.0015883939 0.18990836 0.07776154 -0.09955554 -0.034420446 -0.04764537
-0.04259632 -0.14336647 -0.10431137 -0.09649698 -0.051066782 0.12025964 -0.09136816 0.024527807
-0.07963155 -0.06941465 -0.08071741 -0.2129735 0.025116552 -0.00839067 -0.07414 -0.0586665
-0.021730725 0.056044832 0.055468287 0.15910678 -0.15447567 0.036046825 0.15509243 -0.09672155
-0.047439504 0.096629664 -0.048121206 -0.035353567 -0.0226186 0.034177117 -0.05173299 0.015408042
0.04550192 0.053428072 -0.038012914 -0.0020368693 -0.023328988 0.073960744 0.036299817 -0.054681618
0.097219 -0.079787225 0.11351353 -0.12039717 -0.055092998 0.08846599 0.114013545 -0.0036639587
0.093081035 -0.072968476 0.0332579 0.12903118 -0.011449834 -0.11650371 -0.03384757 0.014793988
0.059308816 -0.13413402 -0.011086995 -0.089917295 0.03442401 0.04384888 0.0033966708 0.0027691023
-0.04074807 0.15207377 -0.10742006 -0.10676026 -0.061829712 0.054683577 0.05575496 -0.018964466
0.10124383 -0.08262633 0.090911694 0.07657838 0.04889892 -0.10222425 -0.046333235 0.021599421
-0.0051545813 0.03143628 -0.0928969 -0.07447639 0.029177025 -0.006466149 -0.0046327193 -0.015602734
0.013903596 -0.10552425 -0.056443445 0.1081499 0.040107932 -0.023346687 0.0120170545 0.0705191
0.042336144 0.09935645 -0.047437575 0.067282856 0.049148876 -0.11930999 -0.00851314 -0.012419391
0.028374812 0.0036215296 0.0052468944 -0.025828846 -0.015139294 -0.09595881 -0.03446547 0.054115508
-0.07549001 0.1271638 0.051362425 -0.0274159 -0.12169734 0.069177985 -0.04173257 -0.042238634
00000000: d314 6fbd 65aa 373d 4555 6cbd 9302 32be
00000010: e17a 0abc 73ad 85be 2581 063e 8440 abbd
00000020: df9c 823d fcab 4abe d05c 623c e760 e53d
00000030: 9aed 8f3d 735f ed3c 3fb7 653d a5cf 28be
00000040: b78d b63d 69df dc3d 88a8 f63a 2358 a4be
00000050: 5971 98bd 922d 88be 1a83 fcbd 1eb2 1dbe
00000060: 2e75 873d 2682 4fbd ff80 683c 5937 82bd
00000070: bf88 74be edc8 013e 4af5 7cbe ced1 38be
00000080: 0e26 053d b8f3 ad3c 417b 96bd 6392 82bd
00000090: 773b 90bd 4be3 a9bd 805c 5fbd f1df 19be
000000a0: 9314 e6bd 87c7 b03c 004f a6be 09de 62bd
000000b0: 3ba7 98bb a7d6 353d 5a59 3b3d 1e8e 3ebe
000000c0: 437c 1a3e 6d37 67be c4d5 71bd 13af 343e
000000d0: ff55 c0be caf4 543b 7bdb febd 626d 03be
000000e0: 0dc0 bc3d 3503 f63c 0804 3dbb e8b7 85bd
000000f0: 6d3a dfbd ea2f 42bc d9e3 e8bd 3ad7 393c
00000100: 40f9 b2bd af09 f9bc 308d c93d 665c 013e
00000110: 628c 53bc 97f1 6a3c 247c 90bd 9115 21bf
00000120: 17cb f33d bbeb ffbc ad4f 56bd 11d4 313e
00000130: 2154 f83c 8cbc 2cbc e73e 06bc 2f1a 9f3b
00000140: 2587 fabd d08f 12bd a0e4 77be c652 37be
00000150: 8bac d73d 7205 f6bd e7f6 103c f7ec 103c
00000160: d89f 963d f5f3 c53d 043e 02be 6967 49be
00000170: 495f bc3c 4665 dfbd 8c1c bebd e3ce bb3d
00000180: 308e e73c f46a 533d 2ce8 40bc 3789 723c
00000190: 50ba 5b3d 156b a2be e4ab 5bbd 6b8d 2ebe
000001a0: 38e0 afbd 9725 d0bd ef9b 0bbf e6e8 dbbd
000001b0: 09ab 6abd 562f 30be d168 8f3d 8e39 cb3d
000001c0: f2a5 96bb e745 503d 8083 633c 27ef 26be
000001d0: 3347 9c3d 1a93 1c3c cc7f 1f3e 229e ef3d
000001e0: 834b 0a3c e62c 293e 3a4c 25bc dc8e 62be
000001f0: ae0b 83be 580d 833d 9b54 98bd 9e8a 4ebc
00000200: c06b 7ebd 4553 d4bc a831 d03a 5677 423e
00000210: 7141 9f3d c6e3 cbbd 74fc 0cbd cb27 43bd
00000220: 7b79 2ebd a9ce 12be 33a1 d5bd 35a0 c5bd
00000230: 672b 51bd b04a f63d 3b1f bbbd 8aee c83c
00000240: de15 a3bd 4529 8ebd 2b4f a5bd ba15 5abe
00000250: 3ac1 cd3c 0579 09bc b6d6 97bd 494c 70bd
00000260: a204 b2bc 448f 653d b732 633d e3ec 223e
00000270: df2e 1ebe d6a5 133d 8dd0 1e3e f315 c6bd
00000280: ed4f 42bd c6e5 c53d be1a 45bd e7ce 10bd
00000290: a44a b9bc 4efd 0b3d f9e5 53bd 0372 7c3c
000002a0: 3960 3a3d 65d7 5a3d 6eb3 1bbd ff7c 05bb
000002b0: 6f1c bfbc bb78 973d 1eaf 143d d5f9 5fbd
000002c0: c11a c73d 7c67 a3bd c879 e83d cb92 f6bd
000002d0: 32a9 61bd a82d b53d ef7f e93d 071f 70bb
000002e0: 45a1 be3d 7f70 95bd 7039 083d c020 043e
000002f0: 1698 3bbc 7f99 eebd c0a3 0abd 7c62 723c
00000300: cded 723d 6e5a 09be 3aa6 35bc 8f26 b8bd
00000310: 3100 0d3d e29a 333d ae9a 5e3b d479 353b
00000320: 73e7 26bd 3ab9 1b3e 0cff dbbd 20a5 dabd
00000330: 2741 7dbd e3fb 5f3d 505f 643d 5e5b 9bbc
00000340: ed58 cf3d fe37 a9bd e92f ba3d 20d5 9c3d
00000350: 3c4a 483d f35a d1bd ebc7 3dbd 45f1 b03c
00000360: c3e7 a8bb 54c3 003d bb40 bebd 1487 98bd
00000370: a804 ef3c fde1 d3bb 11ce 97bb 9ca2 7fbc
00000380: e9cb 633c 191d d8bd 3e31 67bd b27d dd3d
00000390: 3748 243d 8d41 bfbc 2ee3 443c 516c 903d
000003a0: aa68 2d3d 657b cb3d e74d 42bd 98cb 893d
000003b0: 5550 493d cc58 f4bd b27a 0bbc b47a 4bbc
000003c0: 4b72 e83c 2f57 6d3b 24ee ab3b 0497 d3bc
000003d0: cd0a 78bc 0d86 c4bd aa2b 0dbd 39a8 5d3d
000003e0: 829a 9abd 3a37 023e 6861 523d 4f97 e0bc
000003f0: 743c f9bd 30ad 8d3d c5ef 2abd 6b02 2dbd

fc2.bias f4 [128]
0.0633873 0.045792423 -0.03578157 -0.019205343 0.18320529 -0.10494847 0.078950785 0.18841691
-0.08192122 0.09684795 -0.018630795 -0.01479143 0.11183623 0.11707218 0.086246945 -0.038297962
0.07241943 0.035748087 -0.0063290256 0.077240534 0.014266493 0.08281418 -0.060153298 0.030569337
0.05577642 -0.023806281 0.052525595 -0.024121998 0.0454936 0.08071037 0.14842622 0.09746418
-5.905905e-05 0.0009914053 -0.10988389 -0.10076673 0.2854928 0.03685119 0.060213305 0.16047584
0.106560856 0.09654365 0.12063827 0.19580173 -0.00025132307 0.0776707 -0.06369969 -0.10174338
0.057944983 0.11041278 0.06696864 0.048788566 0.119566016 0.0457212 0.06390166 0.1286711
0.04371738 0.15940633 0.055881303 -0.029592726 0.17201878 -0.13129033 0.047942694 -0.038333602
0.049373303 0.17543091 -0.015753092 -0.036502853 0.2076342 -0.053420227 0.15494646 -0.10457686
0.04253078 0.06771198 0.12629509 0.035589457 0.04578749 -0.008984909 -0.049420167 0.04819913
-0.025769511 -0.0681465 -0.029679647 0.04001687 0.030117944 0.021995343 0.1280261 0.054827195
0.12328951 0.18373421 0.19386655 0.02401754 0.030713616 -0.035178162 0.04504689 -0.042959705
0.06487685 0.08679008 -0.067157075 -0.08099942 0.05563587 0.047304623 0.015907507 0.025724636
0.10217325 -0.012798629 -0.015305321 0.08587299 0.10823888 0.0776991 -0.110221736 0.13452856
0.028442377 0.118366264 0.03887996 0.18310122 0.07476339 0.22148584 -0.04977651 -0.018720282
0.046939023 -0.09772781 0.039870378 0.043217495 0.04102958 -0.01707109 -0.07535054 -0.11400778
00000000: 33d1 813d d690 3b3d b28f 12bd 8654 9dbc
00000010: 2b9a 3b3e 39ef d6bd f3b0 a13d 5df0 403e
00000020: 50c6 a7bd 3858 c63d 9c9f 98bc c157 72bc
00000030: 650a e53d 8ac3 ef3d 3da2 b03d 53de 1cbd
00000040: a350 943d 966c 123d b763 cfbb 4930 9e3d
00000050: 02be 693c 7b9a a93d 4e63 76bd 8c6c fa3c
00000060: d175 643d 6405 c3bc 1425 573d 7f9b c5bc
00000070: 7f57 3a3d 7a4b a53d 0bfd 173e 4d9b c73d
00000080: 2cb6 77b8 0bf2 813a ce0a e1bd ca5e cebd
00000090: 1d2c 923e 46f1 163d 3aa2 763d c753 243e
000000a0: 943c da3d adb8 c53d 3311 f73d 4080 483e
000000b0: 03c4 83b9 d111 9f3d fc74 82bd d55e d0bd
000000c0: b857 6d3d 1820 e23d db26 893d 85d6 473d
000000d0: 07df f43d 2746 3b3d e0de 823d 5bc2 033e
000000e0: ff10 333d 6a3b 233e cbe3 643d 726c f2bc
000000f0: b125 303e f970 06be 8f5f 443d b203 1dbd
00000100: a93b 4a3d 29a4 333e a10c 81bc 0484 15bd
00000110: 0f9e 543e 2bcf 5abd 49aa 1e3e 652c d6bd
00000120: c134 2e3d 94ac 8a3d 8053 013e 40c6 113d
00000130: aa8b 3b3d 7135 13bc cd6c 4abd 736c 453d
00000140: 951a d3bc 6490 8bbd bb22 f3bc bbe8 233d
00000150: e8b9 f63c 942f b43c 4619 033e 7b92 603d
00000160: 367f fc3d d224 3c3e f484 463e 6fc0 c43c
00000170: 1f9b fb3c fa16 10bd 1683 383d 84f6 2fbd
00000180: 27de 843d ffbe b13d a689 89bd 06e3 a5bd
00000190: 70e2 633d 7ec2 413d 7650 823c 79bc d23c
000001a0: 3540 d13d 57b1 51bc 2bc3 7abc 2ede af3d
000001b0: 59ac dd3d b520 9f3d efbb e1bd dbc1 093e
000001c0: fdff e83c 036a f23d 9840 1f3d e37e 3b3e
000001d0: 8c1d 993d 2fcd 623e 74e2 4bbd 475b 99bc
000001e0: 2243 403d 8525 c8bd 1f4f 233d d404 313d
000001f0: a20e 283d acd8 8bbc 6251 9abd e97c e9bd

out.weight f4 [5, 128]
0.07311931 -0.064341955 -0.13329865 -0.02238392 0.025395328 -0.040658016 0.10579658 0.035512485
-0.1424515 0.084585324 0.15456131 -0.15135501 0.11062931 -0.18916255 0.06677094 0.017692117
0.15777948 0.14104125 -0.10126196 0.0045028673 -0.11858655 -0.01663997 0.042076938 0.23022786
0.19382621 -0.19817804 0.11931358 0.07943445 0.12063353 -0.03795439 -0.16499706 -0.17977974
-0.083778016 -0.05664036 -0.22249264 0.080353595 -0.13132566 -0.070592225 0.11086146 0.0963651
-0.030246481 0.061786927 0.12139927 -0.19836146 0.016567592 0.093181886 0.02837434 -0.1371504
-0.07939046 -0.13480754 -0.17867766 -0.1658006 0.10870214 0.20496243 0.0958089 -0.04968712
0.11329389 -0.029082464 -0.07109888 -0.054031316 -0.032681603 0.093090616 0.040322527 0.1611148
0.020193456 0.06102621 0.08448133 -0.22897337 -0.123101585 -0.05370582 0.0944881 -0.087703906
0.12916754 -0.033282615 0.053433437 -0.025054581 -0.037908714 -0.13669957 0.04614741 -0.073743924
0.12895904 -0.053155653 -0.10144788 -0.14090496 -0.12787038 0.13379534 0.14509061 -0.01952786
0.092378095 -0.11753045 -0.05653265 0.09887279 -0.17571355 0.09677882 -0.16299534 0.14423846
-0.037039243 -0.07133506 0.1283729 -0.027935246 0.05294947 0.07398633 -0.08693968 -0.11067288
-0.18854614 -0.07491284 -0.017713904 -0.04919013 0.14501868 0.14404319 0.10604257 0.12820105
0.13170177 -0.050221782 0.152385 0.012485392 0.1555339 -0.05152692 0.22676843 0.013488891
0.09309324 -0.21928504 0.025613233 -0.08735568 -0.1231562 0.058600318 0.16514987 -0.16812764
0.11278875 0.052619465 0.015303384 0.13895486 0.02070633 0.01715809 0.09778891 0.031234235
-0.15640455 0.14962645 0.031975847 -0.076802276 0.123405434 0.043046936 0.05801941 0.015111393
0.020117145 -0.09061804 0.08067839 0.1016662 -0.07693331 -0.22700842 0.05409592 0.05325228
-0.01761298 -0.052482624 -0.089768134 -0.011354482 0.050235223 -0.17608921 -0.07477088 0.03715355
-0.040988855 -0.10308082 -0.051857296 0.04704894 -0.012546754 0.0482455 0.1580533 -0.07220941
0.09250045 0.16322212 -0.08173407 -0.019790107 0.02762913 0.06414534 0.0870338 -0.11869029
-0.012801711 0.0069898656 -0.045812372 0.01850371 -0.014089491 -0.10447513 0.13710634 -0.04239602
0.17288674 -0.008812993 0.07815731 0.15771265 0.10328241 -0.09288846 0.024611482 -0.08763497
-0.129973 -0.022401184 0.1556852 -0.1302866 -0.0073595443 -0.057789337 0.08696778 -0.06974644
-0.017090322 0.09387472 0.05255724 -0.026136473 0.006184183 -0.053723637 -0.035562906 -0.042587467
0.14480357 -0.06750066 0.12982255 -0.023435941 -0.0337038 -0.026419561 0.031867452 0.11761666
-0.021990357 -0.20078586 0.039596364 -0.040771253 -0.14613755 -0.14669333 0.07248297 0.100005485
-0.10604149 0.0058119264 0.091852285 -0.1766452 -0.07348928 0.15729249 -0.052486837 0.07207103
0.17187874 -0.14002839 -0.17597894 -0.07594277 -0.14677349 -0.020244196 -0.1610731 0.23201971
0.1261236 -0.09548731 0.0019790856 -0.054697458 0.024601031 0.18876916 0.13902825 -0.14768523
0.08321364 -0.19457218 0.21565536 0.19008785 0.045654114 0.011507844 0.15551606 -0.059350137
00000000: 94bf 953d b7c5 83bd 717f 08be 7c5e b7bc
00000010: dd09 d03c 0589 26bd e1ab d83d 8a75 113d
00000020: cede 11be 123b ad3d 5245 1e3e cffc 1abe
00000030: 9f91 e23d d4b3 41be 34bf 883d 0fef 903c
00000040: f290 213e 1e6d 103e 6e62 cfbd ca8c 933b
00000050: 81dd f2bd 8c50 88bc de58 2c3d dac0 6b3e
00000060: 617a 463e 2fef 4abe ae5a f43d 87ae a23d
00000070: b60e f73d 1076 1bbd fdf4 28be 2e18 38be
00000080: cf93 abbd b9ff 67bd 1cd5 63be 6d90 a43d
00000090: 3c7a 06be a892 90bd 550b e33d 115b c53d
000000a0: 78c7 f7bc 4a14 7d3d 2ea0 f83d 441f 4bbe
000000b0: c2b8 873c 25d6 be3d 4e71 e83c 2871 0cbe
000000c0: 7797 a2bd fd0a 0abe 47f7 36be a2c7 29be
000000d0: 3a9f de3d ace1 513e 7537 c43d b984 4bbd
000000e0: a106 e83d 593e eebc 4a9c 91bd f14f 5dbd
000000f0: 25dd 05bd 4ba6 be3d 3c29 253d 47fb 243e
00000100: bf6c a53c 9ff6 793d 8c04 ad3d ff77 6abe
00000110: af1c fcbd a2fa 5bbd fa82 c13d 1b9e b3bd
00000120: 7f44 043e 5a53 08bd 05dd 5a3d 443f cdbc
00000130: 2b46 1bbd f9fa 0bbe 1105 3d3d 0e07 97bd
00000140: d70d 043e beb9 59bd e8c3 cfbd 6449 10be
00000150: 74f0 02be a501 093e a292 143e e4f8 9fbc
00000160: ba30 bd3d ceb3 f0bd c88e 67bd d17d ca3d
00000170: 41ee 33be f933 c63d 40e8 26be 3fb3 133e
00000180: 76b6 17bd 1e18 92bd 2f74 033e 75d8 e4bc
00000190: 8be1 583d 2586 973d 6e0d b2bd 77a8 e2bd
000001a0: 3d12 41be e76b 99bd c01c 91bc 977b 49bd
000001b0: c77f 143e 0f80 133e d92c d93d 2347 033e
000001c0: d4dc 063e 5bb5 4dbd d00a 1c3e 888f 4c3c
000001d0: 4744 1f3e e40d 53bd fc35 683e 8200 5d3c
000001e0: aba7 be3d 428c 60be d8d2 d13c 89e7 b2bd
000001f0: 5139 fcbd e306 703d 0c1d 293e a729 2cbe
00000200: cafd e63d 8287 573d 0bbb 7a3c 2f4a 0e3e
00000210: 52a0 a93c 1f8f 8c3c 8d45 c83d f0de ff3c
00000220: 8428 20be ad37 193e 1bf9 023d 834a 9dbd
00000230: fdbb fc3d fc51 303d c3a5 6d3d c795 773c
00000240: b6cc a43c f395 b9bd b63a a53d 5e36 d03d
00000250: 368f 9dbd e574 68be af93 5d3d 101f 5a3d
00000260: 1949 90bc 05f8 56bd 5bd8 b7bd 2608 3abc
00000270: 73c3 4d3d bb50 34be 7a21 99bd 522e 183d
00000280: eee3 27bd 091c d3bd 5168 54bd 64b6 403d
00000290: e790 4dbc 139d 453d b9d8 213e 87e2 93bd
000002a0: e070 bd3d b323 273e 3164 a7bd dd1e a2bc
000002b0: 7c56 e23c a25e 833d c73e b23d e513 f3bd
000002c0: 45be 51bc 3e0b e53b c1a5 3bbd 1895 973c
000002d0: 9cd7 66bc 0ff7 d5bd 9b65 0c3e 73a7 2dbd
000002e0: 3909 313e 5f64 10bc f110 a03d 6d7f 213e
000002f0: ba85 d33d 4e3c bebd 059e c93c f779 b3bd
00000300: a417 05be b082 b7bc f16b 1f3e da69 05be
00000310: 5528 f1bb 83b4 6cbd 2a1c b23d 39d7 8ebd
00000320: 0101 8cbc 6441 c03d 4346 573d 281c d6bc
00000330: b0a4 ca3b 510d 5cbd 69aa 11bd 3270 2ebd
00000340: 6347 143e c93d 8abd 34f0 043e bbfc bfbc
00000350: ff0c 0abd d66d d8bc 7287 023d 01e1 f03d
00000360: 1f25 b4bc cf9a 4dbe cc2f 223d c2ff 26bd
00000370: 15a5 15be c736 16be f471 943d adcf cc3d
00000380: 482c d9bd f971 be3b 0d1d bc3d 7be2 34be
00000390: 8c81 96bd 4811 213e 70fc 56bd fa99 933d
000003a0: fb00 303e 9a63 0fbe d333 34be e287 9bbd
000003b0: ca4b 16be 28d7 a5bc 59f0 24be 9396 6d3e
000003c0: 8c26 013e da8e c3bd 8cb3 013b 710a 60bd
000003d0: 1a88 c93c b44c 413e 6c5d 0e3e cc3a 17be
000003e0: ea6b aa3d ee3d 47be c2d4 5c3e 64a6 423e
000003f0: cfff 3a3d 658b 3c3c 9a3f 1f3e 2119 73bd

out.bias f4 [5]
0.10208823 0.1159372 0.0903907 0.10974272 0.093740575
00000000: a213 d13d 7c70 ed3d c21e b93d cbc0 e03d
00000010: 0ffb bf3d
