SimplifiedSpaceWar/trained_models/dqn_bullets_11500.pth (torch, 89165 bytes, 6 tensors)

fc1.weight f4 [128, 33]
00000000: 3d67 0b3f d378 9fbd dc3a 54be 4804 b93e
00000010: 2cd2 863e aa30 5b3e 0353 073f 0e15 693f
00000020: 24f2 c2bc e875 dd3e 7923 9dbe 9465 1dba
00000030: 80d0 02bf 242a c1be 61dd 9bbf 846c e83e
00000040: e5a0 e4be 0b59 683e 693f 393d 1e4b 053f
00000050: 6465 63be 9638 1b3e 7d09 163e 049c f3bd
00000060: 266a 9cbe 9149 6c3c 6d8d 72be 5a87 073f
00000070: 6e49 47bd 980c 48be b50a 43be 0f5a f73d
00000080: 963b b2be b8b5 0740 952a 0a40 7552 b83e
00000090: 5ac9 d43e fef5 42ba 136a 78be a06e 70be
000000a0: 962d 3fbd b33e a6bd f2c6 683e 7282 2ebf
000000b0: 0fe4 ddbe e9a2 52be c90f be3d 06fd 663e
000000c0: 87fc 48bb 112d 93be 4768 7e3c 277f c3bd
000000d0: e952 943c c4ef e2bc d8d5 0abd 3fc1 b93d
000000e0: 81a2 a03e 85f9 3cbe d0ae 22be acfb 8a3b
000000f0: b71a 303d a8ad f9bd a070 44bc b5ee 043e
00000100: c2f9 d03e aea8 edbd ae3f ce3d a131 c4be
00000110: 9ef7 023e 9cd8 51bd 1e63 a9be 79c0 843c
00000120: e571 94bb 1910 f83d ad28 a33d 3153 14bf
00000130: f9c9 0abe 8a85 a33c 1896 403e 33da df3e
00000140: fcf0 b63e 93f9 623e bb3a 943d c11c 56bd
00000150: 7ec3 c5bd af41 c9be e114 9d3e b2be 87be
00000160: 3df8 2dbe f857 72bd b69b d03d 7300 aa3d
00000170: 82cb b7bd a298 22bd d0bc 483e 1d5a a8be
00000180: 3bf5 a03d 91fd 51ba dbf5 e9bd 404d cc3f
00000190: f4eb 12bf e1af 28be ffec dbbd 0bc5 1f3f
000001a0: 233f 0f3e aa8d 333e a164 d8bd 44cd 0c3d
000001b0: 12e6 1e3f 8f6e 7a3e 8b7e 0a3e 7393 8c3e
000001c0: d4b5 d83d 62ca 843d 43ff f13e 8860 09bf
000001d0: bc0f 993e 5753 823d 64d8 7a3e 0cab 6a3d
000001e0: 86aa d73d d505 d23d da7c 07bc 3bbd 903e
000001f0: c151 5cbe 5080 ecbc cf45 123e 1521 4e3d
00000200: 11f5 73be 6248 bfbe fc79 8cbb 0bcf 73bd
00000210: 8289 12be edf7 dbbf 02ef a5be 0d32 c03d
00000220: 4159 62bd 6b33 253e be42 90be d8a4 00bf
00000230: 5872 84bd 23f4 1e3a 0d01 4a3d e07c 22be
00000240: 6121 853e a60a 1dbd ebfb c8be b68f eb3e
00000250: 8966 91bf 1d45 2c3f c51b 12bf e410 3fbe
00000260: b850 79be 87dc 053d 6b34 933e 5805 643e
00000270: 1f65 e7be 5764 fc3d 83a3 953d a802 bb3e
00000280: 07b1 3d3f f26a 91be dfb9 13bf 0d5c f53c
00000290: e388 cfbe e694 a43e 8c20 ccbe 9a3d 7cbe
000002a0: 7036 0abe 3b4b d7bc 719e fbbb 0480 8b3e
000002b0: 08d6 493f 5f11 8c3c 50d3 db3e acbb 7c3e
000002c0: c941 733f a424 b7be add8 6b3e 6bfb 073e
000002d0: 71a5 073e bb85 d73e befa a4bd 5efa e9bd
000002e0: 9af9 cdbe 61ad 2b3e b17f 44be 12ca 98be
000002f0: 64f6 cdbb 0cd7 87bc 52d3 c93d b0e3 37be
00000300: 6e26 e4be 6ee6 c1bc 0218 08be fa33 dc3d
00000310: fe51 94bd 9dab 71bd f0cc 5bbe b55c 213f
00000320: e25f 1d3e 0136 a83e 721f 523e 98bd 2f3f
00000330: 084d 423d 97ab 0abc 8780 a4b9 864f 16be
00000340: 92f7 1d3f b8d0 b8bd 3cb3 41be 917b bc3d
00000350: 1aa6 ba3d d4d2 823d 3003 12bf fa16 57be
00000360: ce2b 113e 74da 35be 8435 11bf 5216 8cbe
00000370: f4d4 aeb8 e88b dd3d 1f89 75be ce23 cd3d
00000380: 8d0e 633e 07e0 07be 2b92 3b3d f711 283e
00000390: fd84 c1bd 73c2 02bc b068 2ebf 9834 5cbf
000003a0: 23cc 0bc0 bbac 88bc 0f9f 82be 8e21 113f
000003b0: 13b2 05bf 8e2a cebe aee3 d13e 28aa 873c
000003c0: b215 d13e 0a21 e03c 5994 06be 29a2 1a3e
000003d0: 9d27 7bbc 5344 cdbc 21f8 363e c49c a93e
000003e0: f899 b13d 05d9 90be 511a d7bd 2593 df3e
000003f0: d109 babd 60eb 1d3d 2481 813d 8976 7ebe
0.54454404 -0.07786717 -0.20725578 0.3613608 0.26332223 0.21405283 0.5286104 0.9104775
-0.023797102 0.43254018 -0.30691126 -0.0006004211 -0.51099396 -0.37727463 -1.2176934 0.4539529
-0.44654003 0.22690217 0.04522649 0.52067745 -0.22206646 0.15158305 0.14652057 -0.11894992
-0.30549735 0.0144218365 -0.23686762 0.52940905 -0.048654012 -0.19536054 -0.19047053 0.12077724
-0.34811085 2.1204662 2.158849 0.3600041 0.4155987 -0.00074371684 -0.24259214 -0.234797
-0.046674334 -0.08117428 0.22732142 -0.68167794 -0.43338057 -0.20569958 0.092803545 0.22557458
-0.0030668096 -0.2874532 0.015527791 -0.09545737 0.01810594 -0.02770222 -0.033895344 0.09070062
0.3137398 -0.18454559 -0.15886998 0.0042414274 0.042994227 -0.121913254 -0.0119897425 0.12981685
0.4081555 -0.11604439 0.1007074 -0.38319114 0.12789771 -0.051231965 -0.33083433 0.01620506
-0.004530179 0.121124454 0.07966743 -0.5793944 -0.13553609 0.019961137 0.18807256 0.4372116
0.3573073 0.22165518 0.072377644 -0.052273516 -0.09656428 -0.39307925 0.30679992 -0.26512676
-0.16989227 -0.059165925 0.101859495 0.08300867 -0.08974363 -0.039696343 0.19603276 -0.3288125
0.07859274 -0.00080105016 -0.11423846 1.5961075 -0.57391286 -0.16473342 -0.10738563 0.6241004
0.13988928 0.1753451 -0.105660684 0.034375444 0.6206981 0.24456237 0.13524835 0.27456245
0.10581556 0.06483914 0.47265062 -0.5366292 0.29894817 0.06363552 0.24496609 0.05729203
0.10530572 0.102550186 -0.008269513 0.2826937 -0.21515562 -0.028869778 0.14284442 0.05032452
-0.23823954 -0.3735991 -0.0042870026 -0.059523623 -0.14310268 -1.7185036 -0.3240891 0.093845464
-0.0552609 0.16132896 -0.2817592 -0.5025153 -0.06467122 0.0006063601 0.04931741 -0.15867949
0.2600203 -0.038340233 -0.39254698 0.4600808 -1.1359416 0.6729296 -0.5707362 -0.18658787
-0.24347198 0.032681014 0.2875093 0.22267663 -0.45194337 0.12323826 0.07306578 0.36525464
0.7409825 -0.28401905 -0.5770549 0.02995112 -0.40534124 0.3214485 -0.3986858 -0.24632874
-0.13497329 -0.02628099 -0.0076788 0.27246106 0.7884221 0.017098127 0.42934656 0.24680966
0.95022255 -0.35770142 0.23031874 0.13279502 0.13246705 0.42094216 -0.08055638 -0.11424707
-0.40229493 0.16765358 -0.19189335 -0.29841667 -0.0062854756 -0.016582035 0.09854759 -0.1795795
-0.4456057 -0.023669448 -0.13290408 0.10752101 -0.07242201 -0.059001554 -0.21464896 0.63032085
0.15368608 0.32853702 0.20519808 0.6864867 0.047436744 -0.008463762 -0.00031376278 -0.14678773
0.6170589 -0.09024185 -0.18916029 0.09203256 0.091137126 0.063878685 -0.57036114 -0.21004859
0.14176866 -0.17759115 -0.56722283 -0.2736078 -8.336632e-05 0.108177006 -0.23978089 0.10016595
0.2217352 -0.13269053 0.045793694 0.16413103 -0.094491936 -0.007980931 -0.6812849 -0.8601775
-2.1843345 -0.016683927 -0.25511977 0.56691825 -0.52224845 -0.40266842 0.40994018 0.016560629
0.40836865 0.027359504 -0.13142528 0.15100922 -0.015329269 -0.025056994 0.17868091 0.33127415
0.08671945 -0.28290573 -0.10503066 0.4366695 -0.090839036 0.03855455 0.0632346 -0.24849905

fc1.bias f4 [128]
00000000: 4758 a7bd a4d3 853e fcbe 84be 8331 29bf
00000010: e46b a03e e923 0c3f 23a5 d93e 975d 34be
00000020: 836f 7e3e 6760 323c 6279 a03e 896c 4d3e
00000030: a722 183f da78 d8bc 8e46 e6be 610e ba3e
00000040: 1cd7 8d3e 4ed1 0abd aca9 203f 8a99 f53d
00000050: ec18 b0be f08b ae3e 2378 b83e cc11 cabe
00000060: 7f89 163e 3d86 32bf 928d c7bc 6a5c 933e
00000070: e879 403e 0526 a3bb cd43 683e f1ac cf3d
00000080: fd9c bcbd f8f2 febd 336c 1b3d c1ae f93d
00000090: ad28 c53e 4215 a83c 2b4a 0bbd a89a 6c3e
000000a0: e145 a43b 6c8d 063e 6599 bebe fb6f 693d
000000b0: 2225 d2be 283f 303e ebb3 00be ff76 c13d
000000c0: c144 d1be ce0c c7be f378 dfbd f8a1 943e
000000d0: 71ac 2c3f ff5d 623e 08b3 4b3f 8695 8cbe
000000e0: c73b 273e a367 da3d 8110 563e f79c c13e
000000f0: d5ff 173e 6142 943f 4f3e a6be 07b7 42be
00000100: 141c 513e 5f70 e8be 3b82 7c3e 7525 a2be
00000110: d633 893d 5143 0abe fe30 6f3e 8dd7 043f
00000120: 2159 8a3d 6156 c23e 6749 013e 3ec1 923f
00000130: 3275 b8bd 3670 103e 7fb6 143d 8feb ad3d
00000140: ad84 31bf e34a 793e bfd0 c9bd bf7b 393e
00000150: a0a3 1c3f 8ae0 c2bd 1dbf a03f 24d0 0c3f
00000160: 7141 8b3e 4ec1 463d 68d5 543e dfba 853e
00000170: 785a f0bd f6e9 f73e 377c 543e 2927 d9be
00000180: 02e0 843e c47d c03e 2eee 9d3e 4987 393f
00000190: ca27 a5be e010 a13c a7c5 1f3e f3d3 36bd
000001a0: cc86 693e 408c 3d3e e67a 90bd 7e0e a9bd
000001b0: 4413 b2bd d660 26be eec0 f63e 851b a63c
000001c0: 8926 9fbc 23f1 a3be 97d4 2d3e 3cae cbbe
000001d0: a0b7 a73e a7e2 d73d 22cf 8f3d 2ff7 afbd
000001e0: e725 393e afc1 d2bd c881 4c3d f746 faba
000001f0: 19e0 893c 2011 b4bc adf7 083f 0285 143f
-0.081711344 0.2613803 -0.2592696 -0.66091174 0.31332314 0.54742295 0.42508802 -0.17613827
0.24847226 0.010887242 0.31342608 0.20060934 0.59427875 -0.026424814 -0.44975704 0.36339095
0.27703178 -0.033891015 0.627589 0.11992176 -0.34394014 0.3409114 0.36029157 -0.39466703
0.14700888 -0.6973608 -0.024359498 0.28781444 0.18796504 -0.0049788975 0.22682114 0.10140408
-0.09209631 -0.12448686 0.037944984 0.12191535 0.38507596 0.020517949 -0.03400628 0.23105872
0.005013213 0.13139886 -0.37226406 0.05699156 -0.41043955 0.17211592 -0.12568633 0.09446525
-0.40872768 -0.38876957 -0.10911741 0.29029822 0.67450625 0.22106169 0.79570055 -0.27457827
0.16331397 0.106642984 0.20904733 0.37815067 0.14843686 1.1582757 -0.32469413 -0.19015132
0.20420867 -0.45398232 0.24659054 -0.31669202 0.0669934 -0.13502242 0.23358533 0.51891404
0.06755281 0.37956527 0.12625657 1.1465223 -0.09006728 0.14105305 0.036306854 0.08492195
-0.6934307 0.24344973 -0.09854268 0.18113612 0.6118717 -0.09515484 1.2558323 0.550051
0.27198365 0.048524193 0.20784533 0.26119134 -0.117360055 0.48420686 0.20750509 -0.4241269
0.25952154 0.37595952 0.3084578 0.72472054 -0.3225692 0.019661367 0.15602742 -0.044635724
0.22805327 0.18510532 -0.07054691 -0.08254717 -0.08695081 -0.16247877 0.4819407 0.020276794
-0.019427555 -0.3201991 0.16975628 -0.39781368 0.32757282 0.105412774 0.07021929 -0.085920684
0.18080865 -0.102908485 0.049928457 -0.0019094635 0.01683049 -0.021980822 0.53502923 0.58015454

fc2.weight f4 [128, 128]
00000000: 6ff0 a1bd 7a7b 213e 7d11 c8bd f4e8 82be
00000010: 77c7 2cbe 04bf ddbe 7aab b73d 8e30 a1bd
00000020: df9c 823d 81fe 8cbe a672 df3c 7be9 cebc
00000030: 15ce 713d e77d 0dbe ab8f c1bc 8b8a 5ebe
00000040: b53c 0b3d 886d b03d 3816 b7bc 6dde 67be
00000050: fc96 5ebd 6294 78be b48b 933d c5b0 84be
00000060: 2e75 873d 9805 04be 72c4 5c3c 03f8 5abd
00000070: ec1d e2be b976 c63d 5486 eebe b692 a6bd
00000080: dd84 6c3d 8ed9 f03c 3a9a 0f3e c305 89bd
00000090: 7d81 84bd 8854 fdbd 805c 5fbd edd9 5cbe
000000a0: 2ca9 f3bd 8f16 46bd 0119 05bf f88b f9bd
000000b0: 4185 3bbd fa24 10be 2e45 5f3d ad1b 95be
000000c0: dc30 6d3d a5fc 3cbe 7a66 24be 11b4 353e
000000d0: d536 f5be 9f58 dcbe 8916 c6be 1992 4cbd
000000e0: 4249 0bbd f654 b13d d621 173d e1b4 78be
000000f0: 288d 22be c4bb 8b3d ca9d debe bd5d 4c3c
00000100: 5a8c fbbe a409 30be d839 81bd 91f5 683e
00000110: bc3e 1c3d 97f1 6a3c be5a 4dbe 0ad4 3cbf
00000120: e246 ae3d 612a 3f3d 0210 7a3d 0060 1a3e
00000130: 2154 f83c 45ca 1cbe 1541 c7bc 2446 90be
00000140: 9c07 283d cebe 28be 2f6a dabc e09e eebd
00000150: 9f5f 0abd 2e3e 08bd 4834 ebbd f8f6 0fbe
00000160: 840d 813d 9f1a 3e3d b86d 9ebe 88b4 86be
00000170: 495f bc3c fe44 3bbe a72d 87bd 6e25 d53d
00000180: 308e e73c f187 b03d f78f 19be 53c1 2a3e
00000190: 6df9 233e 8cc8 bebe e4ab 5bbd 3908 61be
000001a0: 5f58 b4bd 28e9 8dbe 5227 82bf 31b1 f5bd
000001b0: e77a 54be 4b66 aabd 4de5 61be 6c8b 2f3e
000001c0: 26b7 28be 3f25 593d 911d 923c da90 d9be
000001d0: 3347 9c3d a262 89bd cc01 ab3d 5f96 e83d
000001e0: b1e6 b93b d710 283e 6119 0cbd 36a4 cebd
000001f0: a33f 92be 320f 1d3e 6c84 2abe c0cb e1bd
00000200: da18 373d be61 79be a54e a03d a44c 8ebc
00000210: bb78 88be 5462 76bd b2e9 3abe a739 803c
00000220: 5487 aabc de47 86be 9fa1 1fbe dd21 493d
00000230: e1bd d7bb 54a9 fb3d e406 bdbd 189d ddbd
00000240: 0a8d 92bd 956e aebd e30a f9bd 5a8e 63bf
00000250: 0bb8 06bf ef63 163e 2b71 e03c 78b4 17be
00000260: 0fec 0bbe be55 e7bd d913 f63c 76dd a9bc
00000270: 994c 95be 0c61 6c3e 04f6 873c e0ce df3d
00000280: 3680 a2be 5297 e03d 0fe1 b9bc bdcd 103d
00000290: dd0b 33be 4401 cc3d 6046 10be f9fb 32be
000002a0: fb4a df3c e551 4c3e e1c3 83bd 9b79 d2bd
000002b0: 4854 bc3c 37c5 503e 3054 e83d a72d 20be
000002c0: d776 213e 541f c2be 8445 aa3d 1cc6 babe
000002d0: 9383 8dbe 7302 3bbc 8d6b 43bd 6b4f 6ebe
000002e0: 6cda 963d 6a60 c3bb 3bb7 3e3d a560 633e
000002f0: 85f6 debe 85bf 3e3d d47b 38be ea2e 5b3d
00000300: 4bf8 423c e519 44be ac9d 68be e48d 83be
00000310: 6f18 5b3e 72ef 3a3d b48b b4bd 8f29 003e
00000320: a512 c9bc 4a1e 8a3e f594 12be c7c4 213e
00000330: 1167 cabd 6953 633e bf37 883d 31d7 ce3c
00000340: 256c 9f3d 8a31 c8be cf89 14be 743e fb3d
00000350: 61b6 673d ae1c 8abe 883b 36be 64d7 42bd
00000360: 3c08 ac3c 212e 4c3e 31c3 ccbe 47db 89be
00000370: 6cfa 0bbd 8ec4 94bb 5c6a 1a3e bef1 17bd
00000380: 9324 de3c 93c1 f4be 416f 88be 2ccb ba3d
00000390: a364 b1bd 26c5 d4bd 9b9d b63c 6e67 d6bd
000003a0: e8cd 41bd ea07 01be a24d 15be f28d 5fbe
000003b0: c833 aebd eb1e bbbd f836 27be 784b edbd
000003c0: ca85 16be f8d3 f6bc 3fa1 2cbe 821b 0b3d
000003d0: 6b2c cc3c 7f6a a9be 644f 3dbe 9573 0c3c
000003e0: 3ded a6be 62c1 6b3e edd2 f93d 8838 a03d
000003f0: c460 c3be 98bb d13d 18ef bbbd 77b4 13be
-0.07907187 0.15769759 -0.097689606 -0.25568354 -0.16872965 -0.43309796 0.089682534 -0.07870589
0.06377577 -0.2753792 0.027276348 -0.025257817 0.059034426 -0.13817559 -0.023628077 -0.21732537
0.03399344 0.086146414 -0.022349462 -0.22643442 -0.05434321 -0.24275354 0.07204381 -0.25916114
0.06614147 -0.12892759 0.013474571 -0.05345918 -0.44163454 0.09690613 -0.4658686 -0.08133452
0.057743896 0.029400613 0.14023677 -0.06690552 -0.064700104 -0.12369639 -0.054531574 -0.21567507
-0.11897501 -0.048361357 -0.5199128 -0.121849 -0.045781378 -0.14076605 0.054509334 -0.29122677
0.057907924 -0.18455751 -0.16054717 0.17744471 -0.47893396 -0.43036363 -0.38689068 -0.049944017
-0.03400541 0.08658783 0.036897503 -0.2428775 -0.1587416 0.06822923 -0.43479759 0.012473521
-0.49130517 -0.17191178 -0.06309861 0.22749926 0.038145766 0.014339826 -0.20054147 -0.73761046
0.085096136 0.046671275 0.061050422 0.15075684 0.030313553 -0.15311535 -0.024323026 -0.28178513
0.041022882 -0.16479036 -0.02666196 -0.11651397 -0.033782598 -0.033262424 -0.11484581 -0.14059055
0.06301406 0.046412107 -0.30943084 -0.2630961 0.022994654 -0.18288037 -0.06600504 0.1040753
0.028266042 0.08619679 -0.14996324 0.1667531 0.16013117 -0.3726238 -0.053630725 -0.21975793
-0.08805918 -0.27716947 -1.016825 -0.11996687 -0.20750009 -0.08320292 -0.22060128 0.17143029
-0.16476116 0.053014036 0.017836364 -0.42493325 0.07630768 -0.06708266 0.08349952 0.11356806
0.0056732525 0.16412674 -0.03420389 -0.100899145 -0.28564176 0.15337828 -0.16652077 -0.1102519
0.044701435 -0.24353692 0.078275 -0.01737053 -0.2665461 -0.060152367 -0.1825321 0.01565249
-0.020816483 -0.26226705 -0.15588997 0.04910456 -0.0065839146 0.12288156 -0.0922983 -0.10820979
-0.07155807 -0.085171856 -0.121602796 -0.88889086 -0.5262458 0.14686559 0.027397713 -0.14814937
-0.13664268 -0.11295651 0.030038761 -0.020735484 -0.29160002 0.23083895 0.016596802 0.1092813
-0.31738442 0.10966362 -0.022690324 0.035352457 -0.17484994 0.09961179 -0.14089346 -0.17478932
0.027257433 0.19953115 -0.06433845 -0.10277101 0.022989407 0.20387731 0.113441825 -0.15642415
0.1576799 -0.37914526 0.0831404 -0.3647927 -0.27639446 -0.011414158 -0.04770999 -0.23272483
0.073658794 -0.005962421 0.04656146 0.22204836 -0.43547454 0.046569366 -0.18015987 0.053511538
0.011900018 -0.19150503 -0.22716397 -0.2569419 0.2139604 0.04563851 -0.08815709 0.12515853
-0.024545023 0.26976234 -0.14314635 0.15797721 -0.098829396 0.22199787 0.06651258 0.025249096
0.07784299 -0.39100295 -0.14505695 0.12267771 0.056570414 -0.26975006 -0.17796147 -0.047568694
0.02100002 0.19939472 -0.3999267 -0.26925108 -0.034174368 -0.0045400327 0.15079635 -0.037095778
0.02711705 -0.47803935 -0.2664738 0.09120783 -0.08661773 -0.103891656 0.022291949 -0.104689464
-0.047315508 -0.12600675 -0.14580396 -0.21831492 -0.0850597 -0.091367565 -0.16329563 -0.1158666
-0.14699474 -0.030130371 -0.16858386 0.03396178 0.024923524 -0.33089063 -0.18487316 0.008572479
-0.32602873 0.23022988 0.12198434 0.078232825 -0.38159764 0.10240859 -0.09176463 -0.1442431

fc2.bias f4 [128]
00000000: 134e 653d 1a0c d73d de1d 4a3c 9fd3 01bd
00000010: 315a d73d cda8 7abe fb7d 2bbd 94bd 0c3e
00000020: 1879 07be 7a70 813d 69a5 afbd 7efa d5bd
00000030: f7ce 3f3e 4ca5 553e 9148 a63d 757a 32bc
00000040: 9d14 323d dea5 6d3c 5bfc 2dbd ec8c 5d3c
00000050: e24a 433e 4b7a e73c b5ea a83d 8a49 163d
00000060: db9a f93d ee9f e0bd 3f2e 8d3d fa55 37bc
00000070: 8fc7 153d 72be b93d f435 d13d 0a67 293d
00000080: 53d2 57bd 98d1 66bc eda0 2bbe ce24 0cbe
00000090: a7cb a93e 06fa e13c 8b59 773d 0757 0f3e
000000a0: 4749 103e d5ab 673d 4d9a e93d e5f7 2f3e
000000b0: d748 5abe 4b20 153d 803a 37bd 6efd 22be
000000c0: 171e a2bb 3684 5c3d cbaf 613d cfcf 9e3d
000000d0: 1ced 193e 4ec8 a73c 1f18 2b3d 89d3 a73d
000000e0: d81d 453d 7dab 643e d859 463d d29e 86bd
000000f0: 7f4a dd3d c96a aabd b5b9 0abb f26d c4bd
00000100: 1f32 ca3c b173 e43d 7526 95bc e0a8 d1bc
00000110: 6ab1 c7bb a7dd a13c b417 dd3d 579a d4bd
00000120: 152f f93a cc57 09bd 5078 cd3d 2461 7f3f
00000130: 64c2 6c3d 466a 94bd 9e9f 34bd 8ed2 f8bc
00000140: a5ac 91bb 69c4 ffbd ab12 01bd c9ef 073e
00000150: ad93 9dbd af31 013c 90ba ff3d 7e18 983d
00000160: c5e0 0a3e ab85 e23d 070f 083e 0ee6 333c
00000170: 6ad3 983d 4c78 a03c 83da 453d 1c42 04be
00000180: 2203 3abc b864 b13d 7bae a6bd 9064 d4bd
00000190: e156 e53d 3be6 383d bd50 5ebd db6c e43c
000001a0: 08a6 5c3e 0bc5 d4bd 3b6f dbbc 8886 093d
000001b0: 3f23 ba3d edfe c13d 7fed 15be 4371 023e
000001c0: 7793 eabc 9283 b73c d2ed 863d 679f 1a3e
000001d0: a3a0 0b3e e7ac 473e 3b88 7dbd 97e8 c93a
000001e0: 6a54 063d d247 23be ce02 39bd 9a3c 543b
000001f0: 3b7f 443a 9aa8 a7bd da02 2abe 00ee 75bd
0.05598266 0.10500355 0.012336222 -0.03169596 0.105152495 -0.24478455 -0.04186819 0.13744193
-0.13229787 0.06320281 -0.08576471 -0.10448168 0.18731295 0.20863837 0.0811931 -0.010893454
0.04347669 0.014504878 -0.042476993 0.013522368 0.19071534 0.028256556 0.08247892 0.036691226
0.121877395 -0.10968004 0.06893586 -0.011189932 0.036567267 0.09069528 0.10215369 0.04135803
-0.052690815 -0.014088057 -0.16760607 -0.13685915 0.33163187 0.02758504 0.06038813 0.13998042
0.14090453 0.056560356 0.11406384 0.17184408 -0.21316849 0.03640775 -0.044733524 -0.15916988
-0.0049474346 0.053837024 0.05509929 0.0775448 0.15031856 0.020481255 0.04177105 0.08194644
0.048124164 0.22331043 0.048425525 -0.06573261 0.108052246 -0.08321149 -0.002116782 -0.09591283
0.024682103 0.11154879 -0.018206814 -0.025593221 -0.0060941475 0.019759012 0.10795537 -0.103810005
0.0019011224 -0.033530995 0.100327134 0.997576 0.057802573 -0.072468325 -0.044097535 -0.030373838
-0.0044456297 -0.12488634 -0.031511944 0.13275065 -0.076941825 0.007885381 0.12486756 0.074265465
0.13562305 0.110606514 0.13286982 0.010980142 0.07462199 0.019588612 0.048304092 -0.12915844
-0.011353286 0.08661789 -0.08138748 -0.10370743 0.111982115 0.04514144 -0.054276217 0.027883938
0.21547711 -0.103891455 -0.026786437 0.033575565 0.09088754 0.09472451 -0.14641379 0.12738518
-0.02863477 0.022401605 0.065883294 0.1509987 0.13635497 0.19499551 -0.061897498 0.00154044
0.032795347 -0.15945366 -0.04516869 0.0032384754 0.00074957655 -0.08186455 -0.1660265 -0.060041428

out.weight f4 [5, 128]
00000000: c328 3b3e 50f2 ad3d 5ef1 95bd bec3 943c
00000010: 04fc 043e 7658 be3c 7843 4c3d 1aa8 7b3d
00000020: d300 63bd 9827 843c e58b 0e3e df6f 3e3d
00000030: 016b e4bd 19e0 103d cbd1 ce3d be7a d53d
00000040: c068 a53d a008 c3bd 30f7 74be 00ce 523b
00000050: 5bf3 02bd c4c8 143d 9d7c 4a3e 3261 833e
00000060: 4100 9dbd 385c 2cbe ddc9 103e 6100 173e
00000070: c47f 573e 578e 093b 2aa6 b5bd 13a6 083e
00000080: 117b cb3c 3853 a1bc 947c 3ebe 3eb1 963d
00000090: 744f 99bd 52b0 493e 0e6a eebd 6984 9c3e
000000a0: 73e8 4cbe 2620 363d 6a98 2d3e 35b0 5fbe
000000b0: 546d 8cbd cd81 233d c7fc 063e 945b e8bd
000000c0: a3ab f8bd 859d 76be 31ac 6ebd b556 09be
000000d0: e1de 073e 91d6 6b3e a45c d23d 933d dabd
000000e0: ae30 6c3e 0901 c3ba 4a9c 91bd 5cbf c0bd
000000f0: c0f4 9cbd cd6b 463e 3bdb 05bd cac2 1e3e
00000100: 31aa e13d 13bd 4e3e 8d3e 083e fe36 823e
00000110: 326e aebc 14a7 c9bd 0db4 013e b88c 60bd
00000120: 8cec 0e3d dfc4 8abd c621 c43d 242b 39bd
00000130: c81f 1bbe d2dd 42bd 6488 e0bc a041 443d
00000140: 0559 8e3d 083d bcbc e8c3 cfbd 4297 ae3d
00000150: 1a40 843d 346b 153e a292 143e 27e2 653c
00000160: bf7c 593e 8e36 7dbe 3eaf 08be 96a4 5a3c
00000170: 862b d1bd f909 963c 0e00 b9bd d1ef 0f3d
00000180: e1c4 233d cbaf 853b 2f74 033e be94 f9bd
00000190: ba5a 9e3e 046e 323e 4495 0cbe 9727 dcbd
000001a0: a722 5cbd ae95 75bd 9124 f4bd d2be 8a3b
000001b0: 1d9f 063e b677 fbbd dfb1 083e f0f2 dc3d
000001c0: c28a 393e 3e24 5abd 9ad9 543e 6f65 9cbd
000001d0: 2867 3f3d 9483 81be 8859 5f3e a6d6 3f3e
000001e0: 1a45 643d 6d51 dabc 1c0f e23d a660 693d
000001f0: 7beb 13bd a672 83bd d89d 103e a01d e3bb
00000200: 279c c43d 298c bc3d e55d 1a3e 8117 8b3d
00000210: ec55 92bd e3f0 8f3d c676 aabd 25fe c9bd
00000220: 530e 40be 444b 37bc 7802 8e3b e5db a6bd
00000230: 3a40 043c 3986 f13c de7e 143e ee1c 53bd
00000240: 5923 e9bd 5187 04be e72c 973d 097d b43d
00000250: e762 a6bd 965e b2be d471 f33d 62f3 2d3e
00000260: ba3a 2bbe a232 30be 23b5 113e 1390 5abd
00000270: 77b6 bcbd e8aa 06be 5d86 91bd 2cb7 113e
00000280: 0b1a 3d3d 2bf4 cfbd 995a 30bd 76f1 193d
00000290: 4bdd 18be 3d06 433e 3296 783e a2f9 0b3d
000002a0: 0c34 6abd ef28 8e3e 14a9 d1bd bc0d 69bd
000002b0: fdaa 633d a09f 403e 3dea 013e 82dd 37be
000002c0: aa62 1d3e 5bd1 82bd 2968 5fbe 552e 013e
000002d0: 8eeb 8bbe a0b4 04be 0ce8 113e 6085 0dbe
000002e0: 1c65 073e 372f a9bd 7ca6 aa3d 8e0b 153e
000002f0: f5dd 583e 5bb7 833e 3d18 313d cddb 45bd
00000300: 2337 8fbe 3958 313e 25ea cc3c 5a4a 74bd
00000310: 4685 873d 5c09 98bd faf1 143d a23f 9cbd
00000320: 575c 543e 4aad af3d 01ab c23d fc3d 48bd
00000330: 6a72 c73d 72aa 4e3e 4b76 0a3e c50a c6bd
00000340: 215c 483d 50d7 09be 34f0 043e 7984 1f3e
00000350: 4d05 863e a380 cd3d 7287 023d 99b4 323e
00000360: 2836 7e3c 9cf7 f1bd 8363 6c3d 7eac 503e
00000370: 71bf 063d 9025 b1bc f1cf f63d 6b35 d83c
00000380: f476 7a3d 1317 cdbd 40cc b33d e906 46be
00000390: 7f4b d33c 6478 413e de07 293e fa99 933d
000003a0: 83b0 80bd 4a88 9abd 8cbe a63c 7805 91bd
000003b0: 0f99 e0bb d7cd 6e3d f01d 4ebe 8402 653d
000003c0: e1d7 5e3e 8543 033e 8d28 7d3d 24d9 063e
000003d0: eba2 c13d 30cc 813d 6c5d 0e3e 21e5 0cbe
000003e0: e37c e73d 0633 ddbd edb8 873d 4b27 1e3e
000003f0: befb 72be 3828 5ebc b5dc 213e 8bd5 37be
0.18277268 0.08493483 -0.07321428 0.018159743 0.12986761 0.02323554 0.04986903 0.06143961
-0.055420708 0.016132161 0.13920553 0.046493407 -0.11153222 0.035369966 0.100986086 0.10423802
0.0807662 -0.095231295 -0.2392242 0.0032166243 -0.031970363 0.036324278 0.19774099 0.25660092
-0.07666064 -0.16832054 0.14139505 0.14746238 0.21044832 0.0020989382 -0.08869584 0.13344602
0.024838956 -0.019693002 -0.1860221 0.07358025 -0.074858576 0.19696167 -0.11641322 0.3056977
-0.20010547 0.044464253 0.16952673 -0.21844561 -0.0685679 0.03991871 0.13182364 -0.11345592
-0.12142112 -0.24083526 -0.058269683 -0.13411982 0.13268615 0.2303107 0.10271576 -0.106562756
0.23065445 -0.0014877628 -0.07109888 -0.09411499 -0.0766387 0.1937706 -0.032679778 0.15503994
0.110187896 0.20189314 0.13305111 0.2543258 -0.02129278 -0.09846321 0.1266634 -0.0548217
0.034893557 -0.067758314 0.09576754 -0.045207158 -0.15148842 -0.047574826 -0.027408786 0.047914147
0.06950573 -0.02297832 -0.10144788 0.08524944 0.06457539 0.14591676 0.14509061 0.01403097
0.21238993 -0.24727842 -0.133481 0.013344904 -0.102133796 0.018315302 -0.090332136 0.035140816
0.03998268 0.004079794 0.1283729 -0.121865734 0.30928594 0.1742478 -0.13728815 -0.10749739
-0.053743985 -0.0599572 -0.11921037 0.0042341733 0.13146634 -0.122786924 0.13349102 0.10788524
0.18119338 -0.05325722 0.20786133 -0.076365344 0.046729237 -0.252957 0.21811497 0.18734226
0.055729963 -0.026650155 0.11038038 0.056976937 -0.036113244 -0.06418352 0.14122713 -0.006931022
0.09600096 0.09206421 0.1507488 0.067915924 -0.071452945 0.07028367 -0.083234355 -0.09862927
-0.18755464 -0.011187378 0.0043337904 -0.0814741 0.008071953 0.029482948 0.14501521 -0.05154126
-0.11383695 -0.12942244 0.07381611 0.08812911 -0.08124333 -0.34837788 0.11886945 0.16987374
-0.16721621 -0.17206815 0.14229254 -0.053360056 -0.0921449 -0.13151133 -0.07105706 0.14230031
0.046167415 -0.10153993 -0.04305515 0.03758379 -0.14928167 0.19045348 0.24276045 0.034173615
-0.057178542 0.27765605 -0.10237327 -0.056897864 0.05558299 0.18810892 0.12687011 -0.17955592
0.15369669 -0.06387588 -0.21817078 0.1261533 -0.2732815 -0.12959528 0.14248675 -0.1382041
0.13222164 -0.08260959 0.083325356 0.14555189 0.2117842 0.25725827 0.043236006 -0.04830532
-0.27971753 0.1731881 0.025013993 -0.05964122 0.06617217 -0.0742366 0.03636358 -0.076293245
0.2073835 0.08577974 0.09505273 -0.048887238 0.097386196 0.20182207 0.13521688 -0.09670023
0.048915986 -0.13461041 0.12982255 0.15577878 0.2617592 0.10034301 0.031867452 0.17451705
0.015515842 -0.11814806 0.05771209 0.203783 0.032897417 -0.021624357 0.120513804 0.02639266
0.0611486 -0.10014167 0.08779192 -0.19338574 0.025792835 0.18893582 0.16506907 0.07207103
-0.06283667 -0.07545526 0.020354532 -0.07081121 -0.0068541835 0.058301773 -0.20128608 0.055910602
0.21762039 0.12818725 0.06180625 0.1316877 0.09454902 0.06337774 0.13902825 -0.1375928
0.11303117 -0.108007476 0.06627069 0.15444677 -0.23728845 -0.013559394 0.1580685 -0.17952554

out.bias f4 [5]
00000000: e7c5 013e 7340 0b3e c62a fb3d e592 f73d
00000010: 1152 0e3e
0.1267315 0.13598804 0.12264018 0.12088565 0.13898493
