SimplifiedSpaceWar/trained_models/dqn_bullets_11000.pth (torch, 89165 bytes, 6 tensors)

fc1.weight f4 [128, 33]
0	0x3e969df4	0.29417384
1	0xbded0125	-0.11572484
2	0xbe22fa6a	-0.15915838
3	0x3ec86eba	0.39146978
4	0x3ec3d678	0.38249564
5	0x3e787577	0.2426356
6	0x3f0499d9	0.5179725
7	0x3f6e37e4	0.9305403
8	0xbccf22d3	-0.02528516
9	0x3e5d5e67	0.21618043
10	0xbee78b58	-0.45223498
11	0xbc1f183c	-0.009710368
12	0xbea8fe6a	-0.33006603
13	0xbeb00f76	-0.34386796
14	0xbfb30d5b	-1.3988451
15	0x3eeb2bf5	0.45931974
16	0xbef9393a	-0.48676473
17	0x3e29b0f0	0.16571403
18	0x3b98c160	0.004661724
19	0x3ef1eaa6	0.47249335
20	0xbe8cf673	-0.27531776
21	0x3e135520	0.14387941
22	0x3e102a1c	0.14078563
23	0xbe0d203a	-0.13781825
24	0xbea61719	-0.32439497
25	0x3cdbdae4	0.026837774
26	0xbe6ec172	-0.23315981
27	0x3ee97a9f	0.45601365
28	0xbe01cf70	-0.12676787
29	0xbdfe621b	-0.12421056
30	0xbe07dcfe	-0.13267896
31	0x3da24052	0.079224244
32	0xbea585f5	-0.32328764
33	0x40030a1f	2.0474927
34	0x400d038f	2.2033422
35	0x3e94610a	0.28980285
36	0x3ed04465	0.4067718
37	0xbda61b34	-0.08110657
38	0xbe89c3fe	-0.26907343
39	0xbe8207f1	-0.25396684
40	0xbdf1aeb0	-0.11800897
41	0xbda2d1d9	-0.079501815
42	0x3ed43496	0.4144637
43	0xbf363eb1	-0.7118941
44	0xbeb948c7	-0.36188337
45	0xbe04ce38	-0.12969291
46	0x3c2910ac	0.010318916
47	0x3dab3571	0.083598025
48	0xbd792469	-0.06082574
49	0xbec49a57	-0.38399002
50	0x3d50e6fd	0.051001538
51	0xbd911d44	-0.0708566
52	0xbcc494db	-0.023996761
53	0xbdbf02ea	-0.09326728
54	0xbd46cd1d	-0.048535455
55	0x3da2b002	0.07943727
56	0x3e519f23	0.20470862
57	0xbea7b142	-0.32752424
58	0xbdd21093	-0.102570675
59	0x3d5f92e8	0.05458346
60	0x3e19e0c8	0.15027153
61	0xbdc8ddcf	-0.09807932
62	0x3c43f34b	0.011959861
63	0x3e1b1f61	0.15148689
64	0x3ee3f4a9	0.44522598
65	0xbe387454	-0.18013126
66	0x3e425374	0.18977147
67	0xbec73756	-0.38909405
68	0x3e210f7a	0.1572856
69	0xbd47badc	-0.048762187
70	0xbeaab696	-0.33342427
71	0x3c06c1e2	0.008224936
72	0xbd0853e4	-0.03328313
73	0x3d36df94	0.044646814
74	0x3da3ac1a	0.0799181
75	0xbf25587e	-0.64588153
76	0xbe3dbb9b	-0.18528597
77	0xbcd14c76	-0.025549155
78	0x3ea8bcfb	0.3295668
79	0x3ee8a926	0.4544155
80	0x3ec0681d	0.37579432
81	0x3e66477e	0.2248821
82	0x3ddb38cb	0.10704192
83	0xbd63d314	-0.05562122
84	0xbdac9931	-0.084276564
85	0xbeb877f4	-0.36029017
86	0x3e968654	0.2939936
87	0xbe97321c	-0.29530418
88	0xbe44bd7b	-0.19212906
89	0xbc88ccc2	-0.016699199
90	0x3e120289	0.1425878
91	0x3dbf3696	0.09336583
92	0xbd95eac8	-0.073201716
93	0xbdb04bd1	-0.08608211
94	0x3e6da153	0.23206072
95	0xbe9fbf27	-0.31200525
96	0x3db43831	0.0879978
97	0xbca2773b	-0.019832244
98	0xbdaaf14e	-0.083468065
99	0x3fc3f770	1.5309887
100	0xbee39fec	-0.44457948
101	0xbe20b87e	-0.15695378
102	0xbda6505f	-0.08120798
103	0x3f23e455	0.6402028
104	0x3ddc1297	0.10745733
105	0x3e0de8db	0.13858359
106	0xbd15a85d	-0.036537517
107	0x3d00e208	0.03146556
108	0x3f1ca371	0.6118689
109	0x3e130afd	0.1435966
110	0x3e7fe8ed	0.24991198
111	0x3e847c8a	0.25876266
112	0x3dc4457a	0.09583564
113	0x3d8f29ad	0.06990371
114	0x3eded894	0.4352461
115	0xbf0f97f7	-0.56091255
116	0x3e9c74d0	0.3055787
117	0x3dba4293	0.09094729
118	0x3e4c60b7	0.19958769
119	0x3d1d7634	0.038442805
120	0x3e0be8a8	0.1366297
121	0x3e0ec4be	0.13942239
122	0xbc8afdeb	-0.01696678
123	0x3e431992	0.19052723
124	0xbe249e5c	-0.16076034
125	0x3d033af8	0.03203866
126	0x3daa2375	0.08307544
127	0xbd8c394d	-0.06846867
128	0xbe63033e	-0.22169206
129	0xbec09613	-0.37614498
130	0x3ce0fcac	0.027464233
131	0xbd51dcde	-0.051236026
132	0x3e07ea4a	0.13272968
133	0xbfef8a2b	-1.871404
134	0xbeb22203	-0.34791574
135	0x3de97448	0.11399132
136	0xbd2257de	-0.039634578
137	0x3dd4995b	0.10380813
138	0xbe6f0cff	-0.23344801
139	0xbefb6dfa	-0.49107343
140	0xbd9b351e	-0.07578491
141	0xbde61f6a	-0.112364605
142	0xbe441122	-0.1914716
143	0xbda8885d	-0.08229134
144	0x3e367c63	0.17820887
145	0x3e58ac9e	0.21159598
146	0xbede3af1	-0.43404344
147	0x3ef7d2e6	0.4840309
148	0xbf95d3f5	-1.1705309
149	0x3f1da911	0.615861
150	0xbf204917	-0.62611526
151	0xbdfb04c2	-0.12256767
152	0xbe6ab7b7	-0.22921644
153	0x3c9c535f	0.019082723
154	0x3e8e97a5	0.2785007
155	0x3ea52b62	0.3225966
156	0xbebab866	-0.3646881
157	0x3de07808	0.10960394
158	0x3d24f164	0.04026927
159	0x3ed5283a	0.41632253
160	0x3f1980f2	0.5996238
161	0xbe8bb890	-0.27289248
162	0xbf203770	-0.6258459
163	0xba8f8408	-0.0010949383
164	0xbeca187f	-0.39471814
165	0x3eb65996	0.35615224
166	0xbe90d0a6	-0.28284186
167	0xbe96ca55	-0.29451242
168	0xbe2c34f1	-0.1681707
169	0xbd1cb057	-0.03825411
170	0x3c87bacf	0.01656857
171	0x3e705054	0.23468143
172	0x3f23adfc	0.63937354
173	0x3c514733	0.012773323
174	0x3eab7685	0.3348886
175	0x3e8670e2	0.26257998
176	0x3f453627	0.77035755
177	0xbe6715e4	-0.22566944
178	0x3e85bd79	0.2612112
179	0x3e24d9e0	0.16098738
180	0x3e28ee68	0.16497195
181	0x3ec95d1b	0.39328846
182	0xbdd68e23	-0.10476329
183	0xbe0d25cb	-0.13783948
184	0xbea9543f	-0.33072087
185	0x3e9c639c	0.30544746
186	0xbe228cab	-0.15873973
187	0xbe93a630	-0.28837729
188	0x3dc522e2	0.09625794
189	0xbcc570dc	-0.024101667
190	0x3e18556d	0.14876337
191	0xbe0925c8	-0.13393319
192	0xbed0818a	-0.4072383
193	0xbcbb6f92	-0.02288035
194	0xbe0e1c18	-0.13877904
195	0x3df1ad0f	0.118005864
196	0xbd9d1538	-0.07670063
197	0xbe4b4861	-0.19851829
198	0xbed46b7b	-0.4148825
199	0x3f031ae5	0.5121291
200	0x3e3a7424	0.18208367
201	0x3e9ab264	0.30214226
202	0x3e70ada7	0.23503743
203	0x3f0ece0d	0.5578316
204	0xbc851f51	-0.016250284
205	0xbcf77ee3	-0.030211871
206	0xbab373f4	-0.0013691173
207	0xbdb79390	-0.08963692
208	0x3f24813e	0.6425971
209	0xbd2aef4d	-0.04173212
210	0xbe85acf3	-0.26108512
211	0x3e0cd04b	0.13751332
212	0x3de0c311	0.10974706
213	0xbd780340	-0.060549974
214	0xbf13c801	-0.57727057
215	0xbe69a210	-0.22815728
216	0x3ddf734f	0.10910665
217	0xbe392cc8	-0.18083489
218	0xbf1a7b41	-0.6034432
219	0xbe9ef493	-0.3104597
220	0xbd28cb21	-0.041209344
221	0x3d107383	0.03526641
222	0xbe3882aa	-0.18018594
223	0x3df94a5b	0.12172385
224	0x3e6fe8a1	0.23428585
225	0xbe3161bd	-0.1732244
226	0xbca45734	-0.020061113
227	0x3e4bc745	0.19900234
228	0xbd49d4c3	-0.04927517
229	0x3b8675a5	0.00410338
230	0xbf2c272e	-0.67247283
231	0xbf7ed145	-0.9953807
232	0xc0037351	-2.0539134
233	0x3d1a6994	0.037698343
234	0xbe55cc62	-0.20878747
235	0x3f22e3fc	0.63629127
236	0xbf0df00f	-0.55444425
237	0xbeec4618	-0.46147227
238	0x3eded140	0.4351902
239	0x3c29e7be	0.010370193
240	0x3ee31d72	0.44358402
241	0xbbfcefae	-0.0077190017
242	0xbe602b83	-0.21891598
243	0x3e6ad06e	0.22931072
244	0xbcb07d31	-0.02154407
245	0xbcffc11e	-0.031220015
246	0x3e44029a	0.19141617
247	0x3ea9916a	0.33118755
248	0x3e033e5a	0.12816754
249	0xbe618734	-0.22024232
250	0xbe36b6d5	-0.17843182
251	0x3ec90b45	0.3926641
252	0xbdb54ccb	-0.08852538
253	0x3d574add	0.05256163
254	0x3cea7f82	0.028625254
255	0xbe3816f0	-0.179775

fc1.bias f4 [128]
0	0xbd9deca1	-0.07711149
1	0x3e9209b0	0.28523016
2	0xbe97d10e	-0.29651684
3	0xbf229954	-0.6351521
4	0x3e60f128	0.21966994
5	0x3ee84c1b	0.45370564
6	0x3ebc58cf	0.36786506
7	0xbe295f2a	-0.16540208
8	0x3e6ff018	0.23431432
9	0xbd431884	-0.0476308
10	0x3e9cc1c6	0.30616587
11	0x3e279e51	0.16368987
12	0x3ee68133	0.45020446
13	0xbd566d40	-0.052350283
14	0xbea35185	-0.31898132
15	0x3eaa4016	0.3325202
16	0x3e905751	0.28191617
17	0xbde5c26a	-0.11218722
18	0x3f17be71	0.59274966
19	0x3e07bca6	0.13255557
20	0xbebf4f5c	-0.37365234
21	0x3e862d2b	0.26206335
22	0x3e7424dc	0.23842186
23	0xbeb1a747	-0.34697935
24	0x3d092836	0.033485614
25	0xbf1b4bfb	-0.6066281
26	0x3d410253	0.047121357
27	0x3e8f0984	0.27936947
28	0x3d89bb11	0.06725133
29	0xbbaf77a3	-0.005354838
30	0x3e65afba	0.22430316
31	0x3de2cd24	0.11074284
32	0xbe2156a3	-0.15755706
33	0xbd78bbbd	-0.060725916
34	0x3d55a213	0.05215652
35	0x3e2d72fb	0.16938393
36	0x3e746ad3	0.23868875
37	0xbd22612a	-0.039643444
38	0x3ce5d10b	0.028053781
39	0x3e631e3e	0.22179505
40	0x3cc27f68	0.023742393
41	0x3d12e4a1	0.03586257
42	0xbeb95266	-0.36195678
43	0x3d955b01	0.07292748
44	0xbe9ff1ca	-0.31239158
45	0x3e528c25	0.20561273
46	0xbe1c5e42	-0.15270332
47	0x3d25eabd	0.040507067
48	0xbe73f01e	-0.23822066
49	0xbeb1e645	-0.34745994
50	0xbd9cf7d3	-0.07664456
51	0x3e55c59d	0.20876165
52	0x3f36f31f	0.71464723
53	0x3e8928f9	0.26789072
54	0x3f43b0a2	0.76441395
55	0xbe8fec17	-0.2810981
56	0x3e09d7af	0.13461183
57	0x3d7500ff	0.059815403
58	0x3e11fd37	0.1425675
59	0x3eb16681	0.34648517
60	0x3e65362a	0.22383943
61	0x3f8bfcc0	1.0936508
62	0xbe9d69c9	-0.3074477
63	0xbe32d125	-0.17462595
64	0x3e5c5a87	0.21518908
65	0xbec57044	-0.38562214
66	0x3e503f63	0.2033668
67	0xbe4cb77c	-0.19991869
68	0x3d0b83e1	0.034061316
69	0xbe0a4351	-0.13502242
70	0x3e632169	0.22180714
71	0x3f024cd8	0.50898504
72	0xbc29bc8c	-0.0103598945
73	0x3eb7995d	0.35859194
74	0x3e0594a3	0.13044982
75	0x3f87e21d	1.0615879
76	0xbdd14188	-0.10217577
77	0x3e33876b	0.17532127
78	0x3c7c49c3	0.015398446
79	0x3cd2ef0e	0.025748756
80	0xbf306117	-0.6889815
81	0x3e813e95	0.2524306
82	0xbd9e5503	-0.077310584
83	0x3df740a9	0.1207288
84	0x3f17c13e	0.5927924
85	0xbb938c95	-0.0045028427
86	0x3f80cacf	1.0061892
87	0x3f07405a	0.5283257
88	0x3ead894e	0.33893818
89	0x3beb95c1	0.007189483
90	0x3e1231bf	0.14276789
91	0x3e73b5a4	0.23799759
92	0xbe0e1f2a	-0.13879076
93	0x3ef24327	0.47316858
94	0x3e75d47a	0.24006835
95	0xbe88d089	-0.267216
96	0x3e7370fe	0.23773572
97	0x3e99fc3e	0.30075258
98	0x3eb09628	0.3448956
99	0x3f3dc9a2	0.7413579
100	0xbe9fe113	-0.31226406
101	0x3e16590a	0.14682403
102	0x3e0a1850	0.13485837
103	0xbd103486	-0.03520634
104	0x3e55e518	0.20888174
105	0x3e34ac60	0.17643881
106	0xbbeb2448	-0.007175956
107	0xbdde85fc	-0.10865399
108	0xbe39bd0e	-0.18138525
109	0xbe0f1b02	-0.13975146
110	0x3f01a2eb	0.5063922
111	0x3de0620f	0.10956203
112	0xbb2f346c	-0.0026734127
113	0xbebf3242	-0.3734303
114	0x3dec8637	0.11549037
115	0xbe9f7df3	-0.3115078
116	0x3e812499	0.25223234
117	0x3df7db24	0.12102345
118	0x3e087b07	0.13328181
119	0xbd846ecf	-0.064664476
120	0x3e9b5aea	0.303428
121	0xbdcd9811	-0.1003877
122	0x3de1181d	0.10990927
123	0xbd291a18	-0.04128465
124	0x3d71bdd8	0.05901894
125	0xbdca5168	-0.09878808
126	0x3f0072c5	0.50175124
127	0x3ef52161	0.4787703

fc2.weight f4 [128, 128]
0	0xbda1f06f	-0.07907187
1	0x3e217b7a	0.15769759
2	0xbdc8117d	-0.097689606
3	0xbe814948	-0.25251222
4	0xbe2cc777	-0.16872965
5	0xbeddbf04	-0.43309796
6	0x3dbe299f	0.09285282
7	0xbd88e3cd	-0.066840746
8	0x3d829cdf	0.06377577
9	0xbe8cfe81	-0.2753792
10	0x3cdf72a6	0.027276348
11	0xbccee97b	-0.025257817
12	0x3d71ce15	0.059034426
13	0xbe0d7de7	-0.13817559
14	0xbcc18fab	-0.023628077
15	0xbe5e8a8b	-0.21732537
16	0x3d0b3cb5	0.03399344
17	0x3db06d88	0.086146414
18	0xbc85d3a9	-0.016336279
19	0xbe5e4c14	-0.21708709
20	0xbd47509b	-0.048660856
21	0xbe6c06a2	-0.23049405
22	0x3daca4fd	0.084299065
23	0xbe84b0c5	-0.25916114
24	0x3d87752e	0.06614147
25	0xbe040598	-0.12892759
26	0x3c5cc472	0.013474571
27	0xbd474565	-0.048650164
28	0xbee21dec	-0.44163454
29	0x3dd3749c	0.10324976
30	0xbeee8654	-0.4658686
31	0xbda692b6	-0.08133452
32	0x3d6c84dd	0.057743896
33	0x3cf0d98e	0.029400613
34	0x3e1c2538	0.15248573
35	0xbd8905c3	-0.06690552
36	0xbd84817d	-0.064700104
37	0xbdf05984	-0.11735824
38	0xbd5f5c80	-0.054531574
39	0xbe5cd9ed	-0.21567507
40	0xbdf3a92c	-0.11897501
41	0xbd46168f	-0.048361357
42	0xbf051901	-0.5199128
43	0xbdf98bf8	-0.121849
44	0xbd3b8541	-0.045781378
45	0xbe09aa87	-0.13443957
46	0x3d88c76b	0.06678661
47	0xbe951bad	-0.29122677
48	0x3d6d30dc	0.057907924
49	0xbe305871	-0.17221238
50	0xbe24667a	-0.16054717
51	0x3e3bd08f	0.18341278
52	0xbef536d5	-0.47893396
53	0xbedc589f	-0.43036363
54	0xbec61689	-0.38689068
55	0xbd1af13a	-0.037827708
56	0xbd0b4942	-0.03400541
57	0x3db154f6	0.08658783
58	0x3d493efd	0.049132336
59	0xbe78b4e1	-0.2428775
60	0xbe228d28	-0.1587416
61	0x3d8bbbc4	0.06822923
62	0xbede9dca	-0.43479759
63	0x3c4c5dbd	0.012473521
64	0xbefb8c5a	-0.49130517
65	0xbe3009a4	-0.17191178
66	0xbd8139d8	-0.06309861
67	0x3e68f591	0.22749926
68	0x3d2935bd	0.041311014
69	0x3c6af197	0.014339826
70	0xbe4d5abe	-0.20054147
71	0xbf3cd40a	-0.73761046
72	0x3dae46e2	0.085096136
73	0x3d3f2a61	0.046671275
74	0x3d7a1002	0.061050422
75	0x3e20de8e	0.15709898
76	0x3cf85421	0.030313553
77	0xbe1cca45	-0.15311535
78	0xbcc74115	-0.024323026
79	0xbe904624	-0.28178513
80	0x3d28079c	0.041022882
81	0xbe28bece	-0.16479036
82	0xbc68ffca	-0.014221141
83	0xbdee9ee0	-0.11651397
84	0xbce128c0	-0.027485251
85	0xbd083e2e	-0.033262424
86	0xbdeb3448	-0.11484581
87	0xbe0ff6f8	-0.14059055
88	0x3d810d84	0.06301406
89	0x3d3e1a9f	0.046412107
90	0xbe9e6db8	-0.30943084
91	0xbe86b488	-0.2630961
92	0x3cbc5f49	0.022994654
93	0xbe323015	-0.17401154
94	0xbd872da7	-0.06600504
95	0x3dd5256e	0.1040753
96	0x3ce78e30	0.028266042
97	0x3db087f1	0.08619679
98	0xbe198ff7	-0.14996324
99	0x3e2ac153	0.1667531
100	0x3e23f96d	0.16013117
101	0xbebec88c	-0.3726238
102	0xbd5babe4	-0.053630725
103	0xbe610839	-0.21975793
104	0xbdb4585f	-0.08805918
105	0xbe8de928	-0.27716947
106	0xbf822752	-1.016825
107	0xbddc933f	-0.107702725
108	0xbe547ae7	-0.20750009
109	0xbda3f4be	-0.08005665
110	0xbe55ca9b	-0.20878069
111	0x3e2f8b6c	0.17143029
112	0xbe226361	-0.15858223
113	0x3d59253f	0.053014036
114	0x3c921d91	0.017836364
115	0xbed990da	-0.42493325
116	0x3d9c4733	0.07630768
117	0xbd8962a2	-0.06708266
118	0x3dab01cc	0.08349952
119	0x3de8965f	0.11356806
120	0x3bb9e6b1	0.0056732525
121	0x3e2810d7	0.16412674
122	0xbd0c1961	-0.03420389
123	0xbdb56683	-0.08857443
124	0xbe90bd9e	-0.28269666
125	0x3e1d0f32	0.15337828
126	0xbe2a846c	-0.16652077
127	0xbde1cbc0	-0.1102519
128	0xbd9b411c	-0.07580778
129	0xbe88d719	-0.26726606
130	0x3d5387b2	0.05164308
131	0x3d08478b	0.033271354
132	0xbe4ed1e6	-0.20197257
133	0x3bbdaff9	0.0057888
134	0xbe222f7b	-0.15838425
135	0xbd9c3a24	-0.07628277
136	0xbcaa8754	-0.020816483
137	0xbe89c921	-0.26911262
138	0xbe1c6297	-0.15271984
139	0x3b6420e4	0.0034809643
140	0x3c821c48	0.015882626
141	0x3dfba954	0.12288156
142	0xbdeb059b	-0.114756785
143	0xbd955503	-0.07291605
144	0xbd7d9c65	-0.061916728
145	0xbdae6e95	-0.085171856
146	0xbe393077	-0.18084894
147	0xbf24c07a	-0.64356196
148	0xbebe5d65	-0.3718063
149	0x3e39c5a0	0.18141794
150	0x3cf2cafa	0.029637802
151	0xbe4d3959	-0.20041408
152	0xbe0bec0f	-0.13664268
153	0xbdc003ac	-0.093757
154	0x3cf613d9	0.030038761
155	0x3c85d0cc	0.016334914
156	0xbeb764db	-0.35819134
157	0x3e72dc19	0.23716773
158	0x3d719342	0.058978327
159	0x3e152fdd	0.1456904
160	0xbe80c2e6	-0.25148696
161	0x3de09752	0.10966362
162	0xbd6857be	-0.056724302
163	0x3d1dc9e2	0.03852261
164	0xbe2fcba9	-0.17167534
165	0x3c33f6c6	0.010984128
166	0xbe104660	-0.14089346
167	0xbe5c50c0	-0.21515179
168	0x3ba209a9	0.0049449992
169	0x3e43af00	0.19109726
170	0xbd3500b0	-0.04419011
171	0xbdae0bff	-0.08498382
172	0x3cbc5448	0.022989407
173	0x3e70f870	0.23532271
174	0x3d83b87b	0.06431671
175	0xbdf6883c	-0.120377034
176	0x3deadff0	0.11468494
177	0xbef4b603	-0.47795114
178	0x3dc5de02	0.09661485
179	0xbe1db19a	-0.15399781
180	0xbe9b5898	-0.3034103
181	0x3e4a1dea	0.19737974
182	0xbca0841c	-0.019594245
183	0xbe9343b9	-0.28762606
184	0x3deb331c	0.11484358
185	0xbbc3606a	-0.005962421
186	0x3d552c07	0.05204394
187	0x3e1e0ab9	0.15433778
188	0xbeb5625e	-0.3542661
189	0x3d69e85a	0.057106353
190	0xbe4d0546	-0.20021543
191	0x3dc4beae	0.09606682
192	0x3d2aee97	0.041731443
193	0xbe4419e5	-0.19150503
194	0xbe9ef002	-0.31042486
195	0xbe838de4	-0.2569419
196	0x3e35c9b3	0.17752723
197	0x3d3aef72	0.04563851
198	0xbd1dda50	-0.038538277
199	0x3d5e5bf9	0.05428693
200	0xbcc912a5	-0.024545023
201	0x3e9c90a6	0.30579108
202	0xbe1294f5	-0.14314635
203	0x3ba6f0a9	0.005094607
204	0xbdca6711	-0.098829396
205	0x3dcff226	0.10153608
206	0x3d5ff610	0.054678023
207	0xbda1da6c	-0.07902989
208	0x3da8eec1	0.08248664
209	0xbec698bf	-0.3878841
210	0xbe3029f6	-0.17203507
211	0x3e2ac4e3	0.16676669
212	0x3e181072	0.14850023
213	0xbe66b9eb	-0.2253186
214	0xbe363b88	-0.17796147
215	0xbd512563	-0.051061045
216	0x3cac083c	0.02100002
217	0x3e4c2e21	0.19939472
218	0xbecb2a7e	-0.39680856
219	0xbe89db47	-0.26925108
220	0xbd0bfa6c	-0.034174368
221	0x3d0da5af	0.034581836
222	0x3e0b500a	0.13604751
223	0xbc7b7172	-0.015346872
224	0xbd6031da	-0.054735042
225	0xbef0fc05	-0.47067276
226	0xbe6583bf	-0.22413538
227	0x3ddd4210	0.10803616
228	0xbdb164a3	-0.08661773
229	0xbdd4c526	-0.103891656
230	0x3c534f70	0.012897357
231	0xbdc84efa	-0.097806886
232	0x3cba806f	0.02276632
233	0xbe101cf9	-0.14073552
234	0xbe1c3cd0	-0.15257573
235	0xbe372ea1	-0.17888881
236	0xbe0ebcea	-0.13939252
237	0xbd706242	-0.058687456
238	0xbe49fb9e	-0.1972489
239	0xbd87fbb0	-0.066398025
240	0xbe41d6ad	-0.18929549
241	0x3d199138	0.037492007
242	0xbe57592f	-0.21030115
243	0x3cacd430	0.021097273
244	0x3df721f1	0.12067021
245	0xbe9d7873	-0.30755958
246	0xbe489fca	-0.19592205
247	0x3c0c7395	0.008572479
248	0xbe987967	-0.29780123
249	0x3e866186	0.2624628
250	0x3df9d2ed	0.12198434
251	0x3d2bdbd9	0.04195771
252	0xbeb1064a	-0.3457511
253	0xbc124c4b	-0.0089293225
254	0xbdbbef18	-0.09176463
255	0xbe13b477	-0.1442431

fc2.bias f4 [128]
0	0x3d8bbf40	0.068235874
1	0x3db5cf2d	0.08877406
2	0x3b5dab6a	0.0033824095
3	0xbd01d39f	-0.03169596
4	0x3dd9a4a2	0.10627104
5	0xbe7769e6	-0.24161491
6	0xbd2b7dfb	-0.04186819
7	0x3e3fb9de	0.18723246
8	0xbe06c602	-0.13161471
9	0x3d9b3a6a	0.07579501
10	0xbdafa569	-0.08576471
11	0xbdd5fa7e	-0.10448168
12	0x3e464fe2	0.1936641
13	0x3e2b38f5	0.16720946
14	0x3dc0a821	0.09407068
15	0x3b881342	0.0041526863
16	0x3d32149d	0.04347669
17	0x3a4eef9a	0.000789398
18	0xbd2dfc5b	-0.042476993
19	0x3d30504a	0.04304532
20	0x3e44b93a	0.19211283
21	0x3ce77a4b	0.028256556
22	0x3da8eab5	0.08247892
23	0x3d16498a	0.036691226
24	0x3e000dcc	0.12505263
25	0xbde09fee	-0.10968004
26	0x3d8d2e3f	0.06893586
27	0xbc3755fa	-0.011189932
28	0x3d15c78f	0.036567267
29	0x3db9be72	0.09069528
30	0x3dd135f4	0.10215369
31	0x3da555ae	0.08072983
32	0xbd9034a3	-0.0704129
33	0xbc66d198	-0.014088057
34	0xbe253895	-0.16134866
35	0xbe0c24ce	-0.13685915
36	0x3ea4cd7f	0.3218803
37	0x3cf1dae7	0.029523326
38	0x3d77598b	0.06038813
39	0x3e0f5707	0.13998042
40	0x3e000e73	0.12505512
41	0x3d67abd5	0.056560356
42	0x3de99a4d	0.11406384
43	0x3e2ff7e5	0.17184408
44	0xbe5a4861	-0.21316673
45	0x3d6fa828	0.058509976
46	0xbcf6509b	-0.030067733
47	0xbe49c9dc	-0.1970591
48	0xbba21e17	-0.0049474346
49	0x3d5c8436	0.053837024
50	0x3d61afcb	0.05509929
51	0x3d968547	0.073496394
52	0x3e25a37a	0.16175643
53	0x3cef1f8f	0.029189853
54	0x3d2b181f	0.04177105
55	0x3db5a7ca	0.08869894
56	0x3d90691e	0.070512995
57	0x3e6ca767	0.23110734
58	0x3d4659d8	0.048425525
59	0xbd84c168	-0.06482202
60	0x3dd82bc3	0.10555222
61	0xbdb825c9	-0.08991582
62	0x3cd7a409	0.026323335
63	0xbdc46df2	-0.09591283
64	0x3cca321f	0.024682103
65	0x3deaf1df	0.114719145
66	0xbc952675	-0.018206814
67	0xbcd1a8e0	-0.025593221
68	0x3b421c77	0.0029619017
69	0x3b8f064a	0.0043647634
70	0x3de39643	0.111126445
71	0xbdd49a57	-0.103810005
72	0x3af92f15	0.0019011224
73	0xbd02f59b	-0.03197251
74	0x3dbc5e12	0.0919763
75	0x3f6762b7	0.90385
76	0x3d6cc264	0.057802573
77	0xbd946a46	-0.072468325
78	0xbd349f9e	-0.044097535
79	0xbcf8d28e	-0.030373838
80	0x3bdc1297	0.0067160833
81	0xbdffc469	-0.12488634
82	0xbd0112ab	-0.031511944
83	0x3e189f79	0.14904584
84	0xbd9d93ad	-0.076941825
85	0x3be7734b	0.0070633045
86	0x3dffba90	0.12486756
87	0x3d98187e	0.074265465
88	0x3e0ae0c5	0.13562305
89	0x3de285ab	0.110606514
90	0x3e0e095c	0.13870758
91	0x3c33e60e	0.010980142
92	0x3db69f9a	0.0891716
93	0x3b8d7244	0.0043166
94	0x3d45da83	0.048304092
95	0xbe04421c	-0.12915844
96	0xbc3a0322	-0.011353286
97	0x3dc1cce8	0.09462911
98	0xbda6ae7b	-0.08138748
99	0xbdd46490	-0.10370743
100	0x3de556e1	0.111982115
101	0x3d38e63b	0.04514144
102	0xbd5e50bd	-0.054276217
103	0x3ce46cdb	0.027883938
104	0x3e3e8ab3	0.18607597
105	0xbdd4c50b	-0.103891455
106	0xbcc8ce16	-0.024512332
107	0x3d3b8b1c	0.045786962
108	0x3dba233f	0.09088754
109	0x3de61e83	0.112362884
110	0xbe15ed7f	-0.14641379
111	0x3e0ffffd	0.14062496
112	0xbcea9377	-0.02863477
113	0x3d6a76c5	0.057242174
114	0x3d86edd2	0.065883294
115	0x3e2104a9	0.15724434
116	0x3e12b000	0.14324951
117	0x3e57ef73	0.21087436
118	0xbd7d883b	-0.061897498
119	0x3bc73fc7	0.006080601
120	0x3d06546a	0.032795347
121	0xbe28b859	-0.16476573
122	0xbd3902ce	-0.04516869
123	0x3b543c9a	0.0032384754
124	0x3a447f3b	0.00074957655
125	0xbda7a89a	-0.08186455
126	0xbe2a02da	-0.1660265
127	0xbd75ee00	-0.060041428

out.weight f4 [5, 128]
0	0x3e3b28c3	0.18277268
1	0x3dd75454	0.10514131
2	0xbd95f15e	-0.07321428
3	0x3c94c3be	0.018159743
4	0x3e031cfe	0.12804028
5	0x3cbe5876	0.02323554
6	0x3d4c4378	0.04986903
7	0x3cc79edf	0.024367748
8	0xbd6300d3	-0.055420708
9	0x3c842798	0.016132161
10	0x3e0e8be5	0.13920553
11	0x3d3e6fdf	0.046493407
12	0xbde46b01	-0.11153222
13	0xbd9a1c38	-0.075249135
14	0x3dced1cb	0.100986086
15	0x3df2a1d2	0.11847271
16	0x3da568c0	0.0807662
17	0xbc958e4a	-0.018256325
18	0xbe74f730	-0.2392242
19	0xbc0a5529	-0.008443155
20	0xbd0ea64b	-0.034826558
21	0x3d14c8c4	0.036324278
22	0x3e4a7c9d	0.19774099
23	0x3e836132	0.25660092
24	0xbd9d0041	-0.07666064
25	0xbe2c5c38	-0.16832054
26	0x3e10c9dd	0.14139505
27	0x3e170061	0.14746238
28	0x3e577fc4	0.21044832
29	0x3b098e57	0.0020989382
30	0xbdb5a62a	-0.08869584
31	0x3e1cde85	0.1531926
32	0x3ccb7b11	0.024838956
33	0xbca15338	-0.019693002
34	0xbe3e7c94	-0.1860221
35	0x3d96b13e	0.07358025
36	0xbe397b7f	-0.18113516
37	0x3e2e2b44	0.17008692
38	0xbdee6a0e	-0.11641322
39	0x3e9c8469	0.3056977
40	0xbda92902	-0.08259775
41	0x3d362026	0.044464253
42	0x3e2d986a	0.16952673
43	0xbe5fb035	-0.21844561
44	0xbd8c6d54	-0.0685679
45	0x3d2381cd	0.03991871
46	0x3e06fcc7	0.13182364
47	0xbdfe6d8a	-0.12423237
48	0xbdf8aba3	-0.12142112
49	0xbe769d85	-0.24083526
50	0xbd6eac31	-0.058269683
51	0xbe0956b5	-0.13411982
52	0x3e116743	0.14199547
53	0x3e6bd691	0.2303107
54	0x3dd25ca4	0.10271576
55	0xbdd04cb5	-0.10170881
56	0x3e6c30ae	0.23065445
57	0xbac30109	-0.0014877628
58	0xbd919c4a	-0.07109888
59	0xbdc0bf5c	-0.09411499
60	0xbd9cf4c0	-0.0766387
61	0x3e242611	0.16030146
62	0xbd0ce4fd	-0.034398068
63	0x3e1ec2ca	0.15503994
64	0x3de1aa31	0.110187896
65	0x3e51eb26	0.20499858
66	0x3e083e8d	0.13305111
67	0x3e8236fe	0.2543258
68	0xbcae6e32	-0.02129278
69	0xbdc35296	-0.095372364
70	0x3e01b40d	0.1266634
71	0xbd608cb8	-0.0548217
72	0x3d0eec8c	0.034893557
73	0xbd8ac4df	-0.067758314
74	0x3dbe297c	0.09285256
75	0xbd3773d1	-0.044788186
76	0xbe1b1fc8	-0.15148842
77	0xbd42ddd2	-0.047574826
78	0xbce08864	-0.027408786
79	0x3d4441a0	0.047914147
80	0x3e0aed20	0.13567019
81	0xbcbc3d08	-0.02297832
82	0xbdcfc3e8	-0.10144788
83	0x3e1b56f1	0.15169884
84	0x3d84401a	0.06457539
85	0x3e5049e7	0.20340692
86	0x3e1492a2	0.14509061
87	0x3c65e227	0.01403097
88	0x3e597cbf	0.21238993
89	0xbe7d368e	-0.24727842
90	0xbe0f85e6	-0.14015922
91	0x3c5aa496	0.013344904
92	0xbdd12b86	-0.102133796
93	0x3d64a83d	0.055824507
94	0xbdb9000e	-0.090332136
95	0x3d0fefd1	0.035140816
96	0x3d23c4e1	0.03998268
97	0xbc1109f8	-0.008852474
98	0x3e03742f	0.1283729
99	0xbdf994be	-0.121865734
100	0x3e9e5aba	0.30928594
101	0x3e326e04	0.1742478
102	0xbe0c9544	-0.13728815
103	0xbddc2797	-0.10749739
104	0xbd204fa5	-0.039138455
105	0xbd7595ae	-0.0599572
106	0xbe178489	-0.14796652
107	0x3cd32d83	0.025778538
108	0x3e069f1d	0.13146634
109	0xbdfea9be	-0.124347195
110	0x3e08b1df	0.13349102
111	0x3db8db77	0.090262346
112	0x3e398ac2	0.18119338
113	0xbde48da8	-0.11159831
114	0x3e54d99a	0.20786133
115	0xbd91f658	-0.071270645
116	0xbd94a451	-0.07257903
117	0xbe818394	-0.252957
118	0x3e5f5988	0.21811497
119	0x3e509717	0.20370136
120	0x3d64451a	0.055729963
121	0x3ae912a5	0.0017782046
122	0x3de20f1c	0.11038038
123	0x3d6960a6	0.056976937
124	0xbd13eb7b	-0.036113244
125	0xbd8372a6	-0.06418352
126	0x3e109dd8	0.14122713
127	0xbbe31da0	-0.006931022
128	0x3dc49c27	0.09600096
129	0x3d8ac72a	0.06776269
130	0x3e32ed41	0.17473318
131	0x3d8b1781	0.067915924
132	0xbd89b091	-0.067231305
133	0x3d8ff0e3	0.07028367
134	0xbdaa76c6	-0.083234355
135	0xbdcca751	-0.099928506
136	0xbe400e53	-0.18755464
137	0xbc374b44	-0.011187378
138	0x3b8e0278	0.0043337904
139	0xbda6dbe5	-0.0814741
140	0x3c04403a	0.008071953
141	0xbc900cc7	-0.017584218
142	0x3e1d3d43	0.153554
143	0xbd3ad2d2	-0.04561121
144	0xbde92359	-0.11383695
145	0xbdcd412f	-0.100221984
146	0x3d972ce7	0.07381611
147	0x3deb8a19	0.115009494
148	0xbcb0c3a3	-0.021577662
149	0xbeb25e96	-0.34837788
150	0x3df371d4	0.11886945
151	0x3e2df362	0.16987374
152	0xbe2b3aba	-0.16721621
153	0xbe3032a2	-0.17206815
154	0x3e11b523	0.14229254
155	0xbd5a9013	-0.053360056
156	0xbdbcb677	-0.0921449
157	0xbe06aae8	-0.13151133
158	0xbd91865d	-0.07105706
159	0x3d7537db	0.05986772
160	0x3d72bb63	0.059260737
161	0xbdcff42b	-0.10153993
162	0xbd305a99	-0.04305515
163	0x3d19f176	0.03758379
164	0xbddaf460	-0.10691142
165	0x3e771c8b	0.24131982
166	0x3e789632	0.24276045
167	0x3d0bf9a2	0.034173615
168	0xbddb41ee	-0.107059345
169	0x3e8e28ef	0.27765605
170	0xbdd1a914	-0.10237327
171	0xbd690dbc	-0.056897864
172	0x3d63abe3	0.055583846
173	0x3e409fa0	0.18810892
174	0x3e01ea3d	0.12687011
175	0xbe032a95	-0.12809213
176	0x3e1d62aa	0.15369669
177	0xbd82d15b	-0.06387588
178	0xbe5f6829	-0.21817078
179	0x3e063e6d	0.13109751
180	0xbe8beb8e	-0.2732815
181	0xbe04b4a0	-0.12959528
182	0x3e11e80c	0.14248675
183	0xbdf367bd	-0.11885021
184	0x3e08c8f6	0.1335791
185	0xbda92f37	-0.08260959
186	0x3daaa67c	0.083325356
187	0x3e2af26c	0.16694039
188	0x3e58ddf5	0.2117842
189	0x3e18cd2a	0.14922014
190	0x3d91b92f	0.07115399
191	0xbd45dbcd	-0.04830532
192	0xbe8f3723	-0.27971753
193	0x3e315839	0.1731881
194	0x3cccea25	0.025013993
195	0xbd744a5a	-0.05964122
196	0x3d878546	0.06617217
197	0xbdad170f	-0.08451664
198	0x3d14f1fa	0.03636358
199	0xbd9c3fa2	-0.076293245
200	0x3e545c57	0.2073835
201	0x3dafad4a	0.08577974
202	0x3dbe1728	0.092817605
203	0xbd41ac1b	-0.047283273
204	0x3dc7726a	0.097386196
205	0x3e4eaa72	0.20182207
206	0x3e0a764b	0.13521688
207	0xbdc60ac5	-0.09670023
208	0x3dccde98	0.10003394
209	0xbe09d750	-0.13461041
210	0x3e04f034	0.12982255
211	0x3dc0b574	0.094096094
212	0x3e86054d	0.2617592
213	0x3dd59fe3	0.104308866
214	0x3d028772	0.031867452
215	0x3e32b499	0.17451705
216	0x3c7e3628	0.015515842
217	0xbdf1f79c	-0.11814806
218	0x3d985f3b	0.07440039
219	0x3e50ac7e	0.203783
220	0x3d06bf71	0.032897417
221	0x3ccf41a2	0.02529985
222	0x3df6cff1	0.120513804
223	0x3cd8356b	0.02639266
224	0x3d7a76f4	0.0611486
225	0xbdee660e	-0.11640559
226	0x3db3cc40	0.08779192
227	0xbe4606e9	-0.19338574
228	0x3cd34b7f	0.025792835
229	0x3e417864	0.18893582
230	0x3e2907de	0.16506907
231	0x3d9399fa	0.07207103
232	0xbda6f190	-0.08151543
233	0xbd9a884a	-0.07545526
234	0x3d00aae6	0.03141298
235	0xbd89799b	-0.067126475
236	0xbbe0990f	-0.0068541835
237	0x3d6ecdd7	0.058301773
238	0xbe4e1df0	-0.20128608
239	0x3d848c7e	0.06472109
240	0x3e5ed7e1	0.21762039
241	0x3dab0288	0.08350092
242	0x3d7d288d	0.06180625
243	0x3e0ab104	0.13544089
244	0x3e053ce8	0.13011515
245	0x3d81cc30	0.06337774
246	0x3e0e5d6c	0.13902825
247	0xbe0ce521	-0.1375928
248	0x3de77ce3	0.11303117
249	0xbdee8563	-0.11646535
250	0x3d87b8ed	0.06627069
251	0x3e1e274b	0.15444677
252	0xbe72fbbe	-0.23728845
253	0xbc5e2838	-0.013559394
254	0x3e21dcb5	0.1580685
255	0xbe37d58b	-0.17952554

out.bias f4 [5]
0	0x3dfd3118	0.123628795
1	0x3e038ccc	0.12846678
2	0x3e062802	0.131012
3	0x3e11f249	0.1425258
4	0x3dee6153	0.11639657
