SimplifiedSpaceWar/trained_models/madrl_bullets_14000.pth (torch, 89189 bytes, 6 tensors)

fc1.weight f4 [128, 33]
00000000: f120 9c3f 47ec a5bf 3fa8 0abf 5224 163e
00000010: 6389 a4be 8c0f 16bd cad6 ecbe d298 043e
00000020: 49a2 cfbd ce48 e4be bee1 10be 21bf be3e
00000030: 6c8f debd bc95 583e 0391 183e 7d56 273f
00000040: cfda cdbd 8a2c 3a3e 5c07 55be 9bad b43e
00000050: 1148 433e 46d1 15be a881 b5bd f9b5 1bbd
00000060: 1662 44be 3c5b 0f3e 0a86 6bbb e5f1 de3e
00000070: deeb bdbd 623e fc3d af97 a2bd ef7e 313e
00000080: 4062 d43d e268 6b3f 0c5f 213f 5033 40bf
00000090: 874b 4dbd 803c 1f3f 2470 86bd e63d 153a
000000a0: ecc0 003e 4a94 48bb b611 9b3e 2bcb ffbe
000000b0: b1f6 e23e c61f 4dbe a8b9 cdbf 8db9 adbf
000000c0: 97f6 a83e 956c 013c 48e7 c6bd 0bc6 04bf
000000d0: 6cfd 973e 7274 073d 8300 89be 3794 e7be
000000e0: e183 b03e 0e93 da3d 8600 1cbe 5bc3 97be
000000f0: 46eb 173f 7e87 e7be 151e f63d f685 c93c
00000100: e112 853e 6c4b 53be 9f8c 4e3f 9e86 d73e
00000110: 4c41 8a3e ac4d e3be a27c 253f 24d4 fe3e
00000120: 5fd6 2a3e 0532 87bf 23f6 b93a 7682 e9be
00000130: 5ad1 913d 237c 593f d4fb 543f f833 fbbe
00000140: 4179 ffbd 916b 6e3e afa6 033e b4ed 87bc
00000150: 0eec f03d cf17 3bbe 8eee 513e 0614 03bd
00000160: 84a0 8dbd 9bcf eabe 46a6 ac3e 28fd debb
00000170: 232c 733e 0051 26be 371c 203f b359 1cbe
00000180: 5e68 b2bc a8bb 73be 3a2f d93e 4c54 fc3f
00000190: 8910 ca3f 38d7 cbbd d34c 02bd 662b 573e
000001a0: 6f6b adbd 84b5 3c3f fa6b fcbd 8fc8 a1bc
000001b0: fcfc 46bf ee9d 3fbe b1af 30bd 5a15 553f
000001c0: 6cdb 423e c455 3abe b3d9 2bbe 9d39 283e
000001d0: f4f3 0e3e d0fd dcbd bfaa 2b3c daee 1b3f
000001e0: 5aca c73c 9b4c aebd c53b cebe 6c38 823f
000001f0: 320c 8b3e 0e31 e2bb 7ed5 02be a381 033f
00000200: 1973 dd3d 9778 76bd 3575 05be 32d7 693f
00000210: 1f4e 323e a42e a13d ebbf ca3d 797c c9bc
00000220: 0597 45be 3898 473f eb23 273e 6342 a03f
00000230: 9506 10bd c000 0f3e ad43 a33e 6ab5 f23e
00000240: a134 313e 0fb4 6cbf d6a3 91bf d5eb 4e3e
00000250: efc3 923e 3386 e9be 6aba 7e3e f84d b53e
00000260: ef71 45be bc40 febe 850f 7fbd a1dd 023f
00000270: 0304 88bc e50d 233c 69d4 1dbe ece7 903d
00000280: 98fb 13be 5516 c8be 76bb dabe 0c1c 823d
00000290: f9a1 d2bc 200a cdbf 838c 32bf d67b bcbe
000002a0: 00bf 00be b3ad 9cbe 5660 c43e d571 40be
000002b0: b495 dcbe efdf f2bb fd04 dc3e 27e2 5abc
000002c0: c2f7 1c3d 5e38 ab3e 0d4f 9e3d 90c2 8a3d
000002d0: 28f1 12be 6170 b33c 1c71 fa3d 4ac6 f8bd
000002e0: 3fcc e1bd b6d9 803d 46d9 403e 4149 6d3d
000002f0: ee41 7bbe 3c84 b33d 2c24 25bd 8f83 b5bd
00000300: 20d2 5fbe 29fd e13c 6ac5 1f3d a313 54be
00000310: a97a 22be 999b e63d d64b 433d 763c 8e3b
00000320: 8d6b 493c 6bf3 acbc 0d78 0c3d fdb4 46bc
00000330: 233b 1f3d 36d3 0abe bc41 473a f56b d13c
00000340: 66b7 48bc c61a 173d e11a 91bb 4763 263e
00000350: 567a 4bc1 621b bf3c 1b0f 70be fe8a 16bc
00000360: 3fdf 55bc ec76 5e3d 287e 07bc 926e 843c
00000370: b36a a2bc 66c3 03bd e7cd a43c ce22 633b
00000380: cbfe 993b c597 9ebd 618e 26bd 5846 443d
00000390: 12d9 3abd 7689 363b 563c 7fbd ec01 2cbf
000003a0: 638e fb3e 97e1 49be 2102 bbbc 0dfc ddbe
000003b0: 0883 36bc 13ae a7be 7bcb c63b c6ca 5b3b
000003c0: a335 f7bf 5924 9a3e 64d5 67be e8ae e23d
000003d0: 6027 713e 9dd3 573e 00a0 833e 0ade 14bd
000003e0: f843 9fbe f5a4 b7bd fbae afbe d287 25be
000003f0: e87a 0bbe 9ef1 573e 3351 0d3e 2299 ebbd
1.2197553 -1.2962731 -0.54162973 0.14662293 -0.32136068 -0.03663592 -0.4625762 0.12948921
-0.10138375 -0.44586796 -0.14148614 0.37255195 -0.10867199 0.21150869 0.14899068 0.65366346
-0.100515 0.18181053 -0.20803589 0.352887 0.1907046 -0.14630613 -0.088626206 -0.03801534
-0.19178042 0.13999647 -0.0035938048 0.43543926 -0.09273504 0.12316586 -0.079390876 0.17333578
0.10370302 0.91956913 0.63035655 -0.75078297 -0.050120857 0.6220169 -0.06564358 0.00056931225
0.12573594 -0.0030605965 0.3028695 -0.49959692 0.44328836 -0.20031652 -1.6072283 -1.3572251
0.33000633 0.007899423 -0.09712082 -0.5186469 0.29685533 0.033070035 -0.26758203 -0.45230266
0.34475616 0.1067258 -0.15234575 -0.29641232 0.59343374 -0.4522056 0.120174564 0.02460001
0.25990966 -0.2063424 0.8068332 0.42094892 0.27002943 -0.44395196 0.646433 0.49771225
0.16683339 -1.056214 0.0014187734 -0.45607346 0.07120009 0.8495504 0.8319676 -0.49063087
-0.12474299 0.23283221 0.12856553 -0.016592838 0.11763774 -0.18270801 0.20501158 -0.032001518
-0.069153816 -0.45861515 0.33720607 -0.006805081 0.23747306 -0.16241837 0.6254305 -0.15268593
-0.021778282 -0.23802054 0.42418844 1.9713225 1.5786296 -0.09953159 -0.031811547 0.21012649
-0.08467757 0.7371447 -0.123252824 -0.019748954 -0.77729774 -0.18712589 -0.043136302 0.83235705
0.19029015 -0.1819678 -0.16782264 0.16428228 0.13960248 -0.107905984 0.010477721 0.60911334
0.024388481 -0.08510705 -0.40279976 1.0173469 0.27157742 -0.0069028204 -0.12776753 0.51369685
0.10812969 -0.060173597 -0.13032992 0.91343987 0.17412613 0.07870224 0.09899887 -0.024595486
-0.1929589 0.7796664 0.16322295 1.252026 -0.035162527 0.1396513 0.3188757 0.47404033
0.17305233 -0.9246225 -1.1378124 0.2020715 0.2866511 -0.45610198 0.24875799 0.35411048
-0.19281743 -0.49658763 -0.06227066 0.5111943 -0.016603475 0.009952043 -0.1541306 0.070754856
-0.14451444 -0.39079538 -0.42721146 0.06353006 -0.025712 -1.6018715 -0.69745654 -0.3681323
-0.1257286 -0.30601272 0.38354748 -0.18793423 -0.43082964 -0.007411949 0.42972556 -0.013359583
0.038322218 0.33441442 0.077299215 0.06775391 -0.14349806 0.021904172 0.12228605 -0.12147196
-0.11025285 0.06291525 0.18832883 0.05793119 -0.24536869 0.08765456 -0.0403177 -0.088629834
-0.218575 0.027586536 0.039006628 -0.20710616 -0.15867104 0.11260147 0.047679745 0.0043407036
0.0122937085 -0.021112164 0.034294177 -0.012128112 0.038874757 -0.13557133 0.0007601043 0.025564173
-0.012250757 0.036890768 -0.004428253 0.16248809 -12.717367 0.023328487 -0.23443262 -0.009188412
-0.013053714 0.05431263 -0.008269824 0.016166005 -0.019826269 -0.03216877 0.020117713 0.0034658196
0.004699563 -0.077437915 -0.040663127 0.047918648 -0.04561717 0.002785293 -0.0623134 -0.6719043
0.4913207 -0.19714962 -0.022828164 -0.43356362 -0.011139639 -0.32749996 0.006066737 0.003353761
-1.9313244 0.30105856 -0.22639996 0.11068517 0.23550177 0.21076818 0.25708008 -0.036344565
-0.31106544 -0.0896701 -0.34313187 -0.16165093 -0.13621104 0.21088263 0.13800506 -0.11503817

fc1.bias f4 [128]
00000000: 8bf5 bebe c40a 6b3e 469f 94be c406 e53e
00000010: 3b7a e03e b7fb 84bd a48b 3abe 4bf5 dcbe
00000020: 7ba3 763e e4de f73e 2a41 a93e a59a da3e
00000030: 6b2a d93e 0b16 e03e d946 2c3f bc14 25bd
00000040: 0249 6ebe cf05 12bf cb8f a7be 62b9 f83d
00000050: 5ba0 a9be 264f 1f3d 8d4f e03c e02a 923e
00000060: 026a 5ebe eaee 293f 0c8f adbe ca59 cf3d
00000070: d2ad ebbe b89f 58bd 5004 303f 744f bd3e
00000080: 9955 5d3e 6535 1e3d ca85 883e 8331 643e
00000090: a099 0b3f 4371 f63d fe0d 353f e30e 28bd
000000a0: c4ae f63e 4324 9c3d 249b f3bd 03de 3bbd
000000b0: ae4c b63d 70f7 4bbd f8fe e6be dba9 173e
000000c0: 1305 9cbe f458 af3e 2c32 393e 383c 85be
000000d0: 675e 41be 138a 403f eefc bebe d125 343e
000000e0: e201 a93e cd07 063d dad0 993f 3e44 e03e
000000f0: 6889 6bbd e46e e23e 7158 6f3e 2cbf ba3e
00000100: 2d05 163e 40e3 fc3d 52c8 dd3e 89a4 0f3e
00000110: 85f3 abbd ce43 5c3e afc4 7a3f 86bf a33e
00000120: 1aa6 813e 61b1 eb3e 7ed5 57be 2e6a 013f
00000130: aa6f 99be b6bb 0d3e cf8e 14be 05f6 f03d
00000140: 19b3 ed3d ff1b 183f 2082 abbe 3000 a23e
00000150: 49c1 ab3e 293e 0abf 9540 aebd 2e5a 573e
00000160: fb6b 083e c467 223e cf02 e6bd 28d2 cbbe
00000170: 06b4 113d a9f3 91be 4f1e b93e 668c 1fbe
00000180: 52e4 163f 052b 0d3e 0e5b 823e 3183 66be
00000190: 82b9 883e 1c56 9abe f3e7 093f a405 8a3e
000001a0: 6252 aebe 88cd 84bf 980f cbbe 93a2 103f
000001b0: 2ee3 a53e c41c ccbe bb4c a63e 6025 fb3d
000001c0: 7828 77be e3a6 84be 6301 49be f2af da3c
000001d0: 1c75 3a3d 82d1 823e b5df 1bbf d311 d43e
000001e0: 0733 0c3f ce50 38be 4029 603d f910 b53e
000001f0: ff56 083f 492f 103d 98f7 0e3e b164 a5be
-0.3729671 0.22953326 -0.29027766 0.44731724 0.43843254 -0.06493323 -0.18217331 -0.43155894
0.240858 0.4841224 0.3305753 0.4269611 0.42415175 0.43766817 0.67295605 -0.040302977
-0.23270038 -0.57040113 -0.32726893 0.12144734 -0.33130154 0.03889384 0.027381683 0.28548336
-0.21720126 0.6638018 -0.338982 0.10124548 -0.46031052 -0.052886695 0.6875658 0.3697468
0.21614684 0.03862514 0.26664573 0.22284512 0.5453129 0.12033322 0.70724475 -0.041029822
0.4818021 0.07624104 -0.11894825 -0.045866024 0.08901344 -0.04979652 -0.451164 0.14810888
-0.3047262 0.34247553 0.18085545 -0.26022506 -0.18883668 0.75210685 -0.37302345 0.17592551
0.3300925 0.032722283 1.2016861 0.43802065 -0.057504088 0.44225228 0.23373581 0.36473978
0.14650412 0.12348032 0.43316895 0.14027609 -0.08396057 0.2151024 0.97956365 0.31982058
0.25322038 0.46033767 -0.21077535 0.5055264 -0.29968005 0.13841137 -0.14507602 0.117656745
0.11606426 0.5941772 -0.33497715 0.31640768 0.33545902 -0.540011 -0.08508412 0.21030495
0.13322441 0.15859896 -0.112310044 -0.39808774 0.035572074 -0.2850621 0.36155936 -0.15580902
0.5894214 0.13785942 0.25460094 -0.22510983 0.2670403 -0.3014382 0.5386955 0.26957428
-0.34047228 -1.0375223 -0.39660335 0.5649807 0.32399887 -0.39865696 0.32480416 0.12262988
-0.24136531 -0.25908574 -0.19629435 0.026695225 0.04552184 0.25550467 -0.60888225 0.4141985
0.5476536 -0.17999575 0.05472684 0.35364512 0.53257746 0.035201345 0.13961637 -0.32303384

fc2.weight f4 [128, 128]
00000000: 9beb 84bd 7f5a cfbd 5f98 4d3d 1140 25be
00000010: 8a8c 893e 5dcc ae3d f64a cbbe 9f98 6c3d
00000020: e26d d33d 8684 6fbe 6b68 673e d033 11be
00000030: 80c9 1ebe 0c2c c6bd e42b d13d 0587 22be
00000040: 9126 21be dfe1 2abd 0dae d33d 8067 98bc
00000050: f209 033e 3fb3 983e 57df 43be 3865 a2be
00000060: 920f 65be 0e31 a33d 55d9 033e b2f8 8b3e
00000070: 9b71 04bd 8b3c f6ba 2e0b 93bd ceca 0e3e
00000080: 3a7b 7a3e b221 3d3e fbbc 4c3c ef57 e33d
00000090: a53d b83d 4c2e 72bd 9f42 1dbc a93c ed3d
000000a0: 2253 843e 7f5b a43d ba14 683d 59be 4ebe
000000b0: 8571 653d b28b 203e 2944 f0bc 6a5a f6bb
000000c0: 3d40 9abe dca4 92bd 57db c7bc 4a2d b7bd
000000d0: 537a 7e3e 17fa ae3d f125 1ebe ad3e fabe
000000e0: 383a d5bd 0eda 26bd c650 22be 9089 aa3c
000000f0: 1ffa 8cbd 3df4 61bd e123 35bd aecf 403e
00000100: 6c95 82bd 0523 3e3e d6b7 843e 0f49 11be
00000110: 5780 903d 8db9 0f3d 4989 13be 506f 78bd
00000120: e3fd 14be 1541 02bd d9bb 393d bc11 3a3e
00000130: fd69 3fbf 8a2e 83be 790a 8ebc 26b4 cebd
00000140: 9e98 ccbc 59f3 71be 7ed7 8cbe 9f75 a5bd
00000150: ed74 b2bd e3b0 b2bd b795 1ebe 42c0 43be
00000160: 4aae bc3c aab8 5a3d 3261 22be a97e 4fbe
00000170: 6326 01be 3c2d 09be 5a0a 6e3d 78aa 36be
00000180: bb9f 623e e49e 57bd e9b5 abbe 7424 e63e
00000190: 12d2 c83e 0635 36be 2ea4 8dbc ba2a e33d
000001a0: 0793 903e bd9e af3e 0d65 88be 880c dd3d
000001b0: ee10 65bc 735c 12bf 07ac f6be e28f 25be
000001c0: 4afa a53c 173a 823d 281a 423d a585 333e
000001d0: 9421 8abe 1630 943e 9fc1 c4be 8dcd 833d
000001e0: 2522 793d 7f07 98be f725 973e 0015 f23d
000001f0: 4bb7 153d 568e 97be 892e f83c e0b1 9dbe
00000200: 76bd acbe ff5c 583e db2e 113d b43b e1bd
00000210: ffc8 8c3e fa9e a3bb daba b8c0 8ac9 1ebd
00000220: 90fb f1bc 7c1b 573e fa60 d6be 3157 cb3d
00000230: 3bfc 43bf fda7 23bd f3a6 0b3f 934c 06be
00000240: e5ca 2bbd e379 80bc 5282 f3be 37a3 213d
00000250: 3bc1 133e 2500 16bd bd87 f8bc f7e2 c13d
00000260: 5f73 69bd a5cb 1bbf a30a 1cbe 1592 a0bd
00000270: 3eda cabd 1a51 b8bd 67ec 533e 1f39 7c3e
00000280: d270 1fbf 84a8 30be 16d6 aa3e 6f43 f3bd
00000290: 395f 2e3f 02c2 a93e 64d6 103e d6d4 aebc
000002a0: 9fbf 5cbe 3e9a a53c f0b7 14bd 3134 0e3e
000002b0: 1092 1dbf ab65 05be 24bc 76bc 36a0 43be
000002c0: f65d dcbd d6f3 cfbd 94ae debe 8fb6 ce3c
000002d0: 285c 0bbf c7a0 373e 0c43 3d3c 1b79 07be
000002e0: 996c 933e 080c 40be ec3b 133f 8063 263e
000002f0: b038 86be e530 f63d bdf6 bfbe f092 9dbd
00000300: ab5f c03c 8502 d1be 5193 4e3e 1e00 8dbe
00000310: ef7a 103e 237f 34be 9336 083f 4a08 f03c
00000320: edd0 a03e b2e8 24be cc7f f5be db1c a13c
00000330: 0b26 6cbd 0a98 c33c 714d ccbd 5113 8abc
00000340: f3fc 45be 76de 103e 35e6 45bd d551 323d
00000350: 074f 3bbe c5be b13d 02e8 aebe 29e1 573e
00000360: 5939 353e fcd9 09bb 24ed c2c0 3196 3a3b
00000370: c82f d5be 0c2e 903e fc1c fc3d 5073 a33d
00000380: 69a3 1e3e c445 c5bd 3217 ff3d 1917 abbe
00000390: 5a08 38bd b6ac 8c3d 3182 a6be d8ea 61bd
000003a0: 026c 133e c8a7 573c 4e71 d63c 98e5 35bd
000003b0: fa62 72bd d2e0 23bd a278 e8bb 169c a0bd
000003c0: 59c5 f6be 44c9 d7be a2da b4be 6be2 653e
000003d0: 851b 983e b175 bc3e 8443 9bbb cc82 bc3e
000003e0: 9c3d eb3e 0a63 0a3e 377b aa3d 30c7 813e
000003f0: 1614 dd3e 803d 24bf 92bd 88bd 7615 e93d
-0.06490251 -0.10124683 0.05019414 -0.1613772 0.26865035 0.08535073 -0.39705628 0.05776274
0.10323693 -0.23390397 0.22598426 -0.14179921 -0.15506554 -0.0967637 0.102134496 -0.15871818
-0.15737368 -0.041719314 0.10335932 -0.01860404 0.12796763 0.29824254 -0.19128166 -0.3171785
-0.22369221 0.07968341 0.12875874 0.27338177 -0.032334905 -0.0018786354 -0.07179867 0.13944551
0.2446107 0.18469885 0.012496228 0.111007564 0.08996133 -0.059126183 -0.009598403 0.11583836
0.25844675 0.08025264 0.05666039 -0.201898 0.056016464 0.1567829 -0.029329376 -0.0075181024
-0.30127135 -0.07160351 -0.024396582 -0.08944185 0.2485135 0.085437946 -0.15444161 -0.48875943
-0.10411495 -0.040735297 -0.15851125 0.020817548 -0.06883644 -0.055164564 -0.04422367 0.18829224
-0.06376156 0.18568046 0.25921506 -0.14188026 0.07055729 0.035089064 -0.14407839 -0.06065303
-0.14549975 -0.03180035 0.04534516 0.18170828 -0.747711 -0.25621444 -0.017338978 -0.10092954
-0.024975117 -0.23627986 -0.27508157 -0.08079075 -0.08713708 -0.08725145 -0.15486799 -0.1911631
0.023032326 0.053398766 -0.1585739 -0.20263161 -0.126123 -0.13396162 0.05811534 -0.17838466
0.22131245 -0.052641764 -0.33537224 0.44949687 0.3922277 -0.17793664 -0.017290201 0.11092134
0.28237173 0.34300795 -0.26639596 0.10793406 -0.013981087 -0.57172316 -0.4817812 -0.16168168
0.020260949 0.06358736 0.047388226 0.1753145 -0.26978743 0.28942937 -0.3842897 0.0643569
0.06082358 -0.2969322 0.29521152 0.11820412 0.036551755 -0.2960078 0.030295627 -0.3079977
-0.33738297 0.21129225 0.035445075 -0.109977156 0.27497098 -0.0049933167 -5.772809 -0.03876642
-0.0295389 0.21006578 -0.41870862 0.0992874 -0.7655675 -0.039955128 0.5455162 -0.13115148
-0.041941542 -0.01568312 -0.47560364 0.039462294 0.1442918 -0.03662123 -0.030338163 0.09467118
-0.056994792 -0.6085761 -0.15238433 -0.07840363 -0.09904908 -0.08999844 0.20695649 0.24631165
-0.62281525 -0.17251784 0.3336646 -0.11878096 0.6811405 0.3315583 0.14144284 -0.021341722
-0.21557473 0.02021515 -0.03630823 0.13887097 -0.61551 -0.13027065 -0.015059505 -0.19104084
-0.10760109 -0.1015393 -0.43492568 0.025233535 -0.54437494 0.17932425 0.01155163 -0.13229792
0.2879379 -0.1875459 0.5751331 0.16248894 -0.26215124 0.12021045 -0.37492934 -0.07694042
0.023483118 -0.40822235 0.20173384 -0.27539152 0.14109395 -0.17626624 0.53208274 0.029300828
0.31409398 -0.16104391 -0.47949064 0.01966708 -0.057653468 0.023876209 -0.09975708 -0.016854914
-0.19334774 0.14147362 -0.048315246 0.043535072 -0.18291865 0.086789645 -0.34161383 0.21081986
0.17697658 -0.002103447 -6.091448 0.0028470869 -0.41638017 0.2816013 0.12310216 0.079809785
0.15492024 -0.09632447 0.12455596 -0.3341606 -0.04492984 0.068688795 -0.32521203 -0.055155605
0.1439667 0.013162561 0.026177075 -0.04440841 -0.059176423 -0.040009327 -0.0070944587 -0.07842271
-0.4819744 -0.4214574 -0.35323054 0.22449653 0.29708496 0.3680854 -0.004738273 0.3681854
0.45945442 0.13514343 0.083242826 0.2534728 0.43179387 -0.6415634 -0.06676783 0.113810465

fc2.bias f4 [128]
00000000: 0473 933e 2021 253f 4f23 c2bc 4782 0ebd
00000010: 95fa debd a3e3 263d 7752 a73c ea94 4f3e
00000020: 6ffc 5f3d b1af ffbc 9e4b 6a3e dbec 163f
00000030: cf3c 31be 25c7 b5bc 85f4 723e 565f 40bd
00000040: a56b 81be 98cd 60bc 75b8 0fbe 9750 a73e
00000050: 8b0c dabd 2e87 2cbe 8e95 953e edec ec3e
00000060: e8da 14be 268c 4fbe 569b 9e3c 09d9 193d
00000070: a5ab ca3e 72ff 343d 7ed5 2b3b e973 c33c
00000080: 0fbe ae3d 324c 7abb 3063 753e c817 c23d
00000090: 794a 5b3d e53d 58bd b283 ae3e 0b0e 0e3d
000000a0: 0746 433e 0060 65bd c86c 513e bc02 1b3f
000000b0: 56e6 21be 71d3 503e 7aeb 283c 9aeb 22be
000000c0: 66e3 44bd b9f3 e23e 3a59 863d 01ce d7bd
000000d0: 3084 fc3a 77ca d73e 9016 da3d 0b90 343c
000000e0: 9291 b4be bd73 973e a3d9 a63c 3d82 ba3d
000000f0: ee5a f03c cd1a c0bd 8e7f fa3d be5c 81bd
00000100: f6e7 bd3d 5257 2dbd a945 2c3d 8923 323e
00000110: 00e2 0a3d c4a2 8a3e c860 c3bc d4a1 c03a
00000120: 2cbf 9e3d 729c 223f 7ece 65bd d853 ba3d
00000130: 3eac 25bc 7808 f83e 9ed7 4cbd 415b 16be
00000140: 54b8 8ebd 1fda 083e 2de9 85bd 1632 243d
00000150: 5c7b 343c 4ced e53e b9b4 ba3d 52b5 7dbe
00000160: 12a5 443e cfec 11be 6b47 d03d 2e2a ad3d
00000170: 978a 0f3e 28e1 cdbe a0b6 9a3e 3541 b23d
00000180: cc46 ea3b 69a0 033e b311 26be 6bca e93d
00000190: 47e5 1cbc e9bd 06bd 6543 8fbe be63 cabd
000001a0: 62de 4dbe 3d22 ff3d 03c7 68be b019 b1bd
000001b0: 9aab 67bd 7afe efbc 9015 753e 061d 803e
000001c0: a6ff b9bd bb88 17bd 0a10 813d 8050 5c3d
000001d0: 055b 943c 256c ce3d 7c7d e03a 2c6d b73d
000001e0: 4dc4 d93d 3f21 81bd 5c6d af3e 59d0 f43c
000001f0: fff3 a83d d2e1 76bd 362f 4a3d b436 b3bd
0.28798687 0.6450367 -0.023698477 -0.03479221 -0.108876385 0.040744435 0.020425064 0.2027165
0.0546841 -0.031211706 0.22880408 0.5895516 -0.17308353 -0.022189686 0.2372609 -0.04696592
-0.2527744 -0.013720892 -0.14035209 0.32678673 -0.10646924 -0.16848442 0.29215664 0.4627451
-0.14536631 -0.20268306 0.01936118 0.037560496 0.3958408 0.044188924 0.002621978 0.023858981
0.085323445 -0.0038192389 0.23963618 0.09477192 0.05353782 -0.052793402 0.3408485 0.03468136
0.19069682 -0.055999756 0.20451653 0.6055105 -0.15810522 0.20393158 0.010310048 -0.15910187
-0.048068427 0.4432657 0.06559987 -0.10537339 0.0019265469 0.42146656 0.10648835 0.011020671
-0.3526731 0.2958049 0.02036745 0.09106872 0.029340234 -0.09380112 0.122313604 -0.06316517
0.09272759 -0.042319603 0.04205862 0.17396368 0.033906937 0.27077305 -0.02384986 0.0014696666
0.07751307 0.63519967 -0.05610513 0.09098023 -0.0101118665 0.4844396 -0.050010316 -0.14683248
-0.069687515 0.13364457 -0.065386154 0.04008683 0.011015739 0.44907606 0.09116501 -0.247762
0.19203594 -0.14250492 0.10169872 0.08455311 0.14017712 -0.40210843 0.30217457 0.087038435
0.007149553 0.1285416 -0.16217689 0.11415561 -0.009576148 -0.032895956 -0.27981105 -0.098823056
-0.20104364 0.12457702 -0.22732167 -0.086474776 -0.056560136 -0.029296149 0.23934007 0.25022143
-0.09081964 -0.03699563 0.06301887 0.05378771 0.018109808 0.10079221 0.0017127241 0.0895637
0.106331445 -0.06305169 0.34263122 0.029884504 0.082496636 -0.060273953 0.04936143 -0.08750668

out.weight f4 [5, 128]
00000000: fef8 07be 9df8 6cbf 8a0c 593e 64ee f83d
00000010: 7c8f 9e3e 20e0 bb3d f82a b13d 8289 c2bd
00000020: 27a1 2e3d f3ad 31be c5a3 873d c140 d33d
00000030: 9250 303e e306 043e 6379 76be 838c 023e
00000040: 2224 9c3c e00f 823d 9874 d7bb 6241 23be
00000050: 290f 3b3e e882 2c3e ab5f cb3d 1af4 24be
00000060: 5ad3 84be 9a0c 983d ab84 e43d fb8c 0ebe
00000070: 7da1 efbd 7401 08be f091 3cbd 5941 dc3d
00000080: 4ae1 4abd e48c 723e f61d 343d 1c40 c33d
00000090: 30a6 e2bd 22cd 20be ecdc 783d 6f16 24be
000000a0: f241 573d ecd6 523e 3c66 d53d 9cea ccbd
000000b0: 40f3 113e e62e 2d3e 8863 bebd 7735 a4bd
000000c0: a233 6d3e 487c 25be 332d 2c3e 1dff 843e
000000d0: c239 243e 6086 223d 6b11 b03d 2843 68bd
000000e0: ea82 ec3c 9579 973d 32aa 9b3e ce4e e63d
000000f0: 3410 e73b 8d9a 143e 5128 fbbc 795b f43d
00000100: 1e4f 94bd 64cd 23be 4dda ebba 5505 27be
00000110: 5b25 19bd 63fe 243d d274 e53d 2ab6 11be
00000120: c63d a53e ce7c 493d a8de 063e 9bec 7bbe
00000130: 69b8 283e 00fd 9b3e 7b55 613d 2f2e d13d
00000140: d835 143e 415f 30be 8031 7c3d a944 08be
00000150: 4a08 1a3e 90e4 e9bd 30b4 64be 3a04 953c
00000160: 3985 42bd 2cd9 1a3e 872b d1bd 18c2 0bbe
00000170: c089 94ba 5f51 113e b7dc c33d 4921 04be
00000180: 9038 c5bd de28 1ebe 0a9b 27be 8665 823d
00000190: 2309 813e 37db d53d 2ee1 ef3d 5947 833e
000001a0: 56ce 0f3e 5577 dbbd e537 943d 5609 4e3e
000001b0: 0d58 4abe d56a f43d 1846 45be 900e 6abd
000001c0: b2ae a63d 7feb 10be 509e 6a3e 64bf 3c3e
000001d0: 461c de3d 12c4 033e 0046 c43d 1f7f 153e
000001e0: 7ff5 1fbe ccee c53e 8656 a73d 6b8c 223e
000001f0: 27cc 3a3d d02b 353e 5781 163e 6b53 0c3e
00000200: b76d 81be d034 80bf 543d c93d 42b7 b83d
00000210: 0848 d83d e214 873d 64f2 e83b 2374 b3bd
00000220: e06c 193e a591 64bd 850f 3d3e ef1d 7abe
00000230: 191b 203e d6a7 ea3c 5e07 04be a692 42be
00000240: 3d84 ee3d 062e 04be 0391 683d d078 38be
00000250: 4613 e63c ca62 0d3e 50bb b43d 1795 143d
00000260: 0dee 82be a31b d53d e791 583e 90f2 323c
00000270: a275 71be 307e 3a3d c84e 2a3e 1f53 1e3e
00000280: 1b3b 543d c994 b43d fd75 a3bd a9dc 843e
00000290: 824b 9f3d 7bf5 fa3d d26a ccbd b0e2 213d
000002a0: 93c3 fbbd 5dc4 97bc 6eaa 813d 8abd aebd
000002b0: cc81 ae3d b39b 173e a422 8c3d 198a babd
000002c0: ed82 313e c9eb 41be 0f10 3cbe 2e5e ec3d
000002d0: c87e 923d d141 43bc bdea dbbd 5585 bb3d
000002e0: 1aea 2f3e 0dfd cfbd ff98 723d 8b88 593e
000002f0: a4b3 0abe 699f a73d 0be2 98be abc3 343e
00000300: 97e1 7a3c 6934 7e3d 9347 99bc c8ad 303e
00000310: 37e7 813d 5feb f83c 943b 8c3d adf5 89bd
00000320: faf1 9d3e 0f47 633c f616 b33d cc7b 2ebe
00000330: 7534 cabd 760c 8c3e 9a2b ab3d 0eef f93d
00000340: 489d 083e ae2e 093e d756 8f3d 31cc 04be
00000350: ab7b 263e 172a b0be 86bd 743d bd39 b13c
00000360: fd4f 013e a92a 143e 5d1e 793d 09aa 813b
00000370: 1af7 5ebe 6325 673e 1f51 de3b 1554 28be
00000380: d22e 923c 86f2 01be 078f 183e c6c8 6ebd
00000390: af8b 333e 46cc 9f3d 736f c23b 9096 ee3d
000003a0: d89d 013e 2aab a93d 699c db3c 3924 803e
000003b0: dba8 22be d493 1b3d 3fb9 7ebd a64f aabd
000003c0: a7f4 80be d29c 653d 8557 08be 2c91 eb3d
000003d0: 0d9b 833d 41ab 883d 4390 043d 1949 dbbd
000003e0: d405 4d3e a920 f13d 93f1 7b3d 9e16 223e
000003f0: 5471 09be f2e4 053e 6d4b b23d 997c 443c
-0.13278577 -0.92566854 0.2119619 0.121548444 0.30968845 0.09173608 0.08650774 -0.09498884
0.042634156 -0.17351513 0.066230334 0.10315085 0.17218235 0.12893252 -0.24069743 0.12748913
0.019060198 0.06350684 -0.0065751784 -0.1594291 0.18267502 0.16846812 0.099303566 -0.16108742
-0.25942498 0.074242786 0.11158117 -0.13920967 -0.11700723 -0.13281804 -0.046037614 0.107546516
-0.04953126 0.23686558 0.043973885 0.09533712 -0.11066854 -0.15703252 0.060757563 -0.16024183
0.052553125 0.20589799 0.1041989 -0.10005686 0.14252949 0.16912422 -0.09296328 -0.0801801
0.23164228 -0.16160691 0.16814117 0.25975886 0.16037658 0.03967893 0.08597072 -0.05670467
0.028871018 0.07396237 0.30403286 0.112454996 0.007051492 0.14512081 -0.030658873 0.119315095
-0.07241653 -0.15996319 -0.0017994136 -0.16310628 -0.03738914 0.040281665 0.11203922 -0.14229646
0.32273692 0.04919129 0.13170874 -0.24601977 0.16476597 0.3046646 0.05501316 0.10213887
0.14473665 -0.17223836 0.061570644 -0.13307442 0.15042225 -0.11420548 -0.22334361 0.018190492
-0.047490332 0.15121907 -0.1021338 -0.1364826 -0.0011332557 0.14191197 0.095635824 -0.12903322
-0.09629929 -0.15445277 -0.16367736 0.0636702 0.25202283 0.104422025 0.117128715 0.2564037
0.14043555 -0.1071612 0.072372235 0.20120749 -0.19760151 0.11934439 -0.1926502 -0.057142794
0.08138789 -0.14152335 0.22911954 0.18432385 0.108452365 0.12867764 0.09583664 0.14599274
-0.15620993 0.3865875 0.081708 0.15873878 0.04560485 0.17692494 0.14697777 0.13703696
-0.25279018 -1.0016117 0.098261505 0.09019329 0.10560614 0.0659578 0.0071089733 -0.08762386
0.14982939 -0.05580296 0.18462951 -0.24425481 0.15635337 0.028644484 -0.12893435 -0.19001254
0.11646316 -0.12908182 0.05677892 -0.18014836 0.028085362 0.13807216 0.088247895 0.036274996
-0.25572243 0.10405662 0.21149407 0.010922089 -0.2358003 0.045530498 0.16631615 0.15461396
0.05181418 0.08817441 -0.07981489 0.259496 0.07778074 0.12253853 -0.09981312 0.039522827
-0.12293162 -0.01852625 0.06331335 -0.085322455 0.085208505 0.14805488 0.06842545 -0.09108371
0.173351 -0.18937601 -0.18365501 0.11541401 0.07153088 -0.011917547 -0.10738132 0.091562904
0.17179146 -0.101556875 0.05922794 0.21243493 -0.1354509 0.08184702 -0.29859957 0.17652766
0.015312574 0.0620617 -0.018710887 0.17253792 0.06342929 0.030385671 0.06847301 -0.06736312
0.30848676 0.013871922 0.08744614 -0.17039412 -0.09873287 0.27353257 0.08357926 0.12203799
0.13341248 0.13396713 0.06998985 -0.12968518 0.16258113 -0.34407112 0.059751056 0.021633977
0.1262817 0.14469399 0.060819972 0.0039570373 -0.2177395 0.22572856 0.0067845727 -0.16438325
0.017844591 -0.12690172 0.1489831 -0.05829694 0.17533754 0.07802634 0.005933696 0.11649811
0.12657869 0.082846 0.02680798 0.25027636 -0.15884726 0.037982777 -0.062188383 -0.08315973
-0.25186655 0.05605776 -0.13314636 0.11502299 0.06426058 0.06673289 0.03236414 -0.10707302
0.20021755 0.117738076 0.06150968 0.1582894 -0.13422137 0.13075617 0.087057926 0.011992597

out.bias f4 [5]
00000000: 12b3 02be daea 08be fb4c 04be 7691 02be
00000010: ac1d 13be
-0.12763622 -0.13370839 -0.1291999 -0.12750801 -0.14366788
