SimplifiedSpaceWar/trained_models/madrl_6050.pth (torch, 78777 bytes, 6 tensors)

fc1.weight f4 [128, 13]
0	0x3e60da9e	0.21958396
1	0xbf7965d4	-0.97421
2	0x3dd8cadb	0.105855666
3	0xbddc72e5	-0.10764102
4	0x3efc405c	0.49267852
5	0xbdecb2e0	-0.11557555
6	0xbe1d3dac	-0.15355557
7	0x3ebdaef3	0.37047538
8	0x3c04ba7c	0.008101102
9	0xbfa3874a	-1.2775662
10	0x3ec0cd1c	0.37656486
11	0x3e13f5a0	0.14449167
12	0xbe6ea981	-0.23306848
13	0xbe68c3d2	-0.2273095
14	0xbd23977d	-0.039939392
15	0xbe42e20e	-0.19031546
16	0x3e167b2a	0.14695421
17	0xbf1accfc	-0.6046903
18	0x3b61c6c0	0.003445074
19	0xbd651ca1	-0.055935506
20	0x3e401c95	0.18760903
21	0x3b01f856	0.0019831858
22	0xbfdb3e8b	-1.7128462
23	0x3f4f10ff	0.8088531
24	0xbe996633	-0.29960784
25	0xbdc137e1	-0.09434486
26	0x3e0edfc6	0.1395255
27	0x3e8b2f0e	0.27184337
28	0x3e736521	0.23769046
29	0xbf044c13	-0.5167858
30	0x3e6f0cd3	0.23344736
31	0x3e88cbc8	0.26717973
32	0x3e2c2446	0.16810712
33	0xbe196566	-0.14980087
34	0xbe1555d7	-0.14583527
35	0x3d8b9559	0.06815595
36	0x3b2774ff	0.0025551913
37	0x3ec43cce	0.3832764
38	0x3e38ae42	0.18035224
39	0xbea1629c	-0.31520545
40	0xbcf00aa9	-0.029301958
41	0x3dcfeca7	0.1015256
42	0xbe831df3	-0.25608787
43	0xbd357176	-0.044297658
44	0xbe93251f	-0.2873926
45	0x3ee597e0	0.44842434
46	0x3e9ab7ba	0.30218297
47	0xbe14bc5e	-0.14524981
48	0x3ebd907b	0.37024292
49	0x3eb3f442	0.3514729
50	0xbe9c5ccd	-0.3053955
51	0xbeb6b074	-0.35681498
52	0xbf747e00	-0.9550476
53	0xbe448103	-0.19189839
54	0xbc3e9409	-0.011631974
55	0x3ea1d51c	0.31607902
56	0xbe6ff6ab	-0.2343394
57	0xbcfc3358	-0.030786201
58	0xbccc0d4d	-0.024908686
59	0x3f0e7f34	0.55662847
60	0xbd8c5644	-0.06852391
61	0x3dfdb900	0.123888016
62	0xbdeea375	-0.11652271
63	0xbf2bda69	-0.6713014
64	0x3e92005e	0.28515905
65	0x3a8d8cf4	0.0010799454
66	0x3daccd5c	0.08437607
67	0x3cfcabad	0.03084358
68	0x3c099c7f	0.008399128
69	0xbf16cb4c	-0.58903956
70	0x3e143b9b	0.14475863
71	0x3de9b314	0.114111096
72	0x3c61f1b4	0.013790537
73	0x391ef886	0.00015160636
74	0x3f26dd49	0.65181404
75	0x3f2afd6d	0.6679295
76	0xbf2027db	-0.62560815
77	0xbe8f4db9	-0.27988985
78	0xbee13ae9	-0.43990257
79	0xbaa4e7d0	-0.0012581293
80	0x3e64fb98	0.223616
81	0x3e95dfc6	0.29272288
82	0xbfa594e0	-1.2936058
83	0x3d10838f	0.035281714
84	0xbd4fa7eb	-0.05069725
85	0xbd92d908	-0.07170302
86	0x3d00c5f4	0.031438783
87	0x3f021e17	0.50827163
88	0x3f5ff5ad	0.87484246
89	0xbed104e1	-0.40824035
90	0xbec5f5ee	-0.38664192
91	0xbe2dec88	-0.16984761
92	0x3e1581af	0.14600252
93	0xbd6345e2	-0.055486567
94	0xbee91bf7	-0.45529148
95	0xbe21a23a	-0.15784541
96	0x3d4a3fe4	0.049377337
97	0xbd8deb0c	-0.06929597
98	0xbe2ee385	-0.1707898
99	0x3dfdf59d	0.12400363
100	0x3eb25fda	0.34838754
101	0xbf5028c6	-0.81312215
102	0xbe661ee8	-0.22472727
103	0xbdcd66b4	-0.10029355
104	0xbedfb0bf	-0.43689534
105	0x3f970898	1.1799498
106	0xbd014283	-0.03155757
107	0x3f01643b	0.50543565
108	0xbf7e80fa	-0.9941555
109	0xbd9d142b	-0.07669862
110	0xbe92ad36	-0.28647774
111	0x3f033853	0.5125782
112	0x385e6f97	5.303285e-05
113	0x3f608d1d	0.8771532
114	0x3e4f8784	0.20266539
115	0x3e7c257d	0.24623676
116	0x3e3665b3	0.17812233
117	0x3eeb790e	0.45990795
118	0x3ef762db	0.48317608
119	0x3d8b25cf	0.06794321
120	0xbe34b5b6	-0.17647442
121	0x40038ae6	2.0553527
122	0x3df7c9df	0.12099051
123	0xbe557114	-0.20843917
124	0x3b4bc7fb	0.003109454
125	0x3d127789	0.03575853
126	0x3e6ae10d	0.22937413
127	0xbf2076d4	-0.6268132
128	0xbe670b18	-0.22562826
129	0x3e7ed126	0.24884471
130	0x403751cd	2.8643677
131	0x3e9cdd15	0.30637422
132	0x3e7aa49c	0.24476856
133	0x3e118ee1	0.1421466
134	0xbe8253cc	-0.25454557
135	0xbe64869f	-0.22316979
136	0xbcac64c9	-0.021044152
137	0xbe4e5135	-0.20148166
138	0xbbdef2bf	-0.00680384
139	0xbd75628b	-0.05990843
140	0x3eaa0d62	0.33213335
141	0x3edf2ba1	0.43587974
142	0xbe63b717	-0.22237812
143	0x3ea9642a	0.33084232
144	0xbe08dab7	-0.13364683
145	0x3d059c40	0.032619715
146	0xbc9cccb9	-0.019140588
147	0x40159cf7	2.3377054
148	0xbe722c19	-0.23649634
149	0x3c20d030	0.009815261
150	0x3e756c9e	0.23967215
151	0x3c1f47ed	0.009721738
152	0xbf393fc8	-0.7236295
153	0xbfee3960	-1.861126
154	0x3e796d75	0.24358161
155	0x3e1cee55	0.15325291
156	0x3e7de742	0.24795249
157	0x3e1fa71e	0.15591094
158	0x3c9e7171	0.019341202
159	0xbe79e56d	-0.24403925
160	0xbe98e188	-0.29859567
161	0xbda97c09	-0.08275611
162	0xbe9117a5	-0.28338352
163	0x3e1eb88d	0.15500088
164	0x3b74a4a7	0.0037329586
165	0x3f872569	1.0558292
166	0xbea928c1	-0.33038905
167	0xbcfe702d	-0.031059349
168	0x3e67152a	0.22566667
169	0x3f32b828	0.6981225
170	0xbf640d10	-0.8908243
171	0xbe282252	-0.16419342
172	0x3de2b506	0.11069684
173	0x3f2a2c89	0.66474205
174	0x3cfb4111	0.030670675
175	0xbe72b702	-0.23702624
176	0x3ef24a5b	0.47322354
177	0xbbc8a3db	-0.0061230487
178	0xbf27f59f	-0.65609163
179	0xbf30e7b3	-0.69103545
180	0xbe767be4	-0.24070698
181	0x3eda2602	0.42607123
182	0xbe34af08	-0.17644894
183	0x3dbdb655	0.09263293
184	0x3c7d74ae	0.015469713
185	0xbcf27b8a	-0.029599924
186	0xbf18f097	-0.5974211
187	0xbd13c418	-0.03607568
188	0xbd18c217	-0.037294473
189	0xbbb5a6f4	-0.005543584
190	0xbb864019	-0.0040969965
191	0x40074bef	2.1140096
192	0x3ea2fd07	0.3183367
193	0x3cf68c23	0.03009612
194	0x3dace9d8	0.0844304
195	0xbf0b18d8	-0.54334784
196	0x3e766385	0.24061401
197	0xbe9e52c2	-0.30922514
198	0x3e045954	0.12924701
199	0x3b9a99a0	0.0047180206
200	0x3d64e8ac	0.055885956
201	0x3e0555f5	0.13021071
202	0x3e8f6da4	0.28013337
203	0xbdffc939	-0.12489552
204	0x3db9ad2a	0.090662315
205	0x3ea9fc6c	0.33200395
206	0xbedf11a0	-0.43568134
207	0x3e051f97	0.13000332
208	0xbe873773	-0.26409492
209	0xbcc88fe4	-0.024482675
210	0x3c6314b4	0.0138599165
211	0x3c7c771c	0.015409257
212	0xc08babd7	-4.3647265
213	0x3d24b8a7	0.04021516
214	0x3c701b20	0.014654905
215	0xbe147695	-0.1449836
216	0x39a95737	0.00032299172
217	0x3d594678	0.05304572
218	0x3fe8f7bd	1.8200604
219	0x3c3b3432	0.011426019
220	0x3c3528dd	0.011057106
221	0xbfebf709	-1.8434764
222	0x3f28442f	0.6572904
223	0xbe931691	-0.28728154
224	0x3e537ce8	0.20653117
225	0x3f08714c	0.5329788
226	0x3efd2ba5	0.4944736
227	0xbc9abf78	-0.018890128
228	0x3edb1157	0.42786667
229	0x3ad9f0a8	0.0016627507
230	0xbe0f23da	-0.1397852
231	0xbeacbb9f	-0.33736894
232	0x3ea8878f	0.32915923
233	0xbdbfd635	-0.093670286
234	0x3f99e358	1.2022505
235	0x3faf6320	1.3702126
236	0x3e5d5083	0.21612744
237	0x3e160d12	0.14653423
238	0xbecafd27	-0.39646265
239	0x3e36b24a	0.1784145
240	0xbec99f75	-0.3937947
241	0xbe12db04	-0.1434136
242	0xbd1d1a5b	-0.038355213
243	0xbc37d46d	-0.01122008
244	0x3e8333d2	0.25625473
245	0x3f1aa669	0.6041017
246	0x3c800c3e	0.015630838
247	0xbed1d077	-0.4097936
248	0x3bc7f7cd	0.006102538
249	0x3cb15a77	0.021649582
250	0xbe9e3e1d	-0.30906764
251	0xbec3581a	-0.38153154
252	0x3e5a8827	0.21341
253	0x3d4222fc	0.047396645
254	0x3e00d847	0.12582503
255	0xbe1da5e9	-0.15395321

fc1.bias f4 [128]
0	0xbf59612c	-0.849139
1	0xbe739d47	-0.23790465
2	0x3e951351	0.291163
3	0x3ea4d930	0.3219695
4	0x3e223ef3	0.15844326
5	0x3f48bb14	0.7841046
6	0x3f3efec1	0.74607474
7	0x3f5778df	0.8416881
8	0xbf14ff89	-0.58202416
9	0x3efaf90a	0.49018127
10	0x3eeb20ef	0.45923564
11	0xbdd3e938	-0.10347217
12	0x3f1d29a5	0.6139167
13	0xbf810937	-1.0080937
14	0xbd369119	-0.04457197
15	0xbdb9fcf9	-0.09081454
16	0xbda95578	-0.08268255
17	0xbe4344d3	-0.19069223
18	0x3ef088a6	0.46979254
19	0xbca8da35	-0.020611862
20	0x3eca45f4	0.39506495
21	0x3ea0f339	0.31435564
22	0x3ea71116	0.32630223
23	0x3c9da184	0.019242056
24	0xbe6544ba	-0.22389498
25	0x3e1f5bc5	0.15562351
26	0xbea200f2	-0.31641346
27	0x3f001f67	0.50047916
28	0x3efbc73a	0.49175435
29	0xbe10c6df	-0.14138363
30	0x3d590c52	0.052990265
31	0x3e2c9026	0.16851863
32	0xbef16d70	-0.47153807
33	0x3e95fbc0	0.29293633
34	0xbee0fb03	-0.43941507
35	0x3da5248b	0.08063611
36	0xbf09accd	-0.537793
37	0xbd63937e	-0.05556058
38	0x3e8adde6	0.2712242
39	0x3daab61e	0.08335517
40	0x3f3dfce7	0.74214023
41	0xbe49ecc7	-0.1971923
42	0x3dc6b3cb	0.097022615
43	0x3e342c3b	0.17594998
44	0x3d31678a	0.043311633
45	0x3ef787e4	0.48345864
46	0xbf6fcb23	-0.9366934
47	0x3e368a64	0.1782623
48	0xbd2f20fc	-0.042756066
49	0xbf0017b5	-0.50036174
50	0x3ec01b3c	0.37520778
51	0x3d92ada0	0.071620226
52	0x3ea41444	0.3204671
53	0x3efebf7f	0.49755475
54	0x3e03c74e	0.12868997
55	0x3f1b29f0	0.60610867
56	0xbe13fe81	-0.14452554
57	0x3e71d372	0.23615816
58	0xbe724e88	-0.2366277
59	0x3e86cd17	0.26328346
60	0x3e8fb0ae	0.28064483
61	0x3ebcde49	0.3688834
62	0x3efa4fe3	0.48889074
63	0x3ed6d100	0.4195633
64	0x3eb64e85	0.3560678
65	0x3e387d11	0.18016459
66	0x3ef440b7	0.47705624
67	0x3ec9e52c	0.39432657
68	0xbec022c0	-0.37526512
69	0x3f14d3a6	0.5813545
70	0x3d5cf99c	0.053948984
71	0x3ea1c76a	0.31597453
72	0x3e952708	0.2913134
73	0x3eda6dc9	0.42661884
74	0xbeaf0371	-0.34182313
75	0x3f012b61	0.50456816
76	0x3f026fac	0.5095165
77	0xbd94f6d0	-0.07273638
78	0xbe34369d	-0.17598958
79	0x3e3d2e40	0.18474674
80	0x3ecf69b6	0.4051034
81	0x3e82b9d9	0.25532416
82	0x3e7bce82	0.24590495
83	0x3d8ca77e	0.06867884
84	0xbf710854	-0.9415333
85	0x3e14ddc1	0.14537717
86	0x3eb7d129	0.35901764
87	0x3ef41655	0.47673288
88	0x3e8d23e5	0.27566448
89	0x3d91e634	0.07123986
90	0x3e005d44	0.12535578
91	0x3eb0d18f	0.3453488
92	0xbd2d3f5b	-0.04229675
93	0xbf52a5b1	-0.82284075
94	0x3eae15e2	0.3400107
95	0x3f57770d	0.8416603
96	0x3dbabfc2	0.09118606
97	0x3d22cfbb	0.03974889
98	0x3d94245b	0.07233497
99	0x3c8e5559	0.017374681
100	0x3f58f7b5	0.8475297
101	0x3eee5604	0.4655
102	0x3e463c62	0.19358972
103	0x3eac4a34	0.33650362
104	0x3df55527	0.11979132
105	0xbd904c2c	-0.07045779
106	0x3eafa949	0.34308842
107	0x3ea6bcce	0.32565922
108	0x3e68032f	0.22657464
109	0x3f4cc1ec	0.799834
110	0x3e34a5be	0.1764135
111	0x3efcbfc8	0.49365067
112	0x3ea217c5	0.3165876
113	0x3de4f32b	0.11179193
114	0xbf205f96	-0.6264585
115	0x3e41d777	0.1892985
116	0x3c87e126	0.016586851
117	0xbd723cb0	-0.059139907
118	0x3f3f6ee7	0.747786
119	0x3ee332f5	0.44374815
120	0xbebde96e	-0.37092155
121	0x3ebf6c1c	0.37387168
122	0x3e16af3e	0.14715287
123	0x3f169db8	0.5883441
124	0xbf03d62a	-0.51498663
125	0x3e96a5dc	0.29423416
126	0x3f2e9efd	0.68211347
127	0xbdf41a51	-0.11919082

fc2.weight f4 [128, 128]
0	0x3bfd2758	0.0077256374
1	0x3ca89cf2	0.02058265
2	0xbcc5835f	-0.024110494
3	0x3dab7f19	0.08373851
4	0xbe3ea552	-0.18617752
5	0xbe1c5d33	-0.15269928
6	0xbddd3323	-0.10800769
7	0xbd7b85ed	-0.06140702
8	0xbe15d15d	-0.14630647
9	0x3cbbf56b	0.022944173
10	0x3e14d197	0.14533077
11	0xba0d2725	-0.0005384556
12	0xbe4f81b8	-0.20264328
13	0x3e4d41a3	0.2004457
14	0xbeaf63e3	-0.34255895
15	0x3d18e9e8	0.037332445
16	0xbd8ae7e3	-0.0678251
17	0xbaad6c7f	-0.0013231187
18	0x3e8c8c63	0.27450857
19	0x3d3e8a72	0.04651875
20	0x3dd1234e	0.10211812
21	0x3e981365	0.29702297
22	0x3e097543	0.13423638
23	0x3e8e97cb	0.27850184
24	0x3dda2a86	0.10652642
25	0x3da5b18c	0.08090505
26	0x3dad2516	0.08454339
27	0xbc449498	-0.011998318
28	0xbd3f39c8	-0.046685964
29	0x3e46ae0b	0.1940233
30	0x3de033ec	0.10947403
31	0x3e41b250	0.18915677
32	0xbe3b030f	-0.18262886
33	0x3e3fe9e1	0.18741561
34	0xbd9503c7	-0.07276111
35	0xbda5b586	-0.080912635
36	0xbdbff175	-0.09372226
37	0xbd7db682	-0.06194163
38	0x3e18c9cb	0.14920728
39	0x3d78630f	0.060641345
40	0x3e4572a4	0.19282013
41	0x3d1c929c	0.038225755
42	0xbe5f9b19	-0.21836509
43	0xbe704ef4	-0.23467618
44	0x3cbd44c9	0.023104088
45	0x3dcb8687	0.099377684
46	0x3d6abec0	0.05731082
47	0xbe4f9e44	-0.20275217
48	0xbe5509a5	-0.2080446
49	0x3db2629b	0.08710214
50	0xbc9fa072	-0.019485686
51	0x3de05a75	0.10954753
52	0xbdc53c5f	-0.096306555
53	0xbd9535c2	-0.07285644
54	0xbe8489ef	-0.25886485
55	0xbdd8482f	-0.10560643
56	0xbcfa7f63	-0.03057832
57	0x3e99024b	0.29884562
58	0xbcabd653	-0.020976221
59	0xbe3e3e1a	-0.18578377
60	0x3e213a78	0.1574496
61	0xbc7eab37	-0.0155437505
62	0xbdc3a2ad	-0.09552512
63	0xbda34249	-0.07971627
64	0x3dd8fc6b	0.1059502
65	0xbd45a6d6	-0.04825481
66	0x3ec92e0e	0.3929295
67	0xbdcc3d7c	-0.09972665
68	0xbc8fb6ad	-0.017543161
69	0xbe06a0c4	-0.13147265
70	0xbc9efc8a	-0.01940753
71	0x3e54b23e	0.20771119
72	0xbf1220b3	-0.57081145
73	0xbe1e59ec	-0.1546399
74	0xbc7c2ea9	-0.015391984
75	0xbddc4637	-0.1075558
76	0xbce4ec6a	-0.027944762
77	0x3dd9dcd9	0.106378265
78	0xbe0aebc8	-0.13566506
79	0x3e6fda73	0.23423176
80	0x3b08e89f	0.0020890606
81	0x3e8b505b	0.27209744
82	0x3e233985	0.1593991
83	0xbe6844a3	-0.22682433
84	0x3dbe76df	0.093000166
85	0x3e1ffda3	0.15624098
86	0x3c029a5b	0.0079713715
87	0x3e7ccf10	0.24688363
88	0x3e61dd67	0.22057115
89	0x3e3260b5	0.17419703
90	0xbb104003	-0.002201081
91	0x3e96cf00	0.29454803
92	0x3df95f36	0.12176363
93	0x3d3c3275	0.045946557
94	0xbe27e7ab	-0.16396968
95	0x3cf4b3c5	0.029870877
96	0x3cda5356	0.026651066
97	0x3db8b2c9	0.090184756
98	0x3c36149f	0.011113315
99	0xbe319508	-0.17342007
100	0xbeca2719	-0.39482954
101	0xbe963531	-0.29337457
102	0x3dad9672	0.08475961
103	0x3dc25cc1	0.09490348
104	0xbe2e95aa	-0.1704928
105	0xbd8ecf4c	-0.069731325
106	0x3e1bde55	0.15221532
107	0x3d325f85	0.043548126
108	0x3d24bf7f	0.040221687
109	0xbe4dac14	-0.20085174
110	0x3e2ba7fa	0.16763297
111	0x3e874781	0.2642174
112	0xbd5d6c11	-0.05405814
113	0x3eba4a00	0.36384583
114	0x3d92f4d8	0.071756065
115	0xbd2bc575	-0.041936357
116	0x3ba1fbc9	0.004943345
117	0x3ea8392c	0.3285612
118	0x3cf41b4e	0.029798176
119	0xbdca0d52	-0.09865822
120	0x3d2f1b62	0.042750724
121	0x3d958266	0.07300262
122	0xbe47a3df	-0.19496106
123	0xbceeaf12	-0.029136214
124	0x3d042c90	0.03226906
125	0x3e9e250f	0.30887648
126	0x3d529b6a	0.051417746
127	0x3e847493	0.2587019
128	0x3cf11189	0.029427307
129	0xbd295f00	-0.041350365
130	0x3d5175fb	0.051137906
131	0x3e600f28	0.21880782
132	0xbce6252a	-0.028093893
133	0xbca0a89b	-0.019611647
134	0x3a98da50	0.0011661742
135	0xbdba2ddb	-0.090907775
136	0x3d9a122e	0.07522999
137	0xbd5119c6	-0.05104997
138	0xbcfc0306	-0.03076316
139	0x3d05c5bb	0.032659274
140	0x3c525a9a	0.012838984
141	0xbe211948	-0.157323
142	0x3d8e82c1	0.06958533
143	0xbdaeaa59	-0.08528585
144	0xbe91b81b	-0.28460774
145	0xbb29d02e	-0.0025911438
146	0x3d6a5e6b	0.05721895
147	0x3d5be4bd	0.05368494
148	0x3d72d9ef	0.05928987
149	0x3e2711df	0.16315411
150	0x3e03046b	0.12794654
151	0xbdbfcf24	-0.09365681
152	0xbde46e8a	-0.11153896
153	0xbc457002	-0.0120506305
154	0xbbf941a9	-0.0076067043
155	0x3d55dc3d	0.05221199
156	0xbdfc7785	-0.12327484
157	0x3b9f90d8	0.0048695616
158	0xbe1208b9	-0.1426114
159	0x3dbc446f	0.0919274
160	0xbc0e8163	-0.00869784
161	0x3d9239c9	0.07139928
162	0xbce2f924	-0.02770669
163	0xbbb42ce8	-0.0054985173
164	0xbd5c1b17	-0.053736772
165	0x3e1061c6	0.14099798
166	0x3d366c98	0.044537157
167	0x3c5aac1c	0.013346698
168	0x3d826194	0.06366268
169	0x3d7581cc	0.059938237
170	0xbde9ae9b	-0.114102565
171	0xbd0e402c	-0.034729168
172	0x3c282795	0.010263343
173	0x3cd48c02	0.025945667
174	0xbda3592e	-0.07975994
175	0x3e35c628	0.17751372
176	0x3e3411f2	0.1758497
177	0x3c0169cc	0.007898759
178	0x3dea7f65	0.1145008
179	0xbd37ea65	-0.04490127
180	0xbe07c467	-0.13258515
181	0x3d78e193	0.060762
182	0x3dafce87	0.08584314
183	0x3df22ca2	0.11824919
184	0x3d9db5bb	0.07700678
185	0x3d95460b	0.0728875
186	0x3e109741	0.14120199
187	0x3d20af7f	0.039229866
188	0xbe1424f5	-0.14467223
189	0x3dcb81a8	0.09936839
190	0xbe34423e	-0.17603394
191	0xbccc8a26	-0.024968218
192	0x3c0074c2	0.007840337
193	0xbc8a183f	-0.016857265
194	0x3cce2825	0.025165627
195	0xbd5ce834	-0.053932384
196	0x3cf5e0c2	0.0300144
197	0x3d66382e	0.05620592
198	0x3cf07733	0.029353714
199	0xbe833fdc	-0.25634658
200	0x3df7b011	0.12094129
201	0xbcb703f0	-0.022340745
202	0xbe83dc1d	-0.2575387
203	0xbc2aced2	-0.010425286
204	0xbdec1cd7	-0.11528938
205	0xbd6d49e8	-0.05793181
206	0xbdc70598	-0.09717864
207	0xbb459d1f	-0.0030153466
208	0xbcd2c3f4	-0.025728203
209	0xbd3736b1	-0.044729892
210	0x3de8e4ad	0.113717414
211	0x3d09fb94	0.03368719
212	0xbbfb83e8	-0.0076756366
213	0x3dd9cb90	0.106345296
214	0xbe0b3d6b	-0.13597648
215	0x3db49132	0.08816756
216	0x3c04d8e6	0.008108353
217	0x3e60a314	0.2193721
218	0xbd1f2f5c	-0.038863525
219	0xbca43bb4	-0.020048
220	0xbe0cd490	-0.13752961
221	0xbdd25fd3	-0.10272183
222	0x3e3eb877	0.18625055
223	0x3e1c2418	0.15248144
224	0xbd99e4b0	-0.07514322
225	0xbceed8ac	-0.029156052
226	0x3baf6432	0.0053525204
227	0xbcecaecc	-0.028891943
228	0x3e1185e3	0.1421123
229	0x3dab1fc8	0.08355671
230	0xbd7ba6c1	-0.061438326
231	0x3db21b90	0.086966634
232	0xbd2c342d	-0.042041946
233	0xbd59af13	-0.05314548
234	0x3e521682	0.20516399
235	0xbe29f814	-0.1659854
236	0x3cf81724	0.030284472
237	0xbd8ebfe5	-0.06970195
238	0x3b80086a	0.003907253
239	0x3e14a58c	0.14516276
240	0xbd9f7b0c	-0.07787141
241	0x3d2da904	0.042397514
242	0xbe10247c	-0.14076418
243	0xbd98ed7c	-0.074671715
244	0x3d64cf5c	0.055861816
245	0x3e2342e3	0.15943484
246	0x3bfded0c	0.0077492055
247	0xbe5165a6	-0.20448932
248	0x3d98ce9e	0.07461284
249	0x3d395a98	0.045252413
250	0x3d6e8551	0.05823261
251	0x3d3dc14c	0.04632692
252	0x3db1fc7f	0.08690738
253	0x3df8a519	0.12140865
254	0xbd98b80b	-0.074569784
255	0x3dd88924	0.105730325

fc2.bias f4 [128]
0	0xbc6f0b8c	-0.014590155
1	0x3cf2a5d6	0.029620092
2	0x3f1f8599	0.6231323
3	0x3e764fc3	0.24053864
4	0xbda18138	-0.07885975
5	0xbd1e1ba2	-0.03860057
6	0xbdb0ddc0	-0.086360455
7	0x3c8e7245	0.017388472
8	0xbb87ee5c	-0.0041482877
9	0x3c7e5b7c	0.015524741
10	0x3eec74fa	0.46182996
11	0xbe01fa70	-0.1269319
12	0x3f3b9216	0.73269784
13	0xbd2fa84d	-0.042885114
14	0x3d1be90f	0.03806406
15	0x3eaa189f	0.3322191
16	0x3dc79c6d	0.09746633
17	0xbb907a85	-0.0044091367
18	0xbd33d86d	-0.04390757
19	0xbd5c1f64	-0.053740874
20	0xbc0d2610	-0.008615032
21	0xbbe7c613	-0.007073173
22	0x3f51cc00	0.81951904
23	0x3cd398ed	0.025829757
24	0x3e16b9b0	0.14719272
25	0x3d8bf5ac	0.068339676
26	0x3e09d36c	0.13459557
27	0x3e04a85f	0.12954853
28	0x3e029bda	0.12754765
29	0xbc1cfcff	-0.009581803
30	0xba9f1926	-0.0012138232
31	0x3db5ebec	0.08882889
32	0x3df3bad9	0.11900873
33	0xbd2c8d2e	-0.042126827
34	0xbdc25ce0	-0.09490371
35	0x3e4247e1	0.18972732
36	0x3cc4307d	0.023948902
37	0x3f12ad35	0.5729554
38	0x3e490027	0.19628964
39	0xbd349b6a	-0.044093527
40	0x3e07a65a	0.13247052
41	0x3e909804	0.2824098
42	0x3d93024e	0.07178174
43	0x3c6412cf	0.0139205
44	0x3e2ab4f6	0.16670594
45	0x3e6283a9	0.22120537
46	0x3cd1a00a	0.025589008
47	0x3e1c6a7a	0.15274993
48	0x3d898622	0.06715037
49	0x3cb428db	0.021992138
50	0xbb739e6a	-0.003717328
51	0x3da91853	0.082565926
52	0x3cc5395b	0.0240752
53	0x3bf2085f	0.007386252
54	0x3c2242fd	0.009903667
55	0x3e1d9a89	0.15390982
56	0xbc95ba94	-0.018277444
57	0xbdfefe5d	-0.1245086
58	0x3f2aba43	0.6669046
59	0x3e5e1451	0.21687438
60	0xbd17ee30	-0.037092388
61	0x3f1bf8da	0.6092659
62	0x3c535508	0.012898691
63	0xbc91f99d	-0.01781922
64	0x3e6fecad	0.23430128
65	0xbdf52cd2	-0.119714394
66	0x3f460fa1	0.773676
67	0x3ddcc607	0.10779958
68	0xbd22c3e9	-0.039737616
69	0xbcbc2072	-0.02296469
70	0x3d176f08	0.036971122
71	0xbda41cc5	-0.080133
72	0xbdb33e34	-0.08752099
73	0xbd0c20d3	-0.03421099
74	0xbd970190	-0.07373345
75	0xbd8abd39	-0.067743726
76	0x3f3f3454	0.7468922
77	0x3e82c21a	0.25538713
78	0xbe78874e	-0.24270365
79	0x3db76283	0.089543365
80	0x3d15b7a4	0.036552086
81	0x3d899b4f	0.06719076
82	0x3cd799e1	0.026318492
83	0xbc81c667	-0.015841676
84	0x3f2ed220	0.68289375
85	0x3da99b40	0.08281565
86	0x3e4afcf5	0.19823058
87	0x3e20f9c3	0.15720277
88	0xbdb0bb3f	-0.08629464
89	0x3e9f7666	0.31145018
90	0xbe3e2daa	-0.18572107
91	0x3e11f763	0.14254527
92	0x3f027b44	0.5096934
93	0xbc86b186	-0.016442072
94	0x3f62671c	0.8843858
95	0x3e0468f0	0.12930655
96	0x3d60217b	0.05471943
97	0x3f12f914	0.57411313
98	0x3df3b37b	0.118994676
99	0x3d51aca9	0.051190052
100	0x3d0cf493	0.03441293
101	0x3d7f0a09	0.06226543
102	0x3d3e82bb	0.046511393
103	0x3c63d67b	0.013906117
104	0x3b7fb375	0.0039016877
105	0xbdba3010	-0.090911984
106	0x3ee1fd37	0.441385
107	0x3c756611	0.014977948
108	0xbda8f2fa	-0.08249469
109	0xbcbd8196	-0.02313308
110	0x3d5c6701	0.05380917
111	0x3b9c420f	0.004768617
112	0x3cc4edcc	0.024039172
113	0x3e15fcc2	0.146472
114	0x3be55867	0.006999064
115	0xbb40cc22	-0.0029418548
116	0x3d118a9e	0.035532586
117	0x3c5659e9	0.01308296
118	0xbb4870f7	-0.003058491
119	0xbd6c11bf	-0.05763411
120	0xbc1b55d3	-0.009480911
121	0xbdcb560a	-0.0992852
122	0xbdde211f	-0.10846161
123	0xbe0df726	-0.13863811
124	0x3dba5333	0.090979
125	0x3f2e52c0	0.68095016
126	0x3d43064b	0.047613423
127	0xbcd2ec49	-0.025747435

out.weight f4 [5, 128]
0	0x3e4e6655	0.20156224
1	0x3e018fe6	0.12652549
2	0x3d376c06	0.044780754
3	0xbe1d5e48	-0.15367997
4	0x3df99a76	0.12187664
5	0x3d31d1b1	0.043412868
6	0x3d724dcc	0.059156224
7	0xbe547aac	-0.2074992
8	0x3d19885b	0.037483554
9	0xbe13dbe5	-0.14439352
10	0xbd34c291	-0.044130865
11	0xbd51a9a9	-0.05118719
12	0x3d2cdc57	0.04220232
13	0xbe811fa2	-0.25219446
14	0xbd5c6221	-0.05380452
15	0x3d85b680	0.0652895
16	0xbe1398d7	-0.14413773
17	0xbe04993a	-0.12949076
18	0x3e59ac1a	0.21257058
19	0xb6309ff5	-2.631915e-06
20	0x3e41543d	0.1887979
21	0x3e2a23e4	0.16615254
22	0x3dadb66c	0.0848206
23	0x3e17e7ff	0.14834593
24	0x3e4918c2	0.1963835
25	0xbe087f03	-0.13329701
26	0x3e5ff370	0.21870208
27	0x3e1c7213	0.15277891
28	0xbe77b6c1	-0.24190809
29	0xbc325bfb	-0.010886188
30	0xbca7d29a	-0.020486165
31	0xbe38563b	-0.18001644
32	0x3e032f39	0.12810983
33	0x3d762cea	0.060101427
34	0x3ce8bfe4	0.028411813
35	0x3e6564b5	0.22401698
36	0x3d32da91	0.043665472
37	0x3d5ad6e4	0.053427592
38	0xbe849961	-0.2589827
39	0xbd939527	-0.07206183
40	0xbd087f98	-0.033324808
41	0xbe1aed79	-0.15129651
42	0x3e5ce190	0.2157042
43	0xbdf7897a	-0.120867684
44	0xbd5e78ce	-0.054314427
45	0xbcb293ff	-0.021799086
46	0xbc07fb71	-0.008299694
47	0xbd86c61c	-0.06580755
48	0x3e239dd1	0.15978171
49	0xbdab04f4	-0.08350554
50	0x3d7652a4	0.060137406
51	0xbe20ea87	-0.15714465
52	0xbcc53690	-0.024073869
53	0x3dd16841	0.10224963
54	0xbe0f9206	-0.14020547
55	0xbcbd1604	-0.023081787
56	0xbd0e60bf	-0.034760233
57	0xbd98543f	-0.07437944
58	0x3d3f4386	0.046695255
59	0x3e44ef21	0.19231845
60	0xbe765fd7	-0.24059997
61	0x3d561b3f	0.052272078
62	0xbe32cc9c	-0.17460865
63	0xbc3a135c	-0.011357155
64	0xbc61e6ae	-0.0137879085
65	0xbe36a07b	-0.17834656
66	0xbc208040	-0.009796202
67	0xbc8af795	-0.01696376
68	0xbe069877	-0.13144098
69	0x3d8ca40c	0.06867227
70	0xbd6318d8	-0.055443615
71	0x3e3d8f28	0.18511641
72	0x3db818b7	0.08989089
73	0x3e10d460	0.14143515
74	0x3e223cb7	0.15843473
75	0xbd9b3cf1	-0.07579983
76	0x3d562467	0.05228081
77	0x3e191525	0.14949472
78	0x3dc6f0ac	0.09713873
79	0x3e313bef	0.17308019
80	0xbe213132	-0.15741423
81	0x3cc90b75	0.024541596
82	0x3eb8fed3	0.36131915
83	0xbe0a9e25	-0.1353689
84	0x3c64c544	0.013963047
85	0x3bdd7482	0.0067582736
86	0x3e226b53	0.15861253
87	0xbdb5857b	-0.0886335
88	0xbdf6e148	-0.12054688
89	0xbe16dc31	-0.14732434
90	0xbe00df38	-0.12585151
91	0xbe5101fd	-0.20410915
92	0xbe31c1a1	-0.1735902
93	0x3caa4850	0.020786434
94	0x3dbeb316	0.09311502
95	0x3d1f04a6	0.038822792
96	0xbdd036ae	-0.10166679
97	0x3b09ead7	0.0021044516
98	0xbd94dab9	-0.072682805
99	0x3d1ec5e5	0.038762946
100	0x3d0e6355	0.0347627
101	0x3db7703c	0.08956954
102	0x3de98c96	0.11403768
103	0x3d8a547d	0.06754396
104	0xbe3ea28d	-0.18616696
105	0xbcf5f096	-0.030021947
106	0x3b35fd2a	0.0027769306
107	0xbdd32649	-0.10310037
108	0x3d812b1f	0.06307053
109	0xbe0ccb41	-0.1374941
110	0xbde0b47d	-0.109719254
111	0x3d93a89e	0.072098956
112	0x3d4d51df	0.050126906
113	0xbdf9541e	-0.12174247
114	0x3cbf4184	0.02334667
115	0x3bdbff7e	0.0067138067
116	0x3d985758	0.074385345
117	0x3e6c08dc	0.23050255
118	0xbe3a4ca0	-0.18193293
119	0xbdb7096f	-0.08937346
120	0xbd534206	-0.051576637
121	0x3d9fdcd5	0.07805792
122	0x3e3e49e1	0.1858287
123	0xbd2aac18	-0.041668028
124	0xbd8bf94a	-0.068346575
125	0x3d00c4f0	0.031437814
126	0xbd515699	-0.051107977
127	0x3dac9c75	0.08428279
128	0x3ddb5db6	0.10711233
129	0x3d4ad6dc	0.049521312
130	0x3d43a51c	0.047764882
131	0xbe18dc47	-0.14927779
132	0x3dd9fa9e	0.106435046
133	0xbaff2821	-0.0019466915
134	0xbc7470bc	-0.014919456
135	0xbe2a1bab	-0.16612117
136	0x3daec1ad	0.085330345
137	0x3d988cee	0.07448755
138	0xbb8a2a78	-0.0042164885
139	0xbde8be20	-0.113643885
140	0x3ce21fcf	0.027603058
141	0xbe0b3919	-0.13596
142	0xbe0aa134	-0.13538057
143	0x3e01b28c	0.12665766
144	0xbe1d6508	-0.15370572
145	0x3e1660c9	0.14685358
146	0x3e1c5ba7	0.15269338
147	0x3cfd2299	0.030900287
148	0xbd9bc05d	-0.0760505
149	0x3db00441	0.08594561
150	0x3dc1570a	0.094404295
151	0xbc5eca5f	-0.013598054
152	0xbdf29858	-0.118454635
153	0xbdda1683	-0.10648825
154	0xbe7f8a20	-0.24955034
155	0x3e087b86	0.1332837
156	0x3cecdd31	0.028914066
157	0x3e2a4595	0.16628106
158	0x3dff3b24	0.12462452
159	0x3cc6a1e9	0.024247127
160	0x3d768361	0.060183886
161	0xbdd842d3	-0.10559621
162	0xbe48a718	-0.19594991
163	0xbdad1366	-0.084509656
164	0xbe196adb	-0.14982168
165	0x3c9abd4a	0.018889088
166	0x3d9e4c6d	0.07729421
167	0x3d23d7cb	0.040000718
168	0xbdbdd97e	-0.09269999
169	0xbe043c33	-0.12913589
170	0xbdbddb3b	-0.092703305
171	0xbe558f28	-0.20855391
172	0x3cd2d276	0.025735121
173	0xbdd7337a	-0.10507865
174	0xbc67408b	-0.014114509
175	0xbe530a70	-0.2060945
176	0xbe7ec0e8	-0.24878275
177	0x3ba8933e	0.0051445058
178	0x3d984a89	0.074360915
179	0xbe3c052a	-0.18361345
180	0xbe37f8c7	-0.17965995
181	0x3d6766ad	0.056494404
182	0x3e623693	0.22091131
183	0xbe2fdffb	-0.17175286
184	0xbdc40f62	-0.095732465
185	0xbe839b20	-0.25704288
186	0x3d288e8a	0.04115156
187	0x3da65869	0.08122332
188	0x3e4e46f7	0.20144258
189	0x3d68ce3f	0.056837317
190	0xbe8c9026	-0.27453727
191	0xbe18e0fe	-0.14929578
192	0x3dc20e27	0.094753556
193	0xbe8f36f4	-0.27971613
194	0x3d116bd7	0.035503235
195	0x3d965367	0.073401265
196	0x3e53ac25	0.20671137
197	0x3d53a79f	0.051673528
198	0x3cd38e88	0.0258248
199	0x3d4d95a8	0.05019155
200	0xbdca9de4	-0.098933965
201	0xbda62407	-0.081123404
202	0xbdac3b3a	-0.08409734
203	0x3c5381b9	0.012909346
204	0x3d441391	0.047870222
205	0x3bda1b6c	0.006656101
206	0xbdaf4fa5	-0.08560113
207	0xbde8ad19	-0.11361141
208	0x3dd9a457	0.106270485
209	0x3c02c774	0.007982124
210	0xbe23617c	-0.15955156
211	0xbd846df2	-0.06466283
212	0x3c707500	0.0146763325
213	0x3e2768b7	0.1634854
214	0x3e0080a9	0.1254908
215	0xbe452f84	-0.19256407
216	0xbd506ba6	-0.05088391
217	0x3d958e6c	0.073025554
218	0x3db87f05	0.09008602
219	0x3c8e55db	0.017374923
220	0xbe31356b	-0.17305534
221	0x3cb5525c	0.022133999
222	0x3db0bf9a	0.08630295
223	0x3de39380	0.11112118
224	0xbd9beb92	-0.07613291
225	0x3ccab8fc	0.02474641
226	0xbdc95979	-0.09831519
227	0xbdadc1e1	-0.08484245
228	0xbd2fc9a8	-0.042916924
229	0xbe92a889	-0.28644207
230	0xbcb128d1	-0.021625908
231	0x3dd277d2	0.1027676
232	0xbdd93328	-0.106054604
233	0x3bd9caf8	0.00664651
234	0x3ca2c613	0.01986984
235	0x3d4831f7	0.048875775
236	0xbd0ab0bc	-0.033859953
237	0x3db0f5c8	0.08640629
238	0xbd8a2db4	-0.067469984
239	0x3b8f19e0	0.004367098
240	0x3db1ef6f	0.086882465
241	0xbdd01ae2	-0.101613775
242	0x3da2d361	0.079504736
243	0xbe8611a5	-0.26185337
244	0xbd3a7d61	-0.045529727
245	0x3d91ce89	0.071194716
246	0xbea72c1c	-0.3265084
247	0x3c3a57be	0.011373458
248	0x3c58b621	0.013227017
249	0xbe1e5079	-0.15460385
250	0x3dd2503b	0.10269209
251	0x3e3ae624	0.18251854
252	0xbd497e8c	-0.04919295
253	0x3d5f5b61	0.054530505
254	0x3e0fbe4d	0.14037438
255	0x3e099bb9	0.1343831

out.bias f4 [5]
0	0x3efbf92f	0.4921355
1	0x3f0667e1	0.52502257
2	0x3ee234b2	0.44180828
3	0x3ed5c38d	0.41750756
4	0x3efb1683	0.49040613
