SimplifiedSpaceWar/trained_models/madrl2_bullets_6000.pth (torch, 89189 bytes, 6 tensors)

fc1.weight f4 [128, 33]
00000000: f99a 37be b017 0ebf da03 82be 830a b53e
00000010: 0333 a9bc bbde 3b3e f32a 8bbe 35e9 9abd
00000020: 4700 8cbc 3bde 72be 2f40 313d 762c 8e3e
00000030: e30c 8d3e c32f 8ebd 8d54 85be a469 b03e
00000040: cd08 99be 2bf7 d73d c52e afbd c65a 47bd
00000050: c5d8 013d 023a 863b 8f09 45bd cbc7 003e
00000060: d1c4 12be 4ff1 2e3e e767 473d 668b 9f3e
00000070: 049e c2be 45ca 823e 5f52 1b3e 3be0 32bd
00000080: 891a a6bc ff20 263f 967f 503e faf9 c8be
00000090: 3831 24be 713a 363e f56b 03bb 389f 03be
000000a0: d76f f0bc 4c0e b03c 72be 993e 6386 0abf
000000b0: 0da8 4d3e 9737 adbd 8d8c 7b3d 7405 d9bc
000000c0: 966e 353e 6219 993c 1fc5 e93d 59cf 1dbe
000000d0: 7f49 b23e c222 fcbb bfad 86bd 9d81 50be
000000e0: e746 4a3c 67fd 3b3e a2eb 293d 5af1 31be
000000f0: 377c ab3e 6026 9c3d 8301 e83d ec18 563a
00000100: 7adc e43d 970a 443e dc39 283f fa0b b43e
00000110: 3228 273e cede 3dbe 7929 e43e 4d18 183f
00000120: 993d c03e f977 34bf f7b5 913c ce8e 1ebf
00000130: 2f9c 103f c535 8c3e 8efc 3e3f a218 a83d
00000140: fd00 9e3c d6e6 d73d 4efe 02be a54c 66be
00000150: 95b1 56bd 6e9a 433d 518d d13c ea1b 37be
00000160: 8d83 1ebe 9645 b4be e144 4b3e edce e0bd
00000170: 0ab2 e83d 3854 a7bd 5aa1 1f3e 93ca cfbd
00000180: cc40 303d 36be 29be c5e8 8cbd e3e5 163f
00000190: 5a22 933e 3c11 ba3c 3489 14bc ec0b abbe
000001a0: 8634 393e 4480 e83e d888 dcbe 7a32 7f3b
000001b0: d5fe ebbe a452 8bbe 6019 123d 4998 2c3f
000001c0: ae11 61bc 43dd cabe bd9b abbd 5816 6f3c
000001d0: 2f32 d7bd 276a 93bd f70a cbbc a0df a23e
000001e0: 1dde 83bd 2ae8 09bd cf3c b7bd 6d9c 833f
000001f0: 1c43 913e 04a8 813d d218 9ebe 42ac d53b
00000200: 45ee 333e a0e7 0ebd a919 8fbd ceda a83e
00000210: a40c cd3e a76c c53e 5c3f 023e 91f4 97be
00000220: a81d 5abe 017a f53e 7321 f9bc 6834 463f
00000230: 739f a23b d22c 58be 8432 f1bc 7416 593f
00000240: 51bc 333e 443a 8abc 07ef 54be 921e 8e3e
00000250: f97b eb3e 47d2 25be f142 bebd 0f45 e93e
00000260: ffb0 3d3e 58dd 0c3d 877c b7be b302 af3e
00000270: c928 1e3d f1f1 943d 1c90 04be 612e 653e
00000280: d09d 95bd ee30 5ebe 879a 84bd 85bb 993d
00000290: b30e 1a3e 4721 00bf 6578 afbe 9dd9 aabe
000002a0: 8846 0dbd 2fe7 15be 81bd 633e bf8a e0bd
000002b0: 0742 dd3d d8bb ee3c bfdf 913e 8906 953e
000002c0: 2ef6 a4be 6ac7 123e 3fcd 21be 55a2 acbe
000002d0: 0f96 293c 0bb5 d93c 4d7b 973d 3ffd d53d
000002e0: e6ff 7bbe bb04 f93d d117 893e 4a7b 683e
000002f0: f063 5abe 83c1 913d b48a 6e3e 57b3 363e
00000300: 8621 58be d70b f3bd 1bf4 683e 0e85 943c
00000310: cb35 84be 00cc 0c3e bcb3 10be fcfa d0bd
00000320: dd7f fbbb 9d67 94bb 3a63 c7bc 7859 163c
00000330: 3b86 113c 8983 773d 117b 70b9 5712 5a3c
00000340: f22a 1cbc 4e70 593d 307d 7bbc e785 1abe
00000350: ead2 cfc0 3e0d 10bd ac92 cabd 7166 7ebc
00000360: 95b8 c2bb 9d94 633b fbe2 25bd ddf3 8d3d
00000370: 6284 87bd 5710 58bb 392c b0ba 585f 2bbc
00000380: dc22 3f3c 3c4e 64bc 8af0 e038 8c0c 883d
00000390: ebe9 70bd 11d4 35bd a20f 99bc ca33 61be
000003a0: 2535 8f3e ba32 9bbd 9c45 38be abe3 eabe
000003b0: e1d5 0bbe 633e 70be 6a03 7bbd fdd1 8d3c
000003c0: 6784 35bf 361c 0a3f a87f cebe 3f31 7b3e
000003d0: 66ec d3bc 9d15 62be 38b2 89bd e065 e63d
000003e0: 8b4e e4bd cec4 a3bd 2be7 ecbe a897 dd3d
000003f0: 3a91 43bd 1608 533e 63e1 30be abe9 c8bd
-0.17930211 -0.55504894 -0.25393564 0.35359582 -0.020654207 0.18346684 -0.27181205 -0.07564012
-0.017089976 -0.23717587 0.0432741 0.27768296 0.27548894 -0.069427036 -0.2604107 0.34455597
-0.29889527 0.105451904 -0.085538425 -0.048670553 0.03170087 0.0040962705 -0.04810482 0.12576215
-0.14332892 0.1708424 0.048683073 0.3116104 -0.3801118 0.25544944 0.15168141 -0.043670874
-0.020276325 0.648941 0.2036117 -0.39253217 -0.160344 0.17795731 -0.002005336 -0.12853706
-0.029350204 0.021491192 0.3002811 -0.5411131 0.20083638 -0.084578685 0.061413337 -0.026491858
0.17717966 0.018688861 0.11414551 -0.15411128 0.34821698 -0.007694573 -0.06576108 -0.20361944
0.012346006 0.18358384 0.041484483 -0.17377225 0.33493206 0.07624507 0.11328413 0.0008167166
0.11174865 0.19144665 0.65713286 0.35165387 0.16323927 -0.18542024 0.4456289 0.5941208
0.37546995 -0.70495564 0.017786963 -0.6193665 0.5648832 0.27384773 0.7460412 0.08207823
0.01928758 0.10542075 -0.12792322 -0.22490175 -0.05241545 0.047754698 0.02558008 -0.17881742
-0.1547987 -0.3520934 0.19850494 -0.10976968 0.11362083 -0.0817036 0.15588894 -0.1014606
0.043030545 -0.16576466 -0.06880335 0.5894453 0.28737146 0.022713296 -0.009065915 -0.33407533
0.18086442 0.4541036 -0.43073153 0.0038939998 -0.4609286 -0.27211487 0.03566873 0.6741987
-0.013737125 -0.39621934 -0.08379314 0.0145927295 -0.10507619 -0.07197981 -0.024785502 0.31811237
-0.06438849 -0.033668675 -0.08947145 1.0282112 0.28371513 0.063308746 -0.3087831 0.006520779
0.17571361 -0.034888864 -0.06987316 0.32979435 0.40048707 0.38559458 0.12719482 -0.29678777
-0.21300375 0.47944644 -0.030411458 0.77423716 0.0049628555 -0.21110848 -0.029443033 0.84799886
0.17552306 -0.016873486 -0.20794307 0.27757698 0.4599302 -0.16193496 -0.09290112 0.455605
0.1852455 0.034390777 -0.35837194 0.34181747 0.038613115 0.07272709 -0.12945598 0.22380973
-0.07305491 -0.21698353 -0.06474786 0.0750647 0.1504467 -0.5005078 -0.3427154 -0.3336915
-0.034491092 -0.14638971 0.22240259 -0.10963964 0.10803609 0.029142305 0.28491017 0.29106548
-0.3221907 0.14333883 -0.15800951 -0.337176 0.010350718 0.026575586 0.07396565 0.104486935
-0.24609336 0.121591054 0.26775983 0.22703281 -0.21327186 0.071169876 0.23295099 0.1784185
-0.21106538 -0.11867493 0.22749369 0.018129852 -0.2582229 0.13749695 -0.14131063 -0.102041215
-0.0076751546 -0.004528953 -0.024339307 0.009176604 0.008882101 0.060428176 -0.0002293403 0.013310037
-0.009531723 0.053085618 -0.015349671 -0.15090142 -6.4944963 -0.03516888 -0.09891257 -0.015527354
-0.005942414 0.0034726032 -0.04049967 0.06931279 -0.06617047 -0.0032968724 -0.0013440914 -0.010459743
0.011666026 -0.013934668 0.00010725956 0.06643018 -0.05881683 -0.044391695 -0.018684212 -0.21992412
0.27970234 -0.07578035 -0.17995304 -0.45876822 -0.13655807 -0.23461299 -0.061282553 0.017312044
-0.70905155 0.53949296 -0.4033177 0.24530505 -0.02586956 -0.22078557 -0.06723446 0.112499
-0.111477934 -0.07996522 -0.46270117 0.10819942 -0.04774592 0.20608553 -0.17273478 -0.09810194

fc1.bias f4 [128]
00000000: 1f94 9fbd 81a1 1d3e 4ff0 6fbd 612d a53e
00000010: 74b0 e33c 1468 eebd f848 c4bd e94b 86be
00000020: d558 553e 0c05 903e 1443 a43e f540 b93d
00000030: 140e d13e 5f85 923e bb8f 503e 0c69 a1bd
00000040: 13c1 9dbe f088 fabe 4549 47be d795 2d3e
00000050: 13fd b5be 2306 173d 273f ddbd c906 d93d
00000060: 459b 533d 0ab6 043f 442a 99be bf74 be3d
00000070: 736e 1abf 4e36 d2ba 5fcb 073f fd52 243e
00000080: 46ad edbc cee4 a73c 6c7c 1fbd 92ff f83d
00000090: ddb2 893e 8dc6 6abe 56be f83e d27f ab3c
000000a0: 65b8 623e 93f5 103d ba08 bfbd 0155 583d
000000b0: 016f a43c d04f 233d cd31 a3bd 31ac 123d
000000c0: d693 9fbe b5a6 513e 45c6 013e 4612 0cbe
000000d0: 85dd 9bbe ebec 093f a2e8 28be b82e 793e
000000e0: 4ff9 cd3e 16e6 703d dedb 493f 37b0 803e
000000f0: 53ab 66be 2c7c 153e 1c04 063e f880 5e3d
00000100: 16a1 373e 5a6a 893d d3e0 8e3e 5c20 04be
00000110: 557d 44bd 3e63 993d 09dc 333f 736f f13d
00000120: bf17 993d 7f52 233e d6ef c4be 5a4c be3e
00000130: dba5 34be 8b8a 83bc 0d15 85bd e114 5c3d
00000140: 5c62 843e 27a6 083e d410 19be 73fc 843e
00000150: a5ec c53d f454 d4be 086c 97bd 6e52 023e
00000160: 03a3 3e3c 8387 70bd ddf0 71bd 3276 4ebe
00000170: b211 b13d 6912 5bbe bad9 953e ad3f 4bbd
00000180: ff01 843e af08 533e 9198 9e3e 252d 0ebe
00000190: 0f4b 10be 7eb5 37be 2e41 ea3e 5396 983e
000001a0: 3a46 85be d46c 67be 0051 6cbd 6760 ec3e
000001b0: a8f1 dd3d 6291 05bd eb3c 153d fdcf a43e
000001c0: 214d 0abe eb3a 77be 50e8 0dbe 7a0e 873d
000001d0: a8c0 e03d 7efc b33d b712 afbe a0ca 403e
000001e0: 3c0f 8d3e 867f e2bc 8c3a 68bb 4266 523e
000001f0: 552d ee3d a166 82be 100b 513e c094 21bd
-0.07791924 0.1539364 -0.058578786 0.32261184 0.0277941 -0.11640945 -0.0958423 -0.2622979
0.20834668 0.2812885 0.32082427 0.09045593 0.40831053 0.2861738 0.20367329 -0.07881364
-0.30811366 -0.489326 -0.19461544 0.1695169 -0.35544643 0.036871087 -0.10803061 0.10596997
0.05166175 0.5184027 -0.2991506 0.09299611 -0.6032478 -0.0016037913 0.53044695 0.16047283
-0.029013287 0.020494845 -0.038937017 0.12158121 0.26894274 -0.22927304 0.48582715 0.020934973
0.22140653 0.035390448 -0.09327836 0.05281544 0.020072462 0.039871037 -0.07968483 0.035808746
-0.31167477 0.2047375 0.1267329 -0.13678846 -0.30442443 0.53877133 -0.16494992 0.24334228
0.4022927 0.058813177 0.78851116 0.2513444 -0.22526293 0.14598149 0.13087505 0.054322213
0.17932543 0.06709738 0.27905902 -0.12902969 -0.04797109 0.07489632 0.7025762 0.117888354
0.07475232 0.15949439 -0.3846423 0.37167627 -0.17641394 -0.016057273 -0.06498156 0.05373085
0.25856292 0.13344632 -0.14947826 0.25973853 0.09664277 -0.41471064 -0.07393652 0.12726757
0.011635545 -0.058722984 -0.059067596 -0.20162275 0.08645953 -0.21393742 0.29267675 -0.049621273
0.25782773 0.20608781 0.30975774 -0.13884409 -0.14091133 -0.17940328 0.45752853 0.29802188
-0.2603014 -0.22600108 -0.057694435 0.461673 0.10837108 -0.03260935 0.03643505 0.32189932
-0.13505985 -0.24143569 -0.13858151 0.06594558 0.10974246 0.087883934 -0.34193966 0.18827295
0.27550685 -0.027648699 -0.0035435287 0.20546821 0.1162974 -0.25468925 0.20414376 -0.0394485

fc2.weight f4 [128, 128]
00000000: c8a7 b5bc df6d 8bbd cd6d d6ba 32bb 50bc
00000010: 70d0 a93d 75ab c9bc 403a e03d 9292 6bbd
00000020: 2750 ee3d 16e0 b2bd 2989 0d3d 1580 15bd
00000030: 9bbf bfbc dec3 d1bd 7bf1 3abd 0885 42bd
00000040: ffa9 5f3d 8c04 973d b882 66bd a4da 7ebd
00000050: 1ec0 bbbc 2388 c93d 8b90 a0bd 6b47 32bd
00000060: 6e05 adba 9bc9 5d3d af06 023d c755 d23d
00000070: c44a 79bd 3faf dfbd 6f12 b9bd 4a47 25bc
00000080: f389 113e 520b a33d dbb4 12bb 17cf 3b3d
00000090: e290 cfbb c489 05bd b62f e1bc 299f 06bd
000000a0: 3b2d c03d c22c 893d c877 9fbd e387 1e3c
000000b0: 4d30 60bc 5a9d 8d3d 55bb 7cbd 713e c4bd
000000c0: 2b18 38bd eece 9a3c 996c 823d f9be 883d
000000d0: c887 0bbe 4731 903d 6807 04bc d236 33bb
000000e0: 153d 383d e088 db3d 2322 f1bd 33a0 cabd
000000f0: 58ea 673d 4911 c0bd 4bc5 5dbd ddf9 473d
00000100: 0ffd c53c 09d8 863d b2cf 053e a433 88bd
00000110: e3ce 8c3d b1a9 e4bc 96d2 21bd 4f22 593d
00000120: f1c9 8abd 8be0 cdbd d556 163d d99f 903c
00000130: 7e6b fdbc 4efc c1bd 9675 f8bc e0ff 3cbc
00000140: fb5d 553d eab7 15ba 3b11 81bd 9f7e a8bd
00000150: b653 23bd 6809 63bd 72ca 393d 04fa 893d
00000160: 2c12 4ebd 0825 08be 44a2 87bc 4a90 81bd
00000170: 9d9e 60bd 096e 813c bc25 8abd cacc e9bd
00000180: 1668 5abd f44a 9bbc 2c81 9cbd e6ab 1c3c
00000190: b07b 9fbd 1968 53bd 18f8 2cbd bc6b bdbd
000001a0: aa9c b1bd 8d35 dd3d 5aba 913d b405 a13b
000001b0: 692e c8bc 23b2 283c 760e 913d a9e2 1ebd
000001c0: ccc7 6f3d 712e c5bd 812a 2dbb b0d8 493d
000001d0: 7dd8 fcbd bdc4 6b3d 938c 97bd deb0 8f3d
000001e0: fc90 96bc d70a c4bd 5fa7 9a3d 4ed3 6c3c
000001f0: 6a59 d93c f604 cd3c 2fc9 0d3d 9b59 8abc
00000200: 55ed 76be c5e4 ce3d 5ad9 773e 22ed 8cbc
00000210: 8ba7 0f3e 40cb 14be f355 85bf 1037 73bd
00000220: 51d0 393e 6778 da3d 81dd b6be 1c8c 2c3e
00000230: 1b50 dd3d fbb0 99bd 10b7 183d 0cec b9bd
00000240: 5e21 11be 0776 3cbd 3737 51bd 33ff 513d
00000250: 62fc f1bc 3740 413e 6bb4 8dbd 942b e03d
00000260: 85f5 173e 4c3c 0ebe 6562 0b3d 56c9 c5bd
00000270: 3b79 49be 6ff9 953e ddf9 3b3e 033f cb3d
00000280: 673d 40bd c693 0f3d fa39 533e f1b6 95bc
00000290: e4f0 c33d 0a6d dc3b b531 843e 7fdb b13b
000002a0: 0362 e83d a7fe 39bc 347f 55be ec1b 103c
000002b0: 69ab 05be eb83 5d3d 2cd9 0c3e c802 abbd
000002c0: 007a ea3b 2426 c2bd c96f 073e cfe8 86bd
000002d0: d059 b4bc 5120 063d 826f 3d3d e026 c1bd
000002e0: dd7e e3bd f652 323d d12d 783e 284f ae3c
000002f0: 9524 fbbd f00c 1c3e 4106 40be 8e3e 1bbd
00000300: 73ff 10bc 3382 ccbd cc1c ea3d 5eb8 4bbd
00000310: 1151 893e 1f2d 9ebd c741 6c3e b730 a03e
00000320: b87e 943d 0d2e a63e e89b 83be a38c 01bc
00000330: 7c58 a3bd f436 2c3d 9b59 5cbe 8a3c 72bd
00000340: 4b8c 29be 3d72 04bc 02d2 48bd 1c15 3e3d
00000350: 5130 92be bb85 fe3c e867 1d3e e647 893d
00000360: f5f7 163d 78a3 1fbe 235e 69bd 786c 83bd
00000370: ae85 aabd e441 863d 3a71 123e 70e7 103e
00000380: 8ace 7a3e 3288 193e 3fc4 033e be70 023e
00000390: f927 9dbe 0fb3 473d 9692 23bd 5bb4 46be
000003a0: 44f1 febd 1c8c 153e 6a6e 3ebe 46bf 983d
000003b0: c24c 23be e966 2abe 3b40 443c eff1 eebd
000003c0: 19e6 04be c002 8fbe e568 fdbe f5d6 303d
000003d0: e5fa 503e 9085 553e 30f9 e9bd 29c7 85bd
000003e0: 309e 8f3e be6d a93d 7fe7 15bd 8d10 4c3c
000003f0: a4e9 fc3d 65b5 283d e127 3fbd f4a1 98bd
-0.02217473 -0.068080656 -0.0016359627 -0.012739943 0.082917094 -0.02461789 0.1094861 -0.057512827
0.116363816 -0.08734147 0.034554634 -0.0364991 -0.023406794 -0.10242437 -0.04564045 -0.04749015
0.05460548 0.07373914 -0.056277007 -0.06222023 -0.022918757 0.09840419 -0.078400694 -0.04352514
-0.0013200471 0.054147344 0.031744655 0.10270267 -0.060862318 -0.109220974 -0.09036719 -0.010087797
0.1421278 0.079611436 -0.002238563 0.045851793 -0.00633441 -0.032602087 -0.02748857 -0.03286663
0.09383627 0.0669799 -0.07786518 0.009675953 -0.013683391 0.06914778 -0.06170209 -0.09582222
-0.044944923 0.0188975 0.063683696 0.0667705 -0.13626015 0.07040649 -0.008058406 -0.0027345908
0.044980127 0.10719466 -0.11774089 -0.09893837 0.056619972 -0.09378297 -0.05414323 0.048822273
0.02416852 0.06584174 0.1306751 -0.06650475 0.06875398 -0.027912946 -0.03950747 0.053011235
-0.067767985 -0.10052594 0.036703903 0.017654346 -0.030935045 -0.094719514 -0.030329507 -0.011535615
0.05209158 -0.0005711304 -0.063021146 -0.08227276 -0.039874755 -0.055428892 0.045359083 0.0673714
-0.0503103 -0.13295376 -0.016556866 -0.06326349 -0.054838765 0.01579954 -0.067454785 -0.114160135
-0.05332192 -0.018956639 -0.07641825 0.009562468 -0.077872634 -0.051612947 -0.04222879 -0.09249064
-0.086724594 0.108012296 0.07115622 0.00491401 -0.024436193 0.010296377 0.07082836 -0.03879038
0.05854015 -0.096279986 -0.002642304 0.049278915 -0.12345979 0.05756067 -0.07399859 0.070161566
-0.01837968 -0.0957238 0.07551455 0.014454676 0.026531894 0.02502678 0.03461569 -0.01688843
-0.24113972 0.10102228 0.24204007 -0.017202917 0.14028756 -0.14530659 -1.0416855 -0.059378684
0.18145873 0.10667496 -0.3571587 0.16850322 0.108062945 -0.075044595 0.037283957 -0.090782255
-0.14172885 -0.046010997 -0.051078048 0.051268768 -0.02953929 0.18872152 -0.069191776 0.10945812
0.14839752 -0.13890189 0.034029383 -0.096575424 -0.19675152 0.29291865 0.18357034 0.09924128
-0.046933558 0.035053037 0.20627585 -0.01827571 0.095674306 0.0067268657 0.25819173 0.0054277773
0.11346819 -0.011352218 -0.20849305 0.00879572 -0.13053669 0.054080885 0.1375472 -0.0835014
0.007155657 -0.09479931 0.13226236 -0.065873735 -0.022015482 0.032745663 0.04624892 -0.09431243
-0.111081816 0.04353615 0.24236228 0.021277979 -0.12262837 0.1523931 -0.18752386 -0.037901454
-0.008849966 -0.09985771 0.11431274 -0.049736373 0.2681966 -0.0772345 0.23071967 0.31287166
0.07250732 0.3245701 -0.25704885 -0.007907066 -0.079758614 0.042044595 -0.21518557 -0.059139766
-0.16557424 -0.008083877 -0.049028404 0.04640685 -0.28552487 0.031069627 0.15371668 0.06703167
0.036857564 -0.15589702 -0.05697454 -0.06417173 -0.083262786 0.065555364 0.14301005 0.14150786
0.24492851 0.1499336 0.1286783 0.1273832 -0.3069456 0.048754748 -0.039934717 -0.19404738
-0.124483615 0.14604229 -0.18596807 0.074583575 -0.1594725 -0.1664082 0.011978204 -0.11667239
-0.129784 -0.27931786 -0.4949409 0.04317375 0.20408209 0.20851731 -0.11424482 -0.065321274
0.28050375 0.08272885 -0.036597725 0.012455118 0.12349251 0.041188616 -0.04666889 -0.07452765

fc2.bias f4 [128]
00000000: 5586 2aba 767d c13e 4bc0 12bc 4d20 d2bc
00000010: fde8 83bd 0d40 e63d 7f8e 073e 818e 09bd
00000020: e150 893d 9503 263b 53b0 913e 7dda 1e3f
00000030: 3b99 84bd c01a bbbc e9aa ee3d 22d7 a6bc
00000040: cf19 2dbe 566b 3fbd c680 163a d57f 9a3e
00000050: d6c2 9abd 0a1e a6bb 0e5e cf3e 8a0f 9b3e
00000060: e4aa a63b f6ed 29be 250d 1d3e 8cd4 333d
00000070: 4a24 2cbc 74b7 9dbd d954 adbd 7a85 3fbc
00000080: d03e cb3d 1ff4 f1bb 9363 013e 1d8f c03d
00000090: dd2a 8a3d 8846 16bd 9bea 843e 504c 0b3d
000000a0: 27cc 0f3e 736a 26bd ccde 873d 5c7b 863e
000000b0: f50c f5bd 732b 013e b0e2 843c f07d 9d3d
000000c0: 8434 bebd 62f5 203e 6e74 6a3d 8aee 17bd
000000d0: cb6d aa3d 5ddb f03e 0f3c e13d b308 183d
000000e0: 1fbb 8fbe e21f 183e fb7e ed3c 1e0c 883e
000000f0: 72d2 0a3d 5351 f13d 7499 c93c 5678 b13d
00000100: 3798 013e 3cb2 35bd fc3f 483d 44d0 2d3e
00000110: 61f6 9e3d aeed f83d c07f 233c a5e6 5a3a
00000120: 653f 0c3d c975 d23e 808f 2abc 3661 db3d
00000130: 8b27 ab3c b076 0c3f ce78 2dbe e4c2 c4bd
00000140: 1a95 52bd 9045 f83d b0e3 71bd 032e f53d
00000150: 4038 67bb 198d 523e 9f96 473d bfd9 29be
00000160: 8a67 483e 74a4 55bd eb0e 0b3d 2a4f 263e
00000170: 6a78 133e 6596 a5be ae61 653e c8a3 ff37
00000180: 7d04 bb3b 5d0c 013e b635 81bd cb82 e73d
00000190: ab33 a63d f921 12bd b4e6 8d3d 0cb0 8cbd
000001a0: ccaa a9bc cad9 e43d 3218 c6bd b196 cf3c
000001b0: 92b4 82bd f233 c3bb 9531 613e 9596 0d3e
000001c0: df17 debd 4166 16bd a71d 06bb 5919 2cbc
000001d0: 252c 553e fa92 e93d a4f6 31b9 8416 ec3d
000001e0: c065 b73d ef2b 8cbd 67e3 213e f7f1 48bd
000001f0: bd81 ef3d 5c7b 2c3c 6fb8 a43d b4d0 adbd
-0.00065050024 0.37791032 -0.008956979 -0.025650168 -0.06440923 0.112426855 0.13237952 -0.033583168
0.067048796 0.0025331725 0.28454837 0.62052137 -0.06474539 -0.022839904 0.11653692 -0.020366255
-0.16904376 -0.046733223 0.00057412346 0.30175653 -0.07556693 -0.005069499 0.40501446 0.30285293
0.0050862897 -0.16594681 0.15337045 0.043903872 -0.010506699 -0.077010065 -0.08463449 -0.011689538
0.0992409 -0.007383838 0.12635641 0.09402297 0.06746457 -0.036688358 0.2596024 0.034008324
0.14042722 -0.04062886 0.06634292 0.2626599 -0.11965362 0.12614231 0.016221374 0.07690036
-0.0928736 0.15718606 0.057239942 -0.037092723 0.083217226 0.4704236 0.109977834 0.03711767
-0.2807245 0.14855912 0.028991213 0.26571745 0.033892103 0.117830895 0.024609305 0.086655304
0.12655722 -0.04435943 0.048889145 0.16973978 0.07761837 0.12154709 0.009979188 0.0008350409
0.034240145 0.41105488 -0.01041019 0.10711901 0.020892879 0.548686 -0.16940615 -0.09607485
-0.051411726 0.12122643 -0.05905503 0.11971667 -0.003528133 0.20561637 0.048727628 -0.1658697
0.19570747 -0.052158788 0.033949774 0.16241136 0.14401403 -0.32341304 0.22400543 3.0474635e-05
0.005707322 0.12602372 -0.06309073 0.11304244 0.08115324 -0.03567693 0.06928769 -0.06869516
-0.020711325 0.111743525 -0.09672584 0.02534041 -0.06382097 -0.00595712 0.2199157 0.13826974
-0.10844397 -0.03671861 -0.0020464452 -0.01050409 0.20817621 0.11404987 -0.00016971916 0.11527732
0.08954954 -0.06844317 0.15809403 -0.04905888 0.116946675 0.010527458 0.080429904 -0.084870726

out.weight f4 [5, 128]
00000000: e81f 1bbc e8c8 28bd 3164 fd3c aaba 8fbd
00000010: 1cbe 373e 0d46 f2bd 7977 1b3d 0f2b d4bd
00000020: bcee b93d 10af 393e ebb1 c1bd 12fc e4bd
00000030: 1cf6 cd3d c5f4 053e 1fbe 45bd 0ab1 973d
00000040: 56ca 8b3c 897c 6c3d b901 75bd dfe1 0bbd
00000050: 072b 2a3e 82bc 923c b2f9 6ebe 64f2 91be
00000060: 0082 07bd 9678 3f3d ffca bfbd 7185 10be
00000070: afb8 0bbb dc7b 88bd 23e7 573d af49 4abd
00000080: 943f 70bd 5d06 713d b5c0 08be 60ee a53d
00000090: 1c59 b5bd 8220 3abe bf23 98bc b3fc 21be
000000a0: 3e92 16bd 195d 593e a902 413e 13e3 a2bd
000000b0: d180 063e 2a7a 94bd 4219 07be 1c37 5ebc
000000c0: 7d00 553e daa8 02be 4c77 f63d 2b2f c13b
000000d0: 08d9 b33d 8d2f 80bd b69f af3d ce97 c73d
000000e0: 4825 cc3d 9623 6abe 9047 e93d deb2 d8bd
000000f0: b34e 053c 6cd8 0bbd 1980 d83c 8cce bebb
00000100: 4409 99bd f43b 26be 69fe 043b 6933 10be
00000110: d630 69bd 42f2 40bd b536 423e e7df 12be
00000120: 428e 633e 282e c1bc 8fb1 883d 96cd 80be
00000130: c2d6 b6bc 7dab 843d f4ea 4c3c 07cc b2bc
00000140: 9ab5 173e cc8d ccbd 34bf 9c3d 8e64 0bbc
00000150: 1588 113d 2b5a 1fbe 0d11 b0bd 3484 5a3d
00000160: a838 543d 5df5 9f3d a254 29bc e943 06bc
00000170: 7f05 9db8 33c9 b03d f6b0 40bd a52b 15be
00000180: 5224 c7bd 7d8d fcbd 74e4 36be 076a 813d
00000190: 651f 6b3e 8516 4a3d d27f e8bc ca19 873e
000001a0: 024b 2e3d 7de8 e7bc d37e a33d 8a11 f53d
000001b0: f8b1 58be d0c3 d73d 0314 67be b628 bebd
000001c0: 13f9 013e 2db8 12be f01c 943d 9bea e23d
000001d0: cc0a a13c effd 093e dc97 c93d 8fda 133e
000001e0: f0ed a8bd 16f9 6d3e 257e c5bd 256a f43d
000001f0: f08e d6bd af6f 613d 2691 94bd 0ffb 0c3e
00000200: 196d cfbc 81ac 9cbe 3a80 1c3e 27ba e53d
00000210: 4e92 2c3e 2069 fbbc 02ec a5bd 9092 dfbd
00000220: 2a49 033d 17db bebd a47a a8bd f62e 19be
00000230: cd10 e83d c905 fc3c 2044 46be 3e4b 11be
00000240: a355 e23c 143e 45be d751 243d c57b fbbd
00000250: a6d2 08bd 199d e93d 3ef4 70be 8bff 8abd
00000260: d454 94bd bb35 123d 4383 ed3d 7ad9 2f3c
00000270: 7e93 47bd ff55 9b3d 4f47 9cbc d421 993d
00000280: d0bd 00be d108 aebd 6079 00bd 80f6 7e3e
00000290: 91a5 c63d 6ba4 a93d 4af5 afbd e20a 183d
000002a0: 24c6 743d d1b3 98bc cdb1 683d 99db 0abd
000002b0: 406e ca3c 087e 91bd 2ed5 593d 2a57 2b3c
000002c0: 687c 803d a64a 8e3c 06b8 48be e8c4 9b3e
000002d0: 4e2e 963d adf2 e53c 0c5d d9bd a09e 273e
000002e0: f6df 493e b36d 1bbc a037 bc3d c3c4 d6bb
000002f0: 15b2 0dbe cf8d 2c3e 8b6f ef3d da01 2f3d
00000300: 2231 003c 1881 7f3d e2cc a0bc e27f 843d
00000310: b9a5 a93d 9d4c 78bd ffad ce3d 8edd 87bd
00000320: 4074 183e 8b1e eabc 4589 d23d 79a3 2fbe
00000330: 6943 f8bd 8ac2 cc3d ccaf ee3c 5eec 6eba
00000340: e783 113e 5807 46bd 7170 a93d 77c7 c1bc
00000350: 7ee4 ed3d b183 34be c630 033e ed9a 4a3d
00000360: a08a 78bd 5ee1 913d b32f 413e fa70 153e
00000370: d9a4 5ebe ba90 fc3d c538 24bc fab0 c03d
00000380: 542b a73c a468 3bbb 929e 2c3e 8dfc 68bd
00000390: 7d0d 293e beb1 763d f8eb 833d c62a f53d
000003a0: e8aa 9b3c c73e e43c 1fbb 853d 74a4 a53c
000003b0: 21f8 23be a01e 513d e889 4cbd 4dde 83bd
000003c0: c4a8 123d 9111 5e3d e53f f3bd 8767 81bc
000003d0: f219 723d ebf1 9b3d a4a2 003d 6dd7 9fbd
000003e0: 2206 df3b afb4 2b3d 42b7 9fbd 4fa7 3c3e
000003f0: 1ea9 39bd 6e55 7c3d fdc1 903d a0a8 3c3c
-0.009468056 -0.041207224 0.030931564 -0.07018025 0.17943615 -0.118297674 0.037955735 -0.10359775
0.09078738 0.18133187 -0.09457763 -0.11180891 0.10056707 0.13081653 -0.048277017 0.074068144
0.017064255 0.057735953 -0.059816096 -0.034150954 0.16617976 0.017912153 -0.23337439 -0.28505242
-0.033082962 0.04674586 -0.0936489 -0.14113404 -0.0021319797 -0.06664249 0.052710664 -0.049386676
-0.058654383 0.05884396 -0.13354762 0.08102107 -0.08854887 -0.18176463 -0.018571733 -0.15819053
-0.03676056 0.2122692 0.18848671 -0.07953467 0.13135077 -0.072498634 -0.13193229 -0.013562944
0.20800968 -0.12759724 0.12034473 0.0058955154 0.0878163 -0.062590696 0.08575384 0.09745751
0.09968048 -0.22865137 0.113906026 -0.10580991 0.008136439 -0.034141943 0.02642827 -0.005822962
-0.074724704 -0.16233808 0.0020293242 -0.14082111 -0.05693134 -0.047106035 0.18966182 -0.14343224
0.22222236 -0.02358158 0.066744916 -0.2515685 -0.022319201 0.06478021 0.012507189 -0.021825803
0.14815369 -0.09987983 0.076536566 -0.008507861 0.03553017 -0.1556174 -0.08597002 0.053348735
0.051811844 0.07810471 -0.010335119 -0.008194902 -7.487367e-05 0.08632126 -0.047043763 -0.1456743
-0.097237244 -0.12331674 -0.17860585 0.06319051 0.22961195 0.049337883 -0.028381262 0.26386863
0.042552 -0.028309101 0.07983174 0.11966236 -0.2116164 0.10535395 -0.22566228 -0.09285109
0.1269267 -0.1432807 0.07232082 0.11079904 0.019658469 0.13475774 0.09843418 0.14438842
-0.08248508 0.2323955 -0.09643201 0.11934308 -0.10476482 0.05503815 -0.07254247 0.13767646
-0.025320577 -0.3060036 0.1528329 0.11217146 0.16852686 -0.030689776 -0.081016555 -0.109166265
0.032052197 -0.09319132 -0.08226517 -0.1495932 0.113313295 0.030764477 -0.19361925 -0.14188859
0.027628725 -0.19261962 0.04011711 -0.122794665 -0.033404015 0.11406917 -0.23530671 -0.06787022
-0.07242742 0.035695773 0.11597302 0.010733003 -0.048724644 0.07584762 -0.019076971 0.07477155
-0.12572408 -0.08497775 -0.031365752 0.2489872 0.09699548 0.08283313 -0.08591707 0.037119754
0.059759274 -0.01864043 0.05681019 -0.03390083 0.024710774 -0.07104117 0.05318182 0.010457793
0.062737286 0.01736958 -0.1960145 0.30423665 0.07333051 0.028069818 -0.106134504 0.16369104
0.1971434 -0.009486604 0.09190297 -0.0065542175 -0.13837464 0.1685097 0.11691197 0.042726375
0.007824214 0.062378973 -0.019628946 0.06469704 0.08283562 -0.06061994 0.10091781 -0.06634055
0.14888096 -0.028579017 0.10280088 -0.17152204 -0.121222325 0.09998043 0.02913656 -0.0009114201
0.14210473 -0.048346847 0.082733996 -0.023654683 0.11615847 -0.17628361 0.12811574 0.049464155
-0.060679078 0.071230635 0.18865852 0.14593878 -0.21742572 0.12332292 -0.010023301 0.094087556
0.020406403 -0.0028596306 0.16857365 -0.056881476 0.16509052 0.060228102 0.06441492 0.11971049
0.019002393 0.027861966 0.06529831 0.020220019 -0.16012622 0.051054597 -0.049936205 -0.06438885
0.03580548 0.05421597 -0.11877421 -0.015796436 0.059106775 0.076145016 0.031405106 -0.07804761
0.006806151 0.04192036 -0.077986255 0.18423198 -0.0453273 0.06160491 0.0706825 0.011514813

out.bias f4 [5]
00000000: 7a5c 8cbd dc2c b8bd 55e0 85bd 0c4a 77bd
00000010: 780c cdbd
-0.06853576 -0.08992931 -0.065369286 -0.06037335 -0.10012144
