SimplifiedSpaceWar/trained_models/madrl2_bullets_12000.pth (torch, 89201 bytes, 6 tensors)

fc1.weight f4 [128, 33]
0	0x3f535b64	0.82561326
1	0xbf818b85	-1.0120703
2	0xbeedce86	-0.46446627
3	0x3e8d8b43	0.2764531
4	0xbe803caf	-0.25046298
5	0x3b62c234	0.0034600617
6	0xbf015703	-0.50523394
7	0x3e2c10e2	0.16803315
8	0xbdaa7ab9	-0.08324189
9	0xbeebfabd	-0.46089736
10	0xbe19e0f7	-0.15027224
11	0x3f14434e	0.579152
12	0xbdc4ff60	-0.096190214
13	0xbc4182d5	-0.011810978
14	0xbd635153	-0.05549748
15	0x3f00431e	0.5010241
16	0xbe10b784	-0.14132506
17	0x3e8aebb7	0.2713296
18	0xbe04e547	-0.12978087
19	0x3e4a9680	0.19783974
20	0x3d3cb9eb	0.046075743
21	0xbe22834e	-0.15870401
22	0xbe052cfb	-0.1300544
23	0x3d1ca825	0.038246293
24	0xbe52ae6d	-0.2057435
25	0x3cfb363d	0.030665511
26	0xbe1575d5	-0.1459573
27	0x3ecbdacb	0.39815363
28	0xbed04281	-0.40675738
29	0x3dad8a56	0.08473651
30	0xbdea3691	-0.11436189
31	0x3d12d160	0.035844207
32	0x3e0485cb	0.12941663
33	0x3f388ea9	0.7209268
34	0x3f26aa0a	0.6510321
35	0xbf1a7f38	-0.6035037
36	0xbd1ab5a3	-0.03777088
37	0x3f5e5406	0.8684696
38	0x3bf13abc	0.007361738
39	0xbe076ec2	-0.13225845
40	0x3e0952d0	0.13410497
41	0xba273879	-0.00063789595
42	0x3dffe9d5	0.12495772
43	0xbf2b85e7	-0.67001194
44	0x3eb74100	0.3579178
45	0xbedeec90	-0.43539858
46	0xbf76f7bb	-0.96471757
47	0xbf44895c	-0.76772094
48	0x3e7308cc	0.23733824
49	0xbdab37be	-0.08360241
50	0x3b409c05	0.002938987
51	0xbeb9569d	-0.36198893
52	0x3eeab28d	0.45839348
53	0xbdb10085	-0.08642677
54	0xbe2beffe	-0.16790769
55	0xbe54ba8e	-0.2077429
56	0x3e754414	0.23951751
57	0x3c389ff6	0.011268606
58	0xbc0f101f	-0.008731871
59	0xbe4c99c5	-0.19980533
60	0x3ee7ee7c	0.45299137
61	0xbef7a6c8	-0.48369431
62	0x3e0f9a80	0.14023781
63	0x3cadef9d	0.02123242
64	0x3e72dbec	0.23716706
65	0xbe80394b	-0.2504371
66	0x3f5aabfa	0.85418665
67	0x3eb70572	0.35746342
68	0x3e5c5b55	0.21519215
69	0xbea61301	-0.32436374
70	0x3f746c52	0.95477784
71	0x3f0aaa21	0.54165846
72	0x3e09ab41	0.13444234
73	0xbf59e007	-0.85107464
74	0x3c578f89	0.01315678
75	0xbf407ca6	-0.751902
76	0x3de3feab	0.111325584
77	0x3f7caa76	0.986976
78	0x3f8b9234	1.0903993
79	0xbeca110f	-0.3946614
80	0xbcf688d0	-0.030094534
81	0x3e761e12	0.24034908
82	0x3e43bdbb	0.19115345
83	0xbaf8b9f1	-0.0018976313
84	0x3e149721	0.14510776
85	0xbdb74361	-0.089483984
86	0x3d0840f8	0.033265084
87	0x3d4af91c	0.049553975
88	0x3d03a285	0.032137413
89	0xbedd8d6f	-0.43271968
90	0x3e346bcd	0.17619248
91	0xbb81b834	-0.0039587263
92	0x3e83cf5f	0.2574415
93	0xbdcfc89a	-0.101456836
94	0x3ea2c03d	0.3178729
95	0xbe0e3a13	-0.13889341
96	0xbc6d23c6	-0.014473861
97	0xbe987c35	-0.29782262
98	0x3e64dc4d	0.22349663
99	0x3fdd5a68	1.7293215
100	0x3fa0e05f	1.2568473
101	0xbdc7f7fe	-0.09764098
102	0xbddcd638	-0.107830465
103	0xbc47326f	-0.01215802
104	0xbcd91d98	-0.02650337
105	0x3f1006b3	0.5626022
106	0x3dc0cf44	0.09414533
107	0xbccf2617	-0.025286717
108	0xbf392d24	-0.72334504
109	0xbe7cd7d5	-0.24691708
110	0xbd8c606b	-0.06854328
111	0x3f574ea8	0.84104395
112	0x3d991156	0.0747401
113	0xbe9fa2f6	-0.31179017
114	0xbdbd9542	-0.09256984
115	0x3e52e3a0	0.20594645
116	0xbd49c1f1	-0.049257223
117	0x3d1ae8a6	0.037819527
118	0x3cef00af	0.02917513
119	0x3efa8670	0.48930693
120	0xbdb71ada	-0.089406684
121	0xbe3254f7	-0.17415224
122	0xbdefd5af	-0.11710679
123	0x3f85d488	1.0455484
124	0x3ea255e6	0.3170616
125	0x3d5f30cb	0.054489892
126	0xbd6bb79f	-0.05754816
127	0x3e722a6e	0.23648998
128	0x3e58ee04	0.21184546
129	0x3cd2efab	0.025749048
130	0xbccb7baf	-0.02483925
131	0x3f3fe156	0.7495321
132	0xbdce1c7b	-0.10064026
133	0xbe2e4d41	-0.17021658
134	0x3e0a264d	0.13491173
135	0xbde3581b	-0.11100789
136	0x3d7b2ccd	0.061322022
137	0x3f391dd8	0.7231116
138	0x3cffd0dd	0.031227523
139	0x3fab004e	1.3359468
140	0xbd32d0a1	-0.043655995
141	0x3e1268ec	0.14297837
142	0x3e62cc62	0.22148278
143	0x3f310ffc	0.69165015
144	0xbd96c095	-0.07360951
145	0xbfa0b602	-1.2555544
146	0xbf89e23c	-1.0772166
147	0x3e25a751	0.16177107
148	0x3e99e983	0.30060968
149	0xbe3a3084	-0.1818257
150	0xbdfbc64c	-0.122936815
151	0x3ee2672e	0.44219345
152	0x3d83d8f3	0.06437864
153	0xbe7affed	-0.2451169
154	0xbe76bfef	-0.24096654
155	0x3eaa15cc	0.33219755
156	0xbd58e799	-0.052955244
157	0x3ceb7779	0.028743492
158	0x3b67d036	0.0035371906
159	0x3de384ff	0.11109351
160	0xbe865603	-0.26237497
161	0xbf0be3de	-0.5464457
162	0xbed70d1b	-0.42002186
163	0xbd52d7a6	-0.05147519
164	0x3d91382e	0.070907936
165	0xbf6bdd23	-0.921343
166	0xbf18b42d	-0.59649926
167	0xbec7f2ef	-0.3905253
168	0xbda1b062	-0.078949705
169	0xbeb6d9d4	-0.35713065
170	0x3eec427f	0.46144482
171	0xbdfc9006	-0.12332158
172	0xbecd21c3	-0.4006482
173	0x3b4a8dd3	0.0030907288
174	0x3ed086f1	0.40727952
175	0x3ecc4743	0.39898118
176	0x3d46e183	0.04855491
177	0x3e9c3d58	0.30515552
178	0x3d6e1023	0.058120858
179	0x3cd9589d	0.026531512
180	0xbc97f84f	-0.01855102
181	0x3e0fb148	0.14032471
182	0x3e0ecb12	0.13944653
183	0xbe016633	-0.12636642
184	0x3c276588	0.010217078
185	0xbd1c8419	-0.038211916
186	0x3e962a5b	0.2932919
187	0x3e30f116	0.17279467
188	0x3d8f9737	0.07011264
189	0x3db50664	0.088391095
190	0xbd2a7e80	-0.041624546
191	0xbd8a4f2a	-0.067533806
192	0xbe404dac	-0.1877963
193	0x3de88a9b	0.11354562
194	0x3d301770	0.0429911
195	0xbe464f4e	-0.1936619
196	0xbd541245	-0.051775236
197	0x3eb54589	0.35404614
198	0x3c3dfb04	0.011595491
199	0xbd83ae61	-0.064297445
200	0xbbb7edf6	-0.005613084
201	0xb890982f	-6.8948015e-05
202	0xbcf48000	-0.029846191
203	0x3af07e4f	0.001834819
204	0xbb853cd0	-0.0040660873
205	0xbdb74200	-0.089481354
206	0x3937385a	0.00017473233
207	0xbb7923fb	-0.003801583
208	0x3bd28ea8	0.0064256974
209	0x3d5410c1	0.05177379
210	0xbcc4914a	-0.02399506
211	0x3d35ef2b	0.04441754
212	0xc134e5fd	-11.3061495
213	0x3c9a5665	0.018840024
214	0xbe2b362a	-0.1671988
215	0xbd25c154	-0.040467575
216	0xbb8ff53b	-0.0043932474
217	0x3d039ac5	0.03213002
218	0x3cf2a8de	0.029621538
219	0x3c315631	0.010823772
220	0xbc6af20e	-0.014339937
221	0xbd836b5b	-0.06416961
222	0x3c883d56	0.01663081
223	0xba8925c1	-0.0010463522
224	0x3ba95354	0.005167404
225	0xbcaf485f	-0.021396814
226	0xbacc6e0e	-0.0015596764
227	0x3d5f7c21	0.054561738
228	0xbd54f810	-0.051994383
229	0x3b204164	0.0024453038
230	0xbc92ca7d	-0.01791882
231	0xbeee417a	-0.4653433
232	0x3f01cd34	0.5070374
233	0xbe4c4cb6	-0.19951138
234	0xbd198b3b	-0.037486296
235	0xbeed1f7e	-0.4631309
236	0x3c0aa449	0.00846202
237	0xbe61093b	-0.21976177
238	0xbdc92942	-0.098223224
239	0x3c0e250a	0.008675823
240	0xbfcd1f09	-1.6025096
241	0x3e986b56	0.2976939
242	0xbe55d738	-0.2088288
243	0x3e262d03	0.16228108
244	0x3dbf407b	0.093384705
245	0x3d7b11af	0.06129616
246	0x3e52b6e3	0.20577578
247	0xbd835d21	-0.06414247
248	0xbe60636c	-0.21912926
249	0xbd3772ac	-0.044787094
250	0xbeb0116a	-0.34388286
251	0xbe86b83d	-0.26312438
252	0xbe1a9103	-0.1509438
253	0x3e52591a	0.20541802
254	0x3d71188b	0.058861297
255	0xbdda566a	-0.106610134

fc1.bias f4 [128]
0	0xbec90574	-0.39261973
1	0x3e5f8374	0.21827489
2	0xbded111a	-0.115755275
3	0x3ee98d53	0.45615634
4	0x3ed08ed5	0.40733972
5	0xbe49b76a	-0.19698873
6	0xbe56e6cd	-0.20986481
7	0xbea955e2	-0.33073336
8	0x3e94bbf6	0.29049653
9	0x3ee91d00	0.45529938
10	0x3eae6e4a	0.3406852
11	0x3f09d3f9	0.5383907
12	0x3ef08194	0.4697386
13	0x3eaf9377	0.34292194
14	0x3f16efa7	0.5895943
15	0x3c3ac8b2	0.011400389
16	0xbe97459d	-0.29545298
17	0xbf117b14	-0.5682843
18	0xbe8ea2bf	-0.2785854
19	0x3dd8c5d1	0.105846055
20	0xbe982fe5	-0.2972404
21	0x3d24ef89	0.0402675
22	0xbd1509ea	-0.036386408
23	0x3e929bc5	0.28634468
24	0xbd788749	-0.060675893
25	0x3f3d87b4	0.7403519
26	0xbe975998	-0.29560542
27	0x3deda349	0.1160341
28	0xbf008e09	-0.5021673
29	0xbd21e427	-0.039524224
30	0x3f0954ec	0.53645205
31	0x3eb47159	0.35242727
32	0x3d4c25ec	0.049840853
33	0x3dbb35d2	0.09141125
34	0x3e5dd4c0	0.21663189
35	0x3e5955a5	0.21224077
36	0x3f074385	0.528374
37	0x3dfa3f65	0.12219123
38	0x3f24fe8d	0.64450914
39	0xbd7d2239	-0.061800215
40	0x3eab55ba	0.33463842
41	0x3dd3ed05	0.10347942
42	0xbddaf4e4	-0.106912404
43	0x3c6a79e9	0.014311292
44	0x3e0ecb3e	0.13944718
45	0xbda25cc7	-0.07927852
46	0xbeb487b9	-0.35259798
47	0x3defd264	0.11710051
48	0xbeb42309	-0.3518298
49	0x3e87991d	0.26484004
50	0x3de7e272	0.11322488
51	0xbe81771f	-0.25286195
52	0xbe739482	-0.2378712
53	0x3f2e9c40	0.6820717
54	0xbe9a5e2c	-0.30149972
55	0x3e8be128	0.27320218
56	0x3ebe45b3	0.3716255
57	0x3d89185e	0.06694101
58	0x3f97217c	1.1807094
59	0x3eecacb3	0.4622551
60	0xbd5261de	-0.051362865
61	0x3eb9dc38	0.36300826
62	0x3e4c8bad	0.19975157
63	0x3e85c151	0.2612405
64	0x3e438b0a	0.19096008
65	0x3dfba67f	0.12287616
66	0x3f00a18e	0.5024651
67	0x3e31fe4e	0.17382166
68	0xbd4e3d3d	-0.05035137
69	0x3dc4b1d3	0.0960423
70	0x3f782320	0.96928596
71	0x3e8da716	0.2766654
72	0x3e7d2bde	0.24723765
73	0x3f0f768d	0.5604027
74	0xbe36daa2	-0.1785684
75	0x3ef43c14	0.47702086
76	0xbe8e92e7	-0.27846453
77	0x3e1a5a50	0.15073514
78	0xbe04fabe	-0.12986276
79	0x3db52b01	0.08846093
80	0x3e2149f3	0.15750866
81	0x3f114ba6	0.56756055
82	0xbe33eb2c	-0.1757018
83	0x3eb962e2	0.36208254
84	0x3e862551	0.26200345
85	0xbefa0f45	-0.48839775
86	0xbdc41443	-0.09574177
87	0x3e72529c	0.23664325
88	0x3d946cbc	0.07247302
89	0x3db529ba	0.08845849
90	0xbdd95c89	-0.10613353
91	0xbead6b93	-0.33871135
92	0x3c75555b	0.014973964
93	0xbe9b41df	-0.30323693
94	0x3eaa0679	0.33208063
95	0xbd2d2ed9	-0.042281006
96	0x3f08a9fb	0.5338437
97	0x3e0af8f6	0.13571534
98	0x3ea89daf	0.32932803
99	0xbe8b3e4b	-0.27195963
100	0x3d8e2d51	0.06942237
101	0xbe6e5783	-0.2327557
102	0x3f0de6e7	0.55430454
103	0x3e73b3f6	0.23799118
104	0xbe8ae1f6	-0.2712552
105	0xbf6d1161	-0.92604643
106	0xbeb10b17	-0.34578773
107	0x3f01edf7	0.5075373
108	0x3ecb5942	0.39716536
109	0xbe473930	-0.19455409
110	0x3dc1f25e	0.09470056
111	0x3e074585	0.13210113
112	0xbe76f3e7	-0.24116479
113	0xbe706453	-0.2347577
114	0xbe832ef9	-0.25621775
115	0x3d65202b	0.05593888
116	0x3d15c0c3	0.036560785
117	0x3e8137f1	0.25237992
118	0xbf12abb2	-0.57293236
119	0x3ea8f750	0.33001184
120	0x3f08abae	0.5338696
121	0xbdcb1044	-0.09915212
122	0x3c2326e9	0.009958007
123	0x3e9ef258	0.3104427
124	0x3f0adbd3	0.54241675
125	0xbd302a83	-0.043009292
126	0x3e2cbdbe	0.16869256
127	0xbe93f50a	-0.28897887

fc2.weight f4 [128, 128]
0	0xbd95d5d8	-0.07316178
1	0xbe1608f9	-0.1465186
2	0x3cd4b345	0.025964389
3	0xbdd6f15c	-0.104952544
4	0x3e96bf40	0.29442787
5	0xbc7417d6	-0.014898261
6	0xbe95f065	-0.2928497
7	0x3dab26dd	0.08357022
8	0x3d8039b2	0.062610045
9	0xbdd061cc	-0.10174903
10	0x3d373195	0.04472502
11	0xbe038c4d	-0.12846489
12	0xbd9b64a7	-0.07587557
13	0xbdc5b247	-0.09653144
14	0x3db60b6f	0.088888995
15	0xbe4243c9	-0.1897117
16	0xbbe6183b	-0.0070219315
17	0xbcd568e8	-0.026051
18	0x3d89bf16	0.067259
19	0xbc984565	-0.018587777
20	0x3dca30ee	0.09872614
21	0x3e9e0a07	0.30867025
22	0xbafa28eb	-0.0019085681
23	0xbe3626d3	-0.17788248
24	0xbdd65ef2	-0.10467328
25	0x3dcdb2bc	0.100438565
26	0x3e14d422	0.14534047
27	0x3e77b947	0.24191771
28	0xbda1e955	-0.07905833
29	0xbcf66588	-0.03007771
30	0xbd93f7c5	-0.07224993
31	0x3df3c3da	0.1190259
32	0x3ea9fa36	0.33198708
33	0x3de6ba84	0.11266044
34	0x3c0e5650	0.008687571
35	0x3df5469e	0.1197636
36	0x3c4a543f	0.012349187
37	0x3db0a4e3	0.086252
38	0xbd9b4a44	-0.075825244
39	0x3e1b1aa3	0.1514688
40	0x3ebbb389	0.36660412
41	0x3de53f4d	0.11193714
42	0x3d5f6371	0.054538194
43	0xbdc3d6c7	-0.0956245
44	0x3b1608f6	0.0022893525
45	0x3e343495	0.17598183
46	0x3c026269	0.007958033
47	0xbc0d9a59	-0.008642756
48	0xbe6a5d65	-0.2288719
49	0x3def53b6	0.116858885
50	0xbcc1c250	-0.023652226
51	0xbe1ee8e8	-0.15518534
52	0x3e80f17e	0.25184244
53	0x3e5b0acb	0.21390836
54	0xbdb3915b	-0.08767959
55	0xbed5739c	-0.41689765
56	0xbdd2147f	-0.102578156
57	0x3b8c6a13	0.004285106
58	0xbdb69dd0	-0.08916819
59	0x3c22669c	0.009912159
60	0xbdf1a07c	-0.11798188
61	0xbdc8cbfc	-0.09804532
62	0xbcc6451a	-0.024202872
63	0x3e83eb5b	0.257655
64	0x3d039863	0.03212775
65	0x3e402ebb	0.18767826
66	0x3e5ef99e	0.21774909
67	0xbdfae5a1	-0.122508295
68	0x3dafd2b0	0.08585107
69	0x3db46802	0.088089004
70	0xbd6d21e5	-0.057893652
71	0xbd6aadae	-0.05729454
72	0x39e2a2bf	0.00043227334
73	0xbd093448	-0.033497125
74	0x3d013f5f	0.031554576
75	0x3e46f877	0.1943072
76	0xbec7bca5	-0.39011112
77	0xbe7e90b5	-0.24859889
78	0x3d926eb8	0.07150024
79	0xbd5cc75a	-0.053901054
80	0xbdc7bc9a	-0.0975277
81	0xbe226bb1	-0.15861394
82	0xbeb94ba7	-0.3619053
83	0xbc93a032	-0.018020723
84	0xbc95f4a5	-0.018305132
85	0x3dce5849	0.10075433
86	0xbe22d131	-0.15900113
87	0xbd056518	-0.032567114
88	0x3cfa2424	0.030534811
89	0xbcd89b75	-0.026441315
90	0xbe7c1927	-0.2461897
91	0xbd248079	-0.040161584
92	0xbe472076	-0.19445977
93	0xbd3362ed	-0.043795515
94	0x3d869947	0.06572204
95	0xbdf530be	-0.119721875
96	0x3e3c436f	0.18385099
97	0xbd5662b2	-0.052340217
98	0xbe8b8d78	-0.2725637
99	0x3ec6b0cf	0.3880677
100	0x3ea2b784	0.31780636
101	0xbe8bd332	-0.27309567
102	0x3c0a3b6f	0.008437022
103	0x3d9b014f	0.07568609
104	0x3ea998d5	0.33124414
105	0x3ea6353f	0.324625
106	0xbe4f9fff	-0.20275877
107	0x3dca4e99	0.098782726
108	0x3d0fb66b	0.035086077
109	0xbef25c19	-0.4733589
110	0xbeb85a80	-0.36006546
111	0xbe2112e4	-0.15729862
112	0x3c8f74e1	0.017511787
113	0x3b0080cd	0.0019608021
114	0x3de91316	0.113805935
115	0x3e1ed6c2	0.15511611
116	0xbe97d62b	-0.29655585
117	0x3e8f686c	0.28009355
118	0xbe5a3522	-0.21309331
119	0x3d81c236	0.06335871
120	0x3dd6e6eb	0.10493263
121	0xbe168fb5	-0.14703257
122	0x3e6aac69	0.22917332
123	0x3d903f69	0.070433445
124	0xbca77321	-0.02044064
125	0xbe6ad553	-0.22932939
126	0x3dbee27b	0.093205415
127	0xbe8e82b9	-0.27834108
128	0xbea44000	-0.32080078
129	0x3e4dbc8a	0.20091453
130	0x3d79d107	0.06099036
131	0x3c6b253b	0.014352138
132	0x3e928361	0.2861586
133	0xbd347de4	-0.04406537
134	0xc08f123e	-4.470977
135	0xbaea773b	-0.0017888317
136	0xbc8f032d	-0.017457569
137	0x3e49c392	0.1970351
138	0xbebbac43	-0.36654863
139	0x3dd9fed6	0.10644309
140	0xbf213bf1	-0.6298209
141	0xbd3d319c	-0.04618989
142	0x3f05bbc9	0.5223966
143	0xbe184b68	-0.14872515
144	0xbd8b43b6	-0.06800024
145	0xbd0b8a7c	-0.034067616
146	0xbec45e95	-0.3835341
147	0x3d91cd8f	0.07119285
148	0x3cb0b9f4	0.021573044
149	0xbc538033	-0.012908983
150	0xbd7cd22c	-0.061723873
151	0x3e5d083b	0.21585171
152	0x3d102337	0.035189833
153	0xbf20a881	-0.62757117
154	0xbd6053a5	-0.05476727
155	0xbd0bbaba	-0.034113623
156	0xbdf9f544	-0.12204984
157	0x3d99ede0	0.07516074
158	0x3e52dbe2	0.20591691
159	0x3d94524e	0.07242261
160	0xbe813ef4	-0.25243342
161	0xbe332876	-0.17495903
162	0x3e6f2e62	0.23357537
163	0xbdd29b05	-0.10283474
164	0x3f109ca3	0.5648901
165	0x3e9def0c	0.3084644
166	0x3e4afaf4	0.19822294
167	0xbe15101c	-0.14556926
168	0xbe151c4c	-0.14561576
169	0x3c2d216e	0.010567052
170	0xbd0a9cd5	-0.033840973
171	0x3dac8ca0	0.084252596
172	0xbf10662c	-0.564059
173	0xbe055d47	-0.13023864
174	0xbcc55e6e	-0.02409288
175	0x3dc301cb	0.09521826
176	0xbe1d73ed	-0.15376253
177	0xbdfb01d0	-0.12256205
178	0xbeb3e49c	-0.35135353
179	0x3d4cb929	0.04998127
180	0xbe8f671e	-0.2800836
181	0x3e8a0f02	0.26964575
182	0x3d46be0b	0.048521083
183	0x3e17f740	0.14840412
184	0x3e655275	0.22394736
185	0xbe3d22cc	-0.18470305
186	0x3f0dcdb4	0.55392003
187	0x3e25cd5c	0.1619162
188	0xbe90ec72	-0.28305393
189	0xbd0feef4	-0.035139993
190	0xbeae2858	-0.34015155
191	0xbddb2708	-0.10700804
192	0x3d932e8f	0.07186615
193	0xbea656ff	-0.32488248
194	0x3e606c8a	0.21916404
195	0xbe07ba99	-0.13254775
196	0x3d65786a	0.05602304
197	0xbe1af803	-0.15133671
198	0x3ef6df1f	0.48217103
199	0x3e5b0ef2	0.2139242
200	0x3e8320dd	0.2561101
201	0xbdd3d471	-0.10343254
202	0xbf101877	-0.5628733
203	0xbcaf59f0	-0.02140519
204	0xbdaf0991	-0.085467465
205	0x3cb3d859	0.021953749
206	0xbdff1056	-0.12454288
207	0xbcf161b3	-0.029465532
208	0xbe3979e1	-0.181129
209	0x3ea06104	0.31324017
210	0x3c4020c5	0.011726563
211	0x3d7ce530	0.061742008
212	0xbe5e9c87	-0.21739398
213	0x3e2a09be	0.16605279
214	0xbec55112	-0.38538414
215	0x3df47503	0.11936381
216	0x3da51fd8	0.08062714
217	0xbd8783ed	-0.0661696
218	0xc098f467	-4.7798343
219	0xbce5ff32	-0.028075788
220	0xbedd3952	-0.43207794
221	0x3e2ad461	0.16682579
222	0x3de6a354	0.11261621
223	0x3d9cded0	0.076596856
224	0x3e0c55f6	0.13704666
225	0x3ddfd023	0.10928371
226	0x3e715ab5	0.23569758
227	0xbdb5c50b	-0.088754736
228	0xbd95bc59	-0.07311315
229	0x3db0f50a	0.086404875
230	0xbeb52311	-0.35378316
231	0x3a9ea572	0.001210375
232	0x3dbc4581	0.09192944
233	0x3c235d99	0.009971046
234	0x3bd5382b	0.00650694
235	0xbd99bef7	-0.07507127
236	0xbdbb313e	-0.091402516
237	0xbdc89b49	-0.09795243
238	0xbdc51724	-0.09623554
239	0xbdb0785a	-0.08616705
240	0xbeefce6d	-0.46837178
241	0xbe87cb66	-0.26522368
242	0xbec55216	-0.3853919
243	0x3e06e5da	0.13173619
244	0x3e78ae0b	0.24285142
245	0x3ea5bddf	0.32371423
246	0xbceb89dc	-0.02875226
247	0x3ebcab81	0.36849597
248	0x3e9517e0	0.29119778
249	0x3e12150c	0.14265841
250	0x3db627c7	0.08894306
251	0x3d98a5aa	0.07453473
252	0x3ed066fc	0.4070357
253	0xbf05b07c	-0.5222242
254	0xbac47a4d	-0.0014990062
255	0xbd1985a5	-0.03748097

fc2.bias f4 [128]
0	0x3e8a687b	0.27032837
1	0x3f2ae7c9	0.66759926
2	0xbcbbdc66	-0.022932243
3	0x3c78d713	0.015187996
4	0xbddb41fc	-0.10705945
5	0x3d97c7cd	0.07411156
6	0x3d5ca505	0.053868312
7	0x3e37af63	0.17937998
8	0x3d2ed4a6	0.042683266
9	0xbae392b2	-0.0017362444
10	0x3e6d5112	0.23175457
11	0x3f212cbf	0.629589
12	0xbe12d9b5	-0.14340861
13	0xbcbb1ac0	-0.022839904
14	0x3e62e8dc	0.22159141
15	0xbd45a144	-0.048249498
16	0xbeadb0a2	-0.33923823
17	0xbb9ccc60	-0.0047851056
18	0xbe115a7a	-0.1419467
19	0x3e92f4c1	0.28702357
20	0xbdc8c6d0	-0.098035455
21	0xbe174171	-0.14771058
22	0x3ed5ab42	0.41732222
23	0x3ec16dbd	0.37779036
24	0xbdf0886b	-0.1174477
25	0xbe41a247	-0.1890956
26	0x3d177430	0.03697604
27	0x3d15ef40	0.03660512
28	0x3e930636	0.28715676
29	0xbdbf7b9d	-0.09349749
30	0x3cbf93f6	0.023385983
31	0xb9e85dc2	-0.00044320343
32	0x3dc4ae7a	0.09603591
33	0xbb5eaebb	-0.003397866
34	0x3e38a810	0.18032861
35	0x3dcb5d0f	0.09929859
36	0x3d58d0c4	0.05293347
37	0xbd423c06	-0.047420524
38	0x3e999bb4	0.30001605
39	0x3d0b4c50	0.034008324
40	0x3e3b779d	0.18307348
41	0xbd4058a3	-0.04695953
42	0x3e05b146	0.13055906
43	0x3f13fd11	0.57808024
44	0xbe2cb1fc	-0.1686477
45	0x3e5c5c2e	0.21519539
46	0x3c386c99	0.01125636
47	0xbd9b883c	-0.07594344
48	0xbc12072e	-0.008912845
49	0x3ee5d444	0.44888508
50	0x3d9554b1	0.07291544
51	0xbd7aa6a3	-0.061194073
52	0xbaa0cd5e	-0.0012268235
53	0x3eda96a0	0.42693043
54	0x3ddabbab	0.10680326
55	0x3c9ef326	0.019403052
56	0xbe8d0f28	-0.27550626
57	0x3eaabb52	0.3334604
58	0x3cb1b136	0.021690946
59	0x3dedcacb	0.11610945
60	0x3d0ad272	0.033892103
61	0x3d16f0f5	0.03685089
62	0x3ced6383	0.028978115
63	0x3be70507	0.00705016
64	0x3dbfd608	0.09366995
65	0xbd35b23c	-0.04435943
66	0x3d294e95	0.041334707
67	0x3e301b93	0.17198019
68	0x3d0781b2	0.03308267
69	0x3e9557ed	0.29168645
70	0xbcbe7699	-0.023249911
71	0x3a5ae6a5	0.0008350409
72	0x3dbccc5c	0.09218666
73	0x3f05b0e0	0.52223015
74	0xbd20c1f4	-0.039247468
75	0x3dc35519	0.095377155
76	0xbc231208	-0.009953029
77	0x3edf66bb	0.43633065
78	0xbdda3701	-0.106550224
79	0xbe09e9a6	-0.13468036
80	0xbd8a9ee7	-0.067685895
81	0x3dde0b46	0.10841994
82	0xbd9ad028	-0.07559234
83	0x3d10e17a	0.03537128
84	0x3d307814	0.043083265
85	0x3eda3f40	0.4262638
86	0x3d938b8b	0.0720435
87	0xbe789cc6	-0.24278554
88	0x3e5586d7	0.20852219
89	0xbdfd4110	-0.12365925
90	0x3db99215	0.09061066
91	0x3d852a00	0.065021515
92	0x3e103938	0.14084327
93	0xbec15a7a	-0.3776434
94	0x3e8ecd4c	0.27891004
95	0x3da1ecd8	0.079065025
96	0x3bbb047d	0.005707322
97	0x3da29469	0.07938463
98	0xbe33df76	-0.17565712
99	0x3de782cb	0.11304244
100	0xbc16de82	-0.009208323
101	0xbcd28d24	-0.025702067
102	0xbe83852a	-0.25687534
103	0xbdbb2dd1	-0.09139598
104	0xbe64fcd3	-0.2236207
105	0x3e3b814d	0.18311043
106	0xbe83fc1d	-0.25778285
107	0xbc58bd55	-0.013228734
108	0xbd63ce66	-0.05561676
109	0xbcf31036	-0.029670816
110	0x3e73cd7f	0.2380886
111	0x3ec8bc2e	0.3920607
112	0xbdb3db54	-0.08782068
113	0xbd166641	-0.03671861
114	0x3cff474c	0.031161927
115	0x3d5a9aa4	0.053370133
116	0x3daf9171	0.085726626
117	0x3dc96ced	0.09835229
118	0xb931f6a4	-0.00016971916
119	0x3db7cbf6	0.08974449
120	0x3da04e80	0.07827473
121	0xbda2db9b	-0.07952043
122	0x3e9d855a	0.30765802
123	0x3d9d2ddb	0.07674762
124	0x3d57c8bc	0.05268167
125	0xbd76ca5d	-0.060251582
126	0x3d8a52f8	0.06754106
127	0xbdb451fe	-0.08804701

out.weight f4 [5, 128]
0	0xbdd123e6	-0.10211925
1	0xbf3aca08	-0.72964525
2	0x3e789956	0.24277243
3	0x3e2ae86b	0.16690223
4	0x3e9f62ca	0.31130058
5	0xbd18d193	-0.03730924
6	0x3e08b382	0.13349727
7	0xbdeca2fd	-0.11554525
8	0x3c99da8e	0.018780973
9	0xbd92fb84	-0.07176879
10	0x3d88a042	0.06671192
11	0x3dbcb5a9	0.092143364
12	0x3e385bd5	0.18003781
13	0x3e05f4c5	0.13081653
14	0xbdfa7da4	-0.12230995
15	0x3e04a724	0.12954384
16	0x3d7e418c	0.06207423
17	0x3e054a29	0.13016571
18	0xbb81c9fd	-0.0039608465
19	0xbd7dddb6	-0.06197902
20	0x3e3e2571	0.1856897
21	0x3e35c18e	0.17749617
22	0x3da06d9c	0.07833406
23	0xbe1dbc93	-0.15403967
24	0xbe84656d	-0.25858632
25	0x3daaf44c	0.08347377
26	0x3de35c67	0.11101609
27	0xbe108571	-0.14113404
28	0xbe00dfc0	-0.12585354
29	0xbdb5b38b	-0.08872136
30	0x3de57671	0.112042315
31	0xbdb8f3b5	-0.090308584
32	0xbd576ba0	-0.052592874
33	0x3e0d120b	0.13776414
34	0x3d147688	0.036245853
35	0x3dc6aafd	0.09700582
36	0xbde43bee	-0.11144243
37	0xbe20b71d	-0.15694852
38	0x3c96894e	0.018376019
39	0xbe21fcb3	-0.15819053
40	0x3c22f2f3	0.009945619
41	0x3e595d19	0.2122692
42	0x3e6d6d4e	0.23186228
43	0x3ba434d0	0.0050111786
44	0x3e2106ca	0.15725246
45	0x3e19f16f	0.15033506
46	0xbdcae8db	-0.09907695
47	0xbdd2670d	-0.102735616
48	0x3dffb4de	0.124856696
49	0xbd7883dc	-0.060672626
50	0x3e21dc1f	0.15806626
51	0x3e37d634	0.17952806
52	0x3e17d208	0.14826214
53	0x3e0c0272	0.13672808
54	0x3daf9fb6	0.08575384
55	0xbd6e69ab	-0.05820624
56	0x3d9db792	0.07701029
57	0x3dab82f6	0.08374588
58	0x3e9cd93d	0.3063449
59	0x3e3d104b	0.18463247
60	0x3c054eb3	0.008136439
61	0x3e1e3267	0.15448914
62	0xbdb98459	-0.090584464
63	0x3d59c7ac	0.053168938
64	0xbd955212	-0.07291044
65	0xbe263bf4	-0.16233808
66	0x3a33d3ee	0.0006859888
67	0xbe1d9f80	-0.15392876
68	0xbd1cc25e	-0.0382713
69	0xbe0f6a74	-0.14005452
70	0x3de3753c	0.11106345
71	0xbe12dfe7	-0.14343224
72	0x3eadcb0c	0.33943975
73	0xbe21c06c	-0.1579606
74	0x3e07de86	0.1326848
75	0xbe80cd96	-0.2515685
76	0x3e2b4e40	0.16729069
77	0x3e987b96	0.2978179
78	0x3d90a271	0.07062233
79	0x3dec39ea	0.11534484
80	0x3e17b59a	0.14815369
81	0xbde69597	-0.11259001
82	0x3d9dcba4	0.07704857
83	0xbe3157ac	-0.173186
84	0x3e87ace9	0.26499107
85	0xbe0b03f0	-0.13575721
86	0xbe07c6e9	-0.13259472
87	0x3c9ff56a	0.019526202
88	0x3d295f18	0.041350454
89	0x3e33ae18	0.1754688
90	0xbdf32c2a	-0.11873658
91	0x3dcc637d	0.099799134
92	0xb89d057f	-7.487367e-05
93	0x3d4d7720	0.050162435
94	0xbdcc9d03	-0.09990885
95	0xbe6bed4d	-0.23039742
96	0xbdc72452	-0.097237244
97	0xbded70c9	-0.11593778
98	0xbe28ff06	-0.16503534
99	0x3d816a07	0.06319051
100	0x3e7deee6	0.24798164
101	0x3dac0837	0.08400004
102	0x3e4d2d74	0.2003687
103	0x3e81c9d4	0.25349295
104	0x3e0b9a4b	0.13633077
105	0xbd20e442	-0.039280184
106	0x3c5b87c2	0.013399066
107	0x3e22a87c	0.15884584
108	0xbe49fd70	-0.19725585
109	0x3df5ba5a	0.11998434
110	0xbe430bf3	-0.19047527
111	0xbd301bfb	-0.042995434
112	0x3d1e3da6	0.03863301
113	0xbe12b82d	-0.1432807
114	0x3e0c801a	0.13720742
115	0x3e242a30	0.16031718
116	0x3daac7ed	0.08338914
117	0x3e020f58	0.12701166
118	0x3dc997dc	0.09843418
119	0x3e12ea9c	0.14347309
120	0xbd9bed6b	-0.07613643
121	0x3eb8aa69	0.36067513
122	0x3e252e93	0.16131048
123	0x3e4a2f0b	0.19744508
124	0xbd5fb82e	-0.054619007
125	0x3df71a0f	0.12065517
126	0x3e2c61e0	0.16834211
127	0x3e09bb7e	0.13450429
128	0xbe616522	-0.22011235
129	0xbf4b83e8	-0.7949815
130	0x3df57e08	0.11986929
131	0x3e11e3a8	0.14247
132	0x3dd5766b	0.10422977
133	0x3db52a09	0.08845908
134	0xbcae50c2	-0.021278743
135	0xbdc15693	-0.09440341
136	0x3dafc9ea	0.08583434
137	0xbc70821a	-0.014679456
138	0x3e3fff66	0.1874977
139	0xbe8f17f7	-0.2794797
140	0x3e1cb78e	0.15304396
141	0x3cfc05c9	0.030764477
142	0xbd42dbe1	-0.047572974
143	0xbe421876	-0.18954644
144	0x3d6dd8e1	0.05806816
145	0xbdc38bdf	-0.09548163
146	0x3d742cab	0.05961291
147	0xbe1c307d	-0.15252872
148	0xbd8d91ac	-0.0691255
149	0x3e0e702e	0.1390998
150	0x3d9120ee	0.07086359
151	0xbdf48c3f	-0.11940812
152	0xbe71354b	-0.23555486
153	0x3dcae9eb	0.099078976
154	0x3e56b2d1	0.2096665
155	0x3c2fd97a	0.010733003
156	0xbd7bc996	-0.061471544
157	0xbcfd7add	-0.030942375
158	0x3dbf4cc3	0.09340813
159	0x3da88aa2	0.08229567
160	0x3ce89c9f	0.028394995
161	0xbd76e6c2	-0.06027866
162	0xbd94e3cd	-0.07270012
163	0x3e84f508	0.25968194
164	0x3d9d6935	0.07686082
165	0x3dfd1f80	0.12359524
166	0xbcb20ec5	-0.021735558
167	0x3d180ae2	0.037119754
168	0xbd2829ec	-0.041055605
169	0xbc98b3d1	-0.01864043
170	0x3d7a5646	0.061117433
171	0xbe039e88	-0.12853444
172	0xbce11bcf	-0.02747908
173	0x3da9d5af	0.0829271
174	0x3d8ee4c8	0.0697723
175	0xbdcefdbd	-0.101069905
176	0x3dce6ea4	0.10079697
177	0xbe274101	-0.16333391
178	0xbe87e6f1	-0.26543382
179	0x3def9d06	0.11699872
180	0x3d9f36d8	0.077741325
181	0x3dc298b6	0.095017835
182	0xbdd95d0c	-0.106134504
183	0x3db96edc	0.09054348
184	0x3db1a39a	0.08673783
185	0xbdab8509	-0.08374984
186	0x3d661a60	0.056177497
187	0x3dc65779	0.09684653
188	0xbe0db215	-0.13837464
189	0x3d874153	0.066042565
190	0xbe8787ab	-0.26470694
191	0x3d27f851	0.041008297
192	0x3c30d1f3	0.010792243
193	0x3d7f8118	0.062378973
194	0xbca0cce2	-0.019628946
195	0x3e3103d5	0.17286618
196	0x3d87a144	0.06622556
197	0xbc04f14d	-0.008114171
198	0x3d95425a	0.07288046
199	0xbd87dd8e	-0.06634055
200	0x3e9a1914	0.30097258
201	0xbd9c2657	-0.076245
202	0x3dd87037	0.10568278
203	0xbe2fa379	-0.17152204
204	0xbdcd2182	-0.10016157
205	0x3e60d761	0.2195716
206	0x3d951187	0.07278734
207	0x3d7b9360	0.061419845
208	0x3e076b48	0.13224518
209	0x3d673a92	0.05645234
210	0x3d968948	0.07350403
211	0xbe25f06b	-0.16204993
212	0x3df2d28a	0.118565634
213	0xbea9e8ec	-0.33185518
214	0x3de1363f	0.10996675
215	0x3cd677be	0.026180144
216	0x3b8ef1d1	0.004362323
217	0x3e1bdee0	0.15221739
218	0xbc8bd4fb	-0.01706933
219	0x3d03afb2	0.032149978
220	0xbe5ea4d9	-0.21742572
221	0x3e5a206d	0.21301432
222	0xbda3583f	-0.07975816
223	0x3d375b55	0.044764835
224	0x3ca72b54	0.020406403
225	0xbcafaa7e	-0.021443602
226	0x3dfdbd9c	0.12389681
227	0xbd68fc8d	-0.056881476
228	0x3e329a4e	0.17441675
229	0x3dae87b5	0.08521978
230	0x3e02cc0d	0.12773152
231	0x3df0c4cc	0.11756286
232	0x3ddfe214	0.10931793
233	0x3dfe52a8	0.12418109
234	0x3c94a747	0.01814617
235	0x3e67f936	0.2265366
236	0xbe2109ab	-0.15726344
237	0x3d1f0769	0.038825426
238	0xbd753fbe	-0.059875242
239	0xbcb55e70	-0.022139758
240	0xbe406507	-0.18788539
241	0x3d5e1191	0.05421597
242	0xbce126d1	-0.02748433
243	0x3e4f780d	0.2026064
244	0x3cd88ee0	0.026435316
245	0x3d8281c6	0.063724086
246	0x3d00a2a4	0.031405106
247	0xbddd8217	-0.10815828
248	0x3b4c9608	0.0031217355
249	0xbe2666df	-0.1625018
250	0x3d531f83	0.051543724
251	0x3e3826e7	0.1798359
252	0xbd90e881	-0.070755966
253	0x3e1976b2	0.14986685
254	0x3db27da3	0.087153696
255	0x3c3ca8a0	0.011514813

out.bias f4 [5]
0	0xbe20d35d	-0.15705629
1	0xbddd4877	-0.10804837
2	0xbddee537	-0.10883563
3	0xbde6a763	-0.11262395
4	0xbe0e09cd	-0.13870926
