SimplifiedSpaceWar/trained_models/madrl2_bullets_8500.pth (torch, 89189 bytes, 6 tensors)

fc1.weight f4 [128, 33]
0.28247613 -0.5823345 -0.3927703 0.23868626 -0.21262227 0.20040593 -0.3316865 0.1921047
-0.039451726 -0.36790702 -0.21487494 0.4113116 -0.005609323 0.04271269 -0.10201811 0.37635
-0.3266065 0.08260231 -0.111328155 0.2736056 0.12770115 -0.04486008 0.0010354746 0.2064564
-0.0713099 0.12510681 -0.065913364 0.5278703 -0.28984633 0.29332018 0.09789263 0.020214714
-0.07710217 0.36951882 0.1710375 -0.4247497 -0.16122875 0.24827948 -0.0023459964 -0.07359273
0.31148922 0.013342677 0.08127256 -0.6903503 0.33419418 -0.27543187 -0.024499543 0.07055035
0.09331487 0.02504459 -0.015050388 -0.26844686 0.40590233 -0.003645142 -0.13877346 -0.23351689
0.31367758 0.1613724 0.0080596665 -0.20023438 0.396113 0.09550501 0.17501365 0.015898526
0.21977839 0.032153074 0.89848596 0.17701685 0.20318781 -0.24969172 0.6919835 0.5689981
0.31533188 -0.53845 0.029773956 -0.8923319 0.49039042 0.77452815 1.1321915 -0.15350245
0.21426015 0.041379508 -0.06776565 -0.10505554 0.111811824 0.011798366 -0.1412638 -0.057311732
-0.009530164 -0.4291577 0.12795809 -0.16090514 0.11325606 -0.19921567 0.41239664 -0.16872875
-0.024224699 -0.18062378 0.033792734 0.70128846 0.5196281 -0.024759157 -0.09483053 -0.26925394
-0.0040835068 0.594234 -0.32999763 -0.053139735 -0.54614735 0.022381552 0.10089934 0.7651396
-0.06881545 -0.35454354 -0.05337014 0.23453544 0.002265451 0.06977006 0.24035819 0.2981563
-0.11057274 -0.13404089 -0.24733466 1.1503131 0.33531082 0.06825889 -0.25996125 0.07576243
0.15470485 -0.021211186 -0.008234958 0.44612214 0.10720721 0.16682516 -0.0012288728 -0.18158
-0.11282451 0.6258176 0.069167815 0.9562639 0.0065189777 -0.1761694 0.11449509 0.8075923
0.050213315 -0.79158896 -1.350971 0.35142446 0.420209 -0.12004803 -0.17447701 0.5492883
0.18355437 -0.2712355 -0.30960754 0.45395803 -0.00493872 -0.10548636 -0.2137945 0.38408688
-0.1129545 -0.32023185 -0.12953179 0.019331751 0.06501976 -0.62373483 -0.1861209 -0.357288
0.017770013 -0.059868187 0.32618156 -0.08387441 0.047984727 0.010504453 0.30996802 0.53383166
-0.31759807 0.33736795 -0.19142908 -0.31245908 -0.032120515 0.054745555 0.13490912 -0.117762156
-0.18662667 0.1517741 0.22821285 0.124864556 -0.27817455 0.008384047 0.08471192 0.09843308
-0.2100345 0.021081895 0.11104521 -0.050211206 -0.2173225 0.055386767 0.08443548 -0.07669216
0.003648479 -0.0075634196 0.025339348 0.013405127 0.020422162 0.02987633 3.0793242e-05 0.05488442
0.018145347 0.0567519 -0.042463683 -0.36057872 -8.232084 -0.015152 -0.19491763 0.0343664
-0.058395814 0.03575064 -0.012671823 0.052658245 -0.042862643 0.022221077 0.027577462 -0.024853205
-0.0007876255 -0.06734671 0.0053744987 0.06946046 -0.047245923 -0.04311923 -0.0038652606 -0.23430881
0.6016226 -0.16562723 -0.021044813 -0.6196467 0.005808305 -0.29051584 0.03392525 0.0337757
-0.98343635 0.2080204 -0.1729281 -0.023090621 0.05298541 -0.12864494 -0.035343084 -0.09029371
-0.23103717 -0.013276304 -0.4024895 -0.18406989 -0.14588778 0.20425537 -0.08466272 -0.09612606
00000000: b6a0 903e e013 15bf 3019 c9be 2c6a 743e
00000010: a7b9 59be 3637 4d3e d0d2 a9be 18b7 443e
00000020: 2298 21bd 4f5e bcbe 2d08 5cbe 6f97 d23e
00000030: 69ce b7bb 80f3 2e3d dfee d0bd f2b0 c03e
00000040: f838 a7be 662b a93d 0400 e4bd 0916 8c3e
00000050: 17c4 023e 34bf 37bd c3b8 873a 4e69 533e
00000060: ed0a 92bd 001c 003e 96fd 86bd 8222 073f
00000070: bd66 94be 102e 963e ee7b c83d 5499 a53c
00000080: bee7 9dbd 9231 bd3e 7424 2f3e cb78 d9be
00000090: 2619 25be fa3c 7e3e 4abf 19bb c9b7 96bd
000000a0: 847b 9f3e 3e9b 5a3c 3a72 a63d ccba 30bf
000000b0: 801b ab3e 6805 8dbe 44b3 c8bc b47c 903d
000000c0: de1b bf3d 502a cd3c e795 76bc de71 89be
000000d0: 6ed2 cf3e 56e3 6ebb a11a 0ebe 0d1f 6fbe
000000e0: 599a a03e ce3e 253e b10c 043c 3e0a 4dbe
000000f0: 53cf ca3e 2198 c33d c736 333e a03d 823c
00000100: 960d 613e f1b2 033d 2d03 663f e843 353e
00000110: 7710 503e 30af 7fbe d525 313f dca9 113f
00000120: 2e73 a13e dcd7 09bf 83e8 f33c dd6f 64bf
00000130: 7414 fb3e 7a47 463f a7eb 903f bf2f 1dbe
00000140: 0367 5b3e 8f7d 293d b8c8 8abd 5c27 d7bd
00000150: 99fd e43d ef4d 413c 75a7 10be b5bf 6abd
00000160: 6824 1cbc 8fba dbbe 7207 033e 51c4 24be
00000170: cbf2 e73d 31ff 4bbe a725 d33e 3bc7 2cbe
00000180: e072 c6bc 71f5 38be 406a 0a3d a487 333f
00000190: 5906 053f b7d3 cabc 8236 c2bd a7db 89be
000001a0: f0ce 85bb b81f 183f 73f5 a8be 0da9 59bd
000001b0: 50d0 0bbf 8459 b73c 50a4 ce3d 30e0 433f
000001c0: 1def 8cbd bb86 b5be a69a 5abd 0f2a 703e
000001d0: f677 143b 9be3 8e3d 7520 763e f1a7 983e
000001e0: f673 e2bd 0442 09be 4c45 7dbe 763d 933f
000001f0: dcad ab3e 51cb 8b3d a419 85be 5529 9b3d
00000200: f36a 1e3e 15c3 adbc ebeb 06bc 1f6a e43e
00000210: 748f db3d 37d4 2a3e 2112 a1ba 1cf0 39be
00000220: 8910 e7bd 9535 203f dba7 8d3d b6cd 743f
00000230: 269d d53b c065 34be 677c ea3d 5ebe 4e3f
00000240: 7aac 4d3d 93a5 4abf 9eec acbf e8ed b33e
00000250: a225 d73e bedb f5bd 1aaa 32be 289e 0c3f
00000260: adf5 3b3e 61df 8abe e184 9ebe 306d e83e
00000270: fcd4 a1bb 3c09 d8bd f2ec 5abe 09a7 c43e
00000280: b054 e7bd 6ef5 a3be fba3 04be 9f5d 9e3c
00000290: 1429 853d 16ad 1fbf 7a96 3ebe 74ee b6be
000002a0: 6b92 913c 5838 75bd 4501 a73e 59c6 abbd
000002b0: a28b 443d df1a 2c3c 21b4 9e3e 31a9 083f
000002c0: 379c a2be 7ebb ac3e fc05 44be a3fa 9fbe
000002d0: cd90 03bd e03c 603d 9e25 0a3e 492d f1bd
000002e0: 101b 3fbe ab6a 1b3e a1b0 693e fdb8 ff3d
000002f0: e56c 8ebe 3e5d 093c 717d ad3d 4897 c93d
00000300: 4913 57be f0b3 ac3c ac6b e33d 44aa 4dbd
00000310: ca89 5ebe 3cdd 623d 82ec ac3d c710 9dbd
00000320: 521b 6f3b 90d6 f7bb 7794 cf3c 2ea1 5b3c
00000330: 614c a73c 35bf f43c fe27 0138 7cce 603d
00000340: 8da5 943c ae74 683d 66ee 2dbd c69d b8be
00000350: 9eb6 03c1 1840 78bc 7d98 47be c8c3 0c3d
00000360: 7330 6fbd 436f 123d 7a9d 4fbc 2cb0 573d
00000370: bd90 2fbd fa08 b63c 21ea e13c f398 cbbc
00000380: a778 4eba 12ed 89bd 901c b03b 4941 8e3d
00000390: f184 41bd ca9d 30bd 5050 7dbb a6ee 6fbe
000003a0: f003 1a3f 2f9a 29be 2c66 acbc 2ba1 1ebf
000003b0: 9853 be3b 7ebe 94be 34f5 0a3d 6358 0a3d
000003c0: 7cc2 7bbf 4d03 553e 1014 31be 8b28 bdbc
000003d0: 3b07 593d 80bb 03be e9c3 10bd e9eb b8bd
000003e0: 0295 6cbe db84 59bc 1b13 cebe d17c 3cbe
000003f0: 9b63 15be 5228 513e a663 adbd bddd c4bd

fc1.bias f4 [128]
-0.21975574 0.19828159 -0.21340364 0.37013113 0.18129258 -0.1518344 -0.13341394 -0.2046129
0.20613115 0.3890664 0.3707167 0.389809 0.4128893 0.2957891 0.5387406 -0.0016881542
-0.25263548 -0.5482003 -0.14759608 0.18966046 -0.33529988 0.13190918 -0.1329805 0.06916096
0.051963452 0.66758716 -0.29299325 0.15794769 -0.4302342 -0.07905828 0.585691 0.2042734
-0.0068423124 0.13326035 0.031891774 0.17153169 0.40456277 -0.15567027 0.6441216 0.036637112
0.36235276 0.081759706 -0.0769481 0.11240088 0.14293666 -0.02974966 -0.198499 0.059179198
-0.36141002 0.36115152 0.09152927 -0.23466454 -0.31239837 0.49671704 -0.1756476 0.23388337
0.29814017 0.062211454 0.952411 0.41635063 -0.15444154 0.1504091 0.1889683 0.12163422
0.15817022 0.0991634 0.48108873 0.08427265 -0.032752726 0.25616333 0.8586968 0.2353318
0.16247566 0.40663853 -0.26582256 0.4572772 -0.2666874 -0.01955362 -0.11343613 0.11913412
0.22518158 0.32966197 -0.25015664 0.30398253 0.24236563 -0.35108232 -0.083695576 0.21271022
0.028809408 0.023231838 -0.09728319 -0.28553295 0.041768286 -0.28014997 0.29557624 -0.056764524
0.40658534 0.17185566 0.33263654 -0.21639158 -0.057122707 -0.22282736 0.51114935 0.22367738
-0.39013645 -0.5664772 -0.2234876 0.50068533 0.35061634 -0.089794226 0.064809345 0.24179062
-0.1114119 -0.16160443 -0.10695349 0.053997654 0.07547361 0.16139172 -0.4651309 0.3407673
0.38206458 -0.121039666 0.039366823 0.34129682 0.32468557 -0.19231418 0.17876017 -0.19170892
00000000: a607 61be 540a 4b3e 7c86 5abe d481 bd3e
00000010: c3a4 393e 7a7a 1bbe aa9d 08be 0b86 51be
00000020: 0b14 533e b633 c73e 94ce bd3e 0c95 c73e
00000030: 3a66 d33e ab71 973e e7ea 093f 0e45 ddba
00000040: 7059 81be db56 0cbf 6d23 17be 5a36 423e
00000050: 6dac abbe 3313 073e 0a2c 08be 43a4 8d3d
00000060: a1d7 543d fee6 2a3f 3603 96be 0abd 213e
00000070: a847 dcbe 4fe9 a1bd d8ef 153f 0c2d 513e
00000080: 7a35 e0bb 6775 083e f3a0 023d 01a6 2f3e
00000090: da22 cf3e 0768 1fbe 27e5 243f cc10 163d
000000a0: 4d86 b93e a271 a73d f796 9dbd 6f32 e63d
000000b0: fd5d 123e 8fb5 f3bc 5243 4bbe e365 723d
000000c0: bc0a b9be dae8 b83e b373 bb3d e74b 70be
000000d0: aef2 9fbe b251 fe3e f7dc 33be 1f7f 6f3e
000000e0: d4a5 983e 70d1 7e3d 35d1 733f e92b d53e
000000f0: ec25 1ebe d804 1a3e e880 413e 5d1b f93d
00000100: 60f7 213e 2e16 cb3d 4351 f63e 2497 ac3d
00000110: b927 06bd d727 833e 8ed3 5b3f d2fa 703e
00000120: 0560 263e ed32 d03e e519 88be 3d20 ea3e
00000130: 408b 88be ea2e a0bc 3451 e8bd 97fc f33d
00000140: 0096 663e 74c9 a83e 8814 80be 99a3 9b3e
00000150: b22e 783e 10c1 b3be 9668 abbd b5d0 593e
00000160: b501 ec3c b250 be3c 693c c7bd 6031 92be
00000170: 3915 2b3d d16f 8fbe c555 973e eb81 68bd
00000180: f42b d03e eefa 2f3e 564f aa3e c195 5dbe
00000190: 80f9 69bd db2c 64be afda 023f af0b 653e
000001a0: f7bf c7be a604 11bf efd9 64be ea2c 003f
000001b0: fc83 b33e 09e6 b7bd c3ba 843d f697 773e
000001c0: ec2b e4bd a27b 25be 6e0a dbbd a52c 5d3d
000001d0: e891 9a3d df43 253e a325 eebe 0d79 ae3e
000001e0: f89d c33e a5e3 f7bd 1b3f 213d 75be ae3e
000001f0: 303d a63e 02ee 44be e80c 373e 584f 44be

fc2.weight f4 [128, 128]
-0.030757124 -0.039817706 0.023817677 -0.14853628 0.16769996 0.01145028 0.01000453 0.024331897
0.13238746 -0.0761702 0.07619731 -0.15090735 0.07333723 -0.09918941 -0.03975334 0.11257027
0.0658545 -0.0047166427 -0.07893487 0.03662085 0.16303931 0.28047016 0.07826994 -0.026913552
-0.0038596375 0.14157654 0.111392945 0.25588346 -0.07786062 -0.046306763 -0.026400015 0.03890605
0.33449036 0.24275737 0.015788406 0.07515003 -0.08148673 0.11001811 -0.13347949 0.08560267
0.28080192 0.09955688 0.06721139 -0.00782504 0.0073202974 0.11964904 0.020011034 0.006016802
-0.019117564 0.03658693 -0.088661015 -0.08513488 0.10681444 0.22097756 -0.04270143 -0.11458039
-0.011563175 0.12577361 -0.14301011 -0.018778764 0.021278195 -0.048174534 0.001128179 0.145164
0.01042576 0.17614691 0.24690968 -0.032211263 0.068695635 0.06271565 -0.0715864 0.013074995
-0.06413908 0.0053853113 0.17718923 0.13670836 -0.17393455 -0.12722388 0.029074498 -0.05743201
0.055567212 -4.7414702e-05 -0.13252558 -0.047555596 0.049003642 0.17825496 -0.1304657 0.18243188
-0.04203601 -0.01291119 -0.023219818 -0.016544292 0.02221837 -0.04606145 0.012114072 -0.06366488
0.065673865 -0.022655094 -0.09691868 0.3259676 0.15288544 -0.109842 0.055399593 0.112623155
0.04821725 0.28940433 -0.17606029 0.04740177 0.019045344 -0.2459991 -0.07568818 -0.16894698
-0.045383662 0.06398412 0.14504771 0.15879399 -0.13164766 0.16417752 -0.06669742 0.020708954
0.11064625 -0.07282619 0.2101109 0.053887706 0.002351271 -0.28790852 0.073893614 -0.0901111
-0.2546625 0.1840142 0.09897952 0.067801006 0.16211571 -0.14496666 -1.3434768 -0.052708592
0.114232615 0.2257319 -0.36807832 0.18198009 -0.31086951 -0.032381866 0.15860307 -0.20400305
-0.08690838 -0.020597927 -0.31049362 0.0661275 -0.07322399 0.14597386 0.135442 0.42886806
0.097651236 -0.38227558 -0.14113782 -0.113894075 -0.1610669 -0.04826265 0.2899383 0.2607162
-0.12368931 0.047842868 0.12859935 -0.03861639 0.08228328 0.33539477 0.25435054 -0.04265543
-0.13778004 0.0018597988 -0.13310541 0.116594955 -0.5039447 -0.107099704 -0.027157146 0.07412334
-0.010511081 -0.13876377 -0.013084866 0.034859292 -0.020029407 -0.031107962 0.016215188 0.13231991
0.08006685 -0.08560213 0.31827042 0.10201069 -0.17956333 0.053596687 -0.39035207 0.028806044
0.07132418 -0.34571776 0.1367104 0.06251947 0.10869066 -0.17272347 0.20697987 0.2569932
0.0350113 0.13625921 -0.32633102 -0.04298878 -0.094349094 0.092887156 -0.13919179 -0.06401051
-0.14109588 0.2514808 -0.00955073 0.08530544 -0.2846845 -0.06052899 -0.25041667 0.13164245
0.05180293 0.109298326 -0.28137642 0.045484565 -0.06452633 0.03773299 0.13123524 0.07926452
0.06168405 0.05324201 0.3494591 -0.01656472 -0.19299445 0.11636811 -0.3549127 -0.10162605
-0.031183345 0.31341618 0.057013556 0.07716897 -0.4106043 -0.28102198 -0.09338669 -0.06922387
-0.35844597 -0.2629904 -0.40652436 0.081710264 0.18628334 0.22718006 -0.008195365 0.33817536
0.16166766 0.14079538 -0.033108056 0.07423364 0.2843426 0.18001097 -0.0035760517 -0.032403566
00000000: 5df6 fbbc e417 23bd 4a1d c33c e519 18be
00000010: 8ab9 2b3e f599 3b3c 0aea 233c b053 c73c
00000020: 9490 073e 1fff 9bbd 560d 9c3d 7587 1abe
00000030: d431 963d d123 cbbd 66d4 22bd 3e8b e63d
00000040: b9de 863d 118e 9abb 9ba8 a1bd bfff 153d
00000050: c7f3 263e c999 8f3e fe4b a03d cf79 dcbc
00000060: f9f1 7cbb 71f9 103e fc21 e43d 2803 833e
00000070: 6475 9fbd 29ac 3dbd d844 d8bc f35b 1f3d
00000080: 5242 ab3e 6395 783e b056 813c 42e8 993d
00000090: 84e2 a6bd 2d51 e13d d9ae 08be 7450 af3d
000000a0: 45c5 8f3e 7ae4 cb3d 20a6 893d 9934 00bc
000000b0: 1bdf ef3b 8e0a f53d 2eee a33c 9828 c53b
000000c0: 709c 9cbc 2ddc 153d e893 b5bd 325b aebd
000000d0: 87c1 da3d f147 623e b2e7 2ebd 20a9 eabd
000000e0: 7973 3dbc ccca 003e 3e71 12be ecd5 99bc
000000f0: 9c4f ae3c a952 45bd 68df 933a dfa5 143e
00000100: cfd0 2a3c db5f 343e e4d5 7c3e f5ef 03bd
00000110: 4cb0 8c3d 1071 803d e49b 92bd 8138 563c
00000120: 5a5b 83bd 4477 b03b 1871 353e 47fd 0b3e
00000130: e61b 32be fa46 02be a42d ee3c d43d 6bbd
00000140: 729a 633d 26df 46b8 c9b4 07be a8c9 42bd
00000150: 0bb8 483d 7888 363e cd98 05be 6ccf 3a3e
00000160: f42d 2cbd 7589 53bc 7d37 bebc e587 87bc
00000170: 4d03 b63c eeaa 3cbd 1a7a 463c bc62 82bd
00000180: 0580 863d 2d97 b9bc 4d7d c6bd 3ae5 a63e
00000190: 008e 1c3e d8f4 e0bd afea 623d f8a6 e63d
000001a0: 737f 453d ce2c 943e 2649 34be 5c28 423d
000001b0: fb04 9c3c 30e7 7bbe 6802 9bbd 7000 2dbe
000001c0: 38e4 39bd 1b0a 833d 6387 143e e49a 223e
000001d0: a5ce 06be 271e 283e a898 88bd d3a5 a93c
000001e0: 809a e23d e625 95bd 5027 573e 5bb9 5c3d
000001f0: c817 1a3b bf68 93be 8955 973d 2b8c b8bd
00000200: 2063 82be 386e 3c3e c6b5 ca3d 41db 8a3d
00000210: a901 263e 2472 14be 0cf7 abbf f7e4 57bd
00000220: caf2 e93d 4326 673e c374 bcbe fd58 3a3e
00000230: 4a2a 9fbe d9a2 04bd d868 223e 2de6 50be
00000240: 05fd b1bd fcbc a8bc 05f9 9ebe db6d 873d
00000250: 76f6 95bd 2c7a 153e 4fb1 0a3e 9894 db3e
00000260: 5ffd c73d a0b9 c3be 6f86 10be 4c41 e9bd
00000270: b9ee 24be 0eaf 45bd cb72 943e 987c 853e
00000280: d250 fdbd e2f6 433d 8caf 033e 382c 1ebd
00000290: 2384 a83d ddb8 ab3e 3c3a 823e 76b7 2ebd
000002a0: 3616 0dbe 7ec4 f33a c94c 08be 56c9 ee3d
000002b0: 8502 01bf 1757 dbbd aa78 debc facd 973d
000002c0: ab36 2cbc 1718 0ebe e861 56bc 9ec8 0e3d
000002d0: b614 a4bc 20d6 febc b7d5 843c df7e 073e
000002e0: 17fa a33d 2b50 afbd 57f4 a23e fbea d03d
000002f0: 73df 37be 3388 5b3d 3adc c7be a7fa eb3c
00000300: 6912 923d eb01 b1be d0fd 0b3e 350a 803d
00000310: 3599 de3d 6cde 30be 88f2 533e 9d94 833e
00000320: 0268 0f3d 8987 0b3e dc14 a7be 0115 30bd
00000330: 193a c1bd 9f3b be3d 4b88 0ebe f117 83bd
00000340: 707b 10be 17c2 803e aa7a 1cbc 9eb4 ae3d
00000350: 2bc2 91be 3fed 77bd 9d36 80be 47cd 063e
00000360: 4f2f 543d cdd7 df3d 9210 90be 064e 3a3d
00000370: 6126 84bd e88d 1a3d 8862 063e 7055 a23d
00000380: 6aa8 7c3d 4b14 5a3d 4eec b23e bcb2 87bc
00000390: 56a0 45be 6752 ee3d 1eb7 b5be 5221 d0bd
000003a0: 3774 ffbc 1678 a03e 0c87 693d c40a 9e3d
000003b0: ba3a d2be 1de2 8fbe 8541 bfbd 3fc5 8dbd
000003c0: 3b86 b7be ada6 86be f623 d0be b657 a73d
000003d0: 0fc1 3e3e e4a1 683e da45 06bc 5225 ad3e
000003e0: 358c 253e aa2c 103e 509c 07bd cf07 983d
000003f0: 5a95 913e cc54 383e 315c 6abb 9ab9 04bd

fc2.bias f4 [128]
0.15664408 0.53848773 -0.011183802 -0.0122849 -0.042559676 0.061955687 0.113525055 0.063145995
0.078174666 -0.014231641 0.31487146 0.57628655 -0.1288968 -0.022839904 0.15355928 -0.03377848
-0.2522276 -0.034652933 -0.09254418 0.31242388 -0.080465995 -0.087774 0.4137128 0.30285293
-0.04625711 -0.17463663 0.093194425 0.03660512 0.123182155 -0.13289937 -0.017981177 0.007535108
0.13054194 -0.007383838 0.1980682 0.09754803 0.05293347 -0.0596251 0.2931662 0.034008324
0.19512838 -0.043805115 0.042355545 0.4784498 -0.09402339 0.11834837 0.01125636 0.031806294
-0.07066122 0.26583412 0.0749208 -0.032775808 0.0076240622 0.44769147 0.10680326 0.0514766
-0.32090178 0.25307348 -0.019037616 0.20312832 0.033892103 0.06455055 -0.15673576 0.14306805
0.13239133 -0.04435943 0.045714576 0.1878686 0.03308267 0.27346918 0.023719124 0.0008350409
0.08372649 0.39851677 -0.03378849 0.09855211 0.02259476 0.5278062 -0.16270882 -0.11306038
-0.067685895 0.11550273 -0.06842974 0.07031451 -0.030261125 0.3972222 0.031608373 -0.21118835
0.25417584 -0.10251959 -0.020904386 0.21011005 0.14084327 -0.40103784 0.25582066 0.031467903
0.005707322 0.107304774 -0.14582738 0.11304244 0.0433058 -0.068938814 -0.09140883 -0.09139598
-0.1564314 0.18535188 -0.20266218 0.0116314795 -0.05561676 -0.022068037 0.2380886 0.16464682
-0.083484024 -0.03671861 -0.0020464452 3.431425e-05 0.23571147 0.10992079 -0.00016971916 0.08974449
0.087055676 -0.0804679 0.26285732 0.0777021 0.085875094 -0.045686085 0.0901962 -0.08804701
00000000: 4e67 203e 55da 093f 443c 37bc 9b46 49bc
00000010: 0e53 2ebd 3fc5 7d3d d37f e83d b052 813d
00000020: 0a1a a03d d42b 69bc d536 a13e 8487 133f
00000030: 86fd 03be c01a bbbc a53e 1d3e 4e5b 0abd
00000040: fa23 81be 3cf0 0dbd ce87 bdbd 06f6 9f3e
00000050: 5bcb a4bd dbc2 b3bd 2ad2 d33e 8a0f 9b3e
00000060: 1878 3dbd f2d3 32be b8dc be3d 40ef 153d
00000070: ed46 fc3d c616 08be 434d 93bc 11e9 f63b
00000080: c9ac 053e 1ff4 f1bb 64d2 4a3e 43c7 c73d
00000090: c4d0 583d 7339 74bd e119 963e 504c 0b3d
000000a0: bccf 473e fe6c 33bd 027d 2d3d 5ff7 f43e
000000b0: 568f c0bd a160 f23d 996c 383c 5147 023d
000000c0: d4b6 90bd 691b 883e 1470 993d ed3f 06bd
000000d0: 45d3 f93b d137 e53e abbb da3d 21d9 523d
000000e0: 3d4d a4be d992 813e c6f4 9bbc df00 503e
000000f0: 72d2 0a3d 1433 843d 577f 20be 6e80 123e
00000100: 9891 073e 3cb2 35bd 353f 3b3d a060 403e
00000110: b281 073d 2704 8c3e 9c4e c23c a5e6 5a3a
00000120: cb78 ab3d 640a cc3e cd65 0abd b0d5 c93d
00000130: a518 b93c 4f1e 073f 249d 26be 338c e7bd
00000140: e79e 8abd b28c ec3d e424 8cbd 0e01 903d
00000150: 2ee6 f7bc b560 cb3e c877 013d c241 58be
00000160: 5623 823e caf5 d1bd ad3f abbc 1727 573e
00000170: 3839 103e d554 cdbe edfa 823e 7de4 003d
00000180: 7d04 bb3b 9bc2 db3d c653 15be cb82 e73d
00000190: 6c61 313d cb2f 8dbd 8d34 bbbd d12d bbbd
000001a0: 8e2f 20be e2cc 3d3e ad86 4fbe f691 3e3c
000001b0: 66ce 63bd 07c8 b4bc 7fcd 733e 2d99 283e
000001c0: acf9 aabd 4166 16bd a71d 06bb a5ec 0f38
000001d0: 595e 713e 271e e13d a4f6 31b9 f6cb b73d
000001e0: 3f4a b23d 5bcc a4bd 3c95 863e 4722 9f3d
000001f0: 48df af3d 5521 3bbd c9b8 b83d fe51 b4bd

out.weight f4 [5, 128]
0.012958531 -0.063428715 -0.03111019 -0.006545089 0.20888424 -0.06400339 0.10845009 -0.08447701
-0.06836906 0.064556696 0.076528184 0.010620311 0.11429837 0.13081653 -0.19788131 0.13476993
0.094311915 0.07498882 0.016273934 -0.042881943 0.16617976 0.09182333 0.06931148 -0.28505242
-0.064023666 0.016908279 0.05773199 -0.14113404 -0.049654093 -0.13375965 -0.08970749 -0.10239148
-0.09380992 0.05884396 0.009623211 0.109028436 -0.11144243 -0.15694852 0.042437788 -0.15819053
-0.055922464 0.2122692 0.20511317 -0.059563994 0.14736661 0.057153422 -0.09907695 -0.047298986
0.051720954 -0.052714523 0.113784626 0.007385831 0.14826214 0.1098159 0.08575384 -0.004585386
0.094449334 -0.10626926 0.16353598 0.11312299 0.008136439 -0.04010824 -0.031120999 0.092200644
-0.08654601 -0.16233808 0.0020293242 -0.15907425 -0.0382713 -0.05523603 0.08602473 -0.14343224
0.35341913 -0.018806966 0.21224555 -0.2515685 0.117280185 -0.055307843 0.039962836 -0.065137275
0.14815369 0.06552022 0.081890136 -0.07421957 0.06421277 -0.14240575 -0.13597399 0.057151925
0.10156543 0.09375171 -0.084709965 0.03213951 -7.487367e-05 -0.04987209 -0.032204762 -0.17487703
-0.097237244 -0.12331674 -0.170373 0.06319051 0.24442115 0.06884118 0.021964293 0.25349295
0.13198581 -0.067847535 0.090483755 0.043994114 -0.19725585 0.11998434 -0.19047527 -0.04432912
0.0711561 -0.1432807 0.07232082 0.18395717 0.065172166 0.12701166 0.09843418 0.14347309
-0.07613643 0.26590514 0.012173494 0.045347523 -0.13972719 0.10387296 0.055614095 0.13450429
-0.082186855 -0.16821449 0.11984043 0.05930143 0.24046253 0.04024333 -0.08827445 -0.117334776
-0.014184142 -0.06756941 0.1294692 -0.18985417 0.10816552 0.030764477 0.00072089455 -0.18379048
0.050942853 -0.1740516 0.05961291 -0.04065015 -0.033404015 0.13439241 0.08784653 -0.06787022
-0.07189177 0.04508311 0.16920781 0.010733003 -0.06770777 -0.037369434 0.01595521 0.085472174
0.0954426 -0.08497775 -0.11396857 0.26983863 0.07686082 0.12359524 0.014983138 0.037119754
-0.015137101 -0.01864043 0.09047813 -0.06439735 -0.15266283 0.1531422 0.0697723 -0.049998097
-0.042071395 -0.028068976 -0.25996557 0.17713681 0.077741325 0.07003387 -0.106134504 0.20961949
0.029324057 -0.08559884 0.14948685 0.18077509 -0.13837464 0.1006398 0.059913572 0.080104366
0.01490953 0.062378973 -0.019628946 0.17286618 0.06622556 -0.07679214 0.029328713 -0.06634055
0.19120324 -0.03057775 0.087817535 -0.17152204 -0.11067789 0.14255267 0.062068902 0.0718126
0.13224518 0.07131756 0.07350403 -0.060242858 0.07669479 -0.17279665 0.20734002 0.060045682
0.060119253 0.07769692 0.16582549 0.11107591 -0.21742572 0.091692336 -0.06814018 0.11799638
0.020406403 -0.0028596306 0.13356441 -0.056881476 0.17441675 0.052169118 0.1441241 0.11756286
0.17526081 0.09103295 0.056550317 0.18515955 -0.15726344 0.038825426 -0.059875242 -0.004055931
-0.041662943 0.05421597 -0.11877421 -0.09229775 -0.024379037 0.063724086 0.031405106 -0.10815828
0.006806151 0.059689 0.03668997 0.13765644 -0.000786996 0.013911655 0.034166045 0.011514813
00000000: 0550 543c eae6 81bd ccda febc 3078 d6bb
00000010: c0e5 553e 3614 83bd 151b de3d 4802 adbd
00000020: 1405 8cbd 4d36 843d cfba 9c3d d000 2e3c
00000030: 4415 ea3d c5f4 053e 66a1 4abe 2101 0a3e
00000040: 9b26 c13d bd93 993d ea50 853c faa4 2fbd
00000050: 072b 2a3e df0d bc3d 2df3 8d3d 64f2 91be
00000060: d71e 83bd 3b83 8a3c 6178 6c3d 7185 10be
00000070: 1762 4bbd 4af8 08be 8fb8 b7bd a0b2 d1bd
00000080: 6a1f c0bd 5d06 713d acaa 1d3c 4d4a df3d
00000090: ee3b e4bd 1db7 20be 3fd3 2d3d b3fc 21be
000000a0: f40e 65bd 195d 593e 3009 523e 60f9 73bd
000000b0: 46e7 163e b519 6a3d dbe8 cabd 95bc 41bd
000000c0: 5ad9 533d 2feb 57bd ea07 e93d d704 f23b
000000d0: 08d2 173e 29e7 e03d b69f af3d 0141 96bb
000000e0: a76e c13d b3a3 d9bd fa75 273e 07ad e73d
000000f0: b34e 053c 8a48 24bd 77f1 febc b1d3 bc3d
00000100: 093f b1bd f43b 26be 69fe 043b 5ce4 22be
00000110: 5ec2 1cbd 2d3f 62bd bc2d b03d e7df 12be
00000120: 5af3 b43e 1111 9abc e656 593e 96cd 80be
00000130: 9830 f03d 7a8a 62bd 12b0 233d b166 85bd
00000140: 9ab5 173e 772f 863d 04b6 a73d 6e00 98bd
00000150: fc81 833d d0d2 11be c43c 0bbe 2318 6a3d
00000160: 8901 d03d e600 c03d 6b7c adbd b8a4 033d
00000170: 7f05 9db8 ad46 4cbd 24e9 03bd f712 33be
00000180: 5224 c7bd 7d8d fcbd 4276 2ebe 076a 813d
00000190: 8a49 7a3e 9bfc 8c3d 76ee b33c d4c9 813e
000001a0: 4a27 073e a6f3 8abd 8c4f b93d 2c33 343d
000001b0: 70fd 49be 5aba f53d f30b 43be 7492 35bd
000001c0: 4aba 913d 2db8 12be f01c 943d 455f 3c3e
000001d0: fc78 853d 580f 023e dc97 c93d 9cea 123e
000001e0: 6bed 9bbd b824 883e 5673 473c 53be 393d
000001f0: a514 0fbe 59bb d43d 9bcb 633d 7ebb 093e
00000200: 9551 a8bd 6b40 2cbe e66e f53d 0ee6 723d
00000210: cf3b 763e 31d6 243d 3cc9 b4bd 374d f0bd
00000220: 9b64 68bc d561 8abd 9393 043e 2269 42be
00000230: e285 dd3d c905 fc3c 6afa 3c3a 9233 3cbe
00000240: 74a9 503d 953a 32be ab2c 743d c680 26bd
00000250: a6d2 08bd 2a9e 093e e2e8 b33d 8bff 8abd
00000260: fe3b 93bd 11a9 383d d044 2d3e 7ad9 2f3c
00000270: 5faa 8abd b110 19bd 80b4 823c 090c af3d
00000280: 6977 c33d d108 aebd 5b68 e9bd 4a28 8a3e
00000290: 3569 9d3d 801f fd3d d67b 753c e20a 183d
000002a0: 9a01 78bc d1b3 98bc 994c b93d c2e2 83bd
000002b0: a553 1cbe 4fd1 1c3e c8e4 8e3d ceca 4cbd
000002c0: 0e53 2cbd e9f0 e5bc 351a 85be 5a63 353e
000002d0: d836 9f3d eb6d 8f3d 0c5d d9bd 7ea6 563e
000002e0: 0139 f03c 724e afbd 1513 193e 1b1d 393e
000002f0: 15b2 0dbe 3d1c ce3d ef67 753d c20d a43d
00000300: 1a47 743c 1881 7f3d e2cc a0bc d503 313e
00000310: 44a1 873d 3345 9dbd c542 f03c 8edd 87bd
00000320: c8ca 433e 317e fabc aed9 b33d 79a3 2fbe
00000330: 17ab e2bd 54f9 113e f63b 7e3d 7c12 933d
00000340: 486b 073e f10e 923d 4889 963d 37c1 76bd
00000350: 2812 9d3d 9bf1 30be f150 543e 76f2 753d
00000360: 9b3f 763d 901f 9f3d 28ce 293e c47b e33d
00000370: d9a4 5ebe 31c9 bb3d 148d 8bbd 16a8 f13d
00000380: 542b a73c a468 3bbb 1cc5 083e 8dfc 68bd
00000390: 4e9a 323e 49af 553d 4595 133e ccc4 f03d
000003a0: 9277 333e 7c6f ba3d 4ea1 673d 779a 3d3e
000003b0: ab09 21be 6907 1f3d be3f 75bd 9de7 84bb
000003c0: c3a6 2abd 9111 5e3d e53f f3bd 9a06 bdbd
000003d0: 8cb6 c7bc c681 823d a4a2 003d 1782 ddbd
000003e0: 2206 df3b 747c 743d 3948 163d cff5 0c3e
000003f0: 684e 4eba b6ed 633c b2f1 0b3d a0a8 3c3c

out.bias f4 [5]
-0.07589977 -0.03329949 -0.12983727 -0.11382758 -0.16934912
00000000: 5771 9bbd 0c65 08bd 10f4 04be 6f1e e9bd
00000010: db69 2dbe
