SimplifiedSpaceWar/trained_models/madrl2_bullets_16500.pth (torch, 89201 bytes, 6 tensors)

fc1.weight f4 [128, 33]
1.1853187 -1.2312803 -0.44851628 0.34992215 -0.069258854 -0.041925043 -0.48375326 0.22204778
-0.04244077 -0.43441752 0.11604934 0.6019613 -0.27066064 0.06323289 -0.05030292 0.68910944
-0.29298243 0.17341176 -0.08469628 0.35532135 0.12947409 -0.2486516 -0.32765394 -0.0063901437
-0.17525497 0.04602142 -0.10412966 0.39939594 -0.045451485 0.25733057 0.06067036 0.042081848
0.25615892 1.3083041 0.5307711 -0.8087111 -0.11219539 0.5580343 0.06719708 0.049541924
-0.1898165 -0.005675253 0.25094658 -0.43755752 0.23476417 -0.2277769 -1.8483962 -1.7092363
0.3951541 0.09393564 0.13270168 -0.21375911 0.42166194 0.015215104 -0.26180053 -0.32768512
0.4660999 0.1372455 -0.14093955 -0.28597856 0.66493213 -0.3245695 0.09476298 0.031011008
0.33844316 -0.16528845 0.72264963 0.74159247 0.13846244 -0.35082102 0.72762555 0.4550063
0.031996828 -0.9492577 0.02684341 -0.5503782 0.16352363 0.75527054 0.8856784 -0.45703247
-0.28167874 0.16543894 0.18814437 0.118775554 0.25542092 -0.2192363 0.082326 0.110358275
-0.018475082 -0.55600387 0.32560778 0.017357599 0.24198705 -0.41058576 0.70198345 -0.12935533
0.04043674 -0.25474998 0.46827143 2.1857176 1.4895381 -0.15569052 0.08729636 0.25171995
-0.21605453 0.63638 -0.17898816 0.007965852 -0.54081666 -0.31779212 0.14241602 0.7266474
0.6415945 -0.01754778 -0.18956551 0.044339973 0.25355068 -0.15415508 -0.08678837 0.4491464
0.09690646 -0.008940094 -0.3976283 0.9199225 0.18076542 -0.055414256 -0.168076 0.6202863
0.084576175 -0.10683962 0.008798417 0.85075766 0.5632151 0.10006417 0.2886963 0.048710044
-0.35553098 0.74092644 0.15097412 1.1700777 -0.019620793 0.18935305 -0.04022653 0.47871882
0.38613355 -0.97421384 -0.92145485 0.16911845 0.165524 -0.66146404 -0.05622366 0.23044047
-0.3059218 -0.58512527 0.057160385 0.44445282 -0.339095 0.027314613 -0.17309745 -0.066130035
-0.20472595 -0.41541535 -0.2780015 -0.2178803 -0.14676781 -1.7519693 -0.37450156 -0.42561272
0.0017000446 -0.28800365 0.452641 -0.14809416 -0.3085795 0.0029058026 0.6233113 -0.14600682
-0.16575572 0.2926188 -0.62931675 -0.422421 -0.1562092 -0.0625647 0.08357903 -0.15246342
-0.16782512 -0.07915612 0.14344029 -0.047838807 -0.32572913 -0.05457782 -0.21685638 -0.26911578
-0.08750454 -0.041423313 -0.039237175 -0.24653801 -0.28776005 -0.039927248 -0.05589965 0.06422685
0.0024662246 0.008310808 -0.020502081 0.0020623791 -0.010452053 -0.048534617 -0.00010285126 -0.010004169
0.0067796865 0.012240657 0.016491516 0.50714874 -14.640666 -0.015774786 -0.24215202 0.0005231341
-0.070643105 -0.0053434144 0.0032383215 0.023625098 -0.012018464 0.0074071027 0.05051436 0.0023741527
-0.0050701806 -0.0152579155 0.0219239 0.0507155 -0.04335308 0.0006678647 0.012804347 -0.8515299
0.6582572 -0.15789925 0.07106947 -0.28824496 0.20801705 -0.21193491 0.013696137 -0.012133428
-2.0078835 0.19107582 -0.10423618 0.19989948 0.36649758 0.33837247 0.112039186 -0.062499907
-0.38495615 -0.096263595 -0.36417398 -0.27783263 -0.14222398 0.17220655 0.08633296 -0.29104668
00000000: 86b8 973f 989a 9dbf eda3 e5be ff28 b33e
00000010: 96d7 8dbd 98b9 2bbd 82ae f7be 7e60 633e
00000020: 5fd6 2dbd f96b debe 47ab ed3d 231a 1a3f
00000030: 0894 8abe 3f80 813d 6f0a 4ebd 7a69 303f
00000040: cb01 96be da92 313e 3e75 adbd aeec b53e
00000050: db94 043e 869e 7ebe 42c2 a7be 6964 d1bb
00000060: 0a76 33be f580 3c3d ee41 d5bd a07d cc3e
00000070: 562b 3abd d5c0 833e 7c81 783d 045e 2c3d
00000080: 4327 833e 8276 a73f 9de0 073f b107 4fbf
00000090: b2c6 e5bd 56db 0e3f 9f9e 893d 79ec 4a3d
000000a0: 425f 42be 79f7 b9bb 127c 803e 8a07 e0be
000000b0: 0566 703e 593e 69be 3f98 ecbf 41c8 dabf
000000c0: a351 ca3e 5461 c03d f3e2 073e abe3 5abe
000000d0: 13e4 d73e c648 793c b80a 86be 58c6 a7be
000000e0: a5a4 ee3e 168a 0c3e 7552 10be c86b 92be
000000f0: fe38 2a3f f92d a6be 1813 c23d cc0a fe3c
00000100: 6c48 ad3e 6041 29be 91ff 383f 01d9 3d3f
00000110: 19c9 0d3e d09e b3be ab45 3a3f 96f6 e83e
00000120: 1b0f 033d 8d02 73bf b6e6 db3c 96e5 0cbf
00000130: bd72 273e 6959 413f d2bb 623f 2900 eabe
00000140: 3238 90be d368 293e eba8 403e 9940 f33d
00000150: 88c6 823e 7b7f 60be 899a a83d 8503 e23d
00000160: 0e59 97bc 4556 0ebf 10b6 a63e 8631 8e3c
00000170: 74cb 773e 4c38 d2be 30b5 333f b975 04be
00000180: ffa0 253d 976e 82be 46c1 ef3e cce2 0b40
00000190: 2fa9 be3f 566d 1fbe 6fc8 b23d 70e1 803e
000001a0: 663d 5dbe cde9 223f ac48 37be 3483 023c
000001b0: f672 0abf a6b5 a2be 81d5 113e 9005 3a3f
000001c0: 8a3f 243f 5dc0 8fbc 761d 42be d59d 353d
000001d0: 65d1 813e d4da 1dbe 1abe b1bd 84f6 e53e
000001e0: e576 c63d 7979 12bc f095 cbbe 0a80 6b3f
000001f0: 921a 393e 0ffa 62bd 1d1c 2cbe 15cb 1e3f
00000200: 4636 ad3d bbce dabd 3c27 103c 41cb 593f
00000210: dd2e 103f 72ee cc3d 00d0 933e 2f84 473d
00000220: 2808 b6be 5bad 3d3f f698 1a3e 1bc5 953f
00000230: c9bb a0bc c4e5 413e 93c4 24bd a21a f53e
00000240: 4cb3 c53e 1466 79bf 77e4 6bbf 632d 2d3e
00000250: 207f 293e b555 29bf c84a 66bd 96f8 6b3e
00000260: c8a1 9cbe c5ca 15bf 0221 6a3d 528f e33e
00000270: dc9d adbe e5c2 df3c 7540 31be 2f6f 87bd
00000280: aea3 51be 52b1 d4be 3656 8ebe 031c 5fbe
00000290: 4d4a 16be 8840 e0bf abbe bfbe e9e9 d9be
000002a0: 08d4 de3a 3775 93be 90c0 e73e ffa5 17be
000002b0: 22fe 9dbe 476f 3e3b 5491 1f3f d082 15be
000002c0: debb 29be 22d2 953e e71a 21bf 9147 d8be
000002d0: 4ef5 1fbe ec21 80bd 7c2b ab3d 5f1f 1cbe
000002e0: 59da 2bbe 9b1c a2bd 03e2 123e a0f2 43bd
000002f0: f8c5 a6be fe8c 5fbd 990f 5ebe 8bc9 89be
00000300: 9535 b3bd 7eab 29bd 29b7 20bd 7674 7cbe
00000310: 4955 93be c18a 23bd 08f7 64bd 5e89 833d
00000320: 62a0 213b 0e2a 083c fbf3 a7bc fb28 073b
00000330: 163f 2bbc 3ccc 46bd dab1 d7b8 87e8 23bc
00000340: 2228 de3b 098d 483c 3719 873c 80d4 013f
00000350: 2b40 6ac1 203a 81bc b3f6 77be ef22 093a
00000360: 55ad 90bd cf17 afbb 053a 543b 6c89 c13c
00000370: 17e9 44bc 48b7 f23b 25e8 4e3d ac97 1b3b
00000380: c223 a6bb 56fc 79bc c099 b33c 0ebb 4f3d
00000390: 0093 31bd a413 2f3a 53c9 513c ddfd 59bf
000003a0: 8b83 283f 57b0 21be df8c 913d d894 93be
000003b0: 6c02 553e 7705 59be c365 603c 49cb 46bc
000003c0: 2a81 00c0 61a9 433e c779 d5bd 73b2 4c3e
000003d0: 92a5 bb3e 283f ad3e cd74 e53d e7ff 7fbd
000003e0: f918 c5be d925 c5bd 0375 babe 1440 8ebe
000003f0: 2aa3 11be ea56 303e 56cf b03d 1204 95be

fc1.bias f4 [128]
-0.30682635 0.2296921 -0.3743462 0.40482268 0.50791 0.1645627 -0.18303074 -0.37569112
0.3437721 0.51285636 0.37249178 0.65094835 0.38471255 0.51163316 0.7584886 -0.022792434
-0.2743511 -0.597113 -0.4121844 -0.047583126 -0.15153712 0.10290143 0.059990197 0.37248316
-0.17763509 0.65763295 -0.400209 -0.0101156775 -0.51032656 -0.13012707 0.7049777 0.40000516
0.17233427 -0.038278982 0.33597392 0.132546 0.6091963 0.1362883 0.73623765 -0.040162705
0.61241615 0.0036313885 -0.07092982 -0.030729124 0.06408048 -0.02975691 -0.50809366 0.17408438
-0.26772177 0.39623043 0.17809233 -0.4305377 -0.28868163 0.70296764 -0.39588374 0.23083952
0.45323387 0.039106105 1.2588639 0.40681323 -0.039769035 0.59352213 0.105971515 0.22574845
-0.033676133 0.13556233 0.49288473 0.07557803 -0.0073049595 0.22982572 1.0262429 0.31121656
0.33169624 0.3906573 -0.2550309 0.500774 -0.39345872 0.13180985 -0.16834088 0.13904941
0.059704125 0.8020327 -0.3642522 0.14916004 0.38839373 -0.49322507 -0.037472144 0.127173
0.21945198 0.34161502 -0.177137 -0.47959477 0.045141336 -0.26719514 0.42277965 -0.33980817
0.5807543 0.13229848 0.1889057 -0.31444243 0.42702988 -0.26795006 0.46291453 0.28683144
-0.25619575 -1.1000578 -0.55510795 0.44283417 0.39758042 -0.5348032 0.22275345 0.10281051
-0.24371865 -0.24897186 -0.21453078 0.09001876 0.0017866178 0.20439407 -0.7077403 0.43889916
0.46972162 -0.32202086 -0.04840406 0.3197726 0.637573 0.09654324 0.24530528 -0.43454316
00000000: 5818 9dbe 6834 6b3e 4eaa bfbe eb44 cf3e
00000010: 6406 023f 2083 283e 696c 3bbe 965a c0be
00000020: e602 b03e 8e4a 033f 3eb7 be3e 8da4 263f
00000030: 0bf9 c43e 64fa 023f 4f2c 423f 33b7 babc
00000040: bf77 8cbe 66dc 18bf d509 d3be 86e6 42bd
00000050: 8c2c 1bbe fcbd d23d 48b8 753d 1db6 be3e
00000060: f9e5 35be a25a 283f 32e8 ccbe 3abc 25bc
00000070: c3a4 02bf 0840 05be 6b79 343f 7acd cc3e
00000080: 6578 303e 6cca 1cbd c604 ac3e 23ba 073e
00000090: 4af4 1b3f 298f 0b3e 127a 3c3f a681 24bd
000000a0: 4ec7 1c3f 97fc 6d3b a743 91bd a5bb fbbc
000000b0: a03c 833d c3c4 f3bc 6d12 02bf 2d43 323e
000000c0: d412 89be b7de ca3e d65d 363e 706f dcbe
000000d0: 14ce 93be b0f5 333f 46b1 cabe 3261 6c3e
000000e0: 450e e83e b92d 203d 7422 a13f d349 d03e
000000f0: dbe4 22bd 11f1 173f 9807 d93d 9a2a 673e
00000100: fcef 09bd dad0 0a3e 635b fc3e a7c8 9a3d
00000110: 715e efbb 6f57 6b3e ed5b 833f c757 9f3e
00000120: 17d4 a93e 3c04 c83e 6993 82be ba32 003f
00000130: 6c73 c9be 29f9 063e 8d61 2cbe f862 0e3e
00000140: 508c 743d 0452 4d3f 447f babe 69bd 183e
00000150: 8bdb c63e ff87 fcbe 647c 19bd a439 023e
00000160: 05b8 603e 2ae8 ae3e 6763 35be 728d f5be
00000170: 1fe6 383d cdcd 88be 9376 d83e 56fb adbe
00000180: 50ac 143f 4179 073e 7f70 413e 99fe a0be
00000190: a9a3 da3e c030 89be 2203 ed3e 92db 923e
000001a0: 172c 83be b2ce 8cbf 8e1b 0ebf 29bb e23e
000001b0: a98f cb3e dde8 08bf 7b19 643e 518e d23d
000001c0: 6291 79be 7bf2 7ebe f5ad 5bbe c15b b83d
000001d0: f22c ea3a ae4c 513e 782e 35bf 64b7 e03e
000001e0: 5a7f f03e ebdf a4be 5643 46bd 3cb9 a33e
000001f0: fc37 233f 76b8 c53d 4f31 7b3e 717c debe

fc2.weight f4 [128, 128]
-0.08367607 -0.2771156 0.14416495 -0.0118908435 0.39709377 0.00704845 -0.8715939 -0.07492545
0.20479149 -0.28543538 0.20251024 -0.018447485 -0.08673386 -0.028626518 -0.005032396 -0.17479523
-0.1847019 -0.0022568044 0.008846066 -0.09405886 0.118602864 0.25883734 -0.17889813 -0.5563233
-0.37457463 0.13755293 0.0885767 0.36297327 0.035748255 -0.023433212 -0.10171948 0.16663747
0.3632449 0.16569835 -0.016176598 -0.08008756 0.23927294 -0.13261563 0.1026393 -0.34258947
0.12089845 0.11749672 0.057090547 -0.17360336 -0.2632911 0.27810064 0.07504956 0.047474843
-0.5397402 0.06274339 0.10232582 -0.009117282 0.29951268 -0.05426957 -0.036125265 -0.5879982
-0.025570754 -0.2960754 -0.037714407 0.16263726 -0.14597325 -0.07661497 -0.036962416 -0.055009983
0.11314496 0.21415134 0.34649974 -0.15729493 0.09283467 0.053688236 0.017055321 -0.17178558
-0.104142494 -0.19891521 0.14167258 0.19189765 -0.6454055 -0.30273604 0.11332107 -0.14019921
-0.02648853 -0.14182535 -0.2688425 0.08696968 -0.23514658 -0.27183628 -0.35509524 -0.06435417
0.023131765 0.052344777 -0.8312432 -0.057423443 -0.16086784 -0.35178563 -0.087726995 -0.08878804
0.24674214 0.11853077 -0.4318912 0.20866643 0.46922237 -0.12416076 -0.15586291 -0.19636407
0.11924546 -0.11123229 -0.11013536 0.17874542 0.038326126 -0.4724338 -0.54334176 -0.095160544
-0.12111227 -0.2203008 0.085488275 0.24083756 -0.14451523 0.121969216 -0.5311572 0.05231466
0.11507835 -0.24625443 0.32508925 0.1145633 0.053341944 -0.3165391 0.075708926 -0.24268109
-0.396514 0.27105504 0.039311506 -0.092036396 0.3683544 0.013980234 -7.0904098 0.118033275
-0.105034895 0.25897864 -0.45604217 0.059891343 -0.8054629 -0.043304726 0.59040546 -0.17669636
-0.014688722 0.02448994 -0.40414482 0.02710528 0.23947826 -0.10703173 -0.010347633 0.031151958
-0.07052982 -0.65535253 -0.11011615 -0.073074795 -0.081343845 -0.22561055 0.1680494 0.29315498
-0.56334263 -0.18164307 0.36792278 -0.22279732 0.7533437 0.3462042 0.13454412 -0.1431564
-0.23940681 0.04482345 -0.049550846 0.08967348 -0.66652966 -0.13462913 -0.03880202 -0.2963566
-0.121014774 -0.094548546 -0.57755834 0.044742156 -0.48322785 0.15506332 -0.03316511 -0.36488852
0.3229845 -0.19193844 0.62362444 0.16673906 -0.1843812 0.24194239 -0.3723364 -0.25928104
-0.100584485 -0.46726334 0.2038742 -0.2664856 0.21077773 -0.18439169 0.57807803 -0.0062148008
0.37484628 -0.1666558 -0.48890415 0.0015637266 -0.030654747 0.05255463 -0.085360765 0.0042098085
-0.20539528 0.22743648 -0.1170263 0.022467047 -0.22079378 -0.08164905 -0.49423483 0.1787835
0.21280275 0.08178626 -7.37205 0.021255981 -0.41049775 0.24302116 0.07087248 0.08395323
0.1351688 -0.13296457 0.110411204 -0.3617797 -0.18520945 0.16275999 -0.32415643 0.06406509
0.23514505 -0.09999098 -0.0049363603 -0.061756205 0.23475073 -0.15218616 -0.006907938 -0.06328303
-0.49944448 -0.43326062 -0.3146259 0.2992975 0.23685163 0.3446546 -0.05849764 0.36611554
0.4014036 0.1458783 0.08576672 0.24157448 0.47180474 -0.6981888 -0.09930028 0.0397322
00000000: 5c5e abbd 19e2 8dbe fa9f 133e d0d1 42bc
00000010: e04f cb3e aff6 e63b c720 5fbf 8472 99bd
00000020: dcb4 513e 9624 92be d85e 4f3e 2e1f 97bc
00000030: 86a1 b1bd 2982 eabc cce6 a4bb 85fd 32be
00000040: 7f22 3dbe e5e6 13bb 17ef 103c eea1 c0bd
00000050: 0fe6 f23d 5486 843e 1231 37be 346b 0ebf
00000060: 3fc8 bfbe adda 0c3e b367 b53d a2d7 b93e
00000070: c36c 123d 02f7 bfbc 4d52 d0bd 03a3 2a3e
00000080: 3cfb b93e d4ac 293e c984 84bc f204 a4bd
00000090: f703 753e 64cc 07be 8e34 d23d e367 afbe
000000a0: 9b99 f73d 1fa2 f03d c7d7 693d 14c5 31be
000000b0: 17ce 86be 3563 8e3e 95b3 993d fb74 423d
000000c0: 6a2c 0abf 9b7f 803d 3390 d13d a760 15bc
000000d0: ba59 993e c549 5ebd 16f8 13bd 0d87 16bf
000000e0: c279 d1bc 3297 97be 6c7a 1abd 628a 263e
000000f0: 037a 15be 4fe8 9cbd e765 17bd 2652 61bd
00000100: 8bb8 e73d 7d4a 5b3e 6a68 b13e ec11 21be
00000110: 1a20 be3d 32e8 5b3d 9ab7 8b3c 8fe8 2fbe
00000120: a948 d5bd 6eb0 4bbe 9e12 113e d180 443e
00000130: 4b39 25bf 3800 9bbe e114 e83d 6290 0fbe
00000140: 79fe d8bc aa3a 11be b9a5 89be 291d b23d
00000150: 44ca 70be 202e 8bbe 0bcf b5be 1ecc 83bd
00000160: d47e bd3c 7a67 563d 5bcc 54bf d834 6bbd
00000170: 8aba 24be 3f1d b4be 36aa b3bd 81d6 b5bd
00000180: f9a9 7c3e 43c0 f23d d820 ddbe a7ac 553e
00000190: ea3d f03e ff47 febd 879a 1fbe aa13 49be
000001a0: f736 f43d c1cd e3bd a68e e1bd 0a09 373e
000001b0: dbfb 1c3d d8e2 f1be 7218 0bbf 88e3 c2bd
000001c0: b609 f8bd 8896 61be 7a14 af3d 1f9e 763e
000001d0: cdfb 13be ffca f93d ebf9 07bf e647 563d
000001e0: 33ae eb3d 1f2a 7cbe 1972 a63e 2aa0 ea3d
000001f0: 157d 5a3d 6a11 a2be 480d 9b3d 6481 78be
00000200: e203 cbbe bac7 8a3e 1a05 213d 947d bcbd
00000210: f398 bc3e 5a0d 653c a3e4 e2c0 6ebb f13d
00000220: 891c d7bd d998 843e 5c7e e9be a050 753d
00000230: d132 4ebf 4c60 31bd d024 173f e4ef 34be
00000240: f7a8 70bc 209f c83c 12ec cebe e40b de3c
00000250: ca39 753e 7433 dbbd 1e89 29bc 6432 ff3c
00000260: f071 90bd 2fc5 27bf 9384 e1bd 3da8 95bd
00000270: 9a97 a6bd 7406 67be 2415 2c3e 6918 963e
00000280: 3937 10bf a400 3abe 6060 bc3e fb24 64be
00000290: 22db 403f ad41 b13e efc5 093e 9797 12be
000002a0: 0f27 75be cb98 373d d4f5 4abd bba6 b73d
000002b0: b0a1 2abf 38dc 09be deee 1ebd 0dbc 97be
000002c0: 98d6 f7bd aba2 c1bd ddda 13bf 8d43 373d
000002d0: a469 f7be ebc8 1e3e 23d8 07bd abd2 babe
000002e0: 395e a53e 838b 44be daa5 1f3f a5bd 2a3e
000002f0: 6dce 3cbe bfbf 773e e0a2 bebe 7cc0 84be
00000300: 3dff cdbd 243d efbe 66c4 503e cd70 88be
00000310: 1ed6 573e 2dd1 3cbe ecfc 133f 87a5 cbbb
00000320: daeb bf3e d1a7 2abe a551 fabe f5f5 cc3a
00000330: aa1f fbbc 8643 573d a0d1 aebd 6ff2 893b
00000340: 2453 52be 1ce5 683e 7cab efbd d00c b83c
00000350: c417 62be 9e37 a7bd 590c fdbe 0613 373e
00000360: f7e8 593e 8e7f a73d d5e7 ebc0 0621 ae3c
00000370: c32c d2be 8ada 783e 9725 913d acef ab3d
00000380: b169 0a3e dd27 08be 451f e23d 303b b9be
00000390: 8ca7 3dbe 8eaa 263e d5f7 a5be 8f34 833d
000003a0: ddc9 703e 12c8 ccbd 31c1 a1bb 13f4 7cbd
000003b0: 7f62 703e b0d6 1bbe fc5b e2bb 899a 81bd
000003c0: 30b7 ffbe 56d4 ddbe a516 a1be 863d 993e
000003d0: 3c89 723e 9176 b03e 399b 6fbd 7f73 bb3e
000003e0: c684 cd3e 1f61 153e 76a6 af3d 4d5f 773e
000003f0: 6490 f13e 80bc 32bf f25d cbbd 3bbe 223d

fc2.bias f4 [128]
0.35506934 0.6621183 -0.05953169 -0.0509082 -0.08565123 0.026459306 0.01266799 0.27359572
0.047850955 -0.09526578 0.23717521 0.62507105 -0.24598876 -0.022839904 0.23589751 -0.057642903
-0.26558584 -0.026581233 -0.1419467 0.33480957 -0.105935074 -0.19605678 0.29403684 0.5005627
-0.105054 -0.26098156 0.024299454 0.04563349 0.5497643 0.10195916 -0.13001963 0.048572257
0.07415982 0.025395686 0.15998799 0.0876166 0.047297157 -0.06496391 0.3044338 0.034008324
0.24779616 -0.05980423 0.18697889 0.71748215 -0.24333169 0.11497551 0.01125636 -0.32342732
-0.085891455 0.37237114 0.019897116 -0.19114976 -0.044168863 0.38059258 0.10680326 0.01757447
-0.28130728 0.24941912 0.005295086 0.052187152 0.033892103 -0.07525816 0.23679219 0.04120395
0.09366995 -0.04435943 0.038170785 0.17299823 0.04378625 0.22211206 -0.023249911 0.0008350409
0.05800045 0.6521172 -0.06760436 0.14886454 -0.009953029 0.53795695 0.03542615 -0.11855469
-0.067685895 0.12853034 -0.08827436 0.044427406 -0.057213925 0.46497658 0.019164925 -0.24917462
0.14460899 -0.19786474 0.06718921 0.12853746 0.14084327 -0.4451372 0.4512239 0.10153705
0.0033501002 0.23125494 -0.13731143 0.11304244 -0.009208323 -0.068242766 -0.37239233 -0.098492205
-0.24878599 0.058129914 -0.27033892 -0.12896322 -0.05561676 -0.011789989 0.2380886 0.30468908
-0.12881786 -0.03671861 0.095846795 0.08182235 -0.12200738 0.0948808 0.0002455378 0.08974449
0.08743301 -0.06861758 0.36328515 -0.1501914 0.091465816 -0.089607984 0.042528387 -0.091222845
00000000: a6cb b53e 9680 293f 80d7 73bd 1e85 50bd
00000010: e969 afbd 30c1 d83c 678d 4f3c bd14 8c3e
00000020: 5dff 433d b51a c3bd 0fde 723e a804 203f
00000030: 7ae4 7bbe c01a bbbc 1e8f 713e f71a 6cbd
00000040: defa 87be e3c0 d9bc 7a5a 11be 296c ab3e
00000050: 7df4 d8bd 1cc3 48be ff8b 963e e124 003f
00000060: 8d26 d7bd 609f 85be a60f c73c 2fea 3a3d
00000070: 5abd 0c3f f7cf d03d de23 05be b4f3 463d
00000080: 1be1 973d 9d0a d03c e4d3 233e 5570 b33d
00000090: aaba 413d cc0b 85bd bfde 9b3e 504c 0b3d
000000a0: 47be 7d3e 48f5 74bd 6577 3f3e e9ac 373f
000000b0: f12b 79be 4878 eb3d 996c 383c 4498 a5be
000000c0: dce7 afbd 6ea7 be3e 47ff a23c c3bc 43be
000000d0: 69ea 34bd 08dd c23e abbb da3d 56f8 8f3c
000000e0: 8207 90be ba67 7f3e 6782 ad3b 32c2 553d
000000f0: 72d2 0a3d f320 9abd a779 723e 79c5 283d
00000100: 08d6 bf3d 3cb2 35bd f858 1c3d 7326 313e
00000110: 3659 333d 5871 633e 9976 bebc a5e6 5a3a
00000120: e191 6d3d 27f1 263f 2874 8abd f26f 183e
00000130: 0812 23bc 8cb7 093f 031b 113d cdcc f2bd
00000140: e79e 8abd 759d 033e 30c9 b4bd 83f9 353d
00000150: 2659 6abd 6911 ee3e c3ff 9c3c a227 7fbe
00000160: 6114 143e 0e9d 4abe 7f9a 893d 539f 033e
00000170: 3839 103e 06e9 e3be d206 e73e a8f2 cf3d
00000180: 5b8d 5b3b 18ce 6c3e 5e9b 0cbe cb82 e73d
00000190: 82de 16bc ddc2 8bbd 35aa bebe 48b6 c9bd
000001a0: c1c1 7ebe a219 6e3d dd69 8abe ef0e 04be
000001b0: 66ce 63bd cc2a 41bc 7fcd 733e 3500 9c3e
000001c0: d4e8 03be 4166 16bd 534b c43d 7a92 a73d
000001d0: 01df f9bd dd50 c23d 87bb 8039 f6cb b73d
000001e0: 1410 b33d 6087 8cbd 8300 ba3e c6cb 19be
000001f0: 6e52 bb3d 6484 b7bd 3f32 2e3d 0bd3 babd

out.weight f4 [5, 128]
-0.07964088 -0.76475865 0.21936795 0.19641136 0.26209515 0.058907185 0.13500427 -0.057618953
0.13775313 0.14356227 0.06671192 0.13249122 0.1971087 0.13081653 -0.30524188 0.12636732
0.03304985 0.054241482 -0.0039608465 -0.20235951 0.12591751 0.13918176 0.10194822 -0.13421738
-0.3769768 0.11528541 0.11101609 -0.14113404 -0.21332128 -0.024674932 0.046879593 0.19156964
-0.052592874 0.09814689 0.08114946 0.09700582 -0.10826671 -0.15694852 0.11393557 -0.15819053
-0.020720776 0.20857647 -0.107571855 -0.07930937 0.18400809 0.22887775 -0.09907695 -0.11762609
0.15865023 -0.18370298 0.122555815 0.23815988 0.16602185 0.075201854 0.08575384 -0.058913153
0.05539332 0.016968455 0.292638 0.21908861 0.008136439 0.2120081 -0.07709448 0.05670881
-0.07291044 -0.16233808 0.0006859888 -0.16182491 -0.053700686 0.01286811 0.11106345 -0.14343224
0.3182666 0.041369084 0.13009733 -0.07559582 0.16729069 0.22237316 0.042119402 0.15324257
0.14815369 -0.20944236 0.05527821 -0.10010357 0.121633366 0.19510631 -0.16805442 0.026405605
0.08826284 0.18174458 -0.17772143 -0.11803113 -7.487367e-05 0.18408443 -0.0072373827 -0.09198866
-0.09432676 -0.11397725 -0.22565365 0.06319051 0.24798164 0.10408478 0.11367925 0.25349295
0.17226467 -0.13594274 0.026227174 0.19881658 -0.19725585 0.13854523 -0.19047527 -0.001434798
0.11870445 -0.1432807 0.033082765 0.138273 0.15718712 0.12701166 0.1527388 0.14347309
-0.060326982 0.29451728 0.13536082 0.09544487 0.05293412 0.092616655 0.14643109 0.13450429
-0.032297697 -0.87524575 0.19815406 0.15926841 0.049058672 0.045886286 -0.1679514 -0.039431278
0.06415511 0.09563444 0.18862276 -0.2577721 0.18383978 0.030764477 -0.16736116 -0.18954644
0.01711138 -0.12692705 0.05961291 -0.08804339 0.02730953 0.124905996 0.08767617 -0.05116809
-0.34249863 0.123696305 0.2096665 0.010733003 -0.24419239 0.011295005 0.11700208 0.16087657
0.04821977 0.09289878 -0.06463791 0.25968194 0.070088655 0.12359524 -0.07365415 0.037119754
-0.17178604 -0.012297319 0.03969406 -0.03769425 -0.11849726 0.1620227 0.0697723 -0.11540585
0.17897272 -0.11542544 -0.24976052 0.118664935 0.11793294 -0.10403059 -0.106134504 0.06981228
0.024999937 -0.09195328 0.056177497 0.12044897 -0.13837464 0.15071592 -0.2399857 0.094966434
0.010792243 0.062378973 -0.019628946 0.17286618 0.012548708 0.015716886 0.07288046 -0.06634055
0.2713825 -0.1657568 0.0838981 -0.1863792 -0.10016157 0.22594687 0.06427164 0.031099215
0.13224518 0.11263321 0.2192292 -0.09292134 0.09068734 -0.19442673 0.043654863 0.015435377
0.06161194 0.16621296 0.098670915 0.07488993 -0.21742572 0.26841885 -0.019234918 -0.07380246
0.020541135 -0.24875969 0.071822025 -0.056881476 0.17441675 0.07805407 0.15975977 0.11580993
0.08540197 0.042502742 0.033855777 0.24141617 -0.15726344 0.13303919 -0.059875242 -0.09226779
-0.113681614 0.05421597 -0.15522385 0.22854042 0.17024387 0.063724086 0.06909669 -0.10815828
0.14436264 0.21704999 0.16816677 0.08031096 -0.13690537 0.1949961 0.087153696 0.011514813
00000000: c21a a3bd 39c7 43bf fea1 603e 0f20 493e
00000010: 5631 863e a948 713d 8f3e 0a3e da01 6cbd
00000020: 280f 0d3e fd01 133e 42a0 883d c7ab 073e
00000030: ddd6 493e c5f4 053e aa48 9cbe 6f66 013e
00000040: 485f 073d 512c 5e3d fdc9 81bb 5537 4fbe
00000050: 85f0 003e aa85 0e3e 3aca d03d 4870 09be
00000060: 1a03 c1be c21a ec3d 675c e33d 7185 10be
00000070: e570 5abe 1523 cabc d104 403d d52a 443e
00000080: a06b 57bd 3d01 c93d b031 a63d fdaa c63d
00000090: f0ba ddbd 1db7 20be 0d57 e93d b3fc 21be
000000a0: 9ebe a9bc 1295 553e a24e dcbd f36c a2bd
000000b0: 9e6c 3c3e ee5e 6a3e dbe8 cabd f3e5 f0bd
000000c0: 3575 223e a21c 3cbe 8bfe fa3d 2fe0 733e
000000d0: a201 2a3e 6e03 9a3d b69f af3d eb4e 71bd
000000e0: 1be4 623d 6e01 8b3c a6d4 953e c458 603e
000000f0: b34e 053c a718 593e b6e3 9dbd 7f47 683d
00000100: 1252 95bd f43b 26be eed3 333a 6eb5 25be
00000110: 40f5 5bbd c4d4 523c 3c75 e33d e7df 12be
00000120: d7f3 a23e a172 293d 3c38 053e fbd1 9abd
00000130: 404e 2b3e cab5 633e 6585 2c3d 9feb 1c3e
00000140: 9ab5 173e 0f78 56be 686b 623d 1a03 cdbd
00000150: ea1a f93d f3c9 473e 7516 2cbe 9150 d83c
00000160: 26c3 b43d 401b 3a3e 9bfc 35be 4eba f1bd
00000170: 7f05 9db8 a180 3c3e 9127 edbb 8d64 bcbd
00000180: 632e c1bd e86c e9bd c011 67be 076a 813d
00000190: e6ee 7d3e 672a d53d abd0 e83d d4c9 813e
000001a0: 2666 303e 9334 0bbe 5fda d63c 9396 4b3e
000001b0: 70fd 49be cdde 0d3e f30b 43be d50f bcba
000001c0: 521b f33d 2db8 12be cb81 073d 7097 0d3e
000001d0: a9f5 203e 580f 023e 8f67 1c3e 9cea 123e
000001e0: 6d19 77bd f8ca 963e 079c 0a3e 9a78 c33d
000001f0: 73d1 583d cdad bd3d 08f2 153e 7ebb 093e
00000200: 974a 04bd 1b10 60bf e6e8 4a3e 4217 233e
00000210: bff1 483d 42f3 3b3d 74fb 2bbe b182 21bd
00000220: c163 833d fddb c33d 5326 413e b4fa 83be
00000230: 7f40 3c3e c905 fc3c b960 2bbe 7618 42be
00000240: 2a2d 8c3c 2af9 01be ab2c 743d 1850 b4bd
00000250: 3cb8 df3c b7ce ff3d 908f b33d a295 51bd
00000260: fb5b afbe 7d54 fd3d d1b2 563e 7ad9 2f3c
00000270: 920d 7abe af0e 393c c99e ef3d d4bc 243e
00000280: 1882 453d b741 be3d e160 84bd 08f5 843e
00000290: a48a 8f3d 801f fd3d fdd7 96bd e20a 183d
000002a0: aee8 2fbe b27a 49bc 3d96 223d 4965 1abd
000002b0: b1ae f2bd 47e9 253e c8e4 8e3d e759 ecbd
000002c0: a044 373e 2c64 ecbd 39c1 7fbe 9a06 f33d
000002d0: d386 f13d fd0d d5bd 0c5d d9bd bef9 8e3d
000002e0: abcc cc3c 0052 bcbd 601a 663d f3ad f63d
000002f0: 15b2 0dbe 4655 1a3e d0be 75be c37d c23d
00000300: f3d1 303c 1881 7f3d e2cc a0bc d503 313e
00000310: 1999 4d3c b3c0 803c 5a42 953d 8edd 87bd
00000320: a6f2 8a3e 27bc 29be c4d2 ab3d 30da 3ebe
00000330: 8221 cdbd 9e5e 673e d9a0 833d c8c3 fe3c
00000340: 486b 073e 3eac e63d 9f7d 603e 8b4d bebd
00000350: 49ba b93d cd17 47be 71cf 323d aae4 7c3c
00000360: cd5c 7c3d bb33 2a3e fa13 ca3d e45f 993d
00000370: d9a4 5ebe 326e 893e 8c92 9dbc bf25 97bd
00000380: e245 a83c dcba 7ebe 6d17 933d 8dfc 68bd
00000390: 4e9a 323e d0da 9f3d 1198 233e c22d ed3d
000003a0: 3ae7 ae3d 5b17 2e3d 5bac 0a3d cd35 773e
000003b0: ab09 21be 6d3b 083e be3f 75bd e5f6 bcbd
000003c0: e8d1 e8bd 9111 5e3d 00f3 1ebe 8006 6a3e
000003d0: 6954 2e3e c681 823d 9182 8d3d 1782 ddbd
000003e0: cdd3 133e 5a42 5e3e e933 2c3e 137a a43d
000003f0: ec30 0cbe 0fad 473e a37d b23d a0a8 3c3c

out.bias f4 [5]
-0.13128912 -0.13497688 -0.14707637 -0.09244152 -0.13094729
00000000: a870 06be 6137 0abe 309b 16be fb51 bdbd
00000010: 0c17 06be
