SimplifiedSpaceWar/trained_models/madrl_6150.pth (torch, 78777 bytes, 6 tensors)

fc1.weight f4 [128, 13]
000000 bf f8 6c 3e 87 4f 78 bf f3 17 d9 3d 69 af dd bd
       0.23141764 -0.9699635 0.10600271 -0.108244725
000010 62 1b e2 3e 36 45 ea bd 0f 68 0f be da bf bc 3e
       0.44161516 -0.11438982 -0.14004539 0.3686512
000020 8e 40 eb 3b 9d 67 a4 bf 99 a7 bc 3e f5 f9 2c 3e
       0.0071793264 -1.284412 0.36846617 0.16892226
000030 51 f1 80 be 3c 43 64 be f0 85 14 bd 14 27 49 be
       -0.2518411 -0.22291273 -0.036260545 -0.19643813
000040 e1 4e 11 3e ea 51 24 bf ca 7e db 3b 52 f7 42 bd
       0.14190246 -0.6418749 0.006698464 -0.047599144
000050 62 a0 4d 3e fc 2c 6f b9 ef 45 dc bf 07 8b 4c 3f
       0.20080712 -0.00022809574 -1.7208842 0.7989964
000060 79 c4 99 be 7a 5d dc bd 45 e4 f7 3d 72 c4 8a 3e
       -0.3003271 -0.10760017 0.12104086 0.27103
000070 74 c7 66 3e e2 af 01 bf 32 81 66 3e 7b 35 8d 3e
       0.22537023 -0.50659 0.22510222 0.27579865
000080 8f 3f 25 3e 1c 84 0b be 5e 26 21 be 55 39 64 3d
       0.16137527 -0.13624614 -0.15737292 0.05571874
000090 d6 43 0c bc 53 0d bf 3e f3 9b 20 3e 97 1e 9d be
       -0.008561095 0.37314853 0.1568449 -0.306874
0000a0 20 dc d2 bc dc f6 d9 3d 53 8e 85 be db ce 24 bd
       -0.02573973 0.10642788 -0.26085147 -0.040236335
0000b0 70 00 96 be 7a 5b e7 3e 5f 38 98 3e 1e 5c 0f be
       -0.2929721 0.4518698 0.29730508 -0.13999984
0000c0 9e 35 c0 3e bd d8 b4 3e 4f 4e 9e be 3d 2b b1 be
       0.37540907 0.35321608 -0.3091912 -0.346033
0000d0 fe e7 79 bf 8d f5 5e be 82 30 31 bc 15 1f a3 3e
       -0.97619617 -0.21773358 -0.010814788 0.3185965
0000e0 7f 62 5b be 63 bc fc bc 7e 7f de bc dd 40 0d 3f
       -0.21424292 -0.030851549 -0.027160402 0.551771
0000f0 b5 b3 84 bd 8a 84 d8 3d 4d 53 cd bd 64 c1 2b bf
       -0.06479589 0.10572155 -0.10025654 -0.67091966
000100 6f 0a 87 3e 3f 0e 9a 3a 9b ef 9b 3d 83 ef cd 3c
       0.26375148 0.0011753513 0.076140605 0.025138622
000110 89 9b 11 3c dd a9 14 bf d2 e7 1b 3e ca 62 ef 3d
       0.00888718 -0.5807169 0.15225151 0.116887644
000120 e5 4c 04 3c 61 56 a5 3a 41 57 25 3f 99 19 2d 3f
       0.008074974 0.0012614244 0.64586264 0.67617184
000130 f7 cd 1b bf 98 df 97 be c7 9e e2 be b7 e6 b9 bb
       -0.6086115 -0.29662776 -0.44261762 -0.0056732553
000140 f3 5b 5f 3e ef c3 97 3e ce bb a1 bf 8b b9 2d 3d
       0.2181242 0.29641673 -1.2635438 0.042413276
000150 c3 4a 55 bd e0 46 8e bd e0 63 04 3d a1 28 01 3f
       -0.05207325 -0.06947112 0.03232181 0.5045262
000160 ed ee 66 3f 9f 73 cd be db 57 c6 be d6 aa 2c be
       0.9020832 -0.40127274 -0.38738903 -0.16862044
000170 c0 af 13 3e 1d 94 7a bd a5 cb e3 be ae 69 eb bd
       0.14422512 -0.061176408 -0.44491306 -0.11494766
000180 85 98 34 3d f8 b2 92 bd 71 fc 2f be 67 b4 fc 3d
       0.044090766 -0.07163042 -0.17186143 0.123390965
000190 77 4f b3 3e 0b cc 4e bf e8 45 72 be 07 af d2 bd
       0.35021564 -0.80780095 -0.2365948 -0.1028729
0001a0 f3 e4 df be f3 aa 97 3f 7d f7 f2 bc dd d5 03 3f
       -0.43729362 1.1849045 -0.029659027 0.51498204
0001b0 6e bb 7c bf 45 14 97 bd c0 d4 8f be 38 2e 03 3f
       -0.98723495 -0.07376913 -0.28092003 0.512424
0001c0 81 fc 91 3a 00 8d 60 3f 92 13 60 3e e8 01 5f 3e
       0.0011137874 0.8771515 0.21882465 0.21778071
0001d0 2f 5b 37 3e db c8 f4 3e 53 23 00 3f bc 6b 72 3d
       0.17905878 0.4780949 0.500539 0.059184775
0001e0 e4 c5 32 be 25 68 07 40 d8 9c e1 3d 89 d3 44 be
       -0.17458302 2.1157315 0.11016244 -0.1922132
0001f0 ff 65 a2 3b 19 49 0e 3d 99 a8 66 3e aa 4f 1d bf
       0.0049560065 0.03473768 0.22525252 -0.6144968
000200 e2 1c 63 be d6 d0 73 3e cf 23 35 40 4d df af 3e
       -0.22178987 0.23810133 2.8303106 0.34350052
000210 56 bb 7f 3e 92 2a 0e 3e f0 8c 74 be 14 e5 75 be
       0.24973807 0.13883427 -0.23881888 -0.24013168
000220 b2 3e b9 bc 46 87 47 be 06 5f f5 bb 79 7c 71 bd
       -0.022612903 -0.19485196 -0.0074881343 -0.058956597
000230 e1 54 ae 3e bf 71 db 3e 89 11 5d be ed 9a a5 3e
       0.34049132 0.4286022 -0.2158872 0.32344761
000240 38 20 e8 bd 72 64 03 3d 8f fb 46 bc 28 c3 19 40
       -0.1133427 0.032078214 -0.012144937 2.4025364
000250 4b 25 73 be a5 57 04 3c 7d f9 72 3e 2d c0 2d 3c
       -0.23744695 0.008077537 0.23727985 0.0106049
000260 fa 56 3b bf a6 d5 ec bf 75 18 70 3e be 9c 0f 3e
       -0.7317959 -1.85027 0.2344683 0.14024636
000270 7e 98 7f 3e fd 78 2b 3e eb 2f a5 3c 53 52 7a be
       0.24960515 0.16745372 0.02016445 -0.24445467
000280 f7 61 8c be 8a 32 cc bd 97 56 8f be 7f cf 13 3e
       -0.2741849 -0.09970577 -0.2799575 0.14434622
000290 aa 98 2f 3b 32 f5 87 3f d3 9a ad be 6e 76 d5 bc
       0.0026793876 1.0621703 -0.33907184 -0.026057448
0002a0 f0 3e 5f 3e d0 e5 32 3f a1 7d 65 bf 38 77 1e be
       0.21801353 0.69881916 -0.8964482 -0.15475166
0002b0 d5 4b f1 3d e5 17 29 3f 60 36 1a 3d 53 0c 78 be
       0.11782042 0.66052085 0.037649512 -0.24223451
0002c0 f3 75 ef 3e 96 9c ea ba 08 1e 28 bf c4 a7 35 bf
       0.46769676 -0.001789945 -0.65670824 -0.70959115
0002d0 10 11 67 be 2e fe dd 3e b6 3e 2f be 13 ea ba 3d
       -0.22565103 0.43357986 -0.17113766 0.09126677
0002e0 33 ed 83 3c 90 bd f4 bc 16 3e 19 bf 48 ca 31 bd
       0.016104316 -0.029875547 -0.5986036 -0.0434058
0002f0 a2 04 3f bd 9f f8 be bb eb 47 30 bb d6 68 07 40
       -0.046635278 -0.005827978 -0.0026898335 2.1157737
000300 6c 52 9b 3e 4d de d3 3c 21 c2 a6 3d d8 18 0b bf
       0.3033632 0.025862837 0.08142496 -0.54334784
000310 85 63 76 3e c2 52 9e be 54 59 04 3e a0 99 9a 3b
       0.24061401 -0.30922514 0.12924701 0.0047180206
000320 ac e8 64 3d f5 55 05 3e a4 6d 8f 3e 39 c9 ff bd
       0.055885956 0.13021071 0.28013337 -0.12489552
000330 2a ad b9 3d 6c fc a9 3e a0 11 df be 97 1f 05 3e
       0.090662315 0.33200395 -0.43568134 0.13000332
000340 db db 84 be 39 bb b8 bb 67 ad b3 3b fb cc 0f 3c
       -0.25948986 -0.005637553 0.0054833177 0.0087768985
000350 0b 43 8d c0 08 ae 2b 3d e8 a4 72 3c 9f 65 0c be
       -4.414434 0.041914016 0.0148098245 -0.1371064
000360 d7 e0 24 39 38 5e 44 3d 8c 22 e9 3f 6c 8c 79 3c
       0.00015724018 0.047941417 1.8213668 0.015231233
000370 e5 5f 05 3c 29 27 eb bf 36 43 26 3f 71 c1 9b be
       0.008140539 -1.8371326 0.64946306 -0.30421022
000380 25 27 4e 3e 3a 47 00 3f 30 91 f9 3e ed 66 0b bc
       0.2013212 0.50108683 0.48743582 -0.008508426
000390 22 10 d9 3e 78 c3 50 3b 07 bf 0c be 15 a0 b4 be
       0.4239512 0.003185479 -0.13744746 -0.35278383
0003a0 06 47 9d 3e e8 b1 e3 bd 71 5f 97 3f 7c ae ae 3f
       0.3071825 -0.11117917 1.1826001 1.3646998
0003b0 74 36 5f 3e 5c 7d 18 3e 9d 8b c4 be 88 04 26 3e
       0.21798116 0.14891571 -0.38387766 0.16212666
0003c0 f3 f1 c3 be 56 69 1e be c9 c5 02 bd 69 94 bd bc
       -0.3827053 -0.1546987 -0.031926904 -0.023142057
0003d0 51 01 8a 3e 79 84 1b 3f 76 50 8a bc fe cf d2 be
       0.2695413 0.6074901 -0.01688407 -0.4117431
0003e0 6c f2 07 3c 97 e6 a1 3c 6e 36 9f be 0b f8 c2 be
       0.008297544 0.019763274 -0.31096214 -0.38079867
0003f0 83 98 58 3e b6 6c 3a 3d 83 a4 02 3e 7b b2 1b be
       0.21151929 0.04551383 0.12758069 -0.15204804

fc1.bias f4 [128]
000000 f0 35 5b bf 72 6c 78 be 95 4c 8f 3e aa 20 a7 3e
       -0.8562918 -0.24260119 0.27988115 0.32642108
000010 a9 03 26 3e 7b 02 49 3f a5 46 3e 3f eb 1f 58 3f
       0.16212334 0.7851941 0.74326545 0.844237
000020 6f af 15 bf bc 64 f9 3e 12 57 eb 3e 00 15 cc bd
       -0.58470815 0.48709667 0.45964867 -0.09964943
000030 6a 7d 1e 3f 65 a2 80 bf 66 ee 27 bd f9 fc b9 bd
       0.61910117 -1.0049559 -0.04099884 -0.09081454
000040 b1 d8 b6 bd 24 d8 43 be c2 55 f6 3e a0 85 99 bc
       -0.08928049 -0.1912542 0.48112303 -0.018740475
000050 bb 76 c6 3e ce 57 a1 3e 3d 40 a6 3e 15 ca 4f 3c
       0.3876246 0.31512302 0.32470885 0.012682457
000060 79 1d 6a be da f5 21 3e 14 63 a2 be 2f 96 00 3f
       -0.22862805 0.15816441 -0.31716216 0.5022916
000070 11 ed fc 3e df c6 10 be 5b f4 60 3d 99 e6 29 3e
       0.49399617 -0.14138363 0.054920536 0.16591872
000080 29 df f0 be 9d 04 98 3e 2a ca df be f0 3f b3 3d
       -0.47045258 0.2969102 -0.43708926 0.087524295
000090 9a be 09 bf 75 99 67 bd b2 3a 89 3e 80 ba b0 3d
       -0.5380646 -0.056542832 0.26802593 0.08629322
0000a0 70 ac 3e 3f e6 35 47 be da 3e c0 3d 11 e8 36 3e
       0.7448187 -0.19454154 0.09386988 0.17861964
0000b0 84 72 33 3d 80 f9 f6 3e 20 4a 70 bf 6d 42 2e 3e
       0.043810382 0.48237228 -0.93863106 0.17017527
0000c0 06 5e 3d bd 86 04 00 bf 51 e7 bf 3e b7 1f 9a 3d
       -0.046232246 -0.500069 0.37481168 0.075255804
0000d0 9f e4 a5 3e 6a 3f fd 3e f1 c2 f4 3d 0a d0 1a 3f
       0.32400987 0.49462444 0.119512446 0.6047369
0000e0 81 fe 13 be 00 6d 6a 3e e7 c5 6c be 4e 75 84 3e
       -0.14452554 0.22893143 -0.23122369 0.25870746
0000f0 89 a7 91 3e b8 51 bc 3e 67 6c fa 3e 7e 62 dd 3e
       0.28448132 0.36781096 0.4891083 0.43239206
000100 e2 bc b0 3e f4 26 3d 3e d6 60 f3 3e a7 d1 ca 3e
       0.34519106 0.1847189 0.47534817 0.39613077
000110 4c 8b c1 be 32 cc 14 3f e1 d6 83 3d 71 f1 9e 3e
       -0.37801588 0.5812408 0.06437469 0.3104358
000120 60 07 96 3e 79 36 d7 3e 65 26 ad be 6b 24 02 3f
       0.29302502 0.42033747 -0.33818355 0.5083682
000130 62 ed 00 3f 14 2a 98 bd eb 1d 2c be 34 05 39 3e
       0.5036222 -0.07429901 -0.16808288 0.18068391
000140 1c 2f d0 3e c1 a2 80 3e 85 4a 7a 3e f5 ad 85 3d
       0.40660942 0.2512417 0.2444249 0.0652732
000150 d3 9e 70 bf cc 1b 14 3e d3 d8 b7 3e c2 fb f2 3e
       -0.93992347 0.14463729 0.3590761 0.474577
000160 06 0d 8b 3e 25 82 8a 3d 44 5d 00 3e 8b 75 ad 3e
       0.27158374 0.06763104 0.12535578 0.3387874
000170 ad bc 06 bd 26 d5 52 bf 34 81 ab 3e b8 94 58 3f
       -0.03289478 -0.8235649 0.33497012 0.84601927
000180 04 0d b0 3d df 05 34 3d 4f 90 8d 3d a9 4c ba 3c
       0.085962325 0.04395091 0.0691229 0.022741633
000190 36 62 59 3f cb 46 ef 3e a2 d1 4d 3e 1b dd ad 3e
       0.84915483 0.46733698 0.200995 0.33957753
0001a0 5e bd ea 3d 7b a8 99 bd af 90 ac 3e 28 c4 a7 3e
       0.114619 -0.07502838 0.33704135 0.32766843
0001b0 8a 3b 6a 3e bb ef 4c 3f 2b e1 37 3e c6 c2 fc 3e
       0.22874275 0.800533 0.17956989 0.4936735
0001c0 2e 3a a3 3e de 01 df 3d 2a ad 21 bf 4e 8d 39 3e
       0.31880325 0.10889028 -0.6315485 0.1812031
0001d0 e6 57 82 3c 3b a6 7d bd a1 98 3d 3f 57 76 e4 3e
       0.015911054 -0.061926108 0.7406102 0.44621536
0001e0 21 7d c1 be 69 2e bf 3e ce d4 19 3e 7d 26 18 3f
       -0.37790778 0.37340096 0.15022585 0.5943373
0001f0 20 f4 04 bf 1f ba 90 3e a1 8b 2f 3f c8 d3 03 be
       -0.51935005 0.28267 0.6857243 -0.12873757

fc2.weight f4 [128, 128]
000000 13 c9 23 bc b6 bf d4 3a e7 5b b4 bc 19 7f ab 3d
       -0.00999667 0.0016231451 -0.022016479 0.08373851
000010 ac 35 3f be e6 43 1a be e1 c7 e5 bd 2f 8f 84 bd
       -0.18672818 -0.15064964 -0.112197645 -0.064726226
000020 ce 3d 17 be 95 af b0 3c c7 c5 11 3e 89 76 41 bc
       -0.1476967 0.021568099 0.14235602 -0.011808046
000030 70 ca 51 be 3f a7 42 3e 94 3e ac be e8 e9 18 3d
       -0.2048738 0.19009112 -0.33641493 0.037332445
000040 36 0a 8c bd 17 61 e6 bb 1e 3b 8c 3e 04 40 49 3d
       -0.06837885 -0.007030617 0.27388853 0.049133316
000050 ed 1c ce 3d 71 c7 96 3e bc c2 04 3e a9 34 91 3e
       0.10064111 0.29449037 0.1296491 0.2836049
000060 33 b3 d6 3d 62 43 9c 3d e8 f5 b6 3d 0a 2d 66 bc
       0.10483398 0.0763004 0.08933622 -0.014048824
000070 25 68 2e bd 0b ae 46 3e 5f 4d d1 3d fa c6 3d 3e
       -0.04257979 0.1940233 0.102198355 0.18532935
000080 74 83 3b be d7 e3 43 3e 89 10 a0 bd 4d f7 91 bd
       -0.18311864 0.19129883 -0.07815654 -0.07127247
000090 bd 69 cc bd 98 36 6b bd b4 b5 18 3e c6 ae 82 3d
       -0.099811055 -0.05742511 0.14913064 0.06380992
0000a0 f3 06 4f 3e 6b 0f 0f 3d 0a 1d 67 be 93 26 72 be
       0.20217495 0.034926813 -0.22569671 -0.23647527
0000b0 d2 8c b7 3c fa fd d5 3d fe 88 4f 3d bd 09 4a be
       0.022406016 0.10448833 0.050667755 -0.19730277
0000c0 93 de 53 be 9c 3b 94 3d 91 2c 9f bc 22 7c ff 3d
       -0.20690374 0.07237932 -0.01943043 0.12474848
0000d0 16 81 ca bd eb c9 ae bd ba c2 85 be 9d 03 cc bd
       -0.098879024 -0.085346065 -0.26125127 -0.09961627
0000e0 63 7f fa bc 9c d6 95 3e cd 6f 9a bc c0 5e 3c be
       -0.03057832 0.29265296 -0.018852139 -0.1839552
0000f0 64 35 21 3e ed f9 99 bc 81 48 bc bd 6a e2 9c bd
       0.15743023 -0.018795932 -0.091935165 -0.076603726
000100 c3 82 d5 3d e9 e1 25 bd 4f 13 cd 3e b8 f3 d5 bd
       0.104253314 -0.040498648 0.40053794 -0.10446876
000110 a0 2c 2f bc 68 16 0a be 3f c8 cc bc 02 05 5a 3e
       -0.010691792 -0.1348511 -0.024997829 0.21290973
000120 05 d7 10 bf 6c a6 1f be 3a f1 d8 bc b9 b7 d2 bd
       -0.56578094 -0.15590829 -0.026482213 -0.102889486
000130 f8 70 ee bc 96 9f e3 3d 2a 52 10 be b9 b7 72 3e
       -0.029106602 0.11114423 -0.14093843 0.23702897
000140 19 3a 8b ba d8 c9 8a 3e fa c7 1c 3e 42 c6 62 be
       -0.0010622173 0.2710712 0.1531066 -0.22145942
000150 d0 3a a9 3d 22 e2 1c 3e ae ba 8e 3c ae 6f 82 3e
       0.08263171 0.15320638 0.017423 0.2547583
000160 8b ed 5d 3e 7e 8c 2e 3e 03 40 10 bb 0d 3a 96 3e
       0.21672647 0.17045781 -0.002201081 0.29341164
000170 90 3a f1 3d 88 2b 1c 3d 21 43 22 be d7 d7 e0 3c
       0.11778748 0.038127452 -0.1584592 0.02744667
000180 45 75 af 3c fd 9d c6 3d da e6 15 3c 72 32 38 be
       0.021418223 0.096981026 0.009149278 -0.17987993
000190 b2 17 c8 be 0b 49 92 be e2 17 a5 3d ca 38 ca 3d
       -0.39080578 -0.28571352 0.08061196 0.09874113
0001a0 25 0e 2d be 2c 54 92 bd b2 f5 19 3e a7 2f 26 3d
       -0.16899927 -0.07144961 0.15035132 0.04057279
0001b0 0c 1e 2f 3d 8c c7 4a be 7a 67 29 3e eb fb 83 3e
       0.042753264 -0.19802684 0.1654338 0.25778136
0001c0 bc 9c 65 bd 08 f5 b9 3e 84 da 82 3d 2a 3c 36 bd
       -0.056057677 0.36319757 0.06389335 -0.04449097
0001d0 1a d5 04 3b 8f 4f a8 3e 52 dd e2 3c 47 01 d1 bd
       0.002026862 0.32873198 0.027693424 -0.10205322
0001e0 eb e8 24 3d 39 8d 96 3d c5 10 3e be a7 08 ef bc
       0.04026119 0.07351155 -0.18561085 -0.02917893
0001f0 24 1f bb 3c 2d ef 9c 3e 0d dd 5e 3d 64 58 84 3e
       0.022841997 0.30651227 0.05441003 0.25848687
000200 4f fb 3e 3d 13 59 0b bd fb 75 51 3d 28 0f 60 3e
       0.046626385 -0.034020495 0.051137906 0.21880782
000210 5e f8 d7 bc 7f bc e7 bc 88 16 4e 3a f9 61 bb bd
       -0.026363548 -0.028288124 0.0007861634 -0.09149546
000220 03 4f 99 3d 6c 1d 56 bd 85 44 ff bc 14 32 27 3d
       0.074857734 -0.052274153 -0.031160602 0.040819243
000230 42 ad d0 3b 7e 33 19 be da c6 61 3d 59 aa ae bd
       0.00636831 -0.14961049 0.05512128 -0.08528585
000240 be 24 98 be 96 38 6b ba be 91 67 3d bd e4 5b 3d
       -0.29715532 -0.00089729705 0.056535475 0.05368494
000250 77 f9 7c 3d 32 cb 28 3e 0a db 02 3e 24 cf bf bd
       0.061761346 0.16483763 0.1277887 -0.09365681
000260 10 ed e3 bd e7 bd 39 bc a9 41 f9 bb e2 d1 4c 3d
       -0.111292005 -0.01133678 -0.0076067043 0.050004847
000270 46 33 14 be d8 90 9f 3b 77 ae 0a be ca 2d be 3d
       -0.14472684 0.0048695616 -0.13543116 0.09286077
000280 2e 94 25 bc c9 39 92 3d eb c4 d7 bc e8 2c b4 bb
       -0.01010613 0.07139928 -0.026339015 -0.0054985173
000290 c8 51 53 bd c6 61 10 3e 7e 48 24 3d 1c ac 5a 3c
       -0.051591665 0.14099798 0.040108196 0.013346698
0002a0 94 61 82 3d 27 35 7d 3d 8b 55 e9 bd f2 0c 1c bd
       0.06366268 0.06181827 -0.11393269 -0.038098283
0002b0 2f 3d 06 3c a0 73 b9 3c 82 cc 99 bd 28 c6 35 3e
       0.008193298 0.022638142 -0.0750971 0.17751372
0002c0 d2 09 31 3e 78 c6 b8 3c 38 d2 e6 3d 81 43 83 bd
       0.17288902 0.022555575 0.11270565 -0.0640936
0002d0 1e 20 0a be 06 c9 81 3d d5 59 ab 3d b7 cf d5 3d
       -0.13488814 0.0633717 0.083667435 0.10440009
0002e0 bb b5 9d 3d 73 ff 8e 3d b6 4a 0e 3e 33 63 13 3d
       0.07700678 0.06982317 0.13895687 0.035983276
0002f0 f5 24 14 be 21 17 c9 3d 9c dc 39 be 26 8a cc bc
       -0.14467223 0.098188646 -0.18150562 -0.024968218
000300 87 73 8b 3b f9 1f f2 bc 25 28 ce 3c cc 23 5b bd
       0.0042557153 -0.029556261 0.025165627 -0.053500935
000310 c2 e0 f5 3c 81 b1 6a 3d 1b 89 be 3c dc 3f 83 be
       0.0300144 0.057298187 0.023258736 -0.25634658
000320 c9 c4 ea 3d 20 4e c9 bc e4 d8 80 be d2 ce 2a bc
       0.11463315 -0.024573386 -0.25165474 -0.010425286
000330 ac 9a ef bd 1f ef 82 bd 20 7e e8 bd 5c 63 67 bb
       -0.11699423 -0.06393265 -0.113521814 -0.0035307026
000340 70 93 dc bc 9f 50 47 bd f7 5e f4 3d 94 fb 09 3d
       -0.026925772 -0.04866087 0.119321756 0.03368719
000350 a7 97 5f bb d5 70 e3 3d af 90 1c be 32 91 b4 3d
       -0.0034117491 0.111055054 -0.15289567 0.08816756
000360 f2 63 08 3c c9 ca 61 3e 5c 2f 1f bd 3c 16 97 bc
       0.00832461 0.22050013 -0.038863525 -0.01844322
000370 90 d4 0c be 06 cb ca bd 77 b8 3e 3e cd a5 1c 3e
       -0.13752961 -0.09902005 0.18625055 0.15297623
000380 c8 4f 99 bd 86 bd 13 bd 03 04 14 3b cc ae ec bc
       -0.0748592 -0.036069416 0.00225854 -0.028891943
000390 63 b6 02 3e c8 1f ab 3d 0a 33 6b bd 90 1b b2 3d
       0.12764888 0.08355671 -0.05742172 0.086966634
0003a0 0f 80 49 bd 2b 82 5c bd f6 41 52 3e 96 ae 2a be
       -0.04919439 -0.053835075 0.20532975 -0.16668162
0003b0 24 17 f8 3c a8 f2 9d bd 27 b8 38 3b d1 74 16 3e
       0.030284472 -0.07712299 0.0028185935 0.14693
0003c0 01 96 a7 bd dd 92 2e 3d 91 c4 0b be 37 00 a2 bd
       -0.08182908 0.04262053 -0.13649203 -0.07910197
0003d0 5c 86 62 3d 44 a7 1e 3e 63 f5 d7 3b e3 fc 52 be
       0.055303916 0.15493494 0.0065905317 -0.20604281
0003e0 70 53 98 3d 6e b9 20 3d 51 85 6e 3d 11 2a 27 3d
       0.074377894 0.03923934 0.05823261 0.040811602
0003f0 52 32 b9 3d db ad fb 3d 70 97 a6 bd 45 6f d7 3d
       0.09042801 0.1228902 -0.08134353 0.1051927

fc2.bias f4 [128]
000000 f7 7b 94 bc 87 68 e3 3c 29 2d 20 3f 39 5c 79 3e
       -0.018125517 0.027759803 0.6256891 0.24351586
000010 38 81 a1 bd c1 ae 26 bd c0 dd b0 bd 51 db 78 3c
       -0.07885975 -0.040694002 -0.086360455 0.015189008
000020 98 c8 04 bc 19 41 56 3c c0 79 ea 3e e7 fe 00 be
       -0.008104466 0.013077044 0.45796013 -0.12597238
000030 07 9a 3b 3f f9 32 26 bd 2f 8c 17 3d af e7 ad 3e
       0.732819 -0.040575955 0.036998924 0.33965823
000040 85 f6 cf 3d 4c 51 e9 38 aa 8c 60 bd 64 1f 5c bd
       0.10154442 0.000111254485 -0.054821648 -0.053740874
000050 59 30 02 bc 39 c2 64 bb 40 ad 52 3f c3 ca 10 3d
       -0.007946097 -0.0034905805 0.8229561 0.03534962
000060 2f 6e 13 3e aa d3 85 3d 06 9f 0b 3e 5c 62 0b 3e
       0.143975 0.06534512 0.13634881 0.1361174
000070 ed fa 00 3e ad ec 3b bc 5b 7f 84 3b 52 86 af 3d
       0.1259572 -0.011470002 0.0040435023 0.085705414
000080 39 af f0 3d f8 26 25 bd ee 72 d3 bd a7 55 41 3e
       0.11752171 -0.040320367 -0.103246555 0.1888033
000090 b7 e3 d3 3c 0d 8a 13 3f 6b e1 45 3e 6a 9b 34 bd
       0.025865419 0.57632524 0.19324271 -0.044093527
0000a0 60 95 06 3e 16 26 8e 3e 2a 08 82 3d ad fc 86 3c
       0.1314292 0.27763432 0.063492134 0.016477907
0000b0 ec c0 2b 3e e8 7b 60 3e 0a a0 d1 3c fb c6 1b 3e
       0.16772813 0.21922266 0.025589008 0.15212624
0000c0 22 86 89 3d db 28 b4 3c 6a 9e 73 bb 86 f2 ac 3d
       0.06715037 0.021992138 -0.003717328 0.08444695
0000d0 5b 39 c5 3c 28 66 d5 3b b6 cd 16 3c 16 d2 1f 3e
       0.0240752 0.006512422 0.009204319 0.15607485
0000e0 b0 93 3d bc 38 ec f3 bd 1c 6e 2b 3f a2 cb 61 3e
       -0.011570856 -0.119102895 0.6696489 0.22050336
0000f0 1d 20 10 bd 93 a0 1c 3f 4c ff 48 3c 27 28 a3 bc
       -0.035186876 0.61182517 0.012267899 -0.019916607
000100 c5 fe 6e 3e e8 bf e2 bd f9 dd 45 3f 07 c6 dc 3d
       0.23339374 -0.110717595 0.7729183 0.10779958
000110 e7 eb 12 bd 66 be 56 bc 3f d7 1d 3d c5 1c a4 bd
       -0.035869505 -0.013106918 0.038535353 -0.080133
000120 34 3e b3 bd d3 20 0c bd 66 1e 97 bd 39 bd 8a bd
       -0.08752099 -0.03421099 -0.07378845 -0.067743726
000130 b9 f8 3f 3f 1a c2 82 3e c5 8c 77 be 83 62 b7 3d
       0.74988896 0.25538713 -0.24174793 0.089543365
000140 75 b6 19 3d 0d 30 90 3d 41 da 7a 3c d4 9d 4d bc
       0.03752752 0.07040415 0.015310825 -0.012549836
000150 6a 9a 2f 3f 40 9b a9 3d 30 ba 4e 3e 8f eb 1a 3e
       0.6859499 0.08281565 0.20188212 0.15128921
000160 09 09 b7 bd 8b fe 9e 3e a7 bb 3b be df 71 14 3e
       -0.0893727 0.31053576 -0.18333302 0.14496563
000170 eb e0 02 3f 77 e0 a3 bc 67 37 63 3f 2a a6 05 3e
       0.5112445 -0.020004494 0.8875641 0.13051668
000180 7b 21 60 3d 9f 43 13 3f ae 7c f2 3d a9 ac 51 3d
       0.05471943 0.57525057 0.11840187 0.051190052
000190 93 f4 0c 3d 00 8a 7f 3d e3 94 7d 3d 2c 83 33 3c
       0.03441293 0.062387466 0.061909568 0.010956567
0001a0 89 c8 b5 3b 10 30 ba bd 6a 7f e3 3e 1f ff 8d 3c
       0.0055475873 -0.090911984 0.44433147 0.017333565
0001b0 fa f2 a8 bd f7 f0 b2 bc 01 67 5c 3d 0f 42 9c 3b
       -0.08249469 -0.021843417 0.05380917 0.004768617
0001c0 fb b0 cb 3c 8f cb 17 3e 3d 38 21 3c df e5 56 bc
       0.024864664 0.14823745 0.009840068 -0.013116329
0001d0 9e 8a 11 3d 91 44 38 3c 2c 1e 60 ba 92 65 5e bd
       0.035532586 0.011246816 -0.0008549418 -0.054296084
0001e0 d3 55 1b bc 9a 94 cb bd 46 b1 ed bd 26 f7 0d be
       -0.009480911 -0.09940453 -0.11606078 -0.13863811
0001f0 33 53 ba 3d 72 17 2f 3f bf b1 41 3d c6 87 f3 bc
       0.090979 0.6839515 0.047288653 -0.029727828

out.weight f4 [5, 128]
000000 2a 07 4b 3e b9 2f f1 3d e4 91 35 3d db 66 29 be
       0.19826952 0.117766805 0.044328585 -0.16543142
000010 76 9a f9 3d b1 d1 31 3d cc 4d 72 3d b4 78 56 be
       0.12187664 0.043412868 0.059156224 -0.20944482
000020 44 6a 34 3c 07 a3 14 be 3e ec 45 bd 76 71 33 bd
       0.011011664 -0.14515315 -0.048321 -0.043809377
000030 82 78 20 3d ec a2 80 be 96 3c 80 bd c8 df 72 3d
       0.039177425 -0.251243 -0.06261556 0.059295446
000040 3c 8f 12 be 02 74 f5 bd d1 69 51 3e f5 9f 30 b6
       -0.14312452 -0.11985017 0.20450522 -2.631915e-06
000050 fb ec 3a 3e c4 10 2d 3e b0 e4 ae 3d cc 5e 18 3e
       0.18254463 0.16900927 0.085397124 0.14879912
000060 14 f7 42 3e 6e aa 11 be d9 3d 5b 3e 13 72 1c 3e
       0.19039565 -0.1422517 0.21410312 0.15277891
000070 16 99 70 be e9 17 a2 bc 72 af c5 bc 07 74 33 be
       -0.23495898 -0.019786792 -0.02413151 -0.1752473
000080 2a 73 fe 3d 75 61 86 3d e0 8c f9 3c 6b d9 61 3e
       0.124243096 0.06561557 0.030462682 0.22055595
000090 98 cb 0c 3d 14 b0 53 3d eb b4 83 be 27 95 93 bd
       0.03437385 0.051681593 -0.25723967 -0.07206183
0000a0 46 d8 2a bd c0 3c 17 be fa 0a 54 3e 51 74 eb bd
       -0.04171016 -0.14769268 0.20707312 -0.11496795
0000b0 5b 08 77 bd 35 f5 78 bc 71 fb 07 bc cd 68 98 bd
       -0.060310703 -0.015195181 -0.008299694 -0.07441864
0000c0 d1 9d 23 3e f4 04 ab bd a4 52 76 3d bb f4 1a be
       0.15978171 -0.08350554 0.060137406 -0.1513242
0000d0 90 36 c5 bc a8 b1 dc 3d 89 0a 18 be 98 d9 05 bd
       -0.024073869 0.10776073 -0.14847769 -0.032678217
0000e0 3c 38 1f bd bd 36 71 bd c9 7a 3e 3d ed 9e 33 3e
       -0.03887199 -0.058890093 0.046503816 0.17541094
0000f0 c3 2c 72 be 1f f5 57 3d 8d a4 34 be 9d d8 f0 bb
       -0.23649888 0.052724 -0.17640896 -0.007350041
000100 32 fa a8 bc 7b a0 36 be ae ab 2a bc 95 f7 8a bc
       -0.020627115 -0.17834656 -0.010416908 -0.01696376
000110 c5 a8 10 be 8f 23 76 3d 67 1c 4c bd 28 8f 3d 3e
       -0.1412688 0.060092505 -0.049831774 0.18511641
000120 b7 18 b8 3d 60 d4 10 3e 09 ad 23 3e f1 3c 9b bd
       0.08989089 0.14143515 0.15983976 -0.07579983
000130 1e 82 55 3d 25 15 19 3e ac f0 c6 3d ef 3b 31 3e
       0.052126043 0.14949472 0.09713873 0.17308019
000140 37 e3 26 be f4 f2 9e 3c c5 b8 b4 3e 69 76 19 be
       -0.16297613 0.019402958 0.35297218 -0.14986576
000150 85 ad 15 3c 82 74 dd 3b 73 0d 20 3e 13 de b5 bd
       0.009135609 0.0067582736 0.1563013 -0.08880248
000160 48 e1 f6 bd 84 bd 14 be 6d d2 03 be fb 9a 59 be
       -0.12054688 -0.1452542 -0.1287324 -0.21250527
000170 68 2c 42 be fa c2 d9 3c 75 38 c0 3d 42 3f 06 3d
       -0.18962252 0.02658223 0.09385768 0.03277517
000180 ae 36 d0 bd 1b fe d3 ba 96 58 a3 bd e5 c5 1e 3d
       -0.10166679 -0.0016173752 -0.07975881 0.038762946
000190 55 63 0e 3d 69 66 b4 3d d5 81 06 3e a0 92 7d 3d
       0.0347627 0.08808596 0.13135464 0.06190741
0001a0 56 e0 45 be 96 f0 f5 bc b2 87 b9 bb 38 8c d7 bd
       -0.19323859 -0.030021947 -0.005661928 -0.105247915
0001b0 1f 2b 81 3d 26 c8 16 be 7d b4 e0 bd 9e a8 93 3d
       0.06307053 -0.14724788 -0.109719254 0.072098956
0001c0 05 a3 3c 3d 1e 54 f9 bd 7f bd 8e 3c f5 cc b9 39
       0.046053905 -0.12174247 0.017424343 0.00035438655
0001d0 58 57 98 3d d7 64 63 3e a0 4c 3a be 7d ac e7 bd
       0.074385345 0.22206436 -0.18193293 -0.113121964
0001e0 06 42 53 bd f7 7b 8c 3d c5 79 3d 3e 18 ac 2a bd
       -0.051576637 0.06859582 0.18503483 -0.041668028
0001f0 4a f9 8b bd 56 09 f7 3c 49 0e 40 bd a7 ee ae 3d
       -0.068346575 0.030155819 -0.046888623 0.08541613
000200 3b ea ec 3d dc d6 4a 3d 98 94 40 3d 72 9c 13 be
       0.115681134 0.049521312 0.04701671 -0.14415148
000210 9e fa d9 3d 21 28 ff ba bc 70 74 bc a2 98 1a be
       0.106435046 -0.0019466915 -0.014919456 -0.15097287
000220 07 00 b7 3d ee 8c 98 3d ed 0b 7d bb cb 7a e2 bd
       0.08935552 0.07448755 -0.0038611845 -0.11058577
000230 aa 09 cc 3c 82 63 08 be 49 5d 05 be ed 5c 0b 3e
       0.024906952 -0.13319209 -0.13023867 0.13609667
000240 94 1f 21 be a1 76 23 3e a7 5b 1c 3e 99 22 fd 3c
       -0.15734702 0.15963222 0.15269338 0.030900287
000250 f8 e3 96 bd 90 a5 a6 3d 02 44 c2 3d b2 40 1f bd
       -0.073677 0.08137047 0.09485628 -0.038880058
000260 f9 98 f2 bd 64 54 c6 bd 20 8a 7f be 86 7b 08 3e
       -0.118455835 -0.09684065 -0.24955034 0.1332837
000270 57 1d d9 3c 6e ec 33 3e 24 3b ff 3d 6d 4c 04 3d
       0.026503248 0.1757066 0.12462452 0.032299448
000280 06 24 68 3d af 38 c9 bd 3b 76 40 be 41 92 a3 bd
       0.05667498 -0.09825265 -0.18795101 -0.0798688
000290 db 6a 19 be f3 e1 8d 3c 4c 95 9c 3d cb d7 23 3d
       -0.14982168 0.017319655 0.076456636 0.040000718
0002a0 7e d9 bd bd af 1b ff bd ad fd b8 bd e7 fd 3f be
       -0.09269999 -0.12456452 -0.0903276 -0.187492
0002b0 09 b1 e5 3c f6 bf dd bd 8b 40 67 bc 70 0a 53 be
       0.028038519 -0.10827629 -0.014114509 -0.2060945
0002c0 e8 c0 7e be 3e 93 a8 3b 89 4a 98 3d e5 6b 4c be
       -0.24878275 0.0051445058 0.074360915 -0.19963033
0002d0 c7 f8 37 be 72 0a 91 3d 6e 63 68 3e fb df 2f be
       -0.17965995 0.070820704 0.2269418 -0.17175286
0002e0 1e 7f c3 bd 9e a8 83 be e6 21 27 3d 34 12 b9 3d
       -0.0954573 -0.25714582 0.040803812 0.09036675
0002f0 f7 46 4e 3e 2c 0a 69 3d 83 dd 93 be ea df 13 be
       0.20144258 0.056894466 -0.28879938 -0.14440885
000300 6d 08 db 3d f4 36 8f be e7 d8 02 3d 67 53 96 3d
       0.106949665 -0.27971613 0.031945135 0.073401265
000310 25 ac 53 3e c2 98 81 3d af 4e e4 3c a8 95 4d 3d
       0.20671137 0.06327964 0.02786955 0.05019155
000320 e4 9d ca bd 07 24 a6 bd 0d b5 f4 bd b9 81 53 3c
       -0.098933965 -0.081123404 -0.11948595 0.012909346
000330 50 67 47 3d 6c 1b da 3b a5 4f af bd 19 ad e8 bd
       0.04868251 0.006656101 -0.08560113 -0.11361141
000340 89 13 da 3d 74 c7 02 3c 8c fb 1d be ce 89 aa bd
       0.10648257 0.007982124 -0.15427989 -0.083270654
000350 5d a1 63 3c b7 68 27 3e 95 99 fc 3d ac 66 38 be
       0.0138934525 0.1634854 0.12333981 -0.18007916
000360 a6 6b 50 bd 71 98 97 3d 23 d8 b7 3d 5b f9 9c 3c
       -0.05088391 0.07402123 0.08976772 0.01916187
000370 fa 6d 26 be 5c 52 b5 3c a8 46 b1 3d 46 af ea 3d
       -0.1625289 0.022133999 0.08656055 0.11459212
000380 92 eb 9b bd 70 35 db 3c 93 38 c0 bd e1 c1 ad bd
       -0.07613291 0.02675888 -0.09385791 -0.08484245
000390 a8 c9 2f bd b3 c1 8b be b5 36 cf bc e4 82 d2 3d
       -0.042916924 -0.27296218 -0.025294641 0.10278872
0003a0 54 9d de bd f8 ca d9 3b 3e 65 a5 3c 4b e3 4e 3d
       -0.10869852 0.00664651 0.020189878 0.050509732
0003b0 bc b0 0a bd c8 f5 b0 3d b4 2d 8a bd e0 19 8f 3b
       -0.033859953 0.08640629 -0.067469984 0.004367098
0003c0 c3 04 c3 3d e2 1a d0 bd bd 39 a6 3d a5 11 86 be
       0.095223926 -0.101613775 0.081164815 -0.26185337
0003d0 61 7d 3a bd 5d 3a 9e 3d 1c 2c a7 be 29 fb 6a 3c
       -0.045529727 0.07725976 -0.3265084 0.014342108
0003e0 21 b6 58 3c 79 50 1e be ea ce db 3d 24 e6 3a 3e
       0.013227017 -0.15460385 0.10732825 0.18251854
0003f0 8c 7e 49 bd c4 aa 5d 3d 7f 0a 1f 3e 87 d9 0c 3e
       -0.04919295 0.054117933 0.15531348 0.13754855

out.bias f4 [5]
000000 61 9d fc 3e c4 cd 06 3f 50 63 e2 3e 3e 2b d9 3e
       0.4933882 0.52657723 0.44216394 0.42415804
000010 df 0a fc 3e
       0.49227044
