SimplifiedSpaceWar/trained_models/madrl2_bullets_17500.pth (torch, 89201 bytes, 6 tensors)

fc1.weight f4 [128, 33]
0	0x3faa64f7	1.3312062
1	0xbf9d2a9e	-1.2278631
2	0xbeee390d	-0.465279
3	0x3ebb2b08	0.36556268
4	0xbcb02362	-0.021501247
5	0xbca703b8	-0.020387515
6	0xbecb8363	-0.39748678
7	0x3e9f547d	0.31119147
8	0xbd145cb7	-0.036221232
9	0xbee728e6	-0.4514839
10	0x3e7b5ef4	0.2454794
11	0x3f3073af	0.6892652
12	0xbe96f3b2	-0.294828
13	0x3d958924	0.07301548
14	0x3e03d6eb	0.12874953
15	0x3f4bc5c9	0.7959867
16	0xbe837e67	-0.25682375
17	0xbd20d854	-0.039268807
18	0x3d20c831	0.039253417
19	0x3ecd4887	0.40094396
20	0x3e2d5f7f	0.1693096
21	0xbe8b03e4	-0.27151406
22	0xbed32754	-0.41240942
23	0xbb4f2b45	-0.0031611484
24	0xbe5c51b2	-0.2151554
25	0xbd43076b	-0.047614496
26	0xbe0cb4a4	-0.13740784
27	0x3efbf167	0.49207613
28	0xbcb2764f	-0.02178493
29	0x3deec092	0.116578236
30	0xbd72df2e	-0.059294872
31	0x3ddb8357	0.107184105
32	0x3e608f4c	0.21929663
33	0x3f9cb99b	1.2244142
34	0x3efd0f75	0.49425855
35	0xbf4495b9	-0.7679096
36	0xbdea88bc	-0.11451861
37	0x3ef5378e	0.47893947
38	0x3e235905	0.15951927
39	0x3db5c10e	0.08874713
40	0xbe773c1b	-0.24144022
41	0x3cdaaf54	0.026694931
42	0x3e84fa36	0.25972146
43	0xbf042977	-0.5162577
44	0x3e916cf1	0.28403428
45	0xbe3db24b	-0.18525045
46	0xbffc93f2	-1.9732649
47	0xbfe86d2c	-1.8158317
48	0x3edf4ade	0.43611807
49	0x3e4419b7	0.19150434
50	0x3d73acc5	0.059490938
51	0xbec38afe	-0.3819198
52	0x3eeabd70	0.45847654
53	0x3d4fc840	0.050728083
54	0xbe83b81b	-0.257264
55	0xbedac989	-0.42731884
56	0x3f069f08	0.5258641
57	0x3e2af45b	0.16694777
58	0xbea3498f	-0.31892058
59	0xbebff44b	-0.37491068
60	0x3f1d5b83	0.6146776
61	0xbea32bf5	-0.31869474
62	0x3d11f92e	0.035638027
63	0xbd49055f	-0.049077388
64	0x3eb763d8	0.35818362
65	0xbe25c46a	-0.16188207
66	0x3ef57002	0.47937018
67	0x3f399c85	0.72504455
68	0x3e0ec61e	0.13942763
69	0xbea2754c	-0.31730115
70	0x3f2b318b	0.6687247
71	0x3ed56662	0.41679674
72	0x3da67236	0.08127253
73	0xbf7a1de3	-0.97701854
74	0x3d247dd1	0.04015905
75	0xbf02288e	-0.5084313
76	0x3e2abaeb	0.16672866
77	0x3f508e1b	0.81466836
78	0x3f5f682c	0.8726833
79	0xbed9b3d0	-0.4252
80	0xbedf6109	-0.4362872
81	0x3e878d6d	0.26475087
82	0x3e8002c1	0.250021
83	0x3c9bf97f	0.019039867
84	0x3e42acb5	0.19011195
85	0xbe294a2e	-0.16532204
86	0x3dda70af	0.10666024
87	0x3dbf8325	0.09351186
88	0xbd300e5c	-0.042982444
89	0xbf00884f	-0.5020799
90	0x3eaead47	0.34116575
91	0xbbac39cc	-0.0052559134
92	0x3e603933	0.2189682
93	0xbeb4723f	-0.35243413
94	0x3f2ad0ff	0.6672515
95	0xbddb741e	-0.10715507
96	0x3d5c90b1	0.053848926
97	0xbe6ae180	-0.22937584
98	0x3ed0279c	0.4065522
99	0x400249f3	2.0357635
100	0x3fb82b4c	1.4388213
101	0xbe1644a9	-0.1467463
102	0x3dd92e7b	0.106045686
103	0x3e553d29	0.20824112
104	0xbe7c5872	-0.24643114
105	0x3f2d5e86	0.67722356
106	0xbe2936a4	-0.1652475
107	0x3c82aa42	0.015950326
108	0xbeebbacf	-0.4604096
109	0xbe923cfa	-0.28562146
110	0x3e4bd83f	0.1990671
111	0x3f30bf5c	0.6904199
112	0x3f65a232	0.89700615
113	0xbcc53a9d	-0.0240758
114	0xbe188693	-0.14895086
115	0x3dda427a	0.10657211
116	0x3e5ca378	0.21546733
117	0xbe566e56	-0.20940527
118	0xbd768b68	-0.060191542
119	0x3ef57d63	0.47947225
120	0x3d85f162	0.06540181
121	0xbd5599ca	-0.052148618
122	0xbec637ff	-0.38714597
123	0x3f5f0f66	0.8713287
124	0x3de849f0	0.113422275
125	0xbdc86575	-0.097849764
126	0xbe6135e2	-0.21993211
127	0x3f11dba6	0.5697578
128	0x3cc13734	0.023585893
129	0xbdfeac83	-0.12435248
130	0xbca1bdb8	-0.019743785
131	0x3f5c4d1d	0.86055166
132	0x3f4ab41b	0.7918107
133	0x3da78e3e	0.081814274
134	0x3ecf93f1	0.40542558
135	0x3d1d4c6e	0.038402967
136	0xbe78bbf8	-0.24290454
137	0x3f1bf922	0.6092702
138	0xbcbb75a9	-0.022883253
139	0x3f8fa14e	1.1221101
140	0xbc9a9660	-0.018870533
141	0x3edd499b	0.4322022
142	0x3c4dc25e	0.012558548
143	0x3ee4a594	0.44657576
144	0x3e0c04b1	0.13673665
145	0xbfa64dbd	-1.2992474
146	0xbf9bc59c	-1.216968
147	0x3d90f822	0.070785776
148	0x3dc4a78c	0.096022695
149	0xbf4ed8b5	-0.8079942
150	0xbda50bd8	-0.080589
151	0x3e5a7857	0.21334969
152	0xbec477e2	-0.38372713
153	0xbeff64a8	-0.49881482
154	0x3e0e5466	0.13899383
155	0x3ed9cbaa	0.42538196
156	0xbed43262	-0.4144469
157	0xbdb717a3	-0.08940055
158	0xbeaf0421	-0.34182838
159	0xbd8e4add	-0.06947873
160	0xbe80ccff	-0.251564
161	0xbf0119dd	-0.5043009
162	0xbeb7dda8	-0.35911298
163	0xbeabbcdf	-0.33542535
164	0xbe1f4c75	-0.1555651
165	0xbfd51d0e	-1.6649492
166	0xbecd89c3	-0.40144166
167	0xbed0deaa	-0.4079488
168	0x3e2d6dd5	0.16936429
169	0xbeab3830	-0.33441305
170	0x3ea860bc	0.32886302
171	0xbe16ec22	-0.14738515
172	0xbbf68d6a	-0.007524182
173	0x3c2bbfb9	0.010482722
174	0x3f1c0fad	0.6096142
175	0xbdee91a6	-0.11648874
176	0xbe0dc7b0	-0.13845706
177	0x3ea00fe8	0.31262136
178	0xbf344957	-0.7042441
179	0xbed1bfe7	-0.40966722
180	0xbdb0b360	-0.08627963
181	0xbe824722	-0.25444895
182	0x3bb3f054	0.005491296
183	0xbe87cef7	-0.2652509
184	0xbddaa015	-0.106750645
185	0xbe1e0b39	-0.15433969
186	0x3e4211c2	0.18952087
187	0xbdecd28a	-0.11563595
188	0xbe85f663	-0.2616454
189	0xbdd37e6d	-0.10326848
190	0xbe39416e	-0.18091366
191	0xbebd3b6f	-0.36959407
192	0xbd85e551	-0.06537879
193	0x3b198559	0.0023425429
194	0xbe6e8cc5	-0.23295887
195	0xbef0392a	-0.46918613
196	0xbeb70e9e	-0.3575334
197	0xbe7017b3	-0.2344654
198	0xbd99e112	-0.07513632
199	0x3d1c0248	0.038088113
200	0x3b2f2af5	0.0026728485
201	0xbc3c9794	-0.011510748
202	0xbc361952	-0.011114435
203	0xbc769fa4	-0.01505271
204	0x3be78049	0.0070648533
205	0xbd81289d	-0.063065745
206	0x39a6b871	0.00031799407
207	0x3d0cbc4d	0.034359265
208	0x3bba4aa1	0.005685166
209	0xbc3ac3e9	-0.011399248
210	0x3b39d293	0.0028354272
211	0x3f0ac62f	0.54208654
212	0xc17851e9	-15.519998
213	0x3d23817e	0.039918415
214	0xbe520fd3	-0.20513849
215	0x3d999d76	0.075007364
216	0xbd8e84ba	-0.06958909
217	0xbc69a93b	-0.014261539
218	0xbcc7376a	-0.024318416
219	0x3bd866c9	0.00660405
220	0xbcb73fec	-0.022369348
221	0xbb4f6361	-0.0031644928
222	0xbc7be416	-0.015374204
223	0x3bffc13b	0.0078050173
224	0xbb5dbb1b	-0.0033833447
225	0xbbd3aa74	-0.0064595286
226	0xbc99353a	-0.018702138
227	0x3c6da17f	0.014503836
228	0xbcab990e	-0.020947006
229	0x3bc05212	0.0058691585
230	0xbb42578f	-0.002965424
231	0xbf72c253	-0.94827765
232	0x3f3a031e	0.72661006
233	0xbe2d30c9	-0.16913141
234	0x3e44c24b	0.19214742
235	0xbe44fef3	-0.1923788
236	0x3d1b251d	0.03787719
237	0xbe3a7d63	-0.18211894
238	0x3dd75e6f	0.10516059
239	0xbbb0b7e3	-0.0053930148
240	0xbffbd1c4	-1.967339
241	0x3dd32768	0.103102505
242	0x3e2b3342	0.16718772
243	0x3e7fff85	0.24999817
244	0x3e99cc86	0.30038851
245	0x3e1ad953	0.15121965
246	0x3d07dc7d	0.03316926
247	0xbdade763	-0.08491399
248	0xbefffe4a	-0.49998695
249	0xbdca8ad2	-0.09889759
250	0xbed5f955	-0.41791788
251	0xbea47ac1	-0.32124904
252	0xbe7a2f11	-0.24432017
253	0x3e0a1aeb	0.13486831
254	0x3de099cc	0.109668344
255	0xbe9e14f7	-0.3087537

fc1.bias f4 [128]
0	0xbe830012	-0.2558599
1	0x3e97c86e	0.29645103
2	0xbed9fdbd	-0.425764
3	0x3ed5b364	0.41738427
4	0x3ef16efc	0.47154987
5	0x3e53eae2	0.2069507
6	0xbe48c991	-0.19608141
7	0xbebba3d0	-0.36648417
8	0x3ea3d1d9	0.3199604
9	0x3f1ec918	0.62025595
10	0x3ed83de8	0.4223473
11	0x3f1736cb	0.5906798
12	0x3edc6aa1	0.430501
13	0x3efa30fc	0.48865497
14	0x3f52c022	0.8232442
15	0xbcb4c9c0	-0.022068858
16	0xbe7e3393	-0.24824362
17	0xbf1afd2a	-0.6054255
18	0xbed89f94	-0.42309248
19	0xbe2a7412	-0.1664584
20	0xbe00d6b0	-0.12581897
21	0x3dce449f	0.10071682
22	0x3dab94b2	0.08377971
23	0x3eca67cd	0.3953232
24	0xbe412f99	-0.18865813
25	0x3f201010	0.6252451
26	0xbee8d9f0	-0.45478773
27	0xbd5ba985	-0.053628463
28	0xbf061964	-0.52382493
29	0xbdca0241	-0.09863711
30	0x3f37faf7	0.71867317
31	0x3ecfbf04	0.4057542
32	0x3e289eab	0.16466777
33	0xbd1fa7e0	-0.038978457
34	0x3eacecd3	0.33774433
35	0x3e4a44b8	0.19752777
36	0x3f1e337a	0.61797297
37	0x3e08a974	0.13345891
38	0x3f4e176a	0.8050448
39	0xbdb51838	-0.0884251
40	0x3f159547	0.58430904
41	0xbd1a8a26	-0.037729405
42	0xbca0dd8e	-0.019636896
43	0xbcbbfb4c	-0.022946976
44	0x3df20794	0.11817852
45	0xbe0ab2a6	-0.13544711
46	0xbf0dc56d	-0.5537937
47	0x3e09cad3	0.13456278
48	0xbe830fc7	-0.25597975
49	0x3edbe25b	0.42946133
50	0x3e13328f	0.14374755
51	0xbed804f3	-0.42191276
52	0xbe922a12	-0.28547722
53	0x3f324dae	0.6964978
54	0xbecf5fbb	-0.40502724
55	0x3e489efe	0.195919
56	0x3ee8897a	0.45417386
57	0x3db3eb01	0.08785058
58	0x3fa4c582	1.2872775
59	0x3ecb6bee	0.3973078
60	0xbd70208c	-0.05862479
61	0x3f20bd53	0.62788886
62	0x3d53cb2c	0.05170743
63	0x3e9062f3	0.28200492
64	0xbda304c1	-0.07959891
65	0x3e1a006a	0.1503922
66	0x3f0964ac	0.5366924
67	0x3d5d5170	0.054032743
68	0x3bd84213	0.0065996735
69	0x3e6e8f7b	0.23296921
70	0x3f84a593	1.0363029
71	0x3e88b17e	0.26697916
72	0x3eba0117	0.36328956
73	0x3ec962ed	0.39333287
74	0xbe545f78	-0.20739543
75	0x3efb922e	0.49134964
76	0xbed10932	-0.40827328
77	0x3df0a109	0.11749465
78	0xbe4cc8ba	-0.19998446
79	0x3cff0be3	0.031133598
80	0x3d59c9f2	0.053171106
81	0x3f59a77f	0.85021204
82	0xbec38b1d	-0.38192073
83	0x3e07e3d5	0.13270505
84	0x3eddb49e	0.43301862
85	0xbef726f4	-0.48271906
86	0xbcbc5175	-0.02298806
87	0x3e078ddf	0.13237713
88	0x3e46855f	0.19386815
89	0x3eb014a7	0.34390756
90	0xbe0e07bd	-0.1387014
91	0xbf04fd8d	-0.5194939
92	0x3cefa9dc	0.0292558
93	0xbea694df	-0.32535455
94	0x3edfb872	0.43695408
95	0xbeb284ed	-0.3486704
96	0x3f1012dd	0.56278783
97	0x3dea02e0	0.114263296
98	0x3d1d1bfb	0.038356762
99	0xbe92ea5d	-0.2869443
100	0x3eedf656	0.46477002
101	0xbe4cea9b	-0.2001137
102	0x3edb919d	0.42884532
103	0x3e96d3d2	0.2945848
104	0xbde0b896	-0.10972707
105	0xbf99965b	-1.199901
106	0xbf1213db	-0.5706155
107	0x3f0a1cd5	0.53950244
108	0x3f0273d4	0.5095799
109	0xbf169157	-0.5881552
110	0x3e6c61d0	0.23084188
111	0x3df49372	0.119421855
112	0xbe8d4005	-0.27587906
113	0xbe61161a	-0.21981087
114	0xbe360692	-0.17775944
115	0x3d943b73	0.072379015
116	0x3c0935d2	0.008374648
117	0x3e4c209e	0.19934317
118	0xbf34a625	-0.70566016
119	0x3f12d8da	0.5736214
120	0x3ed4c33a	0.41555196
121	0xbec08893	-0.37604198
122	0xbda194e2	-0.07889725
123	0x3e9bcd33	0.30429992
124	0x3f23ab03	0.6393282
125	0x3e0c5333	0.13703613
126	0x3e6d1b37	0.23154913
127	0xbeb46236	-0.3523118

fc2.weight f4 [128, 128]
0	0x3cbf0b0e	0.023320701
1	0xbe0076a0	-0.12545252
2	0xbc2550e5	-0.010090088
3	0xbe4f5c24	-0.20249993
4	0x3ed67fd4	0.418944
5	0xbd86d4e6	-0.06583576
6	0xbfa4df70	-1.2880688
7	0x3b07d2ab	0.0020724933
8	0x3e51b4dc	0.20479149
9	0xbeaced1e	-0.33774656
10	0x3e141b54	0.1446355
11	0xbdfbb76f	-0.122908466
12	0x3dbd7f2a	0.0925277
13	0xbdcb89ba	-0.09938379
14	0xbe8b9c71	-0.27267793
15	0xbe09e3df	-0.13465832
16	0xbe773036	-0.24139485
17	0xbe1a689d	-0.1507897
18	0xbc01f73c	-0.00793248
19	0xbe3668d8	-0.17813432
20	0xbaedb9a8	-0.0018136995
21	0x3e848654	0.25883734
22	0xbe56763b	-0.20943539
23	0xbf2bfee4	-0.6718581
24	0xbea3ccc6	-0.31992167
25	0x3d99b861	0.075058706
26	0x3e0b3b11	0.13596751
27	0x3eb9d7a2	0.36297327
28	0xbda9ab03	-0.08284571
29	0xbd87cbf3	-0.06630697
30	0xbe0ed89e	-0.1394982
31	0x3e1c9fb5	0.15295298
32	0x3ec5ce9d	0.38634196
33	0x3e29acd4	0.16569835
34	0xbb25ae7e	-0.0025281007
35	0xbd7895c3	-0.0606897
36	0x3e7ed980	0.24887657
37	0xbdea9505	-0.114542045
38	0x3d65e32a	0.056124844
39	0xbea28c18	-0.31747508
40	0xbccabbe2	-0.024747793
41	0x3d296cd1	0.04136354
42	0x3c2ff240	0.010738909
43	0xbe320849	-0.17385973
44	0xbe8beeaa	-0.27330524
45	0x3e95dead	0.2927145
46	0x3dc5840a	0.09644325
47	0xbd5acc3c	-0.05341743
48	0xbf1396ec	-0.57652164
49	0x3d736670	0.059423864
50	0x3dd19033	0.10232582
51	0xbcd8766f	-0.026423661
52	0x3e8403fa	0.25784284
53	0xbdd71296	-0.10501592
54	0xbd01e99b	-0.031716924
55	0xbf17a6b0	-0.5923872
56	0x3cdbd58c	0.026835226
57	0xbe4e0698	-0.20119703
58	0x3ca41bfe	0.020032879
59	0x3e0733b0	0.13203311
60	0xbe052156	-0.13000998
61	0xbd324803	-0.043525707
62	0xbd0c12e1	-0.03419769
63	0xbdc68d69	-0.096949406
64	0x3de46d62	0.111536756
65	0x3eadf410	0.33975267
66	0x3e34dd57	0.1766256
67	0xbdad8162	-0.084719434
68	0x3db0b9f2	0.08629216
69	0xbccd8897	-0.025089545
70	0xbd27536c	-0.04085104
71	0xbd422bff	-0.04740524
72	0xbbb8a866	-0.005635309
73	0xbcdcdb2f	-0.026959984
74	0x3e1ecad0	0.15507054
75	0x3e0f2c64	0.13981777
76	0xbf23d33f	-0.6399421
77	0xbee16b3a	-0.4402712
78	0x3e3fac7c	0.18718141
79	0xbdaf14bd	-0.085488774
80	0xbe2fc1bb	-0.17163746
81	0xbe334034	-0.1750496
82	0xbe4d7eb0	-0.20067859
83	0x3dcaea32	0.099079505
84	0xbe1bab4a	-0.1520206
85	0xbe87b9cd	-0.26508942
86	0xbed3e1d9	-0.41383246
87	0xbe48232f	-0.19544671
88	0x3e1c3902	0.15256122
89	0x3d544681	0.05182505
90	0xbf4713f2	-0.7776481
91	0xbd960695	-0.07325474
92	0xbe24ba8a	-0.16086784
93	0xbec3c157	-0.38233444
94	0xbdaf4700	-0.08558464
95	0xbe0cd678	-0.13753688
96	0x3eb1aba3	0.3470126
97	0x3df2c043	0.11853077
98	0xbeced9e9	-0.40400627
99	0x3e55d2d6	0.20881209
100	0x3ec58b99	0.38583067
101	0xbdb5970a	-0.08866699
102	0xbe168d06	-0.14702234
103	0xbd80b9d7	-0.06285446
104	0x3e2130e9	0.15741314
105	0xbe5187aa	-0.20461908
106	0xbd151b55	-0.03640302
107	0x3e0b48c0	0.1360197
108	0xbc315699	-0.010823869
109	0xbed2da52	-0.4118219
110	0xbf10ce53	-0.56564826
111	0xbdc0eaa7	-0.094197564
112	0xbdf69200	-0.12039566
113	0xbe6f678b	-0.23379342
114	0x3ddaf0c0	0.10690451
115	0x3e939f5f	0.28832528
116	0xbe071a9c	-0.13193744
117	0x3d78af1c	0.060713872
118	0xbeeb8a5e	-0.46004003
119	0x3d826081	0.06366063
120	0x3e19b2e5	0.15009649
121	0xbea6d57e	-0.32584757
122	0x3eb1540c	0.34634435
123	0x3e5472cc	0.20746917
124	0x3de34759	0.11097593
125	0xbe6405d7	-0.22267853
126	0x3d16ae0c	0.036787078
127	0xbe08ceef	-0.13360189
128	0xbee986d7	-0.45610687
129	0x3e8c150d	0.2735981
130	0x3d2cef82	0.0422206
131	0xbe4d3ce0	-0.20042753
132	0x3e9e2fc4	0.30895817
133	0x3c259934	0.010107327
134	0xc0f036ef	-7.5067058
135	0x3d46e56f	0.04855865
136	0xbe813526	-0.25235862
137	0x3e873c9b	0.26413426
138	0xbef010b0	-0.46887732
139	0x3dda5ce9	0.106622525
140	0xbf58451b	-0.84480447
141	0xbcf9de0f	-0.030501394
142	0x3f2cd1d2	0.6750766
143	0xbe6f302b	-0.23358218
144	0xbcc4c831	-0.02402124
145	0x3d0f4f47	0.034987714
146	0xbef2e3aa	-0.4743932
147	0x3d59cea1	0.053175572
148	0x3e5e41ec	0.21704835
149	0xbe192a6d	-0.1495759
150	0xbc8a185e	-0.016857322
151	0xbd0d1a59	-0.034448955
152	0xbdd092ee	-0.101842746
153	0xbf29736d	-0.6619175
154	0xbdd76f53	-0.1051928
155	0xbd95a83d	-0.073074795
156	0xbda8f1c3	-0.082492374
157	0xbe670674	-0.22561055
158	0x3e32841a	0.17433205
159	0x3ea53820	0.32269382
160	0xbf0477d2	-0.5174533
161	0xbe3a00a4	-0.18164307
162	0x3ec7cc7f	0.39023206
163	0xbe5be18d	-0.2147276
164	0x3f4767c0	0.77892685
165	0x3eb4afd5	0.352904
166	0x3e4e5251	0.20148589
167	0xbe091da9	-0.1339022
168	0xbe9630dc	-0.29334152
169	0x3d21614e	0.039399438
170	0xbd689625	-0.056783814
171	0x3d236e72	0.03990025
172	0xbf211321	-0.62919813
173	0xbdc7d1a0	-0.0975678
174	0xbc0fbf3c	-0.008773621
175	0xbe9dd3a0	-0.3082552
176	0xbe2291a4	-0.1587587
177	0xbdac8bbc	-0.0842509
178	0xbf13dadd	-0.57755834
179	0x3d1f8ba0	0.038951516
180	0xbee2c348	-0.44289613
181	0x3e18539e	0.14875647
182	0xbd0c0899	-0.034187887
183	0xbe96b989	-0.29438427
184	0x3ea9572c	0.3307432
185	0xbe5f87d0	-0.21829152
186	0x3f244d49	0.6418043
187	0x3e29acb2	0.16569784
188	0xbe418183	-0.18897061
189	0x3e7bafcc	0.2457878
190	0xbebea2e0	-0.3723364
191	0xbe635cdc	-0.22203392
192	0xbd983b63	-0.07433202
193	0xbef90638	-0.48637557
194	0x3e833260	0.2562437
195	0xbea4e9f9	-0.32209757
196	0x3e45e3c6	0.1932517
197	0xbe36acdc	-0.17839378
198	0x3f187e76	0.59567964
199	0xbdaa56c9	-0.08317334
200	0x3ec4aaee	0.3841166
201	0xbe330be4	-0.17485005
202	0xbeec2404	-0.46121228
203	0xbb047849	-0.0020213297
204	0xbc7ebdc2	-0.0155481715
205	0x3d4d3e5c	0.0501083
206	0xbd93a250	-0.07208693
207	0xbb0bf070	-0.0021353029
208	0xbe8f6439	-0.2800615
209	0x3e6d1572	0.23152712
210	0xbe2d7653	-0.16939668
211	0x3d146f9f	0.036239263
212	0xbe5b3e0b	-0.21410386
213	0xbdd7bd03	-0.10534098
214	0xbef8832f	-0.48537585
215	0x3e930d8f	0.28721282
216	0x3e5dd408	0.21662915
217	0x3df19318	0.11795634
218	0xc0f9c8e5	-7.8057733
219	0x3d122185	0.035676498
220	0xbef777ac	-0.4833349
221	0x3e6e8cdc	0.23295921
222	0x3d9b3e5e	0.07580255
223	0x3d8dbdbb	0.06920954
224	0x3e3b7707	0.18307124
225	0xbe07432b	-0.13209216
226	0x3d882d6a	0.06649287
227	0xbeb38bb2	-0.35067517
228	0xbe336964	-0.17520672
229	0x3e7bc418	0.24586523
230	0xbeb768d9	-0.3582218
231	0xbc486c66	-0.012232875
232	0x3e9c629a	0.30543977
233	0xbd536cf6	-0.051617585
234	0xbce4a0d7	-0.027908726
235	0x3d0460be	0.032318823
236	0x3e90ea3e	0.28303713
237	0xbe9bd3d3	-0.30435047
238	0xbe0b9f28	-0.13634932
239	0xbd586fb4	-0.052840903
240	0xbef4b30e	-0.47792858
241	0xbeec7f63	-0.46190938
242	0xbea35e8b	-0.31908068
243	0x3ea6b8b4	0.32562792
244	0x3e58910d	0.21149082
245	0x3ec29a1f	0.3800821
246	0xbd850903	-0.064958595
247	0x3eb5adab	0.3548406
248	0x3ecd84c6	0.4014036
249	0x3e0b5dc9	0.13609995
250	0x3dafa676	0.08576672
251	0x3e7a9ffd	0.24475093
252	0x3f01348d	0.5047081
253	0xbf2cae3d	-0.67453367
254	0xbd6bbad2	-0.057551213
255	0xbd8a83e1	-0.06763435

fc2.bias f4 [128]
0	0x3ebab463	0.3646575
1	0x3f291b61	0.660574
2	0xbd73d780	-0.05953169
3	0xbd50851e	-0.0509082
4	0xbd73dae4	-0.059534922
5	0x3d8b97b2	0.06816043
6	0x3d66718e	0.056260638
7	0x3e95656f	0.2917895
8	0x3c16ef6f	0.009212359
9	0xbd952865	-0.07283095
10	0x3ea81ec7	0.3283598
11	0x3f29e31c	0.66362166
12	0xbe89cea3	-0.26915464
13	0xbcbb1ac0	-0.022839904
14	0x3e652a94	0.22379524
15	0xbd6c1af7	-0.057642903
16	0xbdcd3d7b	-0.10021492
17	0xbcbf1f04	-0.02333022
18	0xbe115a7a	-0.1419467
19	0x3ea6e951	0.3259988
20	0xbde6c7aa	-0.11268552
21	0xbe48c31c	-0.19605678
22	0x3e968bff	0.29403684
23	0x3f0024e1	0.5005627
24	0xbd7030f7	-0.058640447
25	0xbe8df354	-0.27724707
26	0x3cc70fa6	0.024299454
27	0x3d3aea2f	0.04563349
28	0x3f0d5dec	0.5522144
29	0x3e094412	0.13404873
30	0xbe0238f4	-0.12717038
31	0x3d5292ec	0.051409647
32	0x3d97e11b	0.07415982
33	0x3d0ad9fd	0.033899296
34	0x3e1b56d6	0.15169844
35	0x3dacefd8	0.08444184
36	0x3d41baaa	0.047297157
37	0xbd850bcc	-0.06496391
38	0x3e9bdebf	0.3044338
39	0x3d0b4c50	0.034008324
40	0x3e92220f	0.2854161
41	0xbd80fb2c	-0.06297907
42	0x3e525e99	0.20543899
43	0x3f464618	0.77450705
44	0xbe8d54f4	-0.27603877
45	0x3de58370	0.1120671
46	0x3c386c99	0.01125636
47	0xbec45cb1	-0.38351968
48	0xbdd0ab28	-0.101888955
49	0x3ecaad52	0.39585358
50	0x3b95a365	0.0045665973
51	0xbe39902d	-0.18121405
52	0xbc8180dc	-0.015808515
53	0x3ebae3bc	0.36501873
54	0x3ddabbab	0.10680326
55	0x3c2a92c4	0.010410968
56	0xbec1d198	-0.3785522
57	0x3e8fbab9	0.28072146
58	0x3bad8267	0.005295086
59	0x3d898b85	0.06716064
60	0x3e0f566d	0.13997813
61	0xbda87afc	-0.082265824
62	0x3e6292cc	0.22126311
63	0x3d11234c	0.035434052
64	0x3dbfd608	0.09366995
65	0xbd35b23c	-0.04435943
66	0x3d1c58f8	0.038170785
67	0x3e312673	0.17299823
68	0x3d7c9828	0.061668545
69	0x3e7959f5	0.24350722
70	0xbcff8b3a	-0.031194318
71	0x3a5ae6a5	0.0008350409
72	0x3d7b5ab8	0.061365813
73	0x3f2428c4	0.64124703
74	0xbd8a7428	-0.06760436
75	0x3dbb9b0b	0.091604315
76	0xbc231208	-0.009953029
77	0x3f09f9d1	0.53896815
78	0x3dc6de4a	0.09710367
79	0xbd923b2e	-0.07140194
80	0xbd90df26	-0.07073812
81	0x3df8ce69	0.121487446
82	0xbdb9556e	-0.090494975
83	0x3d707552	0.058705635
84	0xbd85ad4b	-0.06527194
85	0x3eee1873	0.46503028
86	0x3d0de66b	0.03464357
87	0xbe92c541	-0.28666118
88	0x3bd72606	0.006565812
89	0xbe572579	-0.21010388
90	0x3d313ccf	0.043270882
91	0x3e19184a	0.14950672
92	0x3e103938	0.14084327
93	0xbef1acc9	-0.47202137
94	0x3f0793de	0.5296
95	0x3dc40e93	0.09573092
96	0x3944ae96	0.00018757055
97	0x3e6144dc	0.21998924
98	0xbe2f9b1a	-0.1714901
99	0x3de8e8f7	0.113725595
100	0xbc16de82	-0.009208323
101	0xbd9e3362	-0.07724644
102	0xbea49ac7	-0.32149336
103	0xbdc9b648	-0.098492205
104	0xbe8175dc	-0.25285232
105	0x3d5cb590	0.05388409
106	0xbe7a32ef	-0.24433492
107	0xbdf32e42	-0.11874057
108	0xbd63ce66	-0.05561676
109	0xbc412acc	-0.011789989
110	0x3e73cd7f	0.2380886
111	0x3e7c9cda	0.24669209
112	0xbe072933	-0.1319931
113	0xbd166641	-0.03671861
114	0x3d8d42f7	0.06897538
115	0x3da7927a	0.08182235
116	0xbe0ee378	-0.1395396
117	0x3dc250dd	0.0948808
118	0xbdbc7aa1	-0.09203077
119	0x3db7cbf6	0.08974449
120	0x3d99455d	0.07483933
121	0xbd765986	-0.06014397
122	0x3ebab467	0.3646576
123	0xbe63a48e	-0.22230741
124	0x3dbb526e	0.091465816
125	0xbdcb408c	-0.09924421
126	0x3d05de40	0.032682657
127	0xbd98cee7	-0.074613385

out.weight f4 [5, 128]
0	0xbda0862b	-0.078380905
1	0xbf3c7d9c	-0.73629165
2	0x3e60a1fe	0.21936795
3	0x3e49200f	0.19641136
4	0x3eaa68bc	0.3328303
5	0x3d9fc559	0.07801313
6	0x3dbf5b5d	0.09343598
7	0xbd406070	-0.04696697
8	0x3d9f3e36	0.07775538
9	0x3d24c527	0.04022708
10	0xbdb7d3e7	-0.08975964
11	0x3e69938d	0.22810192
12	0x3e460073	0.19336109
13	0x3e05f4c5	0.13081653
14	0xbea0b17c	-0.3138541
15	0x3e01666f	0.12636732
16	0xbbdac633	-0.006676459
17	0x3d34ef5f	0.044173595
18	0xbb81c9fd	-0.0039608465
19	0xbd8119db	-0.0630376
20	0x3dfb5fbc	0.12274119
21	0x3e0e85aa	0.13918176
22	0x3dd0ca3a	0.10194822
23	0xbe097048	-0.13421738
24	0xbec21cdb	-0.3791264
25	0x3dc8cc14	0.0980455
26	0x3de35c67	0.11101609
27	0xbe108571	-0.14113404
28	0xbef9f7eb	-0.4882196
29	0x3dac4996	0.08412473
30	0x3d4b445e	0.049625747
31	0x3c1cda6b	0.009573559
32	0xbd576ba0	-0.052592874
33	0x3d8ce391	0.06879342
34	0x3d9a2f22	0.07528521
35	0x3dc6aafd	0.09700582
36	0xbdddbaf0	-0.10826671
37	0xbe20b71d	-0.15694852
38	0x3de9570d	0.11393557
39	0xbe21fcb3	-0.15819053
40	0x3b8d7e23	0.004318015
41	0x3e559512	0.20857647
42	0xbdbb6190	-0.09149468
43	0xbd9c2ac0	-0.076253414
44	0x3e24e2aa	0.1610209
45	0x3e6a5eee	0.22887775
46	0xbdcae8db	-0.09907695
47	0xbe020070	-0.1269548
48	0x3e6c5a34	0.23081285
49	0xbea71a8d	-0.32637444
50	0x3dfafe8b	0.122555815
51	0x3e3f5aa5	0.18686922
52	0x3bcad75e	0.0061902246
53	0x3d9a036e	0.075201854
54	0x3daf9fb6	0.08575384
55	0xbd88143c	-0.066444844
56	0x3d808b3e	0.06276558
57	0x3cdef2d7	0.027215404
58	0x3e95d4a6	0.292638
59	0x3e8b9ab2	0.2726646
60	0x3c92a880	0.017902613
61	0x3e7c81c7	0.24658881
62	0xbd9de3b6	-0.07709448
63	0x3d9d766a	0.07688601
64	0xbd955212	-0.07291044
65	0xbe263bf4	-0.16233808
66	0x3a33d3ee	0.0006859888
67	0xbe25b56e	-0.16182491
68	0xbd86c73d	-0.065809704
69	0x3c7e01fa	0.015503401
70	0x3de3753c	0.11106345
71	0xbe12dfe7	-0.14343224
72	0x3e9ad308	0.3023913
73	0x3d9fc4f0	0.07801235
74	0x3e05383c	0.13009733
75	0xbd9ef7d9	-0.07762117
76	0x3e2b4e40	0.16729069
77	0x3e92167f	0.28532788
78	0x3d773b9e	0.06035959
79	0x3e29c3a4	0.16578537
80	0x3e17b59a	0.14815369
81	0xbe4154b3	-0.18879966
82	0x3d626b68	0.05527821
83	0xbda546b4	-0.08070126
84	0x3df91aea	0.121633366
85	0x3e1653ac	0.14680356
86	0xbe2832b7	-0.16425596
87	0x3c59f835	0.013303806
88	0xbc3761b0	-0.011192724
89	0x3e48c665	0.19606932
90	0xbe73955d	-0.23787446
91	0xbde7849c	-0.1130459
92	0xb89d057f	-7.487367e-05
93	0x3e3681c6	0.17822942
94	0xbc43246f	-0.011910542
95	0xbd88f2ab	-0.0668691
96	0xbdc12e63	-0.09432676
97	0xbde96ce8	-0.11397725
98	0xbe6711c0	-0.22565365
99	0x3d816a07	0.06319051
100	0x3e7deee6	0.24798164
101	0x3de408f5	0.11134521
102	0x3e4bff03	0.19921498
103	0x3e81c9d4	0.25349295
104	0x3e306626	0.17226467
105	0xbdc843c2	-0.09778549
106	0xbd1c852a	-0.038212933
107	0x3e86aec5	0.26305214
108	0xbe49fd70	-0.19725585
109	0x3e0ddecd	0.13854523
110	0xbe430bf3	-0.19047527
111	0x3c96abe9	0.01839252
112	0x3df31b52	0.11870445
113	0xbe12b82d	-0.1432807
114	0x3c6d0ee5	0.014468883
115	0x3e0d9770	0.138273
116	0x3e1b1e4e	0.15148279
117	0x3e020f58	0.12701166
118	0x3d2d93d9	0.042377327
119	0x3e12ea9c	0.14347309
120	0xbcbc79cb	-0.023007294
121	0x3eb107d4	0.34576285
122	0x3e3b733b	0.18305676
123	0x3de92d7e	0.1138563
124	0x3d58d173	0.05293412
125	0x3e05f3de	0.13081309
126	0x3e15f208	0.14643109
127	0x3e09bb7e	0.13450429
128	0xbdb27e10	-0.08715451
129	0xbf422121	-0.758318
130	0x3e4ae8e6	0.19815406
131	0x3e231742	0.15926841
132	0x3dc9f648	0.098614275
133	0xbbb8e12e	-0.005642078
134	0xbd9df482	-0.07712652
135	0xbd308e77	-0.043104615
136	0x3d14e1f9	0.036348317
137	0x3e2b2ab5	0.1671551
138	0xbd1a2dcd	-0.037641335
139	0xbe69c3eb	-0.22828643
140	0x3e42ae8f	0.19011901
141	0x3cfc05c9	0.030764477
142	0xbe78945e	-0.24275348
143	0xbe421876	-0.18954644
144	0x3d110ee8	0.035414606
145	0xbe010d38	-0.12602699
146	0x3d742cab	0.05961291
147	0xbd5c6970	-0.05381149
148	0x3cff5b9a	0.031171609
149	0x3dffceb7	0.124905996
150	0x3db38f90	0.08767617
151	0xbd5195a2	-0.05116809
152	0xbebbf9a4	-0.36713898
153	0x3dfc4c98	0.123192966
154	0x3e56b2d1	0.2096665
155	0x3c2fd97a	0.010733003
156	0xbece319a	-0.40272218
157	0x3e0eeea5	0.13958223
158	0x3e519813	0.20468168
159	0x3d2457d6	0.04012283
160	0x3d458218	0.04821977
161	0x3df6ace8	0.12044698
162	0xbd8460e1	-0.06463791
163	0x3e84f508	0.25968194
164	0x3d8f8aa4	0.070088655
165	0x3dfd1f80	0.12359524
166	0xbd96d7fd	-0.07365415
167	0x3d180ae2	0.037119754
168	0xbdbc228f	-0.09186279
169	0xbc159729	-0.009130278
170	0x3d1a8760	0.03772676
171	0xbd30306e	-0.043014936
172	0xbdf2aeb1	-0.11849726
173	0x3e25e947	0.1620227
174	0x3d8ee4c8	0.0697723
175	0xbe067fd5	-0.13134702
176	0x3e510bc2	0.20414641
177	0xbd2adea6	-0.04171624
178	0xbe6dcc6d	-0.23222513
179	0x3e0216b5	0.12703975
180	0x3df2a948	0.11848694
181	0xbdd50dfd	-0.10403059
182	0xbdd95d0c	-0.106134504
183	0x3da1cdfa	0.07900615
184	0x3cb19270	0.021676272
185	0xbd9ddb5c	-0.07707855
186	0x3d661a60	0.056177497
187	0x3d8313d8	0.06400269
188	0xbe39d6e0	-0.18148375
189	0x3e446b48	0.1918155
190	0xbe75bed0	-0.2399857
191	0x3da4cb8e	0.080466375
192	0x3c30d1f3	0.010792243
193	0x3d7f8118	0.062378973
194	0xbca0cce2	-0.019628946
195	0x3e3103d5	0.17286618
196	0x3e1bda28	0.15219939
197	0x3c56d94b	0.01311333
198	0x3d95425a	0.07288046
199	0xbd87dd8e	-0.06634055
200	0x3e84fe84	0.2597543
201	0xbe279bb4	-0.1636799
202	0x3dabd2c4	0.0838981
203	0xbda8f2e4	-0.08249453
204	0xbdcd2182	-0.10016157
205	0x3e3f1787	0.18661319
206	0x3db3d27c	0.08780381
207	0x3d91bd69	0.07116205
208	0x3e04c701	0.12966539
209	0x3e07c83e	0.1325998
210	0x3e5fd32b	0.21857898
211	0xbd92c81e	-0.071670756
212	0x3dac2703	0.084058784
213	0xbe486023	-0.19567923
214	0x3d04725a	0.032335617
215	0x3c52e942	0.012872996
216	0x3d30edef	0.04319566
217	0x3e37094a	0.17874637
218	0x3de6e340	0.11273813
219	0x3de94dfe	0.11391829
220	0xbe5ea4d9	-0.21742572
221	0x3e80b1ec	0.25135744
222	0xbd8912f6	-0.0669307
223	0xbdd70d94	-0.10500637
224	0x3c8e4324	0.017366
225	0xbe6df5f2	-0.23238352
226	0x3db26a2e	0.087116584
227	0xbd68fc8d	-0.056881476
228	0x3e329a4e	0.17441675
229	0x3dad3878	0.08458036
230	0x3de8f892	0.11375536
231	0x3ded2dc2	0.11580993
232	0x3da9d6c7	0.08292919
233	0x3d1a0fdb	0.037612777
234	0xbc224cfd	-0.009906051
235	0x3e87d502	0.265297
236	0xbe2109ab	-0.15726344
237	0x3e083b6d	0.13303919
238	0xbd753fbe	-0.059875242
239	0x3ca051ba	0.01957022
240	0xbde8d1e8	-0.113681614
241	0x3d5e1191	0.05421597
242	0xbd2d5898	-0.042320818
243	0x3e6a0680	0.22854042
244	0x3e3462c1	0.17615797
245	0x3d8281c6	0.063724086
246	0x3db1b494	0.08677021
247	0xbddd8217	-0.10815828
248	0x3e8e106d	0.27746907
249	0x3e2a4e33	0.16631393
250	0x3d78599e	0.06063234
251	0x3df9a24f	0.12189161
252	0xbe0c30ec	-0.13690537
253	0x3e44b522	0.19209722
254	0x3da3d456	0.07999484
255	0x3c417058	0.01180657

out.bias f4 [5]
0	0xbe5106ea	-0.20412794
1	0xbddf0518	-0.108896434
2	0xbde6ff01	-0.11279107
3	0xbe04f997	-0.12985836
4	0xbe1abdbf	-0.15111445
