SimplifiedSpaceWar/trained_models/madrl_bullets_2500.pth (torch, 89177 bytes, 6 tensors)

fc1.weight f4 [128, 33]
0	0x3e01fca6	0.12694034
1	0xbdf22b8d	-0.11824713
2	0xbe99cdb2	-0.30039746
3	0x3e3bf32c	0.18354481
4	0xbd4d60ff	-0.05014133
5	0x3e0247ec	0.12722749
6	0xbe704b37	-0.23466192
7	0x3c8e231d	0.017350728
8	0x3cb80dba	0.022467483
9	0xbe104da1	-0.14092113
10	0x3e8b1d3c	0.27170742
11	0x3e93d303	0.28871927
12	0x3e12d886	0.1434041
13	0x3e79c1f3	0.24390392
14	0xbe329fd0	-0.17443776
15	0x3e435901	0.19076921
16	0xbe90abbb	-0.2825602
17	0x3e146e32	0.14495161
18	0x3d3378f6	0.04381653
19	0xbdcaa3c9	-0.09894521
20	0x3d92d830	0.07170141
21	0x3ccf2c63	0.02528972
22	0x3d077888	0.033073932
23	0x3e29d5c7	0.16585456
24	0xbd266f77	-0.040633645
25	0x3cb4a532	0.022051428
26	0xbde2cb9b	-0.11073991
27	0x3ec5dbe6	0.38644332
28	0xbe5aba0c	-0.21360034
29	0x3e055159	0.13019313
30	0x3d76e23c	0.060274348
31	0xbddce83e	-0.10786484
32	0x3d3e66d2	0.046484776
33	0x3ebaed9e	0.36509413
34	0x3ee35e22	0.44407755
35	0xbe6aabda	-0.22917119
36	0xbdeb6fd9	-0.114959426
37	0x3d45aac7	0.04825857
38	0xbe01c342	-0.12672141
39	0xbcf51441	-0.029916884
40	0x3e483746	0.19552335
41	0x3de55b26	0.11199026
42	0xb749f580	-1.20376935e-05
43	0xbe54ff4e	-0.20800516
44	0x3e2409da	0.16019383
45	0xbdbd1667	-0.092327885
46	0xbd18a564	-0.037267104
47	0x3d5c6565	0.053807635
48	0x3dc499ed	0.095996715
49	0xbd525de5	-0.051359076
50	0xbb6ff7a2	-0.0036616107
51	0xbe8d21fa	-0.27564985
52	0x3e417a09	0.18894209
53	0xbd6dc0b2	-0.058045097
54	0xbc6e4105	-0.014541869
55	0xbe1aa2fc	-0.15101236
56	0xbd33a4c7	-0.043858316
57	0x3ea9fffd	0.33203116
58	0x3c5c464b	0.0134444935
59	0xbe4b12f0	-0.19831443
60	0x3eb9d163	0.36292562
61	0x3e36ccb5	0.17851527
62	0x3dd2a956	0.102862045
63	0x3d2dac35	0.042400558
64	0xbd07de85	-0.033171196
65	0x3e373c8b	0.17894189
66	0x3ef5d935	0.48017278
67	0x3d3a8b52	0.045543022
68	0x3d235b8e	0.039882235
69	0xbe75e291	-0.2401221
70	0x3ea10b05	0.3145372
71	0x3ebd71dc	0.3700093
72	0x3e42d3f3	0.19026165
73	0xbe5564bb	-0.20839207
74	0x3acc3ece	0.0015582682
75	0x3da517f1	0.08061207
76	0x3e6dfe7a	0.23241606
77	0x3e6cff40	0.23144245
78	0x3eba2077	0.36352894
79	0x3e4e587c	0.20150942
80	0xbc997156	-0.0187308
81	0x3e4147d2	0.18875054
82	0x3d91a3aa	0.071112946
83	0xbdd2ba6a	-0.10289462
84	0xbbf3eddf	-0.007444128
85	0x3da73605	0.081646
86	0x3c1a1681	0.009404779
87	0xbdf58a7b	-0.11989304
88	0xbe064727	-0.1311308
89	0xbd6340e0	-0.05548179
90	0x3dcb9278	0.09940046
91	0xbce9c402	-0.028535847
92	0x3e3926aa	0.18081155
93	0xbe9203f2	-0.28518635
94	0x3e261e73	0.16222553
95	0xbe0f6939	-0.14004983
96	0x3d67461c	0.056463346
97	0x3d87415f	0.066042654
98	0xbd26ba49	-0.040705
99	0x3e29caa5	0.16581209
100	0xbe9eb76e	-0.3099932
101	0xbd9c4750	-0.07630789
102	0x3e82e839	0.25567797
103	0xbe25b530	-0.16182399
104	0x3e8c3a3b	0.27388176
105	0xbd8cd3b6	-0.06876318
106	0xbdca44e1	-0.09876419
107	0xbd76c789	-0.060248885
108	0xbdf56abc	-0.119832486
109	0xbc8df2ab	-0.017327627
110	0xbd323e76	-0.0435166
111	0x3eb8b2d3	0.36073932
112	0xbc480420	-0.012208015
113	0xbe275db8	-0.16344345
114	0xbcc7cfff	-0.024391172
115	0xbeb78ab0	-0.35847998
116	0x3ba14696	0.0049217446
117	0xbd2b491f	-0.04181778
118	0xbe5d52c8	-0.2161361
119	0xbe1cf456	-0.15327582
120	0x3cc49503	0.023996836
121	0x3db1a72a	0.08674462
122	0x3c894631	0.016757103
123	0x3e73c30f	0.23804878
124	0x3e8cc219	0.27491835
125	0x3e1ed02f	0.15509103
126	0x3ce72542	0.028216008
127	0xbd73121a	-0.059343435
128	0x3e0f45e8	0.13991511
129	0xbc1f1a36	-0.009710839
130	0x3df0a975	0.11751071
131	0x3e2dd241	0.16974737
132	0x3f0f9a4f	0.5609483
133	0x3ec888fd	0.39167014
134	0x3e7277f8	0.23678577
135	0xbe3aff29	-0.18261398
136	0xbe4514b0	-0.19246173
137	0x3e91302c	0.28357065
138	0x3dcd7185	0.10031418
139	0x3ec9ace2	0.39389712
140	0xbc106207	-0.008812434
141	0xbed331a9	-0.41248825
142	0x3d74a3db	0.059726577
143	0x3f0d0a5c	0.5509393
144	0x3e1efb0b	0.15525453
145	0xbd141b0f	-0.036158618
146	0x3e62647b	0.22108643
147	0xbdfa9d2b	-0.12237009
148	0x3ec3808c	0.3818401
149	0x3ddcd9d1	0.10783733
150	0x3e539597	0.20662533
151	0x3d61078e	0.054938845
152	0x3dd6e1b5	0.10492269
153	0xbdec1d25	-0.115289964
154	0x3c87b7a3	0.016567057
155	0x3dadb64a	0.084820345
156	0x3e52c7ae	0.20583984
157	0x3e7b8f1f	0.24566315
158	0x3ca62eed	0.020286048
159	0xbdec0a94	-0.11525455
160	0x3cde9039	0.02716838
161	0xbd1074bb	-0.035267573
162	0x3de7a8d3	0.113114975
163	0xbe36b537	-0.17842565
164	0x3e4046cd	0.18777008
165	0xbf1d4306	-0.61430395
166	0xbe063042	-0.13104346
167	0xbe444a52	-0.19168976
168	0xbd8d3d36	-0.06896441
169	0xbe72ef51	-0.23724104
170	0x3db68a03	0.089130424
171	0xbdb75d73	-0.08953371
172	0x3dfd3152	0.12362923
173	0x3cfb9f8c	0.030715726
174	0x3ef40f88	0.476681
175	0x3e887815	0.26654115
176	0xbec2f112	-0.38074547
177	0x3dcdd47a	0.10050292
178	0xbe2e0bd9	-0.16996707
179	0xbe2d471a	-0.16921654
180	0xbd14170c	-0.03615479
181	0x3d14428c	0.036196277
182	0x3c65f107	0.014034516
183	0x3cd1a442	0.02559102
184	0xbe51069d	-0.20412679
185	0x3e34c8de	0.1765475
186	0x3e595921	0.21225406
187	0x3e426b46	0.18986234
188	0xbd86ba3b	-0.065784894
189	0x3e121d4a	0.14268985
190	0x3e4e58e7	0.20151101
191	0x3e1e9a37	0.15488516
192	0xbdf4b4e7	-0.11948567
193	0x3ce66b52	0.028127346
194	0x3e0d1b30	0.13779902
195	0xbd3dcfef	-0.04634088
196	0xbe61c158	-0.22046411
197	0x3daeaa4f	0.085285775
198	0xbd16bdbe	-0.036802046
199	0xbd2eca5e	-0.04267346
200	0x3e07c5b5	0.13259013
201	0x3d92e727	0.07172995
202	0x3e19e3b9	0.15028276
203	0xbe353368	-0.17695391
204	0xbd6fdd2b	-0.05856053
205	0x3e2b8d51	0.16753127
206	0x3a4e3a7e	0.00078669924
207	0x3d564895	0.052315313
208	0xbdf7e209	-0.1210366
209	0xbe2e9ed0	-0.1705277
210	0xbe938b7e	-0.28817362
211	0xbf00079e	-0.5001162
212	0xbfc1f563	-1.5153011
213	0x3e88241d	0.26590052
214	0xbe478fe8	-0.1948849
215	0xbd982ddb	-0.07430621
216	0x3cea3697	0.028590484
217	0x3c88bda3	0.016691988
218	0xbcfed3a6	-0.031106781
219	0x3ddf4fd2	0.109038964
220	0xbe0728a7	-0.13199101
221	0xbe19f08b	-0.15033166
222	0xbde2e1a3	-0.11078193
223	0xbd44fc75	-0.048092324
224	0x3d6a508d	0.057205725
225	0x3d315edf	0.043303367
226	0xbcbafb38	-0.022824869
227	0x3e30d290	0.17267823
228	0x3cef56f1	0.029216262
229	0xbda18b58	-0.07887906
230	0xbe1ea47a	-0.1549243
231	0x3dc743ff	0.09729766
232	0x3d87ed66	0.06637077
233	0x3d62bcd5	0.055355866
234	0x3ccb3d72	0.024809573
235	0xbe003487	-0.12520038
236	0xbcc9136e	-0.024545398
237	0xbe3a68b6	-0.18204007
238	0x3e981f9c	0.29711616
239	0x3e027e89	0.12743582
240	0xbe78f942	-0.24313834
241	0x3eebf7fb	0.46087632
242	0xbe88459e	-0.26615614
243	0x3e80d8c4	0.2516538
244	0x3cd28fe1	0.025703372
245	0xbdf70a84	-0.120625526
246	0x3d12709d	0.035751928
247	0xbd599aff	-0.05312633
248	0xbd53866c	-0.051641867
249	0xbd654756	-0.055976234
250	0xbe64be41	-0.22338201
251	0xbd3e949a	-0.046528436
252	0xbd93572c	-0.07194361
253	0x3e15de6c	0.14635628
254	0xbdcc2c34	-0.099693686
255	0xbdad1bd1	-0.08452571

fc1.bias f4 [128]
0	0x3bd0ec57	0.00637583
1	0x3e0204da	0.12697163
2	0xbdb35054	-0.08755556
3	0x3e8fb047	0.28064176
4	0x3da0e1e4	0.07855585
5	0x3da9347f	0.08261966
6	0xbe3420bd	-0.17590614
7	0xbda454ba	-0.08023973
8	0x3dada724	0.08479145
9	0x3e2d2be4	0.16911274
10	0x3e739704	0.23788077
11	0xbcab5c0c	-0.020917915
12	0x3eb21d5c	0.34788024
13	0x3e2ee17b	0.17078201
14	0x3db56a4f	0.088581674
15	0xbd6491b2	-0.05580301
16	0xbe24e0d9	-0.16101398
17	0xbec37244	-0.38173115
18	0xbdfb63e9	-0.12274916
19	0x3e1f538a	0.15559211
20	0xbe5b8085	-0.21435745
21	0xbc956694	-0.01823739
22	0xbc4dfed5	-0.012572964
23	0x3e28e943	0.16495232
24	0x3cf218db	0.029552868
25	0x3ecd2117	0.40064308
26	0xbe39633f	-0.18104266
27	0x3de10257	0.109867744
28	0xbeaff1e5	-0.34364238
29	0x3d14fa0d	0.03637128
30	0x3ed18e2f	0.4092879
31	0x3e6c04b9	0.23048677
32	0x3d3e9143	0.04652525
33	0xbdbd7cf4	-0.092523485
34	0xbe20047c	-0.1562671
35	0xbd214e5a	-0.039381362
36	0x3e3619e4	0.17783314
37	0xbdad2ec2	-0.08456184
38	0x3e050880	0.12991524
39	0x3ce1f4fd	0.02758264
40	0xbb99c4ae	-0.0046926355
41	0xbd9fdd6f	-0.07805907
42	0xbdcc3cb0	-0.09972513
43	0x390b6210	0.00013292604
44	0x3df31d37	0.11870807
45	0x3cd7bd59	0.026335405
46	0x3df03cd0	0.11730349
47	0x3c9f69d4	0.019459642
48	0xbe66de76	-0.225458
49	0x3e10a0ec	0.14123887
50	0x3e30785d	0.17233415
51	0xbce6b777	-0.028163655
52	0xbe3b2d52	-0.18279007
53	0x3ea3f2cd	0.3202118
54	0xbe1824e7	-0.14857827
55	0x3e9a440a	0.30130035
56	0x3e9b6b6c	0.30355394
57	0x3d7fbba8	0.062434822
58	0x3ec5ff2c	0.38671243
59	0x3ea1f328	0.31630826
60	0xbe31de2e	-0.17369911
61	0x3d6cffe5	0.057861228
62	0x3cb56f40	0.022147775
63	0x3e361011	0.17779566
64	0x3e3e50e6	0.18585548
65	0xbd6712b6	-0.05641433
66	0x3e646b20	0.2230649
67	0x3c159b7d	0.00913131
68	0xbd2b8937	-0.041878905
69	0x3e7da5c6	0.24770269
70	0x3eb4a93f	0.35285375
71	0x3e0eb42b	0.13935916
72	0xbd8815f6	-0.06644814
73	0x3e6ea0fd	0.233036
74	0xbe68629a	-0.22693864
75	0x3ea5a648	0.32353425
76	0xbdbaf4d3	-0.09128728
77	0x3d0ae525	0.033909936
78	0xbd1accad	-0.03779285
79	0x3d9f7771	0.077864535
80	0x3e1e8601	0.15480806
81	0x3e03ca6f	0.12870191
82	0xbd86e435	-0.06586496
83	0x3e78f858	0.24313486
84	0x3e3f39f6	0.18674454
85	0xbe9f06fb	-0.31060013
86	0xbd8fd8a3	-0.07023742
87	0x3e11f6c5	0.14254291
88	0x3c55b076	0.01304256
89	0xbc319861	-0.010839553
90	0x3e1026ca	0.14077297
91	0xbe12a3f1	-0.14320351
92	0x3dc09fac	0.09405455
93	0x3d55ce8f	0.052198943
94	0x3e397d00	0.1811409
95	0xbdc394fe	-0.095499024
96	0x3e38995f	0.18027256
97	0x3d2923ba	0.041293837
98	0x3defa3e0	0.117011786
99	0xbdb0bb07	-0.08629423
100	0xbddf502f	-0.10903966
101	0xbd3c1be2	-0.04592503
102	0x3eeaae4c	0.45836103
103	0x3e99f74a	0.3007148
104	0xbe21b9af	-0.15793489
105	0x3d0eb00d	0.034835864
106	0xbc7f464a	-0.015580723
107	0x3e29dd75	0.16588385
108	0x3d96ce14	0.07363525
109	0xbd80d7a2	-0.06291129
110	0xbd14c5f0	-0.03632158
111	0x3e99efc4	0.3006574
112	0x3d7f5875	0.06234022
113	0xbe3c1a1f	-0.1836934
114	0x3d27bd4f	0.040952023
115	0x3e07b9b8	0.1325444
116	0x3df7f572	0.12107362
117	0x3db7d184	0.08975509
118	0xbe59bb1c	-0.21262783
119	0x3d4aac98	0.049481004
120	0x3e2d315c	0.1691336
121	0x3c810192	0.01574782
122	0xba6a4c9c	-0.0008937807
123	0x3ca5a48e	0.020220067
124	0xbc9be2eb	-0.019029101
125	0xbe350a23	-0.17679648
126	0x3e779a2a	0.24179903
127	0xbcb56af1	-0.02214572

fc2.weight f4 [128, 128]
0	0xbc3dde5b	-0.011588658
1	0xbcf83a88	-0.030301347
2	0xbc1871c2	-0.009304466
3	0xbcc01b89	-0.02345063
4	0x3d8aa63e	0.067699894
5	0xbce969c2	-0.028492812
6	0x3dcb4664	0.09925535
7	0xbd8c6de0	-0.068568945
8	0x3dd294c2	0.102822796
9	0xbde03736	-0.10948031
10	0x3d0b5217	0.034013834
11	0xbd4922c0	-0.049105406
12	0xbd0490a7	-0.032364514
13	0xbdec8fd9	-0.11550874
14	0xbd2e4807	-0.04254916
15	0xbd8f5aff	-0.06999778
16	0x3d12b8c4	0.035820737
17	0x3d736b37	0.05942842
18	0xbdce16f9	-0.100629754
19	0xbda0bba5	-0.0784829
20	0xbd073dc4	-0.03301789
21	0x3d8ae008	0.06781012
22	0xbd8a91e7	-0.0676611
23	0xbd5a23ff	-0.053256985
24	0xbc44d4e7	-0.0120136505
25	0x3d3776e2	0.04479111
26	0x3d1d11db	0.038347106
27	0x3dd0e1b7	0.10199302
28	0xbdd01e20	-0.10161996
29	0xbddf6a9e	-0.109090075
30	0xbdbb6107	-0.09149366
31	0xbc6ccd9e	-0.01445332
32	0x3e0f4439	0.13990869
33	0x3d530f98	0.051528543
34	0xbbfaff1d	-0.0076598064
35	0x3c8e3e9a	0.017363835
36	0xbc03d186	-0.00804556
37	0xbd2d833a	-0.042361476
38	0xbd381102	-0.044938095
39	0xbd025101	-0.031815533
40	0x3d9df819	0.077133365
41	0x3d528783	0.051398765
42	0xbd97588e	-0.07389937
43	0x3c571029	0.0131264115
44	0xbcf03332	-0.029321287
45	0x3d89606f	0.067078464
46	0xbd601df2	-0.054716058
47	0xbdd410ac	-0.103547424
48	0xbd140b8a	-0.036143817
49	0x3ca9bb45	0.02071918
50	0x3d8349ec	0.06410584
51	0x3d8a6b67	0.067587666
52	0xbe101342	-0.14069846
53	0x3d71ec16	0.05906304
54	0xbca1fede	-0.01977485
55	0xbd298344	-0.04138495
56	0x3d445038	0.047928065
57	0x3dd51055	0.10403506
58	0xbdfa1264	-0.12210539
59	0xbe030a9d	-0.12797017
60	0x3d25c10b	0.040467303
61	0xbdc8af9c	-0.0979912
62	0xbd3d00e1	-0.046143416
63	0x3d4ea7c8	0.050452977
64	0x3cf5c790	0.030002385
65	0x3d84852d	0.06470714
66	0x3decf611	0.11570371
67	0xbd8ddf26	-0.06927328
68	0x3d6ec497	0.05829295
69	0xbd455c7d	-0.048183907
70	0xbd53a7c0	-0.05167365
71	0x3d5703c2	0.052493818
72	0xbd955b8f	-0.07292854
73	0xbdced31c	-0.1009886
74	0x3c441531	0.011967943
75	0x3c4e5a9a	0.012594843
76	0xbd31c63d	-0.043401945
77	0xbddb8241	-0.10718203
78	0xbd054f9a	-0.032546617
79	0xbcd9fdd0	-0.026610285
80	0x3d271fd5	0.04080184
81	0xbc5281ab	-0.012848298
82	0xbd9b8164	-0.07593039
83	0xbdb6a708	-0.089185774
84	0xbd072a4f	-0.032999333
85	0xbd8ddfbe	-0.06927441
86	0x3d1bc206	0.038026832
87	0x3d88654d	0.066599466
88	0xbd7a6a3a	-0.06113646
89	0xbe03d6f0	-0.12874961
90	0xbc873fd5	-0.01650993
91	0xbd654e4a	-0.055982865
92	0xbd8e2c8c	-0.069420904
93	0x3cc16220	0.02360636
94	0xbd94ad5b	-0.072596274
95	0xbdef7a2f	-0.116932265
96	0xbd5df026	-0.0541841
97	0xbce6d736	-0.028178792
98	0xbd90e50a	-0.07074936
99	0x3c3e0238	0.011597209
100	0xbdd26dfa	-0.102748826
101	0xbd872142	-0.0659814
102	0xbd0e8374	-0.034793332
103	0xbdab2486	-0.08356576
104	0xbdba0d6a	-0.0908459
105	0x3dc7e81a	0.09761067
106	0x3d57c537	0.052678313
107	0xbc117cf8	-0.0088798925
108	0xbcef9d52	-0.02924982
109	0x3a8df033	0.0010829031
110	0x3d6ab660	0.057302833
111	0xbd4d0bc0	-0.050060034
112	0x3d7e26c4	0.06204869
113	0xbe0d184a	-0.13778797
114	0xbb4069b0	-0.002935987
115	0x3d437d7f	0.047727104
116	0xbdfcf4e9	-0.123514004
117	0x3c567dd3	0.013091522
118	0xbdaf811c	-0.085695475
119	0x3d8f3d75	0.06994144
120	0x3b8873a6	0.004164177
121	0xbdda16a6	-0.10648851
122	0x3d9f7df1	0.07787693
123	0x3c178e72	0.00925027
124	0x3cac6539	0.02104436
125	0x3ce0d1a4	0.027443714
126	0x3cf7c287	0.030244125
127	0xbceb9f69	-0.028762536
128	0xbe394571	-0.18092896
129	0x3ceb0daa	0.028693039
130	0x3e163e2b	0.14672153
131	0x3d3f5fea	0.04672233
132	0x3e243971	0.16037537
133	0xbdf27d93	-0.11840358
134	0xbe4befa2	-0.19915631
135	0xbd6b82ea	-0.057497896
136	0x3e44eabb	0.19230168
137	0x3da1bdef	0.07897555
138	0xbdb5089e	-0.08839534
139	0x3daaeabb	0.083455525
140	0x3df4b517	0.11948603
141	0xbd7afe16	-0.06127747
142	0xbdb1083a	-0.08644147
143	0xbcf959dd	-0.030438358
144	0xbd2b0d40	-0.041760683
145	0xbc68c446	-0.0142069515
146	0x3dc47d5c	0.09594223
147	0x3dc05c60	0.09392619
148	0xbe0a1be5	-0.13487203
149	0x3dc6abf2	0.09700765
150	0x3d6ec7f6	0.058296166
151	0x3d9aeb9d	0.07564471
152	0x3db7010b	0.08935746
153	0xbe09f92f	-0.13473962
154	0x3da22d76	0.07918827
155	0x3d2f79b7	0.042840686
156	0xbd5aa9ee	-0.053384714
157	0x3d44afad	0.0480191
158	0x3e14e89e	0.14541861
159	0x3d7efc65	0.06225242
160	0xbe84a7b5	-0.259092
161	0x3d9cf81e	0.07664512
162	0x3dc4a9f1	0.09602726
163	0xbcca0ae3	-0.024663394
164	0x3d5b92d0	0.05360681
165	0x3d101f64	0.035186186
166	0xbb435881	-0.002980739
167	0xbd813b0a	-0.06310089
168	0x3d76166f	0.060079988
169	0xbbc6ef66	-0.006071019
170	0xbd8e8d48	-0.06960541
171	0x3cba208e	0.022720601
172	0xbdee7d81	-0.11645032
173	0x3d955ded	0.072933055
174	0xbcc4d3b4	-0.02402673
175	0xbd990daa	-0.07473309
176	0x3dfda709	0.12385375
177	0xbd989e2b	-0.07452043
178	0x3d378738	0.04480669
179	0xbd2e9a76	-0.042627774
180	0x3bd290af	0.006425939
181	0xbc18b86c	-0.009321313
182	0x3d8ee134	0.06976548
183	0x3d124644	0.03571154
184	0xbc437caf	-0.011931582
185	0xbd8ecb3c	-0.06972358
186	0x3d322189	0.043489013
187	0x3c244e50	0.010028437
188	0x3c3403ec	0.010987263
189	0x3df36b9a	0.11885758
190	0xbcde4dd8	-0.027136728
191	0xbcf6839a	-0.03009205
192	0xbc53d71d	-0.012929705
193	0xbc40b991	-0.0117629925
194	0x3df48eac	0.11941275
195	0xbcdfcafe	-0.027318474
196	0x3e507e1e	0.2036061
197	0xbc06e09d	-0.008232263
198	0x3b9a05a6	0.0047003804
199	0x3e44a898	0.19204938
200	0xbc237a03	-0.00997782
201	0x3e197533	0.14986114
202	0x3d6f268c	0.05838637
203	0xbdc7b618	-0.097515285
204	0xbdf93359	-0.12167997
205	0x3c710470	0.014710531
206	0xbda4e849	-0.080521174
207	0xbb9421fc	-0.004520653
208	0xbd7169f3	-0.05893893
209	0xbd1e08c6	-0.038582586
210	0xbd3ce5f6	-0.046117745
211	0x3d809c63	0.062798284
212	0xbe1bcd4c	-0.15215033
213	0x3d7c6a28	0.061624676
214	0x3def91f2	0.11697759
215	0xbd94b9d4	-0.072620064
216	0x3d0802a7	0.033205654
217	0xbe4835cd	-0.19551773
218	0x3d950fdd	0.07278416
219	0xbddb3b95	-0.10704724
220	0xbdcc7311	-0.09982885
221	0x3dbb687f	0.091507904
222	0x3d418af5	0.04725166
223	0x3dab2254	0.08356157
224	0xbbc27370	-0.0059341714
225	0x3d59e790	0.05319935
226	0xbda6f50f	-0.0815221
227	0xbc3cff47	-0.011535472
228	0x3d471166	0.048600577
229	0x3d702606	0.058630012
230	0xbd169991	-0.036767546
231	0xbb82bbf3	-0.0039896904
232	0xbd7a9543	-0.061177503
233	0xbcc268fa	-0.023731697
234	0x3e046292	0.12928227
235	0xbdb9011d	-0.090334155
236	0xbd890d49	-0.06691987
237	0xbc31b606	-0.01084662
238	0x3d0d0409	0.034427676
239	0xbdc17ce4	-0.09447649
240	0xbdf5aaa8	-0.11995441
241	0xbd89efa9	-0.06735165
242	0xbd92743c	-0.07151076
243	0xbc5a64cc	-0.013329696
244	0x3d782021	0.060577516
245	0x3da3f235	0.08005182
246	0xbdc20aff	-0.094747536
247	0xbd40f03b	-0.0471041
248	0x3dd26575	0.10273258
249	0x3dabbb2d	0.0838531
250	0x3c0f0ccb	0.008731077
251	0x3d7ecbe7	0.062206175
252	0x3d6d2325	0.057894845
253	0xbe1428e8	-0.1446873
254	0xbd59bdea	-0.05315963
255	0xbd46a909	-0.04850105

fc2.bias f4 [128]
0	0xbcdf5bb0	-0.0272654
1	0x3db6ed4b	0.08931979
2	0x3cfb2b94	0.030660428
3	0xbd172e0c	-0.036909148
4	0xbd2e7645	-0.04259326
5	0x3d2f3728	0.04277721
6	0x3dcce298	0.10004157
7	0xbdaadf7d	-0.08343408
8	0x3d91b368	0.07114297
9	0x3d4fefa1	0.050765637
10	0x3e5184dc	0.20460838
11	0x3e804ff0	0.25060987
12	0xbd552bca	-0.052043714
13	0xbc9e9f46	-0.019363057
14	0x3e007b87	0.12547122
15	0x3d1bec7f	0.038067337
16	0xbd596758	-0.053077072
17	0xbd4b2721	-0.049597863
18	0xbc180b1f	-0.009279995
19	0x3e06a9fb	0.1315078
20	0xbd42b52d	-0.047536064
21	0x3c9c5f29	0.019088345
22	0x3e96cf9b	0.29455265
23	0x3e9d8473	0.30765113
24	0x3d7df78b	0.062003653
25	0xbe22baa8	-0.15891516
26	0x3e14cd9e	0.14531562
27	0x3d8f5062	0.06997754
28	0xbe102918	-0.14078176
29	0xbd9dccb2	-0.07705058
30	0x3c9c2856	0.019062202
31	0x3d0d356a	0.034474768
32	0xbd66aea6	-0.0563189
33	0xbb83a786	-0.004017773
34	0x3e044dd6	0.12920317
35	0x3de559e5	0.11198787
36	0x3d9cc839	0.07655377
37	0x3cfa45f8	0.030550942
38	0x3dfa5f3a	0.12225194
39	0x3d4359a1	0.0476929
40	0x3e347de4	0.17626148
41	0xbc13ee26	-0.009028947
42	0x3db057de	0.08610509
43	0x3c24261e	0.0100188535
44	0xbdcc4d7c	-0.099757165
45	0x3d9f0bbe	0.077659115
46	0x3ac293ab	0.0014845034
47	0xbde1cc11	-0.11025251
48	0x3d7e0ac6	0.062021993
49	0x3e09ce60	0.13457632
50	0x3d4e10e8	0.05030909
51	0xbd83bbc1	-0.064322956
52	0x3d1cf6bf	0.038321253
53	0x3e860eaf	0.26183078
54	0x3e109e41	0.14122869
55	0x3d3a860c	0.045537993
56	0x3c9cee3e	0.019156571
57	0x3e0724f7	0.13197695
58	0x3d036a53	0.03208382
59	0x3e757033	0.23968582
60	0x3d0167bc	0.03159307
61	0x3cc92caf	0.02455744
62	0x3d112212	0.035432883
63	0x3da51712	0.08061041
64	0x3e0838ca	0.13302913
65	0x3c52ccc0	0.012866199
66	0x3d51d2a0	0.05122626
67	0x3b0cde39	0.002149476
68	0x3dc2fa65	0.09520415
69	0x3e3930e2	0.18085054
70	0xbb614d78	-0.003437845
71	0x3cccafd5	0.024986187
72	0x3d27d046	0.04097011
73	0x3e4edcf9	0.20201482
74	0xbc484c78	-0.012225263
75	0x3e039e20	0.12853289
76	0x3cff7784	0.03118492
77	0x3e858cc2	0.26083952
78	0xbe359d3e	-0.17735764
79	0xbdb05f05	-0.086118735
80	0xbcb7860e	-0.02240279
81	0x3de9d6ff	0.114179604
82	0xbd2ce459	-0.042209957
83	0x3c3e742a	0.011624375
84	0x3caaf238	0.020867452
85	0x3ae355a6	0.0017344251
86	0x3d5783c6	0.052615903
87	0xbe611b35	-0.21983035
88	0x3e23c474	0.1599291
89	0xbcfcf629	-0.030879097
90	0x3e42075c	0.1894812
91	0x3e0a70d6	0.13519606
92	0x3e3d22cf	0.1847031
93	0xbda0de92	-0.07854952
94	0x3e3e2f0a	0.18572631
95	0x3bc6444c	0.006050622
96	0x3c96c829	0.01840599
97	0x3e182d0d	0.14860936
98	0xbcf06d5c	-0.029349022
99	0x3de194f8	0.11014742
100	0x3da6f474	0.081520945
101	0x3cb17d8c	0.02166631
102	0x3d374911	0.044747416
103	0xbd99787f	-0.07493686
104	0xbd363f55	-0.044493992
105	0x3e12d6e8	0.14339793
106	0xbccc347f	-0.024927376
107	0xbd0c9777	-0.034324136
108	0xbcf86fd9	-0.03032677
109	0xbd542452	-0.05179245
110	0x3e7366e9	0.23769726
111	0x3d91bf5c	0.07116577
112	0xbdd8c07c	-0.105835885
113	0xbc0ed181	-0.008716942
114	0x3b13b079	0.0022535606
115	0xbbecffa0	-0.0072326213
116	0x3e3349d3	0.1750863
117	0x3dbdb16a	0.09262355
118	0x3cba5d84	0.02274967
119	0x3e24efb3	0.16107063
120	0x3dc93fbb	0.09826609
121	0xbd9966b4	-0.07490292
122	0x3dcdd047	0.100494914
123	0xb9419914	-0.0001846294
124	0x3db0cd57	0.086329155
125	0x3e0664e2	0.13124421
126	0x3da81723	0.08207538
127	0xbd71df0a	-0.059050597

out.weight f4 [5, 128]
0	0xbc91ac48	-0.017782345
1	0x3e0d79a8	0.1381594
2	0x3e5bf1a4	0.21478897
3	0xbda0ead8	-0.07857293
4	0x3e3ea2ba	0.18616763
5	0xbdf4860f	-0.11939632
6	0xbbb9e34d	-0.0056728483
7	0x3d983fe3	0.074340604
8	0x3db494d1	0.08817447
9	0x3ddc2814	0.10749832
10	0xbe2b1b7d	-0.16709705
11	0xbe332897	-0.17495953
12	0x3e13f7a7	0.1444994
13	0x3e092914	0.13394576
14	0xbe2b45f0	-0.16725898
15	0x3d43688a	0.047707118
16	0x3d4846f2	0.048895784
17	0x3db3534c	0.08756122
18	0x3dc75bdc	0.09734318
19	0xbe7aeb50	-0.24503827
20	0x3e2ff132	0.17181852
21	0x3e351d43	0.17686944
22	0xbcfee49c	-0.031114869
23	0xbe91fc95	-0.28513017
24	0x3d0f72c4	0.03502156
25	0x3da65e3d	0.08123443
26	0xbe16ab61	-0.14713813
27	0xbe1cf34f	-0.1532719
28	0xbdd56056	-0.10418765
29	0xbd926c55	-0.07149569
30	0x3e018957	0.12650047
31	0xbd8a428e	-0.067509755
32	0xbdefcd61	-0.11709095
33	0x3d7f8caf	0.062390026
34	0xbe1f03be	-0.15528771
35	0xbccb6144	-0.024826653
36	0xbdc80c99	-0.09768028
37	0xbe50a0e8	-0.20373881
38	0xbd222ee5	-0.039595503
39	0xbe20f7e7	-0.15719567
40	0xbd16c601	-0.036809925
41	0x3e776c58	0.24162424
42	0x3e20e1c8	0.15711129
43	0x3dfb7b50	0.12279379
44	0x3d253284	0.04033138
45	0xbc2803fe	-0.010254858
46	0xbe0fe25c	-0.14051193
47	0x3d114978	0.035470456
48	0x3e25032f	0.16114496
49	0xbde6290c	-0.11238298
50	0x3dcdb125	0.10043553
51	0x3d4cbc16	0.04998406
52	0x3e547a07	0.20749675
53	0xbd1d83cf	-0.03845578
54	0x3dc17dd0	0.09447825
55	0x3e3fd479	0.18733396
56	0x3d2381dd	0.03991877
57	0xbe73079b	-0.2373337
58	0x3d96975d	0.07353089
59	0xbe8f8aef	-0.28035685
60	0x3bc2ef56	0.005948941
61	0x3e2acc73	0.16679554
62	0x3cd80dc0	0.026373744
63	0xbe6b0f19	-0.22954978
64	0xbd9995f6	-0.07499306
65	0xbe260e6d	-0.1621644
66	0x3b4ea3ea	0.0031530806
67	0xbd6e0b41	-0.0581162
68	0xbd7d484c	-0.061836526
69	0xbe1b110d	-0.15143223
70	0x3e51beb9	0.20482911
71	0xbe0f7fdd	-0.1401362
72	0x3e6a76bf	0.2289686
73	0xbd9227fe	-0.07136534
74	0x3d8fa815	0.07014481
75	0xbe8acedb	-0.27110943
76	0xbe474c2d	-0.19462653
77	0xbd83ab84	-0.064291984
78	0x3d89a19f	0.0672028
79	0x3d3f1c25	0.0466577
80	0x3dfc0557	0.12305706
81	0xbdfb25e3	-0.12263086
82	0x3daeaf7e	0.08529566
83	0xbd8d6582	-0.06904127
84	0x3e06def9	0.13170995
85	0xbe27e655	-0.16396458
86	0xbcc39d78	-0.023878798
87	0x3d1f97f6	0.03896328
88	0xbd877bf6	-0.066154405
89	0x3dde42fe	0.108526215
90	0x3d5ac84b	0.05341367
91	0xbdc35c04	-0.09539035
92	0xbbaeb7d4	-0.0053319726
93	0x3d18c727	0.0372993
94	0xbe1d3e8f	-0.15355895
95	0xbe0b5935	-0.13608249
96	0xbdc590d1	-0.09646762
97	0xbd99c794	-0.0750877
98	0xbd3c520e	-0.04597669
99	0x3d9fbf5c	0.07800171
100	0x3e82b4a9	0.25528458
101	0x3d021cff	0.031765934
102	0xbe018cd3	-0.12651376
103	0x3d0ec049	0.034851346
104	0x3e275ad3	0.1634324
105	0xbd1c269d	-0.038122762
106	0x3e04c118	0.12964284
107	0x3d3f9e00	0.04678154
108	0xbe65ce20	-0.22441912
109	0x3c01debd	0.00792664
110	0xbe8efc90	-0.27927065
111	0xbd09f1d9	-0.03367791
112	0x3d6061da	0.05478082
113	0xbe13ea32	-0.14444807
114	0x3d90d694	0.070721775
115	0x3e1ff2dc	0.15619987
116	0x3e0b8741	0.13625814
117	0x3e61b209	0.22040571
118	0x3ddf3588	0.10898882
119	0xbd8a5c7d	-0.06755922
120	0xbd9a10ae	-0.07522713
121	0x3e6ca66d	0.23110361
122	0xbdffc801	-0.124893196
123	0x3e46c335	0.19410403
124	0xbdd28caa	-0.10280736
125	0xbd5b3cd9	-0.053524826
126	0xbdfda59c	-0.12385103
127	0x3df96d35	0.12179033
128	0x3b11a764	0.0022225017
129	0xbdd6d041	-0.1048894
130	0x3d9f07a7	0.077651314
131	0x3dc0cb54	0.09413782
132	0x3e30e26d	0.17273875
133	0xbd7412e6	-0.059588335
134	0xbd9053f2	-0.07047261
135	0x3c8af5e6	0.016962957
136	0x3cdac475	0.026705006
137	0xbdd941d0	-0.10608256
138	0xbdcffe17	-0.10155886
139	0xbd8d9344	-0.06912854
140	0x3d9628fc	0.07332036
141	0x3cfee9f7	0.031117423
142	0xbe02da7a	-0.12778655
143	0x3de3b9e8	0.11119443
144	0x3e117923	0.14206366
145	0xbd96e944	-0.07368711
146	0x3c3137f0	0.010816559
147	0xbcf192cc	-0.029488944
148	0xbd1519fe	-0.03640174
149	0x3e3ffb38	0.18748176
150	0xbe9f805d	-0.3115262
151	0xbd93e49a	-0.07221337
152	0xbd77a9d2	-0.060464688
153	0x3d17956a	0.037007727
154	0x3dc1b490	0.09458268
155	0x3d8f0cb1	0.069848426
156	0xbbfef686	-0.0077808527
157	0x3d92641a	0.07147999
158	0x3ca31532	0.019907568
159	0x3da592fc	0.08084676
160	0xbe0b43d3	-0.13600092
161	0xbd8e3bb7	-0.069449835
162	0xbd4b4002	-0.04962159
163	0x3de86c05	0.11348728
164	0x3d24bd1f	0.040219422
165	0x3d79db82	0.061000355
166	0x3b9e7d73	0.004836732
167	0x3d21feaa	0.039549507
168	0x3d7cddf6	0.061735116
169	0xbcb95363	-0.02262277
170	0x3e0da0d2	0.1383088
171	0xbd1ba604	-0.03800012
172	0x3d3261b8	0.043550223
173	0xbcce87c4	-0.025211222
174	0x3db1ce96	0.08681981
175	0x3c942722	0.018085066
176	0x3c952881	0.01820779
177	0x3dc1d0de	0.094636664
178	0xbe467df6	-0.19383988
179	0x3da09e8d	0.07842741
180	0xbca4c19c	-0.020111851
181	0xbcf6232a	-0.030046064
182	0xbddb8fcc	-0.107207865
183	0x3c0b5b79	0.0085056955
184	0x3dc01f62	0.09380986
185	0xbd4c7cf6	-0.04992386
186	0x3bb641f1	0.00556206
187	0xbd87b1b8	-0.06625694
188	0xbe0b8638	-0.13625419
189	0x3e07376f	0.1320474
190	0x3d9db8b0	0.07701242
191	0xbd41310b	-0.04716591
192	0x3d2e769f	0.042593595
193	0x3da585ba	0.08082147
194	0xbcb0463e	-0.02151787
195	0xbd9046ad	-0.0704473
196	0x3d04516a	0.032304205
197	0xbd9c0598	-0.076182544
198	0x3e0c3c88	0.13694966
199	0xbd86a034	-0.06573525
200	0x3e1a3bae	0.15061828
201	0xbe14895a	-0.1450552
202	0x3e2b33c7	0.1671897
203	0xbe2d8d83	-0.16948514
204	0xbd2db2d7	-0.042406883
205	0xbc43dc26	-0.011954343
206	0x3d70211d	0.05862533
207	0x3d40c75f	0.047065135
208	0x3e04a39b	0.12953036
209	0x3cc85e79	0.02445911
210	0x3d29edfc	0.041486725
211	0x3cdc9550	0.026926666
212	0x3bc06f4a	0.0058726417
213	0xbd52fd93	-0.05151136
214	0x3df3d808	0.11906439
215	0x3d563696	0.05229815
216	0xbd7c9b3c	-0.06167148
217	0x3db2eb1a	0.08736248
218	0x3d27b8d3	0.040947746
219	0x3e025e70	0.12731338
220	0xbe6f210c	-0.2335245
221	0x3db51773	0.08842363
222	0xbdc96fb1	-0.098357566
223	0x3caf037d	0.021363968
224	0x3c99dfef	0.018783538
225	0xbca6e248	-0.020371571
226	0x3e06c001	0.13159181
227	0xbd863eea	-0.06554969
228	0x3db5f0c0	0.0888381
229	0xbbec2b8e	-0.0072073406
230	0xbd8e9ff5	-0.06964103
231	0x3e4c919b	0.19977419
232	0xbdfe0330	-0.12402952
233	0x3c68a564	0.014199588
234	0xbdff3f04	-0.12463191
235	0xbe02789f	-0.12741326
236	0xbdac6f27	-0.08419638
237	0x3d2284ce	0.039677434
238	0xbdbbf017	-0.09176653
239	0xbe1578b0	-0.1459682
240	0xbd11521e	-0.035478704
241	0x3d59f16c	0.053208753
242	0xbdf99c56	-0.12188022
243	0x3ce075d8	0.027399942
244	0xbe124c52	-0.14286926
245	0xb961b720	-0.00021525891
246	0x3ceb8e44	0.028754361
247	0xbe0295f6	-0.12752518
248	0x3c088dce	0.00833459
249	0xbc99f74a	-0.018794674
250	0xbd88dc77	-0.06682675
251	0x3c64828c	0.01394714
252	0xbb762423	-0.003755816
253	0x3a5d1354	0.0008433361
254	0xbbb80a35	-0.005616451
255	0x3d2970ee	0.041367464

out.bias f4 [5]
0	0xbddf3f4d	-0.109007455
1	0xbdd1d6a7	-0.1024602
2	0xbd64495f	-0.055734035
3	0xbddcc585	-0.10779861
4	0xbcfd48b6	-0.03091846
