SimplifiedSpaceWar/trained_models/madrl2_bullets_13500.pth (torch, 89201 bytes, 6 tensors)

fc1.weight f4 [128, 33]
0	0x3f8658e0	1.0495872
1	0xbfa5044b	-1.2891935
2	0xbf031eea	-0.51219046
3	0x3e3af0d1	0.18255927
4	0xbea7d8d5	-0.32782617
5	0xbc2317ba	-0.009954387
6	0xbf0f7c9a	-0.560495
7	0x3e187a89	0.14890493
8	0xbda06614	-0.0783197
9	0xbf13d4f3	-0.5774681
10	0xbd3063cf	-0.043063935
11	0x3f077318	0.52909994
12	0xbdeb05e6	-0.114757344
13	0x3e4d0618	0.20021856
14	0x3e080fe5	0.13287313
15	0x3f1f77d6	0.6229223
16	0xbe1a47da	-0.15066472
17	0x3e22ef27	0.15911542
18	0xbe66d178	-0.22540843
19	0x3ea2dd48	0.3180945
20	0x3e031427	0.12800656
21	0xbe38302e	-0.17987129
22	0xbdfa2eb5	-0.1221594
23	0x3d1a9cd6	0.037747227
24	0xbe7fd7ff	-0.2498474
25	0x3de2d215	0.11075226
26	0xbd1c13eb	-0.038104933
27	0x3ef9afee	0.48767036
28	0xbe19b93f	-0.15012072
29	0x3dcdd268	0.100498974
30	0xbdd64fe7	-0.10464459
31	0x3e2e02dc	0.16993278
32	0x3dd96526	0.10614996
33	0x3f744e52	0.9543201
34	0x3f23698c	0.63832927
35	0xbf3a5df0	-0.7279959
36	0xbd4abefd	-0.049498547
37	0x3f22bbd9	0.6356788
38	0xbd4cb40d	-0.049976397
39	0x3c7b32b9	0.015331917
40	0x3e07b069	0.13250889
41	0xb8c81aae	-9.541713e-05
42	0x3e9fc593	0.31205425
43	0xbedbc104	-0.42920697
44	0x3eee11ac	0.46497858
45	0xbe6d7186	-0.23187837
46	0xbfbb4118	-1.462924
47	0xbfadaac0	-1.3567734
48	0x3e8dc6e7	0.27690813
49	0xbcdbe674	-0.026843287
50	0xbde7fde7	-0.11327725
51	0xbf080c78	-0.53144026
52	0x3e97363c	0.29533565
53	0x3c75d671	0.01500474
54	0xbe8b1f10	-0.27172136
55	0xbeeecc13	-0.4664007
56	0x3ec34f9f	0.38146684
57	0x3e033f41	0.12817098
58	0xbe16d8a2	-0.14731076
59	0xbe9f3cfc	-0.31101215
60	0x3f179934	0.59218144
61	0xbef64e18	-0.48106456
62	0x3ddeee0f	0.1088525
63	0x3c65b6b2	0.014020609
64	0x3e98d4fd	0.29849997
65	0xbe700f17	-0.23443256
66	0x3f585acc	0.84513545
67	0x3eec3eb8	0.461416
68	0x3e8e5e2f	0.2780623
69	0xbed7f6c6	-0.4218046
70	0x3f41412f	0.7549009
71	0x3ee62bbb	0.4495524
72	0x3e4aec3d	0.1981668
73	0xbf84e7b5	-1.0383211
74	0x39981040	0.00029003806
75	0xbef6366b	-0.48088393
76	0x3bf99ff5	0.0076179453
77	0x3f5dd568	0.8665376
78	0x3f7059bd	0.9388693
79	0xbef61b33	-0.48067626
80	0xbcac79fb	-0.021054259
81	0x3e36159f	0.17781685
82	0x3d4ca82f	0.04996508
83	0xbb5d123f	-0.00337328
84	0x3e05676f	0.13027738
85	0xbe29d55c	-0.16585296
86	0x3e0b4302	0.1359978
87	0xbce0317d	-0.027367348
88	0xbd7867b8	-0.06064579
89	0xbeef8f83	-0.46789178
90	0x3e988cd7	0.29794952
91	0xbae7dfe4	-0.0017690626
92	0x3e7f7903	0.24948506
93	0xbe6b90cf	-0.23004459
94	0x3f18512b	0.5949885
95	0xbe1fdce4	-0.15611607
96	0xbcbe9e9a	-0.023268986
97	0xbe3632ad	-0.17792769
98	0x3ebafc55	0.3652064
99	0x3fdddce3	1.7333034
100	0x3faabdcd	1.3339173
101	0xbe18e612	-0.14931515
102	0xbd51c1aa	-0.051210083
103	0x3e1c9a92	0.15293339
104	0xbddffdf6	-0.10937111
105	0x3f336a24	0.7008383
106	0xbbefff18	-0.0073241107
107	0xbc7d7315	-0.015469332
108	0xbf3b77b6	-0.7322954
109	0xbe2c39ee	-0.16818973
110	0xbabff6d9	-0.001464571
111	0x3f5d256d	0.8638523
112	0x3e5b72d6	0.21430525
113	0xbe22338f	-0.1583998
114	0xbe2dea38	-0.16983879
115	0x3e6168f0	0.22012687
116	0x3e22994b	0.15878789
117	0xbdbabbdb	-0.09117862
118	0x3c922889	0.017841594
119	0x3f212d94	0.6296017
120	0x3c8a96a7	0.01691754
121	0xbdbc4292	-0.09192385
122	0xbe67fd00	-0.22655106
123	0x3f86c6d0	1.0529423
124	0x3e9c5da8	0.30540204
125	0x3ceb786d	0.028743947
126	0xbd5f7c46	-0.054561876
127	0x3f09c8b8	0.538219
128	0x3e25493a	0.16141215
129	0xbbfbb2b9	-0.0076812175
130	0xbe2fea0b	-0.17179124
131	0x3f594802	0.848755
132	0x3e5b0585	0.21388824
133	0x3d034dc2	0.032056578
134	0x3db162c2	0.08661415
135	0xbbec7662	-0.007216261
136	0xbdfd6019	-0.12371845
137	0x3f44cf0d	0.76878434
138	0x3e0a2e61	0.13494255
139	0x3fa76d03	1.3080143
140	0xbd56d840	-0.052452326
141	0x3e2a8da8	0.166556
142	0x3e2f8196	0.17139277
143	0x3efd4679	0.4946783
144	0x3e21bad0	0.1579392
145	0xbf7c9162	-0.98659337
146	0xbf9244bf	-1.142723
147	0x3e2d906c	0.16949624
148	0x3e89d190	0.26917696
149	0xbedf990d	-0.43671456
150	0x3e9557a4	0.29168427
151	0x3eac9f52	0.33715302
152	0xbe5ef7c5	-0.21774204
153	0xbedb22c8	-0.42799973
154	0xbdd9aefb	-0.10629078
155	0x3ee5ce3e	0.44883913
156	0x3caae971	0.020863267
157	0x3d190075	0.03735395
158	0xbdc352b3	-0.09537258
159	0x3dd5093d	0.10402153
160	0xbe123d09	-0.14281096
161	0xbee98a82	-0.45613486
162	0xbf086bb0	-0.5328932
163	0x3d142eb2	0.036177345
164	0xbb79ecf1	-0.0038135613
165	0xbfba8724	-1.4572492
166	0xbee5dae0	-0.4489355
167	0xbec52ffe	-0.38513178
168	0xbdfdba13	-0.123890065
169	0xbe8d29e3	-0.2757102
170	0x3ee2667a	0.44218808
171	0xbe72b357	-0.23701225
172	0xbefd81c4	-0.49513066
173	0xbbcfbf32	-0.006339931
174	0x3e9cd850	0.30633783
175	0x3e099dcd	0.13439102
176	0xbdace6ec	-0.08442482
177	0x3e891d55	0.2678019
178	0x3c534cd6	0.012896737
179	0x3a3d410f	0.00072194723
180	0xbdc860cd	-0.09784088
181	0x3c65c365	0.0140236365
182	0x3db58160	0.08862567
183	0xbe1fcb64	-0.15604931
184	0xbdc049b6	-0.09389059
185	0x3c7d382f	0.01545529
186	0x3e2cd273	0.16877155
187	0x3d336342	0.04379583
188	0xbdf2e029	-0.118591614
189	0x3d7ed47b	0.062214356
190	0xbd4ebf60	-0.05047548
191	0xbdd8900e	-0.10574351
192	0xbe66e474	-0.22548085
193	0x3de8e555	0.113718666
194	0x3c838d33	0.01605854
195	0xbe681014	-0.22662383
196	0xbdf5b715	-0.11997811
197	0x3e432813	0.19058256
198	0xbdcfcad1	-0.10146106
199	0xbcbcc223	-0.02304179
200	0xbc080c0b	-0.0083036525
201	0xbc6380c7	-0.013885683
202	0x3b3515dc	0.0027631437
203	0xbc6f4478	-0.014603727
204	0xbb7c702c	-0.0038519008
205	0x3ce28fa0	0.027656376
206	0xb98d3e07	-0.0002693983
207	0xbb75fbe7	-0.0037534179
208	0x3b4e1e8c	0.0031451313
209	0x3cfb32b0	0.030663818
210	0xbcd98d16	-0.026556533
211	0x3dc0815b	0.093996726
212	0xc146ca6a	-12.4244175
213	0x3cf2c3f1	0.029634448
214	0xbe5b9242	-0.21442512
215	0xbbad3bcd	-0.00528667
216	0xbbea0980	-0.007142246
217	0x3cc7041e	0.024293955
218	0x3c85425e	0.016266998
219	0x3c7679cc	0.015043687
220	0xbc6aade9	-0.01432369
221	0xbd6e298e	-0.0581451
222	0x3d81e588	0.06342608
223	0xbbfd53db	-0.0077309436
224	0xbc0ddaa2	-0.008658083
225	0xbdcde504	-0.10053447
226	0x3cc790ec	0.024361096
227	0x3d5f20da	0.05447469
228	0xbd27cf3f	-0.04096913
229	0x3c1ccb21	0.009569914
230	0xbc5fb634	-0.01365428
231	0xbf1d5c86	-0.61469305
232	0x3ebdff89	0.3710902
233	0xbe234ae5	-0.15946539
234	0xbc926bfe	-0.01787376
235	0xbebd9cce	-0.37033695
236	0xbc008fca	-0.007846782
237	0xbe925d38	-0.28586745
238	0xbda479c7	-0.0803104
239	0x3c13d0d0	0.009021953
240	0xbff70119	-1.929721
241	0x3e300f6a	0.1719338
242	0xbe8c1917	-0.27362892
243	0x3e05960d	0.13045521
244	0x3e7f3b72	0.2492502
245	0x3e643679	0.22286405
246	0x3e0e99ad	0.1392581
247	0xbd2f11fa	-0.042741753
248	0xbe9b5917	-0.30341408
249	0xbdb369ce	-0.08760415
250	0xbedc5944	-0.43036854
251	0xbe2eac28	-0.1705786
252	0xbdf167e5	-0.117873944
253	0x3e69f460	0.22847128
254	0x3d617d8c	0.05505137
255	0xbe3d49c4	-0.1848517

fc1.bias f4 [128]
0	0xbeca22d2	-0.3947969
1	0x3e6a0500	0.2285347
2	0xbea12501	-0.31473544
3	0x3efc8d47	0.49326536
4	0x3ed6dda5	0.41965976
5	0xbdc70403	-0.09717562
6	0xbe3ead92	-0.186209
7	0xbed83940	-0.42231178
8	0x3e569866	0.20956573
9	0x3f015d34	0.5053284
10	0x3ea29a18	0.3175819
11	0x3ee2f735	0.4432923
12	0x3edf519f	0.4361696
13	0x3ed8b9d3	0.42329273
14	0x3f28f0fc	0.6599271
15	0xbcba03a7	-0.02270682
16	0xbe773213	-0.24140196
17	0xbf15315c	-0.5827844
18	0xbe98be8f	-0.29832885
19	0x3e0b4029	0.13598694
20	0xbeacb0c6	-0.33728617
21	0x3c322d17	0.010875008
22	0x3ca68960	0.020329177
23	0x3e8b8ed8	0.2725742
24	0xbe5ed741	-0.217618
25	0x3f241bac	0.64104724
26	0xbeb3d02c	-0.3511976
27	0x3deabaea	0.11461432
28	0xbee6a7ac	-0.45049798
29	0xbd642197	-0.055696096
30	0x3f2f6151	0.6850787
31	0x3ecc5108	0.39905572
32	0x3e38a55c	0.1803183
33	0x3d56ebdf	0.052471038
34	0x3e80acf6	0.2513196
35	0x3e7a3de5	0.24437673
36	0x3f0b295c	0.54359984
37	0x3deb1a2e	0.11479603
38	0x3f3b531d	0.73173696
39	0xbd0ce244	-0.03439547
40	0x3f05ea53	0.52310675
41	0x3da0023f	0.078129284
42	0xbdb6a001	-0.08917237
43	0xbc7d7db0	-0.015471861
44	0x3e0d7cb8	0.13817108
45	0xbd25abf4	-0.04044719
46	0xbee16be0	-0.44027615
47	0x3dfd74e3	0.1237581
48	0xbe9e2e17	-0.3089454
49	0x3eb6d24e	0.35707325
50	0x3e16468e	0.14675352
51	0xbe8e0512	-0.27738243
52	0xbe382e26	-0.17986354
53	0x3f480ba1	0.78142744
54	0xbec68757	-0.3877513
55	0x3e1f27da	0.15542546
56	0x3eade172	0.33961064
57	0x3d1658af	0.03670567
58	0x3f9809fc	1.1878047
59	0x3ee701a4	0.4511844
60	0xbd6a86e5	-0.05725755
61	0x3ed9750a	0.42472106
62	0x3e767c90	0.24070954
63	0x3eadc43f	0.33938786
64	0x3e15ab66	0.14616165
65	0x3dd431a2	0.10361029
66	0x3edac28d	0.42726555
67	0x3e33f8d3	0.17575388
68	0xbd9fe8f1	-0.07808102
69	0x3e582515	0.21107896
70	0x3f7b05ab	0.98055524
71	0x3e9cf2e9	0.30654076
72	0x3e8722d0	0.26393747
73	0x3eef6929	0.46759918
74	0xbe4a27d6	-0.19741759
75	0x3f00d4a5	0.5032447
76	0xbe9d4fca	-0.30724937
77	0x3e13d81b	0.14437906
78	0xbe1b2768	-0.15151751
79	0x3dd70b84	0.10500243
80	0x3e02027f	0.12696265
81	0x3f0b93ce	0.5452241
82	0xbe9f7089	-0.31140545
83	0x3eaa6b79	0.3328512
84	0x3eaf571d	0.3424615
85	0xbf1867af	-0.5953321
86	0xbda143ec	-0.07874283
87	0x3e46694f	0.1937611
88	0x3de55157	0.11197155
89	0x3e323732	0.17403868
90	0xbdd979f1	-0.106189616
91	0xbedb6947	-0.42853758
92	0x3d1536ad	0.036429096
93	0xbe9570f8	-0.2918775
94	0x3eb714ce	0.3575806
95	0xbe1425fe	-0.14467618
96	0x3f16bc4a	0.58881056
97	0x3e0f5418	0.13996923
98	0x3e7b86d3	0.2456315
99	0xbe6b17f9	-0.22958364
100	0x3e6bb291	0.23017336
101	0xbea45646	-0.3209707
102	0x3f04a0db	0.51807946
103	0x3e9fea60	0.312335
104	0xbea5cb74	-0.32381785
105	0xbf84ebc3	-1.0384449
106	0xbee37d03	-0.44431314
107	0x3f0cec9e	0.5504855
108	0x3eae5cf9	0.34055308
109	0xbead045d	-0.3379239
110	0x3e9264f6	0.28592652
111	0x3defd695	0.1171085
112	0xbe647c8f	-0.2231314
113	0xbe81885a	-0.2529934
114	0xbe4d75d6	-0.20064482
115	0x3d0d1c17	0.034450617
116	0x3d058797	0.03260001
117	0x3e49dd28	0.1971327
118	0xbf1ebf70	-0.6201086
119	0x3ed4e2a7	0.41579172
120	0x3f0e5348	0.5559583
121	0xbe3f4873	-0.18679981
122	0x39cc86f2	0.00039010454
123	0x3eae49b8	0.34040618
124	0x3f075682	0.52866375
125	0x3d1fa968	0.038979918
126	0x3e03e883	0.12881665
127	0xbeb8aa98	-0.36067653

fc2.weight f4 [128, 128]
0	0xbd48250b	-0.048863452
1	0xbe2bbe22	-0.16771749
2	0x3d43e69a	0.04782734
3	0xbdea90a8	-0.11453372
4	0x3e8dc438	0.27688766
5	0x3d74f1d3	0.059800934
6	0xbea3c4b5	-0.31986013
7	0x3d344c1d	0.0440179
8	0x3dadbbc1	0.08483077
9	0xbe3c1044	-0.1836558
10	0x3e2b2ca4	0.16716248
11	0xbe0a8989	-0.13529028
12	0xbe2032fc	-0.15644449
13	0xbd92fa98	-0.07176703
14	0x3deff015	0.11715714
15	0xbe1b5319	-0.15168418
16	0xbe2264f3	-0.15858822
17	0xbd20edad	-0.039289165
18	0x3dbafd6a	0.09130366
19	0xbce89b57	-0.028394384
20	0x3e0d8417	0.1381992
21	0x3e9a1843	0.30096635
22	0xbdc8cfa6	-0.09805231
23	0xbe76b7ad	-0.24093504
24	0xbe656128	-0.22400343
25	0x3da5e352	0.080999985
26	0x3deb8dfe	0.11501692
27	0x3e786c34	0.24260026
28	0xbd30e6f3	-0.043189
29	0x3b329f52	0.0027255607
30	0xbd92e371	-0.07172287
31	0x3e09c093	0.13452367
32	0x3e6d08ba	0.2314786
33	0x3e0d72e6	0.13813362
34	0xbbb51808	-0.0055265464
35	0x3dee063a	0.116222814
36	0x3ddfa1e1	0.10919548
37	0xbd2749fb	-0.040842038
38	0xbc8b565a	-0.01700895
39	0x3e30c548	0.17262757
40	0x3e83ec9c	0.25766456
41	0x3dc1c27a	0.094609216
42	0x3de35ab3	0.11101284
43	0xbe461af0	-0.19346213
44	0xbd2721f9	-0.040803883
45	0x3e19d710	0.15023446
46	0xbce18207	-0.027527822
47	0x3bef81ed	0.0073091895
48	0xbe90f68e	-0.28313106
49	0xbd30a90f	-0.043129977
50	0xbc75cbde	-0.015002219
51	0xbdd68bed	-0.104759075
52	0x3e705cbb	0.23472874
53	0x3d892ad0	0.06697619
54	0xbe27213a	-0.16321269
55	0xbef75f36	-0.48314828
56	0xbd970f40	-0.073759556
57	0xbcc0d66f	-0.02353975
58	0xbd801269	-0.062535115
59	0x3b34be67	0.002757931
60	0xbd18048e	-0.03711372
61	0xbd43cd21	-0.047803048
62	0xbd64d01f	-0.055862542
63	0x3e3b73bf	0.18305872
64	0xbd661a7a	-0.056177594
65	0x3e3c9a50	0.1841824
66	0x3e62639a	0.22108307
67	0xbe0d1a3c	-0.13779539
68	0x3d7736bd	0.060354937
69	0x3d0db047	0.03459194
70	0xbdb17f3c	-0.08666846
71	0xbdab877e	-0.083754525
72	0xbdc14477	-0.09436887
73	0xbd421415	-0.047382433
74	0x3c923541	0.017847659
75	0x3e2e0369	0.16993488
76	0xbf2c725f	-0.67362016
77	0xbe77a1e6	-0.24182853
78	0xbd65b96f	-0.056085046
79	0xbdfe5e7a	-0.12420364
80	0xbd62eed7	-0.055403557
81	0xbe84067f	-0.25786206
82	0xbe9f10f0	-0.3106761
83	0xbd166749	-0.036719594
84	0xbd58bf08	-0.052916557
85	0xbd4848a2	-0.048897393
86	0xbe261549	-0.16219057
87	0xbe02fb69	-0.12791218
88	0x3c852e77	0.016257508
89	0x3c578d79	0.013156288
90	0xbdbed78c	-0.09318456
91	0xbdfc602c	-0.12323031
92	0xbe38113c	-0.17975324
93	0xbe05c7ec	-0.13064545
94	0x3d9d2e59	0.07674856
95	0xbe0f83ad	-0.14015074
96	0x3e5c7f1d	0.21532865
97	0xbdabb149	-0.08383424
98	0xbead93ca	-0.33901817
99	0x3ed82ee9	0.4222329
100	0x3ebac981	0.3648186
101	0xbe36a2c4	-0.17835528
102	0xbb9037d6	-0.0044011874
103	0x3e02a4b2	0.12758139
104	0x3e8e6ba5	0.278165
105	0x3e990635	0.29887548
106	0xbe771109	-0.24127592
107	0x3dce35e7	0.10068875
108	0xbcd24c0f	-0.025671033
109	0xbf124d7e	-0.57149494
110	0xbef76eed	-0.48326817
111	0xbe246a63	-0.16056208
112	0x3c48dc04	0.012259487
113	0x3d602265	0.0547203
114	0x3d08a7a0	0.033362985
115	0x3e18ff01	0.14941026
116	0xbe957d9b	-0.29197392
117	0x3e972afb	0.2952498
118	0xbed77165	-0.420787
119	0x3d813e19	0.06310672
120	0x3d6ab701	0.057303432
121	0xbe680a55	-0.22660191
122	0x3e8d8baa	0.27645618
123	0x3dd2bffa	0.10290523
124	0x3d718d1a	0.058972456
125	0xbea780ca	-0.32715446
126	0x3c9bb196	0.019005578
127	0xbea500e7	-0.3222725
128	0xbeabba3e	-0.3354053
129	0x3e6a2276	0.22864708
130	0x3d8bcf33	0.068266295
131	0xbdca6833	-0.09883156
132	0x3e89d1d8	0.2691791
133	0x3b6a9576	0.0035794652
134	0xc0b03521	-5.5064855
135	0xbd1994be	-0.037495367
136	0xbc95e011	-0.01829532
137	0x3e728623	0.23683982
138	0xbedc95ac	-0.4308294
139	0x3dda283c	0.10652205
140	0xbf40fb03	-0.75383013
141	0xbd1f332d	-0.038867164
142	0x3f0c7ad1	0.548749
143	0xbe097c54	-0.13426334
144	0xbd4211ff	-0.047380444
145	0xbcb3fd1d	-0.02197128
146	0xbefc65af	-0.49296328
147	0x3d1b749e	0.03795301
148	0x3df5b514	0.119974285
149	0xbcb03be3	-0.021512931
150	0xbd496c17	-0.049175348
151	0x3e051a02	0.12998202
152	0xbcb3eeb5	-0.02196441
153	0xbf272795	-0.6529477
154	0xbe265f92	-0.16247395
155	0xbd94e6e1	-0.07270599
156	0xbdd78906	-0.10524182
157	0x3ba239a3	0.0049507185
158	0x3e52dbe2	0.20591691
159	0x3e6af335	0.22944339
160	0xbf0d01be	-0.55080783
161	0xbe332876	-0.17495903
162	0x3eac3fcf	0.33642432
163	0xbe12b3fb	-0.1432647
164	0x3f252487	0.6450886
165	0x3eaa382e	0.33245987
166	0x3e2045aa	0.15651575
167	0xbb2e68e0	-0.0026612803
168	0xbe80430f	-0.25051162
169	0x3c89dc80	0.016828775
170	0xbd123852	-0.035698242
171	0x3e1dd4a7	0.15413152
172	0xbf2a31b0	-0.6648207
173	0xbe02d289	-0.12775625
174	0xbc93ce03	-0.01804257
175	0xbe224acf	-0.1584885
176	0xbde5b158	-0.11215466
177	0xbdeb795b	-0.11497756
178	0xbee03da3	-0.43797025
179	0x3d0de383	0.0346408
180	0xbf005668	-0.50131845
181	0x3e377f15	0.17919572
182	0x3d335ce3	0.043789756
183	0x3cadc896	0.02121381
184	0x3e950052	0.29101807
185	0xbe42b22c	-0.1901328
186	0x3f128051	0.57227045
187	0x3e1a12b0	0.15046191
188	0xbe870f66	-0.26378936
189	0x3dab497a	0.08363624
190	0xbeb53683	-0.35393152
191	0xbd9a151f	-0.0752356
192	0x3ce4109d	0.027839953
193	0xbecb7b55	-0.39742532
194	0x3e6977a9	0.22799553
195	0xbe7f1e23	-0.2491384
196	0x3dc48b10	0.095968366
197	0xbe342ef0	-0.1759603
198	0x3f046087	0.5170979
199	0x3d2dd664	0.042440787
200	0x3e9855e1	0.2975302
201	0xbe37128d	-0.1787817
202	0xbf02c2e3	-0.51078624
203	0x3b0902f0	0.0020906292
204	0xbd7f6a90	-0.062357485
205	0x3c5a9bda	0.013342822
206	0xbde43cf1	-0.11144436
207	0xbca6292c	-0.020283304
208	0xbe2c3b7e	-0.1681957
209	0x3e3444f2	0.17604426
210	0x3ab9dbba	0.0014179864
211	0x3d46523f	0.04841828
212	0xbe47a3f9	-0.19496144
213	0x3dcd16a4	0.10014084
214	0xbeadf91f	-0.33979127
215	0x3e577f10	0.21044564
216	0x3e1c5880	0.15268135
217	0x3c9925d4	0.018694796
218	0xc0bce2ab	-5.9026694
219	0xbbcfd67b	-0.0063427067
220	0xbedf7e28	-0.43650937
221	0x3e82327f	0.2542915
222	0x3e03e165	0.1287895
223	0x3db78bff	0.08962249
224	0x3e240b5b	0.16019957
225	0xbe175085	-0.1477681
226	0x3dfb89dc	0.12282154
227	0xbe99fa99	-0.30074003
228	0xbd7a9593	-0.0611778
229	0x3d959ee4	0.073056966
230	0xbeaa9a37	-0.33320782
231	0xbd00ea70	-0.031473577
232	0x3e10ef9d	0.14153905
233	0xbd9186ce	-0.0710579
234	0x3c2d8554	0.01059087
235	0xbd8d36c6	-0.06895213
236	0x3ad5f59e	0.001632381
237	0xbc88c816	-0.01669697
238	0xbd50529f	-0.050860044
239	0xbda16288	-0.078801215
240	0xbf00d3a9	-0.5032297
241	0xbeb3d872	-0.35126072
242	0xbeb709b0	-0.35749578
243	0x3e4800b8	0.19531524
244	0x3e986da0	0.29771137
245	0x3e97c388	0.29641366
246	0xbc229fbb	-0.009925778
247	0x3ebcab81	0.36849597
248	0x3ee0498c	0.43806112
249	0x3e0c441f	0.13697861
250	0x3dafa676	0.08576672
251	0x3e383a0c	0.17990893
252	0x3ed61de3	0.41819677
253	0xbf2530e5	-0.6452773
254	0xbd1faea6	-0.038984917
255	0x3d1c3d39	0.038144324

fc2.bias f4 [128]
0	0x3e90e075	0.28296247
1	0x3f24470f	0.64170927
2	0xbd28bfed	-0.04119866
3	0xbd0420d7	-0.03225788
4	0xbde1c2f3	-0.11023512
5	0x3ca4ad81	0.020102264
6	0x3cedfec2	0.029052142
7	0x3e5564d5	0.20839246
8	0x3d43d26c	0.047808096
9	0xbd36c0c2	-0.044617422
10	0x3e6d5112	0.23175457
11	0x3f167fb6	0.5878862
12	0xbe3262e0	-0.1742053
13	0xbcbb1ac0	-0.022839904
14	0x3e7b0900	0.24515152
15	0xbd45a144	-0.048249498
16	0xbe8b7976	-0.27241105
17	0xbc1dda68	-0.009634592
18	0xbe115a7a	-0.1419467
19	0x3eba7411	0.36416677
20	0xbddc1247	-0.107456736
21	0xbe2f0003	-0.17089848
22	0x3e968bff	0.29403684
23	0x3ee83bb8	0.45358062
24	0xbe11cab8	-0.14237487
25	0xbe5601cd	-0.20899124
26	0x3cc70fa6	0.024299454
27	0x3d15ef40	0.03660512
28	0x3ec178ff	0.37787625
29	0x3c4e3ed9	0.012588226
30	0x3ad8907e	0.0016522554
31	0x3c54c2c7	0.012985892
32	0x3db414dd	0.08793042
33	0xbce83072	-0.028343413
34	0x3e83a585	0.2571222
35	0x3dc4dc71	0.09612358
36	0x3d58d0c4	0.05293347
37	0xbd555405	-0.05208208
38	0x3eada463	0.3391448
39	0x3d0b4c50	0.034008324
40	0x3e4387cb	0.1909477
41	0xbd68183c	-0.056663737
42	0x3e50ce11	0.20391108
43	0x3f1f2683	0.6216814
44	0xbe0c029f	-0.13672875
45	0x3e43a33c	0.19105238
46	0x3c386c99	0.01125636
47	0xbe154ecb	-0.14580838
48	0xbd3795d7	-0.044820633
49	0x3eec6652	0.46171814
50	0x3d894284	0.0670214
51	0xbdd1838a	-0.10230167
52	0xbaa0cd5e	-0.0012268235
53	0x3edc3529	0.43009308
54	0x3ddabbab	0.10680326
55	0x3c35308c	0.011058938
56	0xbeafda6e	-0.34346336
57	0x3eab1492	0.3341413
58	0x3cac5193	0.021034991
59	0x3db98a9a	0.09059639
60	0x3d0ad272	0.033892103
61	0xbd5a779c	-0.053336725
62	0x3de3e0af	0.11126839
63	0xbd16b27b	-0.036791306
64	0x3dbfd608	0.09366995
65	0xbd35b23c	-0.04435943
66	0x3d1c58f8	0.038170785
67	0x3e301b93	0.17198019
68	0x3d0781b2	0.03308267
69	0x3e8d15c7	0.27555677
70	0xbcbe7699	-0.023249911
71	0x3a5ae6a5	0.0008350409
72	0x3d950bf9	0.07277674
73	0x3f23d0ee	0.63990676
74	0xbd6ae422	-0.05734647
75	0x3dbafe26	0.09130506
76	0xbc231208	-0.009953029
77	0x3eed32f2	0.4632793
78	0xbda0a8e9	-0.07844717
79	0xbe1cd9ba	-0.15317431
80	0xbd8a9ee7	-0.067685895
81	0x3e29d0ee	0.16583607
82	0xbd84f539	-0.06492085
83	0x3d365332	0.044512935
84	0x3ca72d31	0.020407291
85	0x3ee712f5	0.4513165
86	0x3d80ffe5	0.06298808
87	0xbe7aa71a	-0.24477807
88	0x3e396e26	0.18108425
89	0xbe1a86cd	-0.15090485
90	0x3daff8c5	0.08592371
91	0x3d9bba54	0.07603899
92	0x3e103938	0.14084327
93	0xbece08a8	-0.4024098
94	0x3e9ac2da	0.30226785
95	0x3dba3eac	0.09093985
96	0x3bbb047d	0.005707322
97	0x3de6f9fa	0.11278148
98	0xbe275680	-0.16341591
99	0x3de782cb	0.11304244
100	0xbc16de82	-0.009208323
101	0xbd2880ca	-0.041138448
102	0xbe983b1f	-0.29732606
103	0xbdc9b648	-0.098492205
104	0xbe683d1b	-0.2267956
105	0x3e1b86a2	0.15188077
106	0xbe6268ea	-0.22110334
107	0xbd8a5313	-0.067541264
108	0xbd63ce66	-0.05561676
109	0xbcf31036	-0.029670816
110	0x3e73cd7f	0.2380886
111	0x3e627f55	0.22118886
112	0xbdda3ff3	-0.106567286
113	0xbd166641	-0.03671861
114	0x3d8f8cc7	0.07009273
115	0x3d44b47c	0.048023686
116	0x3c80faa8	0.015744522
117	0x3dc96ced	0.09835229
118	0xb931f6a4	-0.00016971916
119	0x3db7cbf6	0.08974449
120	0x3df7bc08	0.12096411
121	0xbd8f9f03	-0.07012751
122	0x3ea4d043	0.3219014
123	0x3d424214	0.0474263
124	0x3da686d4	0.08131185
125	0xbd879bcc	-0.06621513
126	0x3d4836ea	0.048880495
127	0xbdb451fe	-0.08804701

out.weight f4 [5, 128]
0	0xbd929c3a	-0.07158704
1	0xbf81a053	-1.0127052
2	0x3e562e2c	0.2091605
3	0x3df28ebe	0.11843632
4	0x3e9f62ca	0.31130058
5	0xbbacd99a	-0.0052749636
6	0x3dadc6c4	0.08485177
7	0xbda4a246	-0.08038764
8	0xbab9cd39	-0.0014175541
9	0xbe103319	-0.14081992
10	0x3d88a042	0.06671192
11	0x3dd94c39	0.106102414
12	0x3e29d133	0.1658371
13	0x3e05f4c5	0.13081653
14	0xbe71b73e	-0.23605058
15	0x3e04a724	0.12954384
16	0x3dc2d2a0	0.0951283
17	0x3d9fb6bd	0.077985264
18	0xbb81c9fd	-0.0039608465
19	0xbe258fdd	-0.1616816
20	0x3e38636f	0.18006681
21	0x3e2b2862	0.16714624
22	0x3dd0ca3a	0.10194822
23	0xbe6df8fd	-0.23239513
24	0xbe815549	-0.2526038
25	0x3daf3fde	0.085571036
26	0x3de35c67	0.11101609
27	0xbe108571	-0.14113404
28	0xbdcba5c9	-0.099437304
29	0xbddfe097	-0.10931509
30	0x3d496633	0.04916973
31	0x3d6022c2	0.054720648
32	0xbd576ba0	-0.052592874
33	0x3e388ea4	0.18023163
34	0x3d9e47df	0.07728552
35	0x3dc6aafd	0.09700582
36	0xbde43bee	-0.11144243
37	0xbe20b71d	-0.15694852
38	0x3d707878	0.058708638
39	0xbe21fcb3	-0.15819053
40	0x3d57faee	0.05272954
41	0x3e559512	0.20857647
42	0x3dad09cc	0.08449134
43	0xbdf1b121	-0.11801363
44	0x3dc9826b	0.098393284
45	0x3e0b15ce	0.13582537
46	0xbdcae8db	-0.09907695
47	0xbdaf699a	-0.08565064
48	0x3e063c21	0.13108875
49	0xbe377037	-0.179139
50	0x3e2c05e6	0.16799125
51	0x3e535b33	0.20640258
52	0x3e17d208	0.14826214
53	0x3d38d3f6	0.045124017
54	0x3daf9fb6	0.08575384
55	0xbd6e69ab	-0.05820624
56	0x3d9eb91d	0.07750151
57	0x3d9f908b	0.07791241
58	0x3e9cd93d	0.3063449
59	0x3dbdd6ec	0.09269509
60	0x3c054eb3	0.008136439
61	0x3def54d0	0.116860986
62	0xbdda95b8	-0.10673088
63	0x3d9aa535	0.07551042
64	0xbd955212	-0.07291044
65	0xbe263bf4	-0.16233808
66	0x3a33d3ee	0.0006859888
67	0xbe1d9f80	-0.15392876
68	0xbd1cc25e	-0.0382713
69	0xbd06ac58	-0.032879204
70	0x3de3753c	0.11106345
71	0xbe12dfe7	-0.14343224
72	0x3ea46162	0.32105547
73	0x3d4b81c5	0.049684305
74	0x3e05383c	0.13009733
75	0xbe7c20d4	-0.24621898
76	0x3e2b4e40	0.16729069
77	0x3e85123a	0.25990468
78	0x3d92ecb6	0.07174055
79	0x3d2e52c4	0.0425594
80	0x3e17b59a	0.14815369
81	0xbe628720	-0.22121859
82	0x3d80699a	0.06270142
83	0xbe12a79a	-0.14321747
84	0x3e59e6a0	0.21279383
85	0xbdee7c05	-0.116447486
86	0xbe16814b	-0.14697759
87	0x3cc23844	0.02370847
88	0xbd8e666c	-0.06953129
89	0x3e1279d9	0.14304294
90	0xbd8e29cf	-0.06941568
91	0xbded91db	-0.11600085
92	0xb89d057f	-7.487367e-05
93	0x3d7d627b	0.061861496
94	0x3c351a95	0.011053701
95	0xbe302ae6	-0.17203864
96	0xbdc72452	-0.097237244
97	0xbe17f741	-0.14840414
98	0xbe26b399	-0.16279449
99	0x3d816a07	0.06319051
100	0x3e7deee6	0.24798164
101	0x3dc4ef9e	0.09616016
102	0x3da70b87	0.081564955
103	0x3e81c9d4	0.25349295
104	0x3e085afa	0.13315955
105	0xbe0567cf	-0.13027881
106	0x3d08908c	0.033340976
107	0x3e488524	0.19582039
108	0xbe49fd70	-0.19725585
109	0x3df5ba5a	0.11998434
110	0xbe430bf3	-0.19047527
111	0xbcb9edc8	-0.02269639
112	0x3c7efb66	0.015562868
113	0xbe12b82d	-0.1432807
114	0x3e3e6905	0.1859475
115	0x3d8b7035	0.06808511
116	0x3da16261	0.078800924
117	0x3e020f58	0.12701166
118	0x3dc997dc	0.09843418
119	0x3e12ea9c	0.14347309
120	0xbe2428e9	-0.16031231
121	0x3ebd9427	0.37027094
122	0x3da31601	0.07963181
123	0x3e3ef52e	0.18648216
124	0x3d3e336f	0.04643577
125	0x3dfd2dee	0.12362276
126	0x3e1932b8	0.14960754
127	0x3e09bb7e	0.13450429
128	0xbe80aeee	-0.2513346
129	0xbf6229e7	-0.8834519
130	0x3e287f6e	0.1645486
131	0x3db9da3e	0.090748295
132	0x3dd5766b	0.10422977
133	0x3e07dc47	0.13267623
134	0x3b969319	0.004595172
135	0xbdb57de8	-0.08861905
136	0x3e07ba72	0.13254717
137	0xbdd95864	-0.10612562
138	0x3e3fff66	0.1874977
139	0xbe7bfd71	-0.24608399
140	0x3e21f255	0.15815099
141	0x3cfc05c9	0.030764477
142	0xbe2b143b	-0.16706936
143	0xbe421876	-0.18954644
144	0x3db5746c	0.08860096
145	0xbde3678a	-0.11103733
146	0x3d742cab	0.05961291
147	0xbe368544	-0.17824274
148	0x3cf9ac6d	0.030477727
149	0x3e0ea087	0.13928424
150	0x3db38f90	0.08767617
151	0xbe19b196	-0.1500915
152	0xbe808912	-0.25104576
153	0x3dd59abf	0.10429906
154	0x3e56b2d1	0.2096665
155	0x3c2fd97a	0.010733003
156	0xbe11a501	-0.142231
157	0x3cd0d568	0.025492385
158	0x3db5f5a2	0.08884741
159	0x3e1628f0	0.14664054
160	0x3d55accc	0.052166745
161	0x3d86c18a	0.065798834
162	0xbd9a15c0	-0.0752368
163	0x3e84f508	0.25968194
164	0x3d9d6935	0.07686082
165	0x3dfd1f80	0.12359524
166	0xbdca3151	-0.098726876
167	0x3d180ae2	0.037119754
168	0xbd642e06	-0.055707954
169	0xbc7d5d35	-0.015464117
170	0x3d12d046	0.035843156
171	0xbd984e4b	-0.07436808
172	0x3cc74301	0.024323942
173	0x3dc768e0	0.097368
174	0x3d8ee4c8	0.0697723
175	0xbdadc6ec	-0.08485207
176	0x3e05f103	0.1308022
177	0xbe193691	-0.14962222
178	0xbe3d7a39	-0.18503655
179	0x3d7271a1	0.059190396
180	0x3d9f36d8	0.077741325
181	0xbc417934	-0.011808682
182	0xbdd95d0c	-0.106134504
183	0x3db96edc	0.09054348
184	0x3e02e28c	0.12781733
185	0xbdefb81f	-0.1170504
186	0x3d661a60	0.056177497
187	0x3e604f2f	0.21905206
188	0xbe0db215	-0.13837464
189	0x3d582a86	0.05277493
190	0xbe86463b	-0.26225457
191	0x3e31a4c6	0.17348012
192	0x3c30d1f3	0.010792243
193	0x3d7f8118	0.062378973
194	0xbca0cce2	-0.019628946
195	0x3e3103d5	0.17286618
196	0x3d87a144	0.06622556
197	0xbc12f946	-0.008970564
198	0x3d95425a	0.07288046
199	0xbd87dd8e	-0.06634055
200	0x3e9e11aa	0.30872852
201	0xbe0078d5	-0.12546094
202	0x3dabd2c4	0.0838981
203	0xbe2fa379	-0.17152204
204	0xbdcd2182	-0.10016157
205	0x3e804094	0.2504927
206	0x3dacc704	0.08436397
207	0x3e0744f9	0.13209905
208	0x3e076b48	0.13224518
209	0x3dd5d289	0.10440547
210	0x3d920453	0.07129731
211	0xbe0eb605	-0.13936622
212	0x3dc89c25	0.09795407
213	0xbeb161a9	-0.3464482
214	0x3e0bad12	0.1364024
215	0x3cbcf9e6	0.02306838
216	0x3e0d4497	0.13795696
217	0x3e163ddc	0.14672035
218	0x3d342a2a	0.043985523
219	0x3c92dd04	0.017927654
220	0xbe5ea4d9	-0.21742572
221	0x3e868963	0.26276693
222	0xbd148c21	-0.03626645
223	0xbd801004	-0.06253055
224	0x3ca72b54	0.020406403
225	0xbdf99764	-0.121870786
226	0x3e271e66	0.1632019
227	0xbd68fc8d	-0.056881476
228	0x3e329a4e	0.17441675
229	0x3da72add	0.081624724
230	0x3e017d2b	0.12645404
231	0x3ded2dc2	0.11580993
232	0x3ddfe214	0.10931793
233	0x3d942dcd	0.07235298
234	0x3a30a7d1	0.0006738874
235	0x3e7eacde	0.24870631
236	0xbe2109ab	-0.15726344
237	0x3d1f0769	0.038825426
238	0xbd753fbe	-0.059875242
239	0xbd28c643	-0.041204702
240	0xbe5eb589	-0.21748938
241	0x3d5e1191	0.05421597
242	0xbd8e9b4c	-0.06963214
243	0x3e016b8b	0.1263868
244	0xbd008680	-0.03137827
245	0x3d8281c6	0.063724086
246	0x3d00a2a4	0.031405106
247	0xbddd8217	-0.10815828
248	0x3e2c7e0f	0.16844963
249	0x3e04203d	0.12902923
250	0x3df7ed62	0.12105824
251	0x3e064fef	0.1311643
252	0xbe0c425b	-0.13697188
253	0x3e06da42	0.13169196
254	0x3db27da3	0.087153696
255	0x3c3ca8a0	0.011514813

out.bias f4 [5]
0	0xbe18f472	-0.14936998
1	0xbe189371	-0.14899994
2	0xbe00bd0a	-0.12572113
3	0xbde36b04	-0.11104396
4	0xbe238381	-0.15968134
