dqn_spacewar_ep80.pth (torch, 83085 bytes, 6 tensors)

fc1.weight f4 [128, 8]
-0.15605596 0.24103613 -0.27208483 -0.050156012 -0.34916654 -0.34600627 -0.041260373 -0.16264434
-0.2735876 -0.29890123 -0.10882 0.044628244 -0.14145447 0.0601873 0.0902901 -0.17198493
-0.026104493 -0.18889062 -0.072812304 0.0815241 -0.2206594 -0.16482869 -0.22164732 -0.19583456
-0.14440386 -0.10607876 1.0987631 0.16399536 -0.10949323 -0.09553038 0.23500817 -1.1182847
0.16813427 0.020660508 0.2200839 -0.09923799 -0.0078019225 -0.3479012 -0.2753241 -0.2709255
0.2876169 -0.08836518 -1.3680478 -0.048006468 -0.12687063 -0.3406855 -0.1509738 1.0425296
-0.21452245 0.16008508 0.37470245 0.12756073 -0.2698963 -0.13097589 0.2063955 0.2429853
0.18549103 -0.11339767 0.04298422 0.022367908 -0.10683926 0.012683181 -0.014444472 -0.7715224
0.21560228 0.23885046 -0.4718632 -0.30869874 -0.38463917 -0.15196633 -0.243524 0.09367267
-0.04395302 0.23232155 0.7222484 -0.23528165 0.079206884 -0.18877245 -0.115032606 -0.27922633
-0.0022453049 0.05881932 -0.3075373 -0.01166319 -0.096826054 -0.41292876 -0.031821508 -0.09137851
0.12074112 0.1054882 0.44752318 0.0013939682 -0.040156692 0.18204598 -0.22666515 -0.09784923
0.109882735 -0.1375677 -0.49874508 -0.07655669 0.099202 -0.39100665 0.021375503 -0.09448646
-0.10283484 0.08304673 -0.22922215 -0.025580494 0.028588487 -0.053583026 -0.04668163 1.180953
0.0270584 0.13949937 0.22916919 0.22384591 -0.1430953 -0.025199594 -0.26103926 -0.49677396
0.10793313 0.23441459 0.5727086 -0.0603938 -0.26628035 0.05281041 -0.1901063 1.0599848
0.13111521 -0.32014808 -1.1322665 0.1356372 0.043031283 -0.06333487 0.028031224 0.32965913
0.1118955 0.06100815 -0.54182804 -0.23766772 0.10628914 -0.10398732 -0.16337632 0.9233684
-0.027893554 -0.1240539 0.25275964 0.21107927 0.1443887 -0.031028504 -0.17759255 -0.35970992
0.015020224 0.093808636 0.0056311404 0.08496009 -0.092372246 -0.18306154 -0.120429486 0.18044204
0.21148066 -0.017751535 -0.11515884 -0.2658831 -0.21292828 -0.096172154 -0.19380115 0.16045474
0.24407606 -0.32806346 1.7502027 -0.2090886 0.28095996 0.10931765 0.032746002 -0.18236144
0.040249538 0.048711896 0.18239258 0.06656413 -0.28230786 0.19688697 0.07250876 -0.26418
-0.07446264 -0.13360731 1.1497643 -0.012737071 0.16215008 0.040431608 0.13960436 -0.47981253
-0.17406526 0.12192583 -1.0398512 0.046270493 0.02264034 -0.13029164 -0.08686703 -0.026391381
-0.35300046 0.33621535 0.25131652 -0.21717992 -0.14243527 -0.056559045 -0.31998974 -0.2500535
-0.33196297 0.100741126 0.30202392 -0.20458986 0.16714247 0.19904149 -0.20161939 0.22196162
-0.043033868 -0.23752825 -1.5791774 -0.07207539 0.23430623 0.36393338 0.14753118 0.13681397
0.26162872 -0.25780025 -0.6699537 0.056208655 -0.113584444 -0.045939956 0.14893337 -0.56843007
0.0642117 0.3367741 -0.27069828 -0.27630597 -0.1040204 0.10831555 0.05607776 -0.68916315
0.25198677 -0.25739574 1.0478071 0.0722608 -0.14058366 -0.28971493 -0.053281154 0.22545308
-0.18183011 0.16717587 -1.8139263 0.24998656 -0.17010085 -0.17911266 -0.22211783 0.21600759
00000000: 22cd 1fbe 2dd2 763e b44e 8bbe 6470 4dbd
00000010: f5c5 b2be bc27 b1be a300 29bd 3d8c 26be
00000020: ad13 8cbe 9509 99be 05dd debd 1bcc 363d
00000030: 71d9 10be f586 763d 04ea b83d d11c 30be
00000040: 17d9 d5bc 8b6c 41be 9e1e 95bd 1bf6 a63d
00000050: 8af4 61be dac8 28be 84f7 62be db88 48be
00000060: 9bde 13be d23f d9bd 45a4 8c3f 66ee 273e
00000070: fd3d e0bd 6fa5 c3bd fba5 703e f423 8fbf
00000080: 642b 2c3e 3a40 a93c ad5d 613e 4a3d cbbd
00000090: 45a7 ffbb 1b20 b2be 48f7 8cbe bfb6 8abe
000000a0: 8642 933e cef8 b4bd 311c afbf 6ea2 44bd
000000b0: 60ea 01be 546e aebe e098 1abe 9c71 853f
000000c0: c6ab 5bbe 58ed 233e 00d9 bf3e 489f 023e
000000d0: d92f 8abe 8b1e 06be 5859 533e 23d1 783e
000000e0: 5cf1 3d3e 0a3d e8bd 3910 303d e73c b73c
000000f0: 8bce dabd 1ecd 4f3c 82a8 6cbc 7e82 45bf
00000100: d8c6 5c3e 3795 743e 0e98 f1be c30d 9ebe
00000110: 6def c4be 109d 1bbe 5b5e 79be 75d7 bf3d
00000120: 1508 34bd b3e5 6d3e 45e5 383f aced 70be
00000130: 3837 a23d 914d 41be 3796 ebbd c1f6 8ebe
00000140: f725 13bb 87ec 703d 8775 9dbe f716 3fbc
00000150: bd4c c6bd 666b d3be 4557 02bd a824 bbbd
00000160: 1f47 f73d 330a d83d c221 e53e d0b5 b63a
00000170: 587b 24bd 436a 3a3e e91a 68be 2d65 c8bd
00000180: 330a e13d 8cde 0cbe 845b ffbe c1c9 9cbd
00000190: 6b2a cb3d 0632 c8be ae1b af3c 1e82 c1bd
000001a0: 139b d2bd 6714 aa3d 36b9 6abe 2f8e d1bc
000001b0: 6732 ea3c e079 5bbd 3d35 3fbd 7829 973f
000001c0: 94a9 dd3c ecd8 0e3e 54ab 6a3e dd37 653e
000001d0: 9387 12be 616f cebc f0a6 85be 2859 febe
000001e0: 0b0c dd3d 610a 703e 089d 123f 7d5f 77bd
000001f0: e655 88be ba4f 583d 3aab 42be 95ad 873f
00000200: 1143 063e 73ea a3be 1cee 90bf 7ae4 0a3e
00000210: 9241 303d b6b5 81bd bda1 e53c 15c9 a83e
00000220: 7829 e53d afe3 793d 3eb5 0abf 2b5f 73be
00000230: 1fae d93d 4ef7 d4bd 1f4c 27be df61 6c3f
00000240: 0681 e4bc f90f febd b669 813e 2a25 583e
00000250: a2da 133e 7d2f febc d2da 35be e62b b8be
00000260: 6317 763c be1e c03d 6e85 b83b 8eff ad3d
00000270: a92d bdbd 7c74 3bbe bca3 f6bd ccc5 383e
00000280: 638e 583e ab6b 91bc 66d8 ebbd d421 88be
00000290: df09 5abe e8f5 c4bd cf73 46be 3f4e 243e
000002a0: 13ef 793e eff7 a7be a406 e03f 521b 56be
000002b0: fcd9 8f3e efe1 df3d ac20 063d f5bc 3abe
000002c0: b3dc 243d 2086 473d 1fc5 3a3e c652 883d
000002d0: a88a 90be bd9c 493e 797f 943d 9a42 87be
000002e0: de7f 98bd 5bd0 08be 7a2b 933f 26af 50bc
000002f0: ac0a 263e 9d9b 253d 72f4 0e3e fda9 f5be
00000300: 2a3e 32be 40b4 f93d d819 85bf 2186 3d3d
00000310: 3c78 b93c 2c6b 05be 57e7 b1bd bd32 d8bc
00000320: 7abc b4be 6b24 ac3e 8fac 803e 6a64 5ebe
00000330: 8dda 11be 75aa 67bd b2d5 a3be 0307 80be
00000340: 0df7 a9be 5d51 ce3d e1a2 9a3e 0180 51be
00000350: 6527 2b3e 88d1 4b3e 5075 4ebe e849 633e
00000360: 4844 30bd 9b3a 73be 7c22 cabf 439c 93bd
00000370: f9ed 6f3e 7a55 ba3e 6a12 173e f618 0c3e
00000380: 33f4 853e 65fe 83be 1682 2bbf 0c3b 663d
00000390: f69e e8bd 892b 3cbd fd81 183e a284 11bf
000003a0: 6c81 833d a86d ac3e f798 8abe fa77 8dbe
000003b0: a608 d5bd 8bd4 dd3d cbb1 653d ff6c 30bf
000003c0: 6904 813e 60c9 83be 8b1e 863f 78fd 933d
000003d0: 2af5 0fbe 8455 94be 573d 5abd 2cdd 663e
000003e0: ac31 3abe 2730 2b3e bd2e e8bf 7afc 7f3e
000003f0: eb2e 2ebe 4f69 37be db72 63be 1831 5d3e

fc1.bias f4 [128]
-0.08242655 0.33706686 -0.20272988 -0.2334878 -0.4196579 0.14243482 -0.38401082 -0.24382858
-0.22504519 0.18521631 -0.49365616 0.008480126 -0.39970303 0.14717676 0.24838227 -0.35396305
-0.10788422 0.28889143 0.12618266 -0.07410209 0.1544551 0.10929502 -0.19383927 -0.3394119
-0.09449027 -0.07995109 -0.17626554 -0.5060283 -0.20992345 0.19244292 0.013106213 0.17834373
0.21285416 -0.00651114 -0.03930092 -0.45281962 0.007687929 0.33935627 0.10474411 -0.13766602
0.43667966 0.27484107 0.2595021 -0.39655975 0.37990725 0.18709765 -0.059330467 0.31465864
-0.04233414 -0.1853437 0.056263108 0.16713461 -0.24135256 0.11763489 -0.18975134 -0.2994463
-0.108899996 -0.36196762 -0.09997245 0.1721034 0.07771215 0.008355694 0.33583143 0.23843935
0.057892155 -0.16539542 -0.4492179 0.2732212 -0.154675 -0.03979248 0.053470314 0.15374683
-0.19788446 -0.112958655 -0.22001386 -0.19618341 -0.0598669 -0.16249017 0.121369794 0.028617969
-0.096276276 0.049121674 -0.2383627 -0.2892045 -0.24488516 -0.14993922 0.07590217 0.11829288
-0.4189275 0.08780364 -0.002689163 -0.13173418 0.15178502 0.12028752 0.18808135 0.33518142
0.053383533 0.24537036 -0.460101 -0.020194747 -0.09431095 -0.42673773 -0.015674239 -0.0025048126
0.10490884 0.27276963 0.05793839 -0.34635475 -0.10398268 0.2734981 0.18258916 -0.26403335
-0.30286536 0.20220834 0.25216934 -0.35255718 -0.29712754 -0.0143211195 -0.25449193 0.1424655
0.20819178 0.23389196 -0.34007508 0.062807314 0.33374092 -0.3461185 -0.22755054 -0.36972955
00000000: 40cf a8bd 0794 ac3e 6c98 4fbe 6d17 6fbe
00000010: 66dd d6be 6fda 113e 119d c4be 33ae 79be
00000020: 3f72 66be 58a9 3d3e 80c0 fcbe 3af0 0a3c
00000030: e0a5 ccbe 81b5 163e ec57 7e3e a53a b5be
00000040: 67f2 dcbd 94e9 933e 0736 013e d6c2 97bd
00000050: 7a29 1e3e 11d6 df3d cd7d 46be 66c7 adbe
00000060: 1d84 c1bd 66bd a3bd f47e 34be 128b 01bf
00000070: 2cf6 56be c20f 453e 71bb 563c bd9f 363e
00000080: 71f6 593e 675b d5bb 00fa 20bd f9d7 e7be
00000090: 06eb fb3b 1bc0 ad3e 1484 d63d 52f8 0cbe
000000a0: 7a94 df3e f8b7 8c3e 76dd 843e e109 cbbe
000000b0: 3483 c23e 8796 3f3e 8104 73bd f01a a13e
000000c0: 9066 2dbd bdca 3dbe 2574 663d 5625 2b3e
000000d0: 2025 77be 90ea f03d 2d4e 42be 0751 99be
000000e0: f606 dfbd d253 b9be 5bbe ccbd e03b 303e
000000f0: 8c27 9f3d 52e6 083c 19f2 ab3e 7229 743e
00000100: 5320 6d3d 6b5d 29be e3ff e5be a6e3 8b3e
00000110: 2063 1ebe 71fd 22bd b003 5b3d cf6f 1d3e
00000120: 39a2 4abe de56 e7bd 504b 61be 4ee4 48be
00000130: ff36 75bd d363 26be ba90 f83d 3b70 ea3c
00000140: 7f2c c5bd cf33 493d 5a15 74be 9d12 94be
00000150: 2dc3 7abe ab89 19be 9972 9b3d 8a43 f23d
00000160: aa7d d6be 65d2 b33d ab3c 30bb 53e5 06be
00000170: 886d 1b3e 4e59 f63d 6698 403e e69c ab3e
00000180: b1a8 5a3d 5e42 7b3e 5c92 ebbe 746f a5bc
00000190: 1926 c1bd 5e7d dabe 4367 80bc c827 24bb
000001a0: 72da d63d 76a8 8b3e ce50 6d3d 6955 b1be
000001b0: dff4 d4bd f107 8c3e a7f8 3a3e 612f 87be
000001c0: 2b11 9bbe b40f 4f3e 571c 813e 6082 b4be
000001d0: 1a21 98be 21a3 6abc c44c 82be 7ae2 113e
000001e0: 3a30 553e 6081 6f3e 521e aebe 1fa1 803d
000001f0: 17e0 aa3e 7236 b1be 0203 69be 314d bdbe

fc2.weight f4 [128, 128]
-0.0438097 0.07214993 0.00031170755 -0.009043437 0.05727539 0.06780657 0.0065389243 -0.068375126
-0.033173203 -0.03860741 0.018973647 -0.08394685 -0.021288678 -0.026109494 -0.08676549 0.08337821
0.058691427 -0.014165927 0.016742598 0.007896993 -0.075747155 -0.0033675649 0.026463345 -0.007816552
0.034840718 0.05888437 -0.011749593 0.088206545 -0.08156424 -0.009089279 0.016445212 -0.04774785
-0.093103394 -0.028490942 -0.08102537 0.033380855 0.07884968 -0.079772644 0.03581869 0.024099251
-0.07241114 0.04102612 -0.03159389 -0.049857676 0.014208781 -0.06926311 0.034047395 -0.08710034
0.013008418 0.006635259 -0.09575016 -0.053247973 -0.012777065 -0.036835074 0.014136181 0.03400786
0.038303416 -0.07439238 0.020828048 0.01846878 -0.037897483 -0.009922078 0.029398613 -0.03450838
0.014132706 0.018478883 -0.021891376 0.013173471 0.018772665 0.0031016709 -0.042261664 0.08023635
-0.07786816 0.06572388 0.0048064794 0.02890552 0.02385424 -0.061111823 -0.07906492 -0.0059494134
0.04418474 -0.025522845 0.03511277 -0.07030885 -0.04185389 -0.016378729 -0.021925433 0.0051153847
0.0013062898 0.025818432 -0.12085156 0.15199216 -0.0066726054 -0.10353416 0.055525973 0.02346726
-0.014132428 -0.024778591 0.022488523 -0.06897548 -0.033437517 -0.07645632 -0.016550783 -0.047400586
0.06398961 -0.072115555 -0.05138957 0.039260812 -0.02854828 0.08045249 0.04789003 -0.108807184
0.0015524742 0.019225992 -0.08697403 -0.0383558 -0.033059504 -0.035162978 -0.009431906 0.047612302
0.0072703785 -0.0562681 -0.045774143 0.01540736 -0.0028407292 0.011110668 -0.08959138 0.016772415
-0.051332206 -0.071688816 -0.0077440827 0.041044377 0.018305797 0.12495956 -0.020782726 0.030685196
-0.02469589 0.05009028 0.032427773 0.013125373 0.05394571 0.06710016 -0.08885673 -0.032100406
0.0006572613 -0.076996304 0.057278637 0.027221916 -0.0074900007 0.047647227 0.019263176 -0.064015314
-0.011302388 -0.04027576 -0.088227026 -0.08039732 0.06494952 0.042144727 -0.04957899 -0.029499743
-0.10916182 -0.014686185 -0.02435439 0.036965583 0.0014251345 0.025856385 -0.012477974 -0.020697895
-0.00729028 -0.02457233 -0.07098063 -0.067631096 -0.0005735298 -0.04260485 0.008023828 -0.04366669
0.07686556 -0.022446154 -0.0069047105 -0.07705766 -0.081457965 -0.07717811 0.015525638 0.061236147
0.0059436616 0.036804467 -0.0077871517 0.014190373 -0.08448011 -0.060131058 -0.05686943 0.0034610163
0.02626306 -0.031100549 -0.0059910933 -0.019412322 -0.017062798 0.0033080955 -0.061075576 -0.03213949
-0.083153255 -0.025850305 -0.09986992 -0.016966056 -0.0617474 0.001670132 -0.08773803 0.016318284
-0.059702918 -0.0030278112 -0.04767581 -0.024581624 0.06153952 -0.030591447 0.0534653 0.0707538
-0.0367921 0.031615715 -0.0923469 0.06625127 -0.09687165 0.00468753 -0.0029654566 -0.008867918
-0.066260114 0.033311196 -0.057079192 0.021446899 0.0071918224 -0.014256509 -0.011980813 0.05615241
-0.028572297 -0.044960488 0.032418855 0.034289572 -0.102090634 0.0045701424 -0.0076204664 0.029174184
-0.019314265 0.060470942 0.033851556 -0.07892853 -0.092128485 0.07811739 0.060628366 -0.014574024
-0.03377746 0.05869579 0.04356187 0.052948873 0.025906065 -0.007875476 -0.042899296 -0.022664366
00000000: cd71 33bd 58c3 933d ae6c a339 ed2a 14bc
00000010: 9999 6a3d 2cde 8a3d 7944 d63b 4208 8cbd
00000020: a0e0 07bd ce22 1ebd 9f6e 9b3c 53ec abbd
00000030: 9865 aebc 94e3 d5bc 1bb2 b1bd 32c2 aa3d
00000040: 6c66 703d 3418 68bc c627 893c 6462 013c
00000050: 5321 9bbd 5db2 5cbb a8c9 d83c ff10 00bc
00000060: 24b5 0e3d bd30 713d 5d81 40bc a2a5 b43d
00000070: 270b a7bd 33eb 14bc 1cb8 863c 4093 43bd
00000080: feac bebd d665 e9bc a1f0 a5bd 5dba 083d
00000090: f17b a13d d75f a3bd 9eb6 123d cb6b c53c
000000a0: 4b4c 94bd 010b 283d 9868 01bd 9037 4cbd
000000b0: f2cb 683c d1d9 8dbd 4875 0b3d aa61 b2bd
000000c0: 4221 553c 966c d93b a918 c4bd 8c1a 5abd
000000d0: e556 51bc 60e0 16bd 719b 673c d34b 0b3d
000000e0: 0be4 1c3d 085b 98bd 959f aa3c d74b 973c
000000f0: 643a 1bbd 3690 22bc 5cd5 f03c a958 0dbd
00000100: de8c 673c 0761 973c 8b55 b3bc 8bd5 573c
00000110: 22c9 993c 6745 4b3b 911a 2dbd f552 a43d
00000120: 5879 9fbd 3e9a 863d ac7f 9d3b 45cb ec3c
00000130: f869 c33c 6450 7abd caec a1bd 4cf3 c2bb
00000140: 0ffb 343d 4915 d1bc 68d2 0f3d 16fe 8fbd
00000150: fc6e 2bbd af2c 86bc f79c b3bc f59e a73b
00000160: d037 ab3a 2d81 d33c 0681 f7bd d5a3 1b3e
00000170: dfa5 dabb b809 d4bd 346f 633d 693e c03c
00000180: b38b 67bc 79fc cabc da39 b83c 0443 8dbd
00000190: c7f5 08bd 2295 9cbd 8295 87bc 1e27 42bd
000001a0: fc0c 833d 52b1 93bd df7d 52bd f2cf 203d
000001b0: 15de e9bc 46c4 a43d 5628 443d 4dd6 debd
000001c0: 647c cb3a d47f 9d3c 711f b2bd f91a 1dbd
000001d0: 6769 07bd 0e07 10bd 4888 1abc 1e05 433d
000001e0: 5b3c ee3b 6179 66bd ab7d 3bbd 276f 7c3c
000001f0: 872b 3abb 8509 363c af7b b7bd 4e66 893c
00000200: b841 52bd 96d1 92bd 13c2 fdbb 261e 283d
00000210: 0af6 953c ccea ff3d 8940 aabc 855f fb3c
00000220: 094f cabc 772b 4d3d fcd2 043d ce0b 573c
00000230: 2df6 5c3d cf6b 893d 84fa b5bd b77b 03bd
00000240: 0f4c 2c3a 3db0 9dbd 019d 6a3d 7f00 df3c
00000250: ae6e f5bb bd29 433d cfcd 9d3c 761a 83bd
00000260: a72d 39bc 32f8 24bd 5fb0 b4bd 5aa7 a4bd
00000270: 4104 853d f39f 2c3d 5713 4bbd 72a9 f1bc
00000280: 3b90 dfbd 539e 70bc dc82 c7bc 3969 173d
00000290: 94cb ba3a c5d0 d33c 6b70 4cbc a28e a9bc
000002a0: 4de3 eebb e94b c9bc 4b5e 91bd 2c82 8abd
000002b0: ef58 16ba 6c82 2ebd 6076 033c d8db 32bd
000002c0: b16b 9d3d ffe0 b7bc e940 e2bb 68d0 9dbd
000002d0: 6fd3 a6bd 8f0f 9ebd 3f5f 7e3c c1d2 7a3d
000002e0: 0cc3 c23b 48c0 163d 5d2b ffbb bd7e 683c
000002f0: e803 adbd fc4b 76bd ebef 68bd 38d2 623b
00000300: a125 d73c 94c6 febc ef50 c4bb 9706 9fbc
00000310: 48c7 8bbc a2cc 583b 622a 7abd b3a4 03bd
00000320: 414c aabd 05c4 d3bc 9a88 ccbd 66fc 8abc
00000330: d7ea 7cbd 55e8 da3a ffaf b3bd ecad 853c
00000340: 0c8b 74bd 3e6e 46bb b647 43bd 675f c9bc
00000350: dd10 7c3d ea9a fabc 6efe 5a3d 5ee7 903d
00000360: 50b3 16bd 7b7f 013d 5f20 bdbd bfae 873d
00000370: a564 c6bd da99 993b 1b58 42bb be4a 11bc
00000380: 62b3 87bd 5271 083d dfcb 69bd 68b1 af3c
00000390: 61a9 eb3b 2294 69bc 2c4b 44bc 1200 663d
000003a0: 7310 eabc 7d28 38bd a2c9 043d 3973 0c3d
000003b0: e514 d1bd 22c1 953b 1bb5 f9bb b3fe ee3c
000003c0: f338 9ebc 61b0 773d eea7 0a3d 48a5 a1bd
000003d0: dcad bcbd 03fc 9f3d 7355 783d e3c7 6ebc
000003e0: 3c5a 0abd ff6a 703d ee6d 323d ebe0 583d
000003f0: f538 d43c 2408 01bc 2cb7 2fbd 9faa b9bc

fc2.bias f4 [128]
-0.050723318 -0.02568376 -0.019059572 -0.088250294 0.02723265 -0.0081548495 0.20485754 -0.022124754
-0.003577056 0.11232828 -0.0077331774 0.00071285974 0.19188629 -0.02165632 0.067606576 -0.04646209
-0.044995133 0.05817362 0.06929922 -0.08264098 -0.0061949296 -0.09565693 -0.04342658 0.022851186
0.26455605 -0.037478838 0.01637144 -0.019053169 0.06071549 -0.12366753 0.0331089 0.14428784
-0.018534783 -0.07401935 0.020419765 -0.036332645 -0.089629255 0.11596595 -0.02659348 0.039962366
0.34437263 -0.06587552 0.20097776 -0.050048076 -0.044270124 0.06016307 -0.07376765 0.017945554
0.4862455 0.15767169 -0.030667827 0.014423405 -0.045750983 -0.0006584616 0.021781085 -0.035981048
-0.024435092 0.0057608155 -0.02487453 -0.051572435 -0.014776868 0.12152307 0.061041325 0.04811351
-0.10302572 -0.05022897 0.19535673 0.03865164 -0.108788274 -0.037610702 -0.05743901 0.100598305
-0.08513773 -0.083223246 -0.097605035 0.030902792 -0.053218935 0.022209419 -0.032881696 -0.08941686
-0.011735506 0.012963146 -0.08121993 0.050467636 0.005182929 -0.02347446 -0.0030554123 0.072648406
0.038328405 -0.056571588 -0.08310411 -0.011567604 -0.0046115806 0.11572853 0.003456667 0.08846265
0.06866737 0.080083184 -0.007265607 0.00021211701 0.037103113 -0.055937152 -0.09155563 -0.030349
-0.06055759 0.065406784 -8.650824e-05 -0.08958432 0.008016592 -0.008696956 0.05704062 -0.051961444
0.25765815 0.06521698 0.1600323 0.024930235 0.11917663 -0.038554166 -0.027703881 -0.035502438
0.07156914 0.20256586 -0.07238527 -0.021654945 0.05983744 0.015157396 0.11482591 -0.058127932
00000000: 41c3 4fbd c066 d2bc d222 9cbc 92bc b4bd
00000010: 0217 df3c eb9b 05bc 2dc6 513e f93e b5bc
00000020: 0b6d 6abb 5f0c e63d 9866 fdbb 35df 3a3a
00000030: d77d 443e 9868 b1bc 5175 8a3d 084f 3ebd
00000040: d14c 38bd 7647 6e3d c0ec 8d3d ad3f a9bd
00000050: d6fe cabb c8e7 c3bd 12e0 31bd 6932 bb3c
00000060: e473 873e 6983 19bd 661d 863c 6415 9cbc
00000070: ceb0 783d 6745 fdbd 339d 073d 31c0 133e
00000080: 42d6 97bc 7597 97bd 5a47 a73c 8ad1 14bd
00000090: 8b8f b7bd 8e7f ed3d 92da d9bc 94af 233d
000000a0: 9c51 b03e bfe9 86bd 1dcd 4d3e 36ff 4cbd
000000b0: 9754 35bd 8d6d 763d 7e13 97bd 8e02 933c
000000c0: 2cf5 f83e b074 213e 183b fbbc 2550 6c3c
000000d0: 6265 3bbd 9c9c 2cba 3f6e b23c dd60 13bd
000000e0: 1a2c c8bc 39c5 bc3b acc5 cbbc 9e3d 53bd
000000f0: ad1a 72bc 16e1 f83d 7806 7a3d ac12 453d
00000100: 26ff d2bd e4bc 4dbd 980b 483e 2f51 1e3d
00000110: 63cc debd ae0d 1abd 2b45 6bbd 7c06 ce3d
00000120: b15c aebd f370 aabd 26e5 c7bd da27 fd3c
00000130: 19fc 59bd 87f0 b53c f5ae 06bd 3020 b7bd
00000140: 4846 40bc 6063 543c a256 a6bd 27b7 4e3d
00000150: 8fd5 a93b 834d c0bc 503d 48bb b0c8 943d
00000160: 3ffe 1c3d 9cb7 67bd 7d32 aabd 0c86 3dbc
00000170: be1c 97bb 1403 ed3d 4089 623b e82b b53d
00000180: 7aa1 8c3d a702 a43d 5414 eebb ba6b 5e39
00000190: 6ff9 173d 5b1e 65bd 8581 bbbd 779e f8bc
000001a0: 3c0b 78bd fef3 853d c26b b5b8 fc77 b7bd
000001b0: 0658 033c ad7d 0ebc 6da3 693d 86d5 54bd
000001c0: c5eb 833e 7b90 853d 82df 233e 7e3a cc3c
000001d0: e112 f43d f9ea 1dbd 40f3 e2bc 016b 11bd
000001e0: d792 923d 6d6d 4f3e ba3e 94bd b665 b1bc
000001f0: 1a18 753d ba56 783c d929 eb3d 8e17 6ebd

out.weight f4 [18, 128]
-0.017250676 -0.05385093 0.046763938 0.019580506 0.06369589 -0.02393645 0.07949615 0.011312341
-0.024308302 0.06307358 -0.07169476 -0.044575714 0.044054028 0.046684183 0.04770939 0.023343835
-0.01891602 -0.004995734 0.04490711 -0.008619684 0.018952068 -0.016547376 0.03082814 0.063975
0.102834895 0.074766815 0.015362415 0.006194798 -0.040389065 0.13490508 0.031729154 0.061071713
0.11013057 0.062028706 0.012433568 -0.010404386 0.012608114 0.0736498 -0.048894685 0.009373432
0.17584786 0.10153723 0.06969672 0.0031769727 -0.07750396 -0.053097907 -0.0008430537 0.08673492
0.17336057 0.069565415 -0.19212462 0.01526161 -0.08783404 -0.006371775 0.049205612 -0.02465669
0.062316082 -0.08797673 0.013936758 -0.07283286 0.006354202 0.049747445 -0.070948005 -0.005566172
-0.078621686 -0.009377372 0.06306923 0.016375044 0.008078933 -0.020808866 0.05776885 0.019755984
0.013532808 0.059055522 -0.0045187487 -0.08148999 -0.0068755317 0.06492483 -0.04315498 0.0019769247
0.05485316 0.0027339952 0.056652356 0.032804187 -0.014855552 0.005634165 0.011370429 -0.0057302853
0.03587132 -0.060967743 -0.10495798 0.0070967274 0.009906367 0.056846496 0.0038219031 0.04470434
0.007350435 0.059794713 -0.0717528 -0.009450119 -0.037649103 -0.0037596978 0.009583575 0.03924345
-0.012209837 0.008897593 0.017747143 0.011799432 -0.08790611 0.011668286 0.15572882 0.027962426
0.09522799 0.03556701 0.14427428 0.08100557 0.05664742 -0.08491785 0.0010219703 0.06030507
0.008878686 0.057733458 -0.0727611 0.18423067 0.064514324 0.05287907 0.108874165 -0.07133739
-0.014730862 0.06279913 -0.07868927 0.03213625 0.059038773 0.04821971 0.08527197 -0.01273108
-0.0043788143 0.0660667 0.008232249 0.05736102 0.035215832 0.05663685 0.06541234 0.011674158
-0.04259614 0.0547149 0.045106888 0.0034842168 -0.06763561 -0.010161768 -0.06735018 -0.04885027
0.10528739 0.008233055 0.046138976 0.0032049308 -0.046782877 0.13244157 0.010184963 0.068972506
0.0929845 -0.076868676 0.025719954 0.025337912 0.048430648 0.05485507 -0.05736892 -0.0017103741
0.17495471 0.09894132 0.06273621 0.07521283 0.05360456 0.06910289 -0.0049012173 0.0854319
0.17224114 0.06719209 -0.19240765 0.055164304 -0.0086882645 0.0076979618 0.047929 0.03296324
0.06577049 0.0045422423 0.0085384995 -0.02320792 0.042563528 0.051087074 -0.06940379 -0.013109499
-0.08005643 -0.03924053 0.06531792 0.004698719 0.03326717 -0.04825723 0.0891796 0.024564298
0.015464986 -0.015928125 0.0058018137 0.07943562 -0.016546546 -0.076881886 -0.04980498 0.021799842
0.037594933 0.009860822 -0.08364221 0.031588286 0.070483334 0.009506453 0.008870328 -0.005900093
0.029477349 0.0885468 -0.10466548 -0.0025482841 0.0039180196 0.05466975 0.009243685 0.037596002
-0.00027425276 0.03642007 -0.010881662 -0.0071291947 -0.078896284 -0.0052440516 -0.00483582 0.05865401
-0.0029679628 0.015558795 0.0019982539 0.036099434 -0.08708329 0.007790176 0.154931 0.059796825
0.09874484 -0.045710053 0.14148583 -0.034612995 0.05413628 -0.042887084 0.009124404 0.04445448
0.014743352 0.056247454 -0.07601901 0.18155593 0.062191635 -0.06456204 0.11033884 -0.05356427
00000000: 4a51 8dbc cb92 5cbd 8b8b 3f3d 4c67 a03c
00000010: fe72 823d 6016 c4bc e1ce a23d 6657 393c
00000020: 3422 c7bc b92c 813d b4d4 92bd 0695 36bd
00000030: ff71 343d ea37 3f3d ec6a 433d 923b bf3c
00000040: c5f5 9abc 41b3 a3bb 85f0 373d 9339 0dbc
00000050: 5e41 9b3c 5d8e 87bc 4c8b fc3c 5305 833d
00000060: 1a9b d23d 581f 993d a4b2 7b3c bbfd ca3b
00000070: 016f 25bd 8f24 0a3e 6ef6 013d 5526 7a3d
00000080: 238c e13d d011 7e3d 2ab6 4b3c 2877 2abc
00000090: 4392 4e3c b5d5 963d cb45 48bd 0693 193c
000000a0: 7611 343e c0f2 cf3d 27bd 8e3d c234 503b
000000b0: 65ba 9ebd 317d 59bd 6000 5dba 14a2 b13d
000000c0: 6f85 313e 5078 8e3d 51bc 44be d50b 7a3c
000000d0: 55e2 b3bd 53ca d0bb d38b 493d d4fc c9bc
000000e0: 263f 7f3d 252d b4bd 0057 643c 6529 95bd
000000f0: e936 d03b fac3 4b3d 304d 91bd 6f64 b6bb
00000100: 6804 a1bd 8da3 19bc 712a 813d f524 863c
00000110: 805d 043c 5b77 aabc 089f 6c3d 4dd7 a13c
00000120: b6b8 5d3c 34e4 713d 0312 94bb 39e4 a6bd
00000130: 244c e1bb 4ff7 843d 47c3 30bd 4b8f 013b
00000140: b5ad 603d d42c 333b 4d0c 683d af5d 063d
00000150: b464 73bc cd9e b83b 094b 3a3c 1ec5 bbbb
00000160: ceed 123d 50b9 79bd 36f4 d6bd aa8b e83b
00000170: 514e 223c dfd7 683d e578 7a3b e61b 373d
00000180: ebdb f03b 4deb 743d 22f3 92bd acd4 1abc
00000190: f235 1abd 4365 76bb 6d04 1d3c bdbd 203d
000001a0: c50b 48bc 36c7 113c 7562 913c 6852 413c
000001b0: 1e08 b4bd 572c 3f3c 6077 1f3e 7511 e53c
000001c0: e406 c33d b7ae 113d a3bc 133e 40e6 a53d
000001d0: 2007 683d 69e9 adbd a2f3 853a 7302 773d
000001e0: e977 113c eb79 6c3d c603 95bd f7a6 3c3e
000001f0: 1620 843d b997 583d 6bf9 de3d 5619 92bd
00000200: b759 71bc d59c 803d d727 a1bd 4da1 033d
00000210: a4d2 713d 0882 453d 12a3 ae3d 0596 50bc
00000220: 287c 8fbb fa4d 873d 8ee0 063c 64f3 6a3d
00000230: 7a3e 103d 0bfc 673d e8f6 853d f844 3f3c
00000240: 4a79 2ebd bb1c 603d 00c2 383d 7557 643b
00000250: 8a84 8abd 8b7d 26bc e4ee 89bd 3917 48bd
00000260: eaa0 d73d efe3 063c 39fc 3c3d d109 523b
00000270: 679f 3fbd c39e 073e d5de 263c 7541 8d3d
00000280: a86e be3d 536d 9dbd a7b2 d23c 7491 cf3c
00000290: 375f 463d b6af 603d acfb 6abd a22e e0ba
000002a0: 5427 333e bfa1 ca3d d87b 803d 2f09 9a3d
000002b0: 7590 5b3d d185 8d3d 649a a0bb ecf6 ae3d
000002c0: fb5f 303e 029c 893d 8306 45be f7f3 613d
000002d0: 3959 0ebc 2f3f fc3b 3351 443d 7604 073d
000002e0: aeb2 863d 17d7 943b 10e5 0b3c 891e bebc
000002f0: 1857 2e3d ae40 513d 9323 8ebd 39c9 56bc
00000300: a0f4 a3bd aeba 20bd 67c5 853d b6f7 993b
00000310: 2843 083d 60a9 45bd cba3 b63d 113b c93c
00000320: da60 7d3c b37b 82bc 241d be3b 24af a23d
00000330: 9f8c 87bc 4074 9dbd 4f00 4cbd 9595 b23c
00000340: 25fd 193d 498f 213c 9b4c abbd b862 013d
00000350: 9159 903d f4c0 1b3c da54 113c 9155 c1bb
00000360: 7b7a f13c 0658 b53d db5a d6bd 1d01 27bb
00000370: bb62 803b 63ed 5f3d d372 173c 44fe 193d
00000380: 95c9 8fb9 362d 153d 0049 32bc 059c e9bb
00000390: 6094 a1bd 4bd6 abbb cc75 9ebb 303f 703d
000003a0: 2782 42bb 51ea 7e3c 23f5 023b 00dd 133d
000003b0: b958 b2bd bc44 ff3b 3ba6 1e3e 84ed 743d
000003c0: bc3a ca3d 773a 3bbd a9e1 103e 5bc6 0dbd
000003d0: 01be 5d3d 5eaa 2fbd 867e 153c e715 363d
000003e0: 1a8e 713c bb63 663d dbaf 9bbd cce9 393e
000003f0: a8bc 7e3d 1a39 84bd 54f9 e13d 3566 5bbd

out.bias f4 [18]
-0.04949456 -0.05717262 -0.05256537 -0.05430242 -0.055859994 -0.052425046 -0.05333771 -0.050872084
-0.053900033 -0.054977432 -0.054144572 -0.053703118 -0.051880967 -0.05619278 -0.054042105 -0.050776284
-0.04826071 -0.052780572
00000000: cfba 4abd d62d 6abd c94e 57bd 376c 5ebd
00000010: 73cd 64bd a5bb 56bd a578 5abd 3f5f 50bd
00000020: 48c6 5cbd 0430 61bd b3c6 5dbd cdf7 5bbd
00000030: 2381 54bd 672a 66bd 415b 5dbd cbfa 4fbd
00000040: 06ad 45bd 7130 58bd
