target_spacewar_ep80.pth (torch, 83121 bytes, 6 tensors)

fc1.weight f4 [128, 8]
000000 22 cd 1f be 2d d2 76 3e b4 4e 8b be 64 70 4d bd
       -0.15605596 0.24103613 -0.27208483 -0.050156012
000010 f5 c5 b2 be bc 27 b1 be a3 00 29 bd 3d 8c 26 be
       -0.34916654 -0.34600627 -0.041260373 -0.16264434
000020 ad 13 8c be 95 09 99 be 05 dd de bd 1b cc 36 3d
       -0.2735876 -0.29890123 -0.10882 0.044628244
000030 71 d9 10 be f5 86 76 3d 04 ea b8 3d d1 1c 30 be
       -0.14145447 0.0601873 0.0902901 -0.17198493
000040 17 d9 d5 bc 8b 6c 41 be 9e 1e 95 bd 1b f6 a6 3d
       -0.026104493 -0.18889062 -0.072812304 0.0815241
000050 8a f4 61 be da c8 28 be 84 f7 62 be db 88 48 be
       -0.2206594 -0.16482869 -0.22164732 -0.19583456
000060 89 0c 14 be 1a b9 d8 bd 4d b0 8c 3f ed 33 28 3e
       -0.14457907 -0.1058218 1.0991303 0.16426058
000070 fa b3 df bd 7e 63 c7 bd f6 1e 70 3e 46 62 8f bf
       -0.10923 -0.097357735 0.2344931 -1.1201866
000080 8c 4c 2b 3e 06 a5 a9 3c cf 4a 5e 3e 3d f6 cc bd
       0.16728419 0.020708572 0.21708225 -0.10007904
000090 94 43 0d bc ca 46 b1 be 05 25 8d be f8 20 8b be
       -0.008622069 -0.3462432 -0.27567306 -0.2717359
0000a0 86 5a 93 3e 10 83 b4 bd 9d 0d af bf 0f 43 43 bd
       0.2878 -0.08814061 -1.367603 -0.047671374
0000b0 c2 5f 01 be 0c 59 b0 be 2a 04 1b be ed 6e 85 3f
       -0.12634185 -0.34442937 -0.15138307 1.0424477
0000c0 9d 66 5c be a6 6f 23 3e fb 95 c0 3e 50 76 02 3e
       -0.21523519 0.15960559 0.37614426 0.12740445
0000d0 3a 3a 8a be f2 f9 09 be 52 32 53 3e 8c 0c 7a 3e
       -0.26997548 -0.13474253 0.20624664 0.24418849
0000e0 29 30 3e 3e 52 26 e7 bd db 9b 2d 3d 0d ab b6 3c
       0.18573059 -0.11286606 0.042384963 0.02229836
0000f0 fa 13 db bd 9b f4 4c 3c 60 9b 61 bc 4e 46 45 bf
       -0.106971696 0.01250949 -0.013769954 -0.770604
000100 75 b4 5d 3e d4 82 75 3e 0b 11 f2 be ca 39 9d be
       0.2165087 0.23975688 -0.47278628 -0.30708152
000110 ac 75 c4 be 78 8a 1c be 22 85 78 be 3d 4a be 3d
       -0.38371027 -0.15287197 -0.24269536 0.092915036
000120 3a 58 35 bd 79 b8 6d 3e d3 77 39 3f 1f 5b 71 be
       -0.044273593 0.23214902 0.7244846 -0.23569916
000130 a6 05 a1 3d 4c e2 40 be e0 90 ea bd 01 b1 8f be
       0.078624055 -0.18836325 -0.11453414 -0.2806473
000140 f7 25 13 bb 87 ec 70 3d 87 75 9d be f7 16 3f bc
       -0.0022453049 0.05881932 -0.3075373 -0.01166319
000150 bd 4c c6 bd 66 6b d3 be 45 57 02 bd a8 24 bb bd
       -0.096826054 -0.41292876 -0.031821508 -0.09137851
000160 1c 50 f7 3d 48 e5 d7 3d f7 23 e5 3e 74 71 af 3a
       0.120758265 0.10541779 0.44754001 0.0013385252
000170 3a e3 24 bd a5 98 38 3e 1e 52 68 be fb 7d c6 bd
       -0.040255763 0.1802698 -0.22687575 -0.096919976
000180 93 b6 df 3d f7 32 0e be 43 e4 fe be d8 38 9d bd
       0.10923495 -0.13886629 -0.49783525 -0.07676858
000190 18 32 c9 3d 45 a5 c8 be 76 b6 a9 3c 54 d9 c0 bd
       0.09824008 -0.3918859 0.020716887 -0.09416452
0001a0 a6 3b d2 bd 84 52 a9 3d b4 cf 6e be e1 34 cf bc
       -0.10265283 0.08267692 -0.2332142 -0.02529377
0001b0 63 97 ea 3c 61 8d 5d bd c9 20 42 bd 32 f4 96 3f
       0.02863664 -0.054089908 -0.047394548 1.1793272
0001c0 40 fd dc 3c 29 42 0f 3e a6 e0 69 3e 06 e4 64 3e
       0.026976228 0.13990082 0.22839603 0.22352609
0001d0 ff e9 12 be 84 cb c4 bc 6c be 85 be 16 a5 fd be
       -0.14347075 -0.024022825 -0.26121843 -0.49540013
0001e0 80 d0 da 3d f1 34 6f 3e 8b 59 11 3f 37 dd 79 bd
       0.106842995 0.2336004 0.56777257 -0.061001983
0001f0 4a 8c 88 be d6 70 67 3d 41 7d 44 be 41 80 87 3f
       -0.26669532 0.056504093 -0.19188406 1.0586015
000200 63 6f 06 3e 26 b7 a3 be fa bf 90 bf e6 e8 0a 3e
       0.13128428 -0.3197567 -1.1308587 0.13565406
000210 42 69 32 3d d8 38 7c bd 6f a5 e6 3c a9 79 a9 3e
       0.043557413 -0.061577648 0.028155057 0.33100632
000220 23 bf e3 3d 86 ed 77 3d 93 ea 0a bf ef 45 73 be
       0.11120441 0.060529254 -0.5426418 -0.23757146
000230 87 f4 d9 3d 4c 24 d3 bd b6 2c 28 be a8 be 6b 3f
       0.10642343 -0.103096575 -0.16423306 0.92087793
000240 84 8f e2 bc 35 82 fe bd f1 59 81 3e bf 3d 58 3e
       -0.027656324 -0.12427179 0.25263932 0.21117304
000250 31 07 14 3e c4 a3 f1 bc b9 f2 35 be 16 57 b7 be
       0.14455868 -0.029497035 -0.17768373 -0.3580863
000260 3b ee 75 3c 0f 54 c0 3d 5b b4 ab 3b 0a f2 ac 3d
       0.015010412 0.09391033 0.005240006 0.08444603
000270 20 34 bf bd 76 7e 3c be 34 20 f7 bd fd 40 34 3e
       -0.09336114 -0.18407616 -0.12066689 0.17602916
000280 63 8e 58 3e ab 6b 91 bc 66 d8 eb bd d4 21 88 be
       0.21148066 -0.017751535 -0.11515884 -0.2658831
000290 df 09 5a be e8 f5 c4 bd cf 73 46 be 3f 4e 24 3e
       -0.21292828 -0.096172154 -0.19380115 0.16045474
0002a0 55 27 7a 3e 41 c8 a7 be 69 ff df 3f 6e ef 55 be
       0.24429066 -0.3276997 1.749982 -0.20892116
0002b0 e7 f8 8f 3e 88 fd db 3d 04 4f 08 3d c7 9a 3b be
       0.28119585 0.107417166 0.03327848 -0.18320762
0002c0 23 d0 23 3d df 9f 44 3d 91 a3 3a 3e 73 3e 87 3d
       0.039993417 0.048004027 0.18226458 0.06603708
0002d0 cb be 90 be 45 c7 4f 3e 73 a5 93 3d 17 ce 87 be
       -0.28270563 0.20290859 0.07209291 -0.26524422
0002e0 ae 30 99 bd 35 66 09 be bb eb 92 3f a8 7a 5d bc
       -0.07479988 -0.13417895 1.1478189 -0.013518013
0002f0 63 ad 25 3e c8 1e 28 3d 99 f3 0e 3e 65 01 f5 be
       0.16179423 0.04104498 0.13960113 -0.47852626
000300 e1 19 32 be 61 f6 f9 3d e0 92 84 bf 2b 18 3d 3d
       -0.17392685 0.12205196 -1.0357323 0.046165626
000310 d6 2f b7 3c 4b 5b 02 be 5c 48 b2 bd 4c 22 e5 bc
       0.022361677 -0.12730138 -0.08705208 -0.027970456
000320 7a bc b4 be 6b 24 ac 3e 8f ac 80 3e 6a 64 5e be
       -0.35300046 0.33621535 0.25131652 -0.21717992
000330 8d da 11 be 75 aa 67 bd b2 d5 a3 be 03 07 80 be
       -0.14243527 -0.056559045 -0.31998974 -0.2500535
000340 0d f7 a9 be 5d 51 ce 3d e1 a2 9a 3e 01 80 51 be
       -0.33196297 0.100741126 0.30202392 -0.20458986
000350 65 27 2b 3e 88 d1 4b 3e 50 75 4e be e8 49 63 3e
       0.16714247 0.19904149 -0.20161939 0.22196162
000360 ed 09 2e bd 55 98 73 be dc f9 c9 bf d5 8c 93 bd
       -0.042489935 -0.23788579 -1.5779376 -0.07204596
000370 e6 10 70 3e af f8 ba 3e f7 d4 15 3e 80 f7 0b 3e
       0.23443946 0.36517856 0.14632021 0.13668633
000380 32 09 86 3e 98 d8 83 be 68 7a 2b bf 14 1c 66 3d
       0.2617889 -0.25751185 -0.6698365 0.05617912
000390 e5 9c e8 bd c5 5d 46 bd 85 9e 18 3e fe 84 11 bf
       -0.1135805 -0.04842927 0.1490422 -0.56843555
0003a0 4f 4b 82 3d d1 80 ac 3e 31 4f 8c be 09 91 8d be
       0.0636202 0.3369203 -0.27404168 -0.27649716
0003b0 31 b8 d5 bd 14 9e e2 3d a5 11 67 3d ab bc 30 bf
       -0.10435522 0.11065307 0.05641331 -0.69037884
0003c0 6f 21 81 3e 5e b3 83 be af 03 86 3f 5d 34 94 3d
       0.2522082 -0.25722784 1.0469874 0.0723655
0003d0 7b 13 10 be cd cd 92 be 5b e6 58 bd 7e fd 66 3e
       -0.14069931 -0.2867264 -0.05295406 0.22557637
0003e0 b7 55 3a be 36 f8 2a 3e ee fa e7 bf ad fd 7f 3e
       -0.1819676 0.16696247 -1.8123453 0.24999113
0003f0 cf 50 2e be 47 73 36 be 7f 69 63 be bc e9 5a 3e
       -0.17023014 -0.17817412 -0.22208212 0.21378225

fc1.bias f4 [128]
000000 40 cf a8 bd 07 94 ac 3e 6c 98 4f be a6 f9 6e be
       -0.08242655 0.33706686 -0.20272988 -0.23337421
000010 f8 57 d7 be 7f 5c 12 3e 84 a4 c4 be 2c ad 79 be
       -0.42059302 0.14293097 -0.38406765 -0.24382466
000020 04 85 65 be a9 8d 3d 3e 80 c0 fc be 23 cd 0d 3c
       -0.22414023 0.1851107 -0.49365616 0.008654865
000030 6a e0 cc be f2 f2 16 3e c0 f5 7d 3e aa 43 b5 be
       -0.40014964 0.14741114 0.24800777 -0.35403186
000040 97 6d db bd 88 dd 93 3e fc 02 01 3e 3a f4 98 bd
       -0.10714262 0.28879952 0.12598795 -0.074684575
000050 7a 29 1e 3e 51 31 e0 3d 8c f4 46 be 0d 0e ae be
       0.1544551 0.10946906 -0.19429225 -0.33995095
000060 bb 45 c2 bd 66 bd a3 bd f4 7e 34 be 7d 80 01 bf
       -0.09485956 -0.07995109 -0.17626554 -0.5058668
000070 91 8a 56 be 50 e6 44 3e 01 6f 57 3c df 6f 36 3e
       -0.20951296 0.19228482 0.013149024 0.17816113
000080 73 8c 59 3e 67 5b d5 bb 98 d4 1e bd bf 65 e7 be
       0.21244983 -0.00651114 -0.038776964 -0.45194814
000090 24 80 01 3c 7a 2c ae 3e 78 3e d6 3d 52 f8 0c be
       0.007904086 0.34018308 0.10461134 -0.13766602
0000a0 85 76 df 3e f8 b7 8c 3e 76 dd 84 3e 95 ed ca be
       0.4364511 0.27484107 0.2595021 -0.39634386
0000b0 29 95 c2 3e 87 96 3f 3e ea 70 73 bd 83 47 a1 3e
       0.38004425 0.18709765 -0.059433855 0.31499872
0000c0 1b 04 2c bd 99 d6 3d be 74 6d 63 3d e5 42 2b 3e
       -0.041996103 -0.18538894 0.055524305 0.16724737
0000d0 74 b5 77 be 1d 49 f2 3d 9f 96 42 be 07 51 99 be
       -0.24190313 0.118303515 -0.1900277 -0.2994463
0000e0 d7 c5 dd bd 39 9f b8 be e4 39 cc bd d9 7b 2e 3e
       -0.108287506 -0.36058977 -0.09971979 0.17039432
0000f0 e9 08 9f 3d 7f 43 f2 3b 71 f5 ab 3e 1d 24 74 3e
       0.07765371 0.0073933 0.33585694 0.23841901
000100 78 99 6c 3d 59 91 29 be f9 32 e6 be a6 e3 8b 3e
       0.057763547 -0.16559352 -0.44960764 0.2732212
000110 f6 5e 1e be 71 fd 22 bd c6 3a 5b 3d d0 ba 1d 3e
       -0.15465912 -0.03979248 0.053522848 0.15403295
000120 fd 01 4b be de 56 e7 bd b4 e0 61 be 4e e4 48 be
       -0.19824977 -0.112958655 -0.22058374 -0.19618341
000130 ff 36 75 bd d3 63 26 be 22 43 f9 3d a6 83 e0 3c
       -0.0598669 -0.16249017 0.12171008 0.027406525
000140 c0 d4 c3 bd 24 74 46 3d 61 4d 74 be 50 d0 93 be
       -0.09562063 0.048450604 -0.23857643 -0.28869867
000150 53 55 7b be ab 89 19 be 99 72 9b 3d 8a 43 f2 3d
       -0.24544267 -0.14993922 0.07590217 0.11829288
000160 31 63 d6 be 21 79 b3 3d 8a 94 32 bb fd b6 06 be
       -0.41872552 0.08763338 -0.002724918 -0.13155742
000170 78 81 1b 3e c4 88 f6 3d a4 62 40 3e e6 9c ab 3e
       0.15186107 0.12037805 0.18787628 0.33518142
000180 b1 a8 5a 3d e4 a5 7a 3e ad 9b eb be 74 6f a5 bc
       0.053383533 0.24477345 -0.4601721 -0.020194747
000190 19 26 c1 bd 3d 4f da be 23 5e 88 bc 14 ea 2c bb
       -0.09431095 -0.4263858 -0.01664645 -0.0026384639
0001a0 bb f0 d7 3d 76 a8 8b 3e 7c be 6d 3d ff 6b b1 be
       0.105439626 0.27276963 0.05804299 -0.34652707
0001b0 23 20 d5 bd 88 f5 8b 3e a7 f8 3a 3e 6c 1b 87 be
       -0.1040652 0.27335763 0.18258916 -0.2638811
0001c0 cf b7 9a be eb a9 4e 3e 57 1c 81 3e 16 37 b4 be
       -0.3021836 0.20182006 0.25216934 -0.35198277
0001d0 64 ea 97 be 21 a3 6a bc c4 4c 82 be 7a e2 11 3e
       -0.29671013 -0.0143211195 -0.25449193 0.1424655
0001e0 90 fc 55 3e b2 37 6f 3e c9 6c ae be 1f a1 80 3d
       0.20897126 0.2336109 -0.3406737 0.062807314
0001f0 17 e0 aa 3e 72 36 b1 be 41 5c 68 be 05 70 bd be
       0.33374092 -0.3461185 -0.22691442 -0.36999527

fc2.weight f4 [128, 128]
000000 cd 71 33 bd 58 c3 93 3d ae 6c a3 39 ed 2a 14 bc
       -0.0438097 0.07214993 0.00031170755 -0.009043437
000010 99 99 6a 3d 2c de 8a 3d 79 44 d6 3b 42 08 8c bd
       0.05727539 0.06780657 0.0065389243 -0.068375126
000020 a0 e0 07 bd ce 22 1e bd 9f 6e 9b 3c 53 ec ab bd
       -0.033173203 -0.03860741 0.018973647 -0.08394685
000030 98 65 ae bc 94 e3 d5 bc 1b b2 b1 bd 32 c2 aa 3d
       -0.021288678 -0.026109494 -0.08676549 0.08337821
000040 6c 66 70 3d 34 18 68 bc c6 27 89 3c 64 62 01 3c
       0.058691427 -0.014165927 0.016742598 0.007896993
000050 53 21 9b bd 5d b2 5c bb a8 c9 d8 3c ff 10 00 bc
       -0.075747155 -0.0033675649 0.026463345 -0.007816552
000060 24 b5 0e 3d bd 30 71 3d 5d 81 40 bc a2 a5 b4 3d
       0.034840718 0.05888437 -0.011749593 0.088206545
000070 27 0b a7 bd 33 eb 14 bc 1c b8 86 3c 40 93 43 bd
       -0.08156424 -0.009089279 0.016445212 -0.04774785
000080 fe ac be bd d6 65 e9 bc a1 f0 a5 bd 5d ba 08 3d
       -0.093103394 -0.028490942 -0.08102537 0.033380855
000090 f1 7b a1 3d d7 5f a3 bd 9e b6 12 3d cb 6b c5 3c
       0.07884968 -0.079772644 0.03581869 0.024099251
0000a0 4b 4c 94 bd 01 0b 28 3d 98 68 01 bd 90 37 4c bd
       -0.07241114 0.04102612 -0.03159389 -0.049857676
0000b0 f2 cb 68 3c d1 d9 8d bd 48 75 0b 3d aa 61 b2 bd
       0.014208781 -0.06926311 0.034047395 -0.08710034
0000c0 42 21 55 3c 96 6c d9 3b a9 18 c4 bd 8c 1a 5a bd
       0.013008418 0.006635259 -0.09575016 -0.053247973
0000d0 e5 56 51 bc 60 e0 16 bd 71 9b 67 3c d3 4b 0b 3d
       -0.012777065 -0.036835074 0.014136181 0.03400786
0000e0 0b e4 1c 3d 08 5b 98 bd 95 9f aa 3c d7 4b 97 3c
       0.038303416 -0.07439238 0.020828048 0.01846878
0000f0 64 3a 1b bd 36 90 22 bc 5c d5 f0 3c a9 58 0d bd
       -0.037897483 -0.009922078 0.029398613 -0.03450838
000100 de 8c 67 3c 07 61 97 3c 8b 55 b3 bc 8b d5 57 3c
       0.014132706 0.018478883 -0.021891376 0.013173471
000110 22 c9 99 3c 67 45 4b 3b 91 1a 2d bd f5 52 a4 3d
       0.018772665 0.0031016709 -0.042261664 0.08023635
000120 58 79 9f bd 3e 9a 86 3d ac 7f 9d 3b 45 cb ec 3c
       -0.07786816 0.06572388 0.0048064794 0.02890552
000130 f8 69 c3 3c 64 50 7a bd ca ec a1 bd 4c f3 c2 bb
       0.02385424 -0.061111823 -0.07906492 -0.0059494134
000140 0f fb 34 3d 49 15 d1 bc 68 d2 0f 3d 16 fe 8f bd
       0.04418474 -0.025522845 0.03511277 -0.07030885
000150 fc 6e 2b bd af 2c 86 bc f7 9c b3 bc f5 9e a7 3b
       -0.04185389 -0.016378729 -0.021925433 0.0051153847
000160 d0 37 ab 3a 2d 81 d3 3c 06 81 f7 bd d5 a3 1b 3e
       0.0013062898 0.025818432 -0.12085156 0.15199216
000170 df a5 da bb b8 09 d4 bd 34 6f 63 3d 69 3e c0 3c
       -0.0066726054 -0.10353416 0.055525973 0.02346726
000180 b3 8b 67 bc 79 fc ca bc da 39 b8 3c 04 43 8d bd
       -0.014132428 -0.024778591 0.022488523 -0.06897548
000190 c7 f5 08 bd 22 95 9c bd 82 95 87 bc 1e 27 42 bd
       -0.033437517 -0.07645632 -0.016550783 -0.047400586
0001a0 fc 0c 83 3d 52 b1 93 bd df 7d 52 bd f2 cf 20 3d
       0.06398961 -0.072115555 -0.05138957 0.039260812
0001b0 15 de e9 bc 46 c4 a4 3d 56 28 44 3d 4d d6 de bd
       -0.02854828 0.08045249 0.04789003 -0.108807184
0001c0 64 7c cb 3a d4 7f 9d 3c 71 1f b2 bd f9 1a 1d bd
       0.0015524742 0.019225992 -0.08697403 -0.0383558
0001d0 67 69 07 bd 0e 07 10 bd 48 88 1a bc 1e 05 43 3d
       -0.033059504 -0.035162978 -0.009431906 0.047612302
0001e0 5b 3c ee 3b 61 79 66 bd ab 7d 3b bd 27 6f 7c 3c
       0.0072703785 -0.0562681 -0.045774143 0.01540736
0001f0 87 2b 3a bb 85 09 36 3c af 7b b7 bd 4e 66 89 3c
       -0.0028407292 0.011110668 -0.08959138 0.016772415
000200 b8 41 52 bd 96 d1 92 bd 13 c2 fd bb 26 1e 28 3d
       -0.051332206 -0.071688816 -0.0077440827 0.041044377
000210 0a f6 95 3c cc ea ff 3d 89 40 aa bc 85 5f fb 3c
       0.018305797 0.12495956 -0.020782726 0.030685196
000220 09 4f ca bc 77 2b 4d 3d fc d2 04 3d ce 0b 57 3c
       -0.02469589 0.05009028 0.032427773 0.013125373
000230 2d f6 5c 3d cf 6b 89 3d 84 fa b5 bd b7 7b 03 bd
       0.05394571 0.06710016 -0.08885673 -0.032100406
000240 0f 4c 2c 3a 3d b0 9d bd 01 9d 6a 3d 7f 00 df 3c
       0.0006572613 -0.076996304 0.057278637 0.027221916
000250 ae 6e f5 bb bd 29 43 3d cf cd 9d 3c 76 1a 83 bd
       -0.0074900007 0.047647227 0.019263176 -0.064015314
000260 a7 2d 39 bc 32 f8 24 bd 5f b0 b4 bd 5a a7 a4 bd
       -0.011302388 -0.04027576 -0.088227026 -0.08039732
000270 41 04 85 3d f3 9f 2c 3d 57 13 4b bd 72 a9 f1 bc
       0.06494952 0.042144727 -0.04957899 -0.029499743
000280 3b 90 df bd 53 9e 70 bc dc 82 c7 bc 39 69 17 3d
       -0.10916182 -0.014686185 -0.02435439 0.036965583
000290 94 cb ba 3a c5 d0 d3 3c 6b 70 4c bc a2 8e a9 bc
       0.0014251345 0.025856385 -0.012477974 -0.020697895
0002a0 4d e3 ee bb e9 4b c9 bc 4b 5e 91 bd 2c 82 8a bd
       -0.00729028 -0.02457233 -0.07098063 -0.067631096
0002b0 ef 58 16 ba 6c 82 2e bd 60 76 03 3c d8 db 32 bd
       -0.0005735298 -0.04260485 0.008023828 -0.04366669
0002c0 b1 6b 9d 3d ff e0 b7 bc e9 40 e2 bb 68 d0 9d bd
       0.07686556 -0.022446154 -0.0069047105 -0.07705766
0002d0 6f d3 a6 bd 8f 0f 9e bd 3f 5f 7e 3c c1 d2 7a 3d
       -0.081457965 -0.07717811 0.015525638 0.061236147
0002e0 0c c3 c2 3b 48 c0 16 3d 5d 2b ff bb bd 7e 68 3c
       0.0059436616 0.036804467 -0.0077871517 0.014190373
0002f0 e8 03 ad bd fc 4b 76 bd eb ef 68 bd 38 d2 62 3b
       -0.08448011 -0.060131058 -0.05686943 0.0034610163
000300 a1 25 d7 3c 94 c6 fe bc ef 50 c4 bb 97 06 9f bc
       0.02626306 -0.031100549 -0.0059910933 -0.019412322
000310 48 c7 8b bc a2 cc 58 3b 62 2a 7a bd b3 a4 03 bd
       -0.017062798 0.0033080955 -0.061075576 -0.03213949
000320 41 4c aa bd 05 c4 d3 bc 9a 88 cc bd 66 fc 8a bc
       -0.083153255 -0.025850305 -0.09986992 -0.016966056
000330 d7 ea 7c bd 55 e8 da 3a ff af b3 bd ec ad 85 3c
       -0.0617474 0.001670132 -0.08773803 0.016318284
000340 0c 8b 74 bd 3e 6e 46 bb b6 47 43 bd 67 5f c9 bc
       -0.059702918 -0.0030278112 -0.04767581 -0.024581624
000350 dd 10 7c 3d ea 9a fa bc 6e fe 5a 3d 5e e7 90 3d
       0.06153952 -0.030591447 0.0534653 0.0707538
000360 50 b3 16 bd 7b 7f 01 3d 5f 20 bd bd bf ae 87 3d
       -0.0367921 0.031615715 -0.0923469 0.06625127
000370 a5 64 c6 bd da 99 99 3b 1b 58 42 bb be 4a 11 bc
       -0.09687165 0.00468753 -0.0029654566 -0.008867918
000380 62 b3 87 bd 52 71 08 3d df cb 69 bd 68 b1 af 3c
       -0.066260114 0.033311196 -0.057079192 0.021446899
000390 61 a9 eb 3b 22 94 69 bc 2c 4b 44 bc 12 00 66 3d
       0.0071918224 -0.014256509 -0.011980813 0.05615241
0003a0 73 10 ea bc 7d 28 38 bd a2 c9 04 3d 39 73 0c 3d
       -0.028572297 -0.044960488 0.032418855 0.034289572
0003b0 e5 14 d1 bd 22 c1 95 3b 1b b5 f9 bb b3 fe ee 3c
       -0.102090634 0.0045701424 -0.0076204664 0.029174184
0003c0 f3 38 9e bc 61 b0 77 3d ee a7 0a 3d 48 a5 a1 bd
       -0.019314265 0.060470942 0.033851556 -0.07892853
0003d0 dc ad bc bd 03 fc 9f 3d 73 55 78 3d e3 c7 6e bc
       -0.092128485 0.07811739 0.060628366 -0.014574024
0003e0 3c 5a 0a bd ff 6a 70 3d ee 6d 32 3d eb e0 58 3d
       -0.03377746 0.05869579 0.04356187 0.052948873
0003f0 f5 38 d4 3c 24 08 01 bc 2c b7 2f bd 9f aa b9 bc
       0.025906065 -0.007875476 -0.042899296 -0.022664366

fc2.bias f4 [128]
000000 41 c3 4f bd c0 66 d2 bc d2 22 9c bc 92 bc b4 bd
       -0.050723318 -0.02568376 -0.019059572 -0.088250294
000010 b0 75 dc 3c eb 9b 05 bc a2 17 52 3e f9 3e b5 bc
       0.026911587 -0.0081548495 0.20516828 -0.022124754
000020 0b 6d 6a bb a2 d9 e5 3d 98 66 fd bb 35 df 3a 3a
       -0.003577056 0.11223151 -0.0077331774 0.00071285974
000030 64 fb 43 3e 9c 1b bd bc 51 75 8a 3d a6 04 3a bd
       0.19138867 -0.023084454 0.067606576 -0.04541459
000040 d1 4c 38 bd 76 47 6e 3d be 30 8f 3d ad 3f a9 bd
       -0.044995133 0.05817362 0.06991719 -0.08264098
000050 d6 fe ca bb c8 e7 c3 bd 12 e0 31 bd 69 32 bb 3c
       -0.0061949296 -0.09565693 -0.04342658 0.022851186
000060 b9 53 87 3e 69 83 19 bd 66 1d 86 3c 64 15 9c bc
       0.26431063 -0.037478838 0.01637144 -0.019053169
000070 ce b0 78 3d 4f 10 fc bd 33 9d 07 3d 0d 81 13 3e
       0.06071549 -0.12307798 0.0331089 0.14404698
000080 42 d6 97 bc 75 97 97 bd 5a 47 a7 3c b4 85 17 bd
       -0.018534783 -0.07401935 0.020419765 -0.036992744
000090 8b 8f b7 bd f6 a2 ed 3d 92 da d9 bc 94 af 23 3d
       -0.089629255 0.11603348 -0.02659348 0.039962366
0000a0 a6 b8 af 3e ea 65 86 bd b2 7b 4d 3e 36 ff 4c bd
       0.34320563 -0.06562407 0.20066717 -0.050048076
0000b0 97 54 35 bd 8d 6d 76 3d 7e 13 97 bd 14 7c 94 3c
       -0.044270124 0.06016307 -0.07376765 0.018125571
0000c0 94 0e f8 3e 8f 06 21 3e 44 13 fb bc 25 50 6c 3c
       0.48448622 0.15725158 -0.030648835 0.014423405
0000d0 62 65 3b bd 9c 9c 2c ba 5f 3a bb 3c dd 60 13 bd
       -0.045750983 -0.0006584616 0.022854982 -0.035981048
0000e0 b4 d9 c6 bc 39 c5 bc 3b ac c5 cb bc 9e 3d 53 bd
       -0.02427373 0.0057608155 -0.02487453 -0.051572435
0000f0 ad 1a 72 bc 7b 6a f9 3d 13 c3 7b 3d 35 ef 4b 3d
       -0.014776868 0.12178513 0.061465334 0.049788672
000100 33 88 d4 bd e4 bc 4d bd 96 c2 47 3e 2f 51 1e 3d
       -0.103775404 -0.05022897 0.19507822 0.03865164
000110 63 cc de bd ae 0d 1a bd bc 64 63 bd 31 79 ce 3d
       -0.108788274 -0.037610702 -0.05551599 0.10081709
000120 b1 5c ae bd f3 70 aa bd 26 e5 c7 bd da 27 fd 3c
       -0.08513773 -0.083223246 -0.097605035 0.030902792
000130 19 fc 59 bd 87 f0 b5 3c d7 89 06 bd 30 20 b7 bd
       -0.053218935 0.022209419 -0.032846298 -0.08941686
000140 48 46 40 bc 60 63 54 3c a2 56 a6 bd 27 b7 4e 3d
       -0.011735506 0.012963146 -0.08121993 0.050467636
000150 8f d5 a9 3b 83 4d c0 bc 50 3d 48 bb b0 c8 94 3d
       0.005182929 -0.02347446 -0.0030554123 0.072648406
000160 1a ae 1f 3d 9c b7 67 bd 35 f3 a9 bd 0c 86 3d bc
       0.038984396 -0.056571588 -0.08298341 -0.011567604
000170 be 1c 97 bb c6 76 ec 3d 40 89 62 3b 65 22 b4 3d
       -0.0046115806 0.11546092 0.003456667 0.08795623
000180 7a a1 8c 3d a7 02 a4 3d 54 14 ee bb ba 6b 5e 39
       0.06866737 0.080083184 -0.007265607 0.00021211701
000190 64 bf 1c 3d 5b 1e 65 bd 85 81 bb bd 77 9e f8 bc
       0.03826846 -0.055937152 -0.09155563 -0.030349
0001a0 3c 0b 78 bd fe f3 85 3d c2 6b b5 b8 fc 77 b7 bd
       -0.06055759 0.065406784 -8.650824e-05 -0.08958432
0001b0 62 bc 01 3c ad 7d 0e bc 7e 08 69 3d 86 d5 54 bd
       0.007918449 -0.008696956 0.056892864 -0.051961444
0001c0 2e fc 83 3e 7b 90 85 3d d5 dc 23 3e 7e 3a cc 3c
       0.25778335 0.06521698 0.1600221 0.024930235
0001d0 2f 69 f2 3d f9 ea 1d bd 40 f3 e2 bc 01 6b 11 bd
       0.118364684 -0.038554166 -0.027703881 -0.035502438
0001e0 1e b6 94 3d f2 f0 4e 3e ba 3e 94 bd da 7e b2 bc
       0.072612986 0.20209101 -0.07238527 -0.021789003
0001f0 df 42 74 3d ba 56 78 3c f4 13 ec 3d 8e 17 6e bd
       0.059634086 0.015157396 0.11527243 -0.058127932

out.weight f4 [18, 128]
000000 4a 51 8d bc cb 92 5c bd 8b 8b 3f 3d 4c 67 a0 3c
       -0.017250676 -0.05385093 0.046763938 0.019580506
000010 9d 06 7b 3d 60 16 c4 bc e8 51 a1 3d 66 57 39 3c
       0.061285604 -0.02393645 0.078769505 0.011312341
000020 34 22 c7 bc 61 79 81 3d b4 d4 92 bd 06 95 36 bd
       -0.024308302 0.06321979 -0.07169476 -0.044575714
000030 ea 31 34 3d 97 65 4a 3d ec 6a 43 3d 44 60 c6 3c
       0.043992914 0.04941329 0.04770939 0.024215825
000040 c5 f5 9a bc 41 b3 a3 bb 23 57 3d 3d 93 39 0d bc
       -0.01891602 -0.004995734 0.04622568 -0.008619684
000050 5e 41 9b 3c 5d 8e 87 bc 4c 8b fc 3c 53 05 83 3d
       0.018952068 -0.016547376 0.03082814 0.063975
000060 64 78 d2 3d 58 1f 99 3d a4 b2 7b 3c bb fd ca 3b
       0.10276869 0.074766815 0.015362415 0.006194798
000070 01 6f 25 bd c5 e5 06 3e 6e f6 01 3d 92 f0 7d 3d
       -0.040389065 0.13173588 0.031729154 0.061997004
000080 23 8c e1 3d d0 11 7e 3d 2a b6 4b 3c 58 d1 bc bb
       0.11013057 0.062028706 0.012433568 -0.0057622604
000090 43 92 4e 3c b6 50 9e 3d cb 45 48 bd 06 93 19 3c
       0.012608114 0.07730238 -0.048894685 0.009373432
0000a0 c5 ea 34 3e e8 f9 cb 3d f1 46 8e 3d c2 34 50 3b
       0.17667682 0.09959775 0.06947125 0.0031769727
0000b0 65 ba 9e bd 31 7d 59 bd 60 00 5d ba 3e 74 b2 3d
       -0.07750396 -0.053097907 -0.0008430537 0.08713578
0000c0 f5 ca 30 3e eb 3b 8d 3d 1a 85 45 be d5 0b 7a 3c
       0.17264922 0.06896194 -0.19289055 0.01526161
0000d0 55 e2 b3 bd 53 ca d0 bb a6 30 4d 3d d4 fc c9 bc
       -0.08783404 -0.006371775 0.050095223 -0.02465669
0000e0 33 3b 7b 3d 25 2d b4 bd 00 57 64 3c 65 29 95 bd
       0.061335754 -0.08797673 0.013936758 -0.07283286
0000f0 e9 36 d0 3b a5 e1 52 3d 81 4a 8d bd a9 50 c1 bb
       0.006354202 0.051484723 -0.06898976 -0.005899508
000100 61 f8 a1 bd 8d a3 19 bc 1b c4 82 3d f5 24 86 3c
       -0.07908703 -0.009377372 0.063850604 0.016375044
000110 80 5d 04 3c 5b 77 aa bc 08 9f 6c 3d c3 da b1 3c
       0.008078933 -0.020808866 0.05776885 0.021710759
000120 b6 b8 5d 3c 34 e4 71 3d 03 12 94 bb 39 e4 a6 bd
       0.013532808 0.059055522 -0.0045187487 -0.08148999
000130 24 4c e1 bb 4f f7 84 3d 15 da 1c bd 4b 8f 01 3b
       -0.0068755317 0.06492483 -0.038293917 0.0019769247
000140 b5 ad 60 3d d4 2c 33 3b 4d 0c 68 3d af 5d 06 3d
       0.05485316 0.0027339952 0.056652356 0.032804187
000150 b4 64 73 bc cd 9e b8 3b 09 4b 3a 3c 1e c5 bb bb
       -0.014855552 0.005634165 0.011370429 -0.0057302853
000160 ac a0 13 3d 50 b9 79 bd 67 dc d6 bd aa 8b e8 3b
       0.0360419 -0.060967743 -0.10491257 0.0070967274
000170 51 4e 22 3c 02 cb 61 3d e5 78 7a 3b 66 90 33 3d
       0.009906367 0.055125244 0.0038219031 0.04383888
000180 eb db f0 3b 4d eb 74 3d 22 f3 92 bd ac d4 1a bc
       0.007350435 0.059794713 -0.0717528 -0.009450119
000190 f2 35 1a bd 43 65 76 bb 6d 04 1d 3c bd bd 20 3d
       -0.037649103 -0.0037596978 0.009583575 0.03924345
0001a0 c5 0b 48 bc 36 c7 11 3c 75 62 91 3c 68 52 41 3c
       -0.012209837 0.008897593 0.017747143 0.011799432
0001b0 36 e1 b4 bd 57 2c 3f 3c 98 d6 1f 3e 75 11 e5 3c
       -0.08832018 0.011668286 0.15609205 0.027962426
0001c0 5d 2f c4 3d b7 ae 11 3d f0 a5 12 3e 40 e6 a5 3d
       0.09579346 0.03556701 0.14321113 0.08100557
0001d0 ce 9a 6e 3d 69 e9 ad bd a2 f3 85 3a 73 02 77 3d
       0.058253102 -0.08491785 0.0010219703 0.06030507
0001e0 4c 49 13 3c 5b 54 67 3d c6 03 95 bd e4 93 3d 3e
       0.008989643 0.056476932 -0.0727611 0.18513447
0001f0 16 55 81 3d b9 97 58 3d 4d c5 e1 3d 56 19 92 bd
       0.06315057 0.05287907 0.1102396 -0.07133739
000200 b7 59 71 bc d5 9c 80 3d d7 27 a1 bd 4d a1 03 3d
       -0.014730862 0.06279913 -0.07868927 0.03213625
000210 2e f0 74 3d 08 82 45 3d b3 34 ad 3d 05 96 50 bc
       0.059799366 0.04821971 0.08457317 -0.01273108
000220 28 7c 8f bb e0 7d 87 3d 8e e0 06 3c 64 f3 6a 3d
       -0.0043788143 0.066158056 0.008232249 0.05736102
000230 71 25 18 3d 94 98 66 3d e8 f6 85 3d d4 15 84 3c
       0.037145082 0.056297854 0.06541234 0.01612369
000240 4a 79 2e bd bb 1c 60 3d 09 12 35 3d 75 57 64 3b
       -0.04259614 0.0547149 0.044206653 0.0034842168
000250 8a 84 8a bd 8b 7d 26 bc e4 ee 89 bd 39 17 48 bd
       -0.06763561 -0.010161768 -0.06735018 -0.04885027
000260 26 fa d6 3d ef e3 06 3c 39 fc 3c 3d d1 09 52 3b
       0.10496931 0.008233055 0.046138976 0.0032049308
000270 67 9f 3f bd 4f 0b 0a 3e d5 de 26 3c 75 58 8f 3d
       -0.046782877 0.13480876 0.010184963 0.06999294
000280 a8 6e be 3d 53 6d 9d bd a7 b2 d2 3c d9 be 9e 3c
       0.0929845 -0.076868676 0.025719954 0.019378113
000290 37 5f 46 3d 09 6d 62 3d ac fb 6a bd a2 2e e0 ba
       0.048430648 0.055279765 -0.05736892 -0.0017103741
0002a0 34 dd 33 3e 8c 85 c6 3d 0b e4 7e 3d 2f 09 9a 3d
       0.17564851 0.09693441 0.062229197 0.07521283
0002b0 75 90 5b 3d d1 85 8d 3d 64 9a a0 bb 2c 55 ae 3d
       0.05360456 0.06910289 -0.0049012173 0.08512339
0002c0 96 16 2c 3e 82 59 8d 3d 2f bb 46 be f7 f3 61 3d
       0.16805491 0.06901838 -0.19407342 0.055164304
0002d0 39 59 0e bc 2f 3f fc 3b d9 50 50 3d 76 04 07 3d
       -0.0086882645 0.0076979618 0.050858352 0.03296324
0002e0 1a 8a 86 3d 17 d7 94 3b 10 e5 0b 3c 89 1e be bc
       0.065693095 0.0045422423 0.0085384995 -0.02320792
0002f0 18 57 2e 3d d7 e8 59 3d 1d 1b 8d bd fa 8c 6d bc
       0.042563528 0.05320057 -0.06889937 -0.014498943
000300 8a 13 a2 bd ae ba 20 bd 3e 4b 86 3d b6 f7 99 3b
       -0.07913883 -0.03924053 0.0655732 0.004698719
000310 28 43 08 3d 60 a9 45 bd cb a3 b6 3d ea b6 cf 3c
       0.03326717 -0.04825723 0.0891796 0.025355775
000320 da 60 7d 3c b3 7b 82 bc 24 1d be 3b 24 af a2 3d
       0.015464986 -0.015928125 0.0058018137 0.07943562
000330 9f 8c 87 bc 40 74 9d bd c2 98 4c bd 95 95 b2 3c
       -0.016546546 -0.076881886 -0.04995037 0.021799842
000340 25 fd 19 3d 49 8f 21 3c 9b 4c ab bd b8 62 01 3d
       0.037594933 0.009860822 -0.08364221 0.031588286
000350 91 59 90 3d f4 c0 1b 3c da 54 11 3c 91 55 c1 bb
       0.070483334 0.009506453 0.008870328 -0.005900093
000360 5d 1b 0e 3d 06 58 b5 3d e5 30 d6 bd 1d 01 27 bb
       0.034694064 0.0885468 -0.10458545 -0.0025482841
000370 bb 62 80 3b 16 f3 67 3d d3 72 17 3c 1e d0 23 3d
       0.0039180196 0.05662831 0.009243685 0.039993398
000380 95 c9 8f b9 36 2d 15 3d 00 49 32 bc 05 9c e9 bb
       -0.00027425276 0.03642007 -0.010881662 -0.0071291947
000390 0f 8a 9b bd 4b d6 ab bb cc 75 9e bb 30 3f 70 3d
       -0.07594692 -0.0052440516 -0.00483582 0.05865401
0003a0 27 82 42 bb 51 ea 7e 3c 23 f5 02 3b 00 dd 13 3d
       -0.0029679628 0.015558795 0.0019982539 0.036099434
0003b0 0e 78 b5 bd bc 44 ff 3b a5 67 1e 3e 84 ed 74 3d
       -0.08860789 0.007790176 0.15469225 0.059796825
0003c0 c8 01 c7 3d 77 3a 3b bd 01 bd 10 3e 5b c6 0d bd
       0.097171366 -0.045710053 0.141346 -0.034612995
0003d0 fc dd 5f 3d 5e aa 2f bd 86 7e 15 3c e7 15 36 3d
       0.05465506 -0.042887084 0.009124404 0.04445448
0003e0 93 bd 5b 3c df d6 6c 3d db af 9b bd 5b a0 3c 3e
       0.013411897 0.057822105 -0.07601901 0.18420546
0003f0 92 9d 84 3d 1a 39 84 bd 9f e9 e0 3d 35 66 5b bd
       0.06475367 -0.06456204 0.1098206 -0.05356427

out.bias f4 [18]
000000 f5 93 4f bd ff 38 6a bd c1 32 56 bd 68 15 5e bd
       -0.050678212 -0.057183262 -0.052294496 -0.054219633
000010 d8 1b 63 bd d3 1a 57 bd a0 c9 57 bd 26 91 4d bd
       -0.055446476 -0.052515816 -0.05268252 -0.050187252
000020 38 9b 59 bd 40 4f 5c bd 3a 88 50 bd 1f ac 54 bd
       -0.053126544 -0.053786516 -0.050911166 -0.05192196
000030 a1 5c 5a bd 49 c8 5b bd 66 f5 52 bd 89 e8 53 bd
       -0.053310994 -0.053657804 -0.05150356 -0.051735435
000040 19 18 47 bd 49 01 57 bd
       -0.048606966 -0.05249146
