SimplifiedSpaceWar/dqn2.pth (torch, 78385 bytes, 6 tensors)

fc1.weight f4 [128, 13]
-0.21876414 -1.5253015 -0.12851566 0.019542161 -0.30519655 -0.052677788 -0.23761359 0.28112715
-0.6913727 -0.43608043 0.020886574 -0.43797183 -0.52815014 2.7929952 -4.556215 1.2174112
-0.68458986 -0.68535215 0.18827127 1.5907834 0.3704205 -0.5325671 3.1829176 -0.5931445
-0.90667355 0.850604 -0.238059 -5.294551 -0.4369949 -1.0058485 0.031840026 -0.54628754
1.0421652 1.0688872 -0.46180212 -1.0691394 -0.8987745 0.9987841 -0.31755966 -1.625536
-0.015554471 0.13118456 0.24587923 -1.5863763 -0.44486842 -0.47775313 1.6927382 -0.10383973
6.012499 -0.48062566 -0.2555411 1.0260644 1.5121028 -0.017466316 -0.343862 0.2744322
1.9363343 -0.7040038 0.3320571 0.7567417 -0.17050467 -0.17158659 -1.5107452 0.09555311
1.0464698 3.5836482 -0.3700799 0.53901964 0.015373763 -0.6910207 0.99719125 0.5318119
-0.93961215 -0.37064463 -0.026000421 0.9851894 -0.7545271 -0.53770214 3.2177978 -1.0761485
-0.065548584 1.4160883 -0.4767 0.5078055 0.5470998 1.2895113 -0.16907027 -0.5338829
1.8381263 -4.8673277 -0.118337564 -4.3020353 0.056526925 -0.39282563 1.0456059 -0.60338044
-0.593751 0.8688427 0.6169046 -0.18654074 1.0200423 0.5099206 -1.1414311 3.0238605
-1.1501758 -3.0734527 0.75206625 -0.29659572 -0.43893912 1.2961125 0.3187871 -0.9589168
-0.41229856 2.9219282 1.8124473 -1.0711402 -0.15960218 0.5348796 1.889357 -0.11135555
0.29844758 -0.3291609 1.5446676 -0.54733455 -1.4969794 -0.2255818 -2.37797 0.42993283
1.1832154 0.08842902 -2.8993793 1.1449122 -0.3724442 -0.3339752 1.090607 -0.6299855
0.0012429438 -3.5101142 -0.6092341 -1.0777783 -0.06646598 -0.9403775 -1.0804683 -1.092765
0.9271034 -0.009955472 -0.026418066 11.1476 0.06152873 -0.058916014 -0.52830696 -0.018987391
4.507712 -9.790996 -0.3731882 -0.23292965 -0.2709359 -0.17601076 -0.5334955 0.35223725
-0.42312935 -0.48092148 -0.39927515 0.17390746 -0.5124024 -0.38660067 0.5191104 0.4115283
-0.2140326 4.0298934 -4.9379287 1.5576193 -0.68847126 -1.9535927 -1.3144298 0.6454397
0.9865341 -0.18821505 3.384904 0.29723302 1.4695941 1.3159974 -1.6156442 3.2120702
-0.58035463 -0.06334863 2.0721161 0.5333944 0.92749035 1.5937871 -0.13190342 2.9774096
1.0954859 1.3477929 -0.42142862 -0.3426544 2.5970092 0.5634185 -0.5749639 -0.7704299
0.56679094 0.15216099 2.7567835 -0.3972842 2.9820611 1.2116429 -0.6141323 0.21114515
-4.4515643 12.697695 -0.004145432 -0.72826153 -1.8508865 -0.3908564 1.3559324 0.13669275
-0.084803246 -0.3223378 -0.25753444 2.3326037 -0.31432903 1.8558255 7.1751976 -0.13126348
-0.2395529 3.8867304 0.29338828 0.4082602 0.32716164 -0.73026687 0.47028378 1.3624659
-1.4834076 -0.05849743 -3.3958685 2.7569196 -0.7501469 0.40552795 -0.9622436 -1.5439419
0.24268822 -0.24201131 -0.25258642 -0.8088575 -0.5322694 -0.9027708 -0.93573385 5.9341664
-2.847448 1.028855 -0.09155977 1.175429 0.26127228 0.65876234 -2.4766047 -0.16526355
00000000: b503 60be 143d c3bf 9c99 03be e216 a03c
00000010: b942 9cbe aac4 57bd fa50 73be e6ef 8f3e
00000020: cdfd 30bf ef45 dfbe 521a ab3c d83d e0be
00000030: d934 07bf 6fc0 3240 83cc 91c0 21d4 9b3f
00000040: 4841 2fbf 3d73 2fbf 2fca 403e ca9e cb3f
00000050: c1a7 bd3e 5156 08bf ecb4 4b40 51d8 17bf
00000060: c21b 68bf 2fc1 593f bdc5 73be f66c a9c0
00000070: ccbd dfbe a5bf 80bf b06a 023d 80d9 0bbf
00000080: ab65 853f 4cd1 883f 5471 ecbe 8fd9 88bf
00000090: 1616 66bf 51b0 7f3f 2e97 a2be 9011 d0bf
000000a0: 2ed8 7ebc 3f55 063e c4c7 7b3e 610e cbbf
000000b0: cbc5 e3be 0f9c f4be a5ab d83f eda9 d4bd
000000c0: 6466 c040 9114 f6be 48d6 82be 1456 833f
000000d0: 968c c13f 8515 8fbc ae0e b0be 6182 8c3e
000000e0: cdd9 f73f 9839 34bf 6303 aa3e d3b9 413f
000000f0: c798 2ebe 65b4 2fbe 1960 c1bf 59b1 c33d
00000100: b9f2 853f 7e5a 6540 1d7b bdbe 31fd 093f
00000110: 3ce2 7b3c bce6 30bf ed47 7f3f d324 083f
00000120: 6c8a 70bf 22c5 bdbe d6fe d4bc 5f35 7c3f
00000130: b028 41bf d9a6 09bf 66f0 4d40 3cbf 89bf
00000140: 563e 86bd 6242 b53f 0612 f4be 8bff 013f
00000150: bc0e 0c3f b50e a53f c220 2dbe 8dac 08bf
00000160: b947 eb3f 26c1 9bc0 f75a f2bd 46aa 89c0
00000170: c788 673d 7120 c9be 6ad6 853f 2477 1abf
00000180: 1100 18bf 7a6c 5e3f 76ed 1d3f 8904 3fbe
00000190: bf90 823f 288a 023f 6a1a 92bf ee86 4140
000001a0: f638 93bf 73b3 44c0 6a87 403f 65db 97be
000001b0: a1bc e0be 04e7 a53f 1038 a33e 927b 75bf
000001c0: cc18 d3be df00 3b40 46fe e73f 1f1b 89bf
000001d0: c16e 23be dfed 083f 73d6 f13f 610e e4bd
000001e0: 1fce 983e c787 a8be abb7 c53f 1e1e 0cbf
000001f0: 059d bfbf eafe 66be a930 18c0 2820 dc3e
00000200: 9a73 973f 461a b53d 6e8f 39c0 7c8c 923f
00000210: 02b1 bebe ccfe aabe 0399 8b3f bb46 21bf
00000220: 46ea a23a b6a5 60c0 c4f6 1bbf a4f4 89bf
00000230: 511f 88bd 94bc 70bf c94c 8abf b9df 8bbf
00000240: a656 6d3f 471c 23bc b36a d8bc 925c 3241
00000250: 8d05 7c3d eb51 71bd 203f 07bf 728b 9bbc
00000260: 2d3f 9040 eba7 1cc1 8612 bfbe 1c85 6ebe
00000270: 1cb8 8abe 2a3c 34be 2993 08bf 7158 b43e
00000280: 69a4 d8be 573b f6be cb6d ccbe cc14 323e
00000290: ce2c 03bf 86f0 c5be 6be4 043f d6b3 d23e
000002a0: 5d2b 5bbe e3f4 8040 8303 9ec0 1260 c73f
000002b0: a73f 30bf 530f fabf 3c3f a8bf 893b 253f
000002c0: 808d 7c3f 72bb 40be 44a2 5840 ed2e 983e
000002d0: a91b bc3f 9a72 a83f 6ecd cebf 8f92 4d40
000002e0: 1f92 14bf edbc 81bd 8d9d 0440 898c 083f
000002f0: 0270 6d3f 3701 cc3f b111 07be e18d 3e40
00000300: e238 8c3f 7a84 ac3f 7ec5 d7be 6670 afbe
00000310: 6635 2640 323c 103f d630 13bf e53a 45bf
00000320: 3619 113f 17d0 1b3e 246f 3040 d668 cbbe
00000330: 17da 3e40 1d17 9b3f c637 1dbf 6f36 583e
00000340: 3773 8ec0 c229 4b41 67d6 87bb 596f 3abf
00000350: d9e9 ecbf 541e c8be 318f ad3f 2ff9 0b3e
00000360: 53ad adbd 7609 a5be 8edb 83be 6149 1540
00000370: bcef a0be b18b ed3f 389b e540 ef69 06be
00000380: 5b4d 75be 31c0 7840 fd36 963e 7b07 d13e
00000390: bb81 a73e c5f2 3abf 09c9 f03e 4865 ae3f
000003a0: 4de0 bdbf 009b 6fbd e955 59c0 5f71 3040
000003b0: a109 40bf 5ca1 cf3e 9955 76bf e39f c5bf
000003c0: 4383 783e d0d1 77be 0253 81be 4911 4fbf
000003d0: cf42 08bf fd1b 67bf 418c 6fbf b1e4 bd40
000003e0: 973c 36c0 85b1 833f b083 bbbd 7574 963f
000003f0: 7bc5 853e a6a4 283f b180 1ec0 d93a 29be

fc1.bias f4 [128]
-0.5634778 0.78900003 0.7743731 0.44673997 -0.1473658 0.08132562 -0.017282506 0.16576487
0.45864508 1.6841917 -0.19752702 1.7435558 -0.012696985 0.58052516 0.49176875 -0.7626568
3.4699154 -1.0980068 0.70821404 1.0737606 0.11069995 -0.54246676 0.22795494 -0.64677143
0.1902934 0.23890954 0.90541 -0.889091 0.2461919 -0.31808278 -0.38307217 0.87696356
0.27658835 0.16779627 0.15947449 0.7956986 -0.2581752 0.34865493 0.5243844 0.36452845
-0.30836725 -0.8484671 0.09315811 -1.5271918 -0.18105713 -0.019461004 -0.40070748 0.30852383
0.25607046 -0.5387356 -0.9952308 1.0884428 0.25588536 -0.6336248 -0.3184787 -0.29489455
0.8367967 -0.6571057 0.25184217 1.602848 0.10081696 0.019975526 2.1910698 -0.4270503
-1.2170533 -0.16983406 1.0379968 -0.61049944 -0.43808174 0.47001785 -0.16513675 -0.1335553
0.6210128 0.4039597 0.4991431 0.54145086 -0.4980686 0.95980346 1.9879925 0.28175485
0.399026 1.1505646 0.87972474 -0.43822655 -0.78358626 0.83315617 0.5049704 -0.14065398
-0.6265499 1.5889913 -0.41577294 0.41404718 4.461879 0.0060756477 0.33107054 0.62420195
0.2978587 0.2943999 0.49141344 0.015112338 -0.3246073 -0.50895166 0.6487608 0.3543861
0.6027821 1.3139755 0.45035842 9.088961 0.2604095 1.8451356 0.6995635 3.45409
-0.12340081 1.5711182 0.5863347 0.82312876 0.9313777 -0.121819064 0.84189457 4.8500934
0.50259274 -0.32525697 -0.51440513 -1.058094 1.0076104 -0.048455175 0.689199 -1.2078061
00000000: 1540 10bf e8fb 493f 513d 463f 1abb e43e
00000010: 0fe7 16be 0c8e a63d 0b94 8dbc 44be 293e
00000020: 87d3 ea3e 9893 d73f 8644 4abe d62c df3f
00000030: 0407 50bc 4c9d 143f 1dc9 fb3e 7a3d 43bf
00000040: 1813 5e40 7d8b 8cbf 844d 353f fd70 893f
00000050: a8b6 e23d 1adf 0abf 056d 693e d092 25bf
00000060: 46dc 423e b4a4 743e f3c8 673f 789b 63bf
00000070: bb19 7c3e bfdb a2be 0922 c4be af80 603f
00000080: fd9c 8d3e c9d2 2b3e 484d 233e e7b2 4b3f
00000090: 8a2f 84be e682 b23e 0e3e 063f 79a3 ba3e
000000a0: 50e2 9dbe 2435 59bf aec9 be3d 057b c3bf
000000b0: 0a67 39be af6c 9fbc 8829 cdbe d6f6 9d3e
000000c0: ab1b 833e 94ea 09bf 72c7 7ebf 1852 8b3f
000000d0: 6803 833e 3c35 22bf a40f a3be 6bfc 96be
000000e0: 4f38 563f 1438 28bf 75f1 803e 202a cd3f
000000f0: 1f79 ce3d b7a3 a33c 7d3a 0c40 56a6 dabe
00000100: 67c8 9bbf fbe8 2dbe 14dd 843f b149 1cbf
00000110: 404c e0be 2ea6 f03e 9c19 29be b8c2 08be
00000120: b2fa 1e3f ced3 ce3e af8f ff3e 869c 0a3f
00000130: d902 ffbe aeb5 753f 8a76 fe3f 2c42 903e
00000140: 234d cc3e b345 933f a435 613f 3b5f e0be
00000150: 1c99 48bf b949 553f bd45 013f 9907 10be
00000160: 9365 20bf 1164 cb3f 31e0 d4be fefd d33e
00000170: b6c7 8e40 3a16 c73b 1482 a93e b3cb 1f3f
00000180: ef80 983e 95bb 963e 8b9a fb3e bd99 773c
00000190: ee32 a6be a84a 02bf 3015 263f 1872 b53e
000001a0: ed4f 1a3f 5930 a83f 6195 e63e 626c 1141
000001b0: 6554 853e 672d ec3f 9816 333f d00f 5d40
000001c0: 90b9 fcbd 671a c93f 081a 163f 91b8 523f
000001d0: c56e 6e3f 467c f9bd 6786 573f f733 9b40
000001e0: eba9 003f 1588 a6be 0eb0 03bf a06f 87bf
000001f0: 61f9 803f ef78 46bd 586f 303f 6499 9abf

fc2.weight f4 [128, 128]
-0.03633686 -0.03512707 -0.087980926 -0.023036748 0.016745232 -0.050968405 -0.001448999 0.019517783
-0.04331487 0.013679089 0.02114008 0.038666006 0.065384366 -0.0036671285 -0.11294133 -0.070336394
-0.05695393 -0.04978776 -0.078217804 -0.090542525 -0.019257452 -0.013852303 0.04600965 0.027478954
-0.014047927 -0.0569887 -0.027266076 -0.08406725 0.019087221 -0.05915327 -0.093253486 -0.03572897
-0.07448026 0.0005151284 -0.004170893 -0.03828427 0.06214709 -1.886323e-05 -0.0036498222 0.05100553
0.007030642 0.057254467 -0.047803506 -0.03689864 -0.06254905 0.02856392 -0.081682816 -0.0920178
-0.002576774 -0.009481742 -0.06573952 -0.07162009 -0.042016204 -0.011298566 -0.07631865 0.04871289
-0.015725419 0.006652852 -0.059750255 -0.023840783 0.07314694 0.061748356 -0.08330192 0.05124017
-0.04576553 -0.115716964 0.015867135 0.075172886 0.03482965 -0.021833954 -0.06765282 -0.088351205
-0.13185911 0.045974813 -0.06120914 0.006905919 -0.08288854 -0.115973644 -0.06426049 0.04684855
0.031392965 -0.039129585 -0.09990111 0.046237715 -0.07108951 -0.09151015 0.08541009 -0.045458723
-0.02734427 -0.03402734 -0.026047498 -0.11207741 0.017020423 -0.08631644 -0.088843234 -0.020970037
-0.023551406 -0.0060125007 -0.0033638664 -0.11566475 0.06411016 0.03929711 0.07068499 0.040189054
0.018645912 -0.06360941 -0.1014689 -0.1435668 0.0025763947 0.054731768 0.019794777 -0.042549662
0.022602405 0.056931023 -0.055853497 -0.097474575 0.039721202 0.016162546 -0.05609288 -0.05108336
-0.10290714 0.08262295 -0.083288 0.07853457 0.015717518 -0.025337178 -0.004805638 0.010454279
-0.021036735 -0.08742449 -0.012544527 -0.18314366 0.024340093 0.056334067 -0.13360119 -0.081904106
-0.016176365 -0.08298009 -0.056817155 -0.050310474 -0.025774019 0.021417279 -0.06833842 0.0025073371
-0.037058245 0.032079805 -0.028205821 -0.07680538 -0.08618824 -0.11605098 -0.07211351 0.0030870985
-0.0373828 0.0026882165 0.013799687 -0.094703935 0.04599007 -0.039910577 0.015969224 0.0041798432
-0.18549855 0.032550156 -0.022892121 0.008491871 -0.061866254 0.017688071 -0.06919971 -0.05592729
0.044787347 0.040097993 -0.13815391 -0.098553225 0.02667436 -0.09301373 -0.04046478 0.014889663
-0.05464621 -0.06055628 -0.049082033 0.021800643 -0.10839138 0.0030861907 0.0025842134 0.014095282
-0.0662806 -0.0591597 -0.013878734 -0.10147154 0.07758837 0.012890302 -0.03350529 -0.022000011
-0.10672485 0.0323377 -0.020589199 0.07596258 0.000760293 0.015280214 -0.027758315 -0.11513248
-0.015471177 -0.042666204 0.02959696 -0.041388698 0.003887311 -0.12902921 0.019131076 -0.030154089
-0.046873894 0.021385713 -0.05673017 0.077273846 -0.060331695 -0.09341505 0.045155816 0.0068929787
-0.11918023 0.025878279 -0.105601616 -0.09215715 0.033865754 -0.03383281 -0.017928297 -0.07387132
-0.055237208 0.04698227 -0.119021945 -0.056097854 -0.02850669 0.05005286 0.013424171 -0.039301895
-0.06198989 0.034408234 -0.012914319 -0.046770137 -0.12165014 -0.049598135 -0.10509422 -0.07156658
-0.065132126 -0.018899878 0.0513804 -0.028715458 -0.031007016 0.07538067 -0.11518418 -0.035444763
-0.022106532 -0.042815644 -0.0023675465 0.006290886 -0.10227111 -0.12624653 -0.05600855 -0.09061716
00000000: f6d5 14bd 67e1 0fbd 582f b4bd 90b7 bcbc
00000010: 4c2d 893c 3fc4 50bd 57ec bdba c2e3 9f3c
00000020: ef6a 31bd 421e 603c f62d ad3c 3f60 1e3d
00000030: 3de8 853d 3554 70bb c94d e7bd 870c 90bd
00000040: 8648 69bd 40ee 4bbd a830 a0bd 5c6e b9bd
00000050: cec1 9dbc c5f4 62bc 9d74 3c3d 8b1b e13c
00000060: 4729 66bc fc6c 69bd 1b5d dfbc 732b acbd
00000070: ce5c 9c3c b34a 72bd affb bebd 8a58 12bd
00000080: 1b89 98bd af09 073a fdab 88bb f7cf 1cbd
00000090: f28d 7e3d 7a3c 9eb7 db31 6fbb 2deb 503d
000000a0: 4d61 e63b a983 6a3d 9ccd 43bd 0723 17bd
000000b0: b719 80bd e2fe e93c 5249 a7bd d473 bcbd
000000c0: 18df 28bb 4f59 1bbc 71a2 86bd 8ead 92bd
000000d0: 2f19 2cbd 9f1d 39bc f44c 9cbd 2b87 473d
000000e0: 98d2 80bc 2b00 da3b afbc 74bd bf4d c3bc
000000f0: 10ce 953d d8eb 7c3d 329a aabd 36e1 513d
00000100: a374 3bbd 04fd ecbd cbfb 813c 3ef4 993d
00000110: 89a9 0e3d 1fdd b2bc 908d 8abd 7af1 b4bd
00000120: 1306 07be 1650 3c3d 6fb6 7abd 0c4b e23b
00000130: 78c1 a9bd 9783 edbd 019b 83bd 44e4 3f3d
00000140: e995 003d 5846 20bd f498 ccbd c263 3d3d
00000150: 6197 91bd ac69 bbbd 7ceb ae3d ed32 3abd
00000160: 1701 e0bc 4160 0bbd 9061 d5bc d788 e5bd
00000170: 6a6e 8b3c acc6 b0bd 71f3 b5bd 5bc9 abbc
00000180: e1ee c0bc 8304 c5bb 5074 5cbb a4e1 ecbd
00000190: 304c 833d 02f6 203d 4bc3 903d 479d 243d
000001a0: 50bf 983c a645 82bd edce cfbd 2d03 13be
000001b0: bbd8 283b 6b2e 603d a828 a23c 8e48 2ebd
000001c0: ae28 b93c 8130 693d a3c6 64bd c0a0 c7bd
000001d0: b3b2 223d 5167 843c a6c1 65bd c93c 51bd
000001e0: fbc0 d2bd 3936 a93d e692 aabd bcd6 a03d
000001f0: 06c2 803c ea8f cfbc 9d78 9dbb 6d48 2b3c
00000200: 3b55 acbc 9c0b b3bd 8f87 4dbc 038a 3bbe
00000210: e064 c73c 8dbe 663d c0ce 08be 57bd a7bd
00000220: 4c84 84bc 77f1 a9bd 1bb9 68bd 5b12 4ebd
00000230: 0924 d3bc 4a73 af3c 03f5 8bbd 2352 243b
00000240: 63ca 17bd 1d66 033d e50f e7bc 244c 9dbd
00000250: 7683 b0bd 23ac edbd 3fb0 93bd eb50 4a3b
00000260: b51e 19bd ca2c 303b 1518 623c 23f4 c1bd
00000270: 1560 3c3d 4679 23bd e4d1 823c 11f7 883b
00000280: 55f3 3dbe 5053 053d 4288 bbbc 7d21 0b3c
00000290: 7867 7dbd 93e6 903c 94b8 8dbd 0414 65bd
000002a0: f072 373d cb3d 243d 3878 0dbe 46d6 c9bd
000002b0: 3084 da3c fc7d bebd 66be 25bd c6f3 733c
000002c0: b4d4 5fbd dd09 78bd 3e0a 49bd 4397 b23c
000002d0: 4dfc ddbd b041 4a3b e85b 293b e6ef 663c
000002e0: 20be 87bd 7151 72bd a163 63bc 50d0 cfbd
000002f0: a7e6 9e3d d831 533c d83c 09bd 5e39 b4bc
00000300: 8f92 dabd 8974 043d aeaa a8bc 4592 9b3d
00000310: 664e 473a dd59 7a3c 6865 e3bc 94ca ebbd
00000320: d27a 7dbc c2c2 2ebd 5375 f23c 3287 29bd
00000330: 42c2 7e3b 3c20 04be c6b8 9c3c b505 f7bc
00000340: d7fe 3fbd 1731 af3c e55d 68bd c041 9e3d
00000350: 5e1e 77bd 6450 bfbd 4ef5 383d 7fde e13b
00000360: c414 f4bd affe d33c a945 d8bd e3bc bcbd
00000370: d1b6 0a3d 4694 0abd 5dde 92bc d949 97bd
00000380: 6940 62bd 7b70 403d c7c1 f3bd ddc6 65bd
00000390: dd86 e9bc 3a04 4d3d 0ef1 5b3c 06fb 20bd
000003a0: 1ce9 7dbd a6ef 0c3d 9496 53bc 0b92 3fbd
000003b0: b523 f9bd 6a27 4bbd a33b d7bd 8091 92bd
000003c0: fe63 85bd ebd3 9abc 4174 523d ae3c ebbc
000003d0: 6d02 febc 2e61 9a3d afe5 ebbd 872e 11bd
000003e0: c218 b5bc 755f 2fbd d728 1bbb c723 ce3b
000003f0: 8473 d1bd c546 01be 3969 65bd 7d95 b9bd

fc2.bias f4 [128]
-0.08897819 -0.08562876 -0.34742692 -0.017542396 -0.1362944 -0.54356015 -0.5859119 -0.26853085
-0.21323724 -0.09924409 -0.20032 -0.07128073 0.078350894 -0.1190716 -0.27095976 -0.108099766
0.41780636 0.0053771394 -0.12322451 -0.013713138 -0.15297467 0.03763881 -0.15861546 -0.1138443
-0.0127022825 0.2709926 -0.018396039 -0.12196909 -0.28433868 -0.14123027 -0.1313197 -0.17067938
-0.18014339 -0.082204685 0.17475621 0.0016493197 -0.13205197 -0.6670526 -0.17705128 -0.11602681
-0.1544099 -0.15883747 0.39837807 0.16861321 -0.42593417 0.07577073 -0.88400435 -0.08571544
-0.14231105 -0.08595703 -0.035852965 0.017877098 -0.026478421 0.24801178 -0.10656656 -0.21911938
-0.14189236 -0.27914783 -0.16435134 -0.3275813 -0.011926114 -0.45376968 -0.660426 -0.06696677
-0.06734121 -0.0345987 1.043035 -0.2272939 -0.2907404 -0.13656276 -0.115528226 -0.33070853
-0.103051424 -0.048948426 -0.44846308 0.21738617 -0.11334226 -0.041420005 -0.051969748 -0.498867
-0.14641178 0.13504697 -0.077675395 -0.13102521 0.38156727 0.23741657 -0.008668201 -0.3419588
-0.037080973 -0.31246188 0.30678138 -0.035048667 -1.638198 -0.16400664 -0.29670337 -0.0901294
0.60852987 -0.502621 0.29578993 -0.04139421 -0.06771083 0.12129449 -0.036275115 -0.21986134
0.29506236 -0.035949137 -0.56101906 -0.17847852 -0.8896893 -0.2832264 -0.4230899 0.17033541
-0.18152107 -0.09752495 -0.08702404 -0.29072893 -0.13141091 -0.09891279 -0.7282654 -0.20515627
-0.20622115 -0.21256064 -0.30364442 -0.19683637 -0.14894594 0.22076744 -0.39816818 -0.22284223
00000000: 333a b6bd 225e afbd f1e1 b1be 12b5 8fbc
00000010: c290 0bbe c226 0bbf 53fe 15bf e07c 89be
00000020: dd5a 5abe 7c40 cbbd b020 4dbe a2fb 91bd
00000030: 6f76 a03d d0db f3bd 3dbb 8abe 6963 ddbd
00000040: b7ea d53e b732 b03b 225d fcbd 12ad 60bc
00000050: 64a5 1cbe 272b 1a3d 176c 22be 3327 e9bd
00000060: 3c1d 50bc 8bbf 8a3e 4ab3 96bc eeca f9bd
00000070: d794 91be ab9e 10be ac78 06be 93c6 2ebe
00000080: 8277 38be ee5a a8bd 4bf3 323e fc2d d83a
00000090: a238 07be f6c3 2abf ee4c 35be 779f edbd
000000a0: a11d 1ebe 4aa6 22be 36f8 cb3e f1a8 2c3e
000000b0: 0b14 dabe af2d 9b3d 1c4e 62bf 948b afbd
000000c0: fdb9 11be 3d0a b0bd 8fda 12bd fe72 923c
000000d0: 46e9 d8bc cdf6 7d3e 923f dabd d560 60be
000000e0: 3b4c 11be 77ec 8ebe b84b 28be bcb8 a7be
000000f0: bf65 43bc 8054 e8be ae11 29bf e025 89bd
00000100: 30ea 89bd 5eb7 0dbd 2c82 853f bbbf 68be
00000110: eddb 94be 1cd7 0bbe 109a ecbd a152 a9be
00000120: a00c d3bd 257e 48bd f49c e5be 7b9a 5e3e
00000130: fd1f e8bd 06a8 29bd 3bde 54bd 7f6b ffbe
00000140: f8ec 15be c149 0a3e 4714 9fbd 792b 06be
00000150: c95c c33e 541d 733e 1205 0ebc 3915 afbe
00000160: 38e2 17bd 01fb 9fbe 7312 9d3e 318f 0fbd
00000170: 79b0 d1bf 5bf1 27be 81e9 97be c395 b8bd
00000180: 9dc8 1b3f c5ab 00bf c771 973e fa8c 29bd
00000190: faab 8abd 3f69 f83d 3795 14bd 5523 61be
000001a0: 6a12 973e 673f 13bd f29e 0fbf 13c3 36be
000001b0: aec2 63bf 0d03 91be 3d9f d8be 686c 2e3e
000001c0: a9e0 39be 29bb c7bd a939 b2bd 6cda 94be
000001d0: 9590 06be ca92 cabd 9a6f 3abf 7c14 52be
000001e0: a32b 53be 7fa9 59be 4877 9bbe 798f 49be
000001f0: 4985 18be dc10 623e b3dc cbbe c130 64be

out.weight f4 [5, 128]
0.014644144 -0.057448808 -0.07002593 -0.009282729 -0.08682902 -0.23291503 0.34403422 -0.033346497
0.030448025 -0.053893078 -0.16532479 0.06320088 0.023182767 0.037850875 -0.19312526 -0.012619395
-0.10159883 -0.19285412 0.12449743 -0.2145077 0.051383127 0.16807812 0.4142309 -0.06916814
0.0032826066 -0.00886456 -0.440546 -0.037943322 -0.056701515 0.049099013 -0.17461164 0.22307497
-0.0065876236 -0.075697914 -0.20393836 -0.042899992 -0.06340846 -0.25819024 -0.032551907 0.027746215
0.055677053 0.0103635555 0.7755836 0.12003025 -0.14809538 -0.35161266 -0.3124283 0.036403988
0.12858295 0.016689083 -0.01796365 -0.17887722 0.026233384 0.003990069 0.023886891 -0.035278406
-0.12819637 -0.088599674 0.019424077 -0.05953272 0.04884218 0.044684757 -0.301721 -0.002840301
0.72442806 -0.07404769 0.40121892 0.067413405 -0.37160903 0.010878197 -0.21445802 0.08737046
-0.03814025 0.019993274 0.009922856 -0.122063205 -0.07586323 0.014770556 -0.02624641 0.21201433
0.043431304 0.065261155 -0.068264574 -0.020503169 -0.03891191 -0.30307287 -0.019155648 0.008198949
0.19464424 -0.50009346 -0.3263026 -0.055780273 -0.14954658 -0.061896402 -0.26224142 -0.098022334
0.22785366 0.13851681 -0.2886876 0.0922695 -0.06397972 -0.24262406 0.0031958362 -0.01340736
0.044823796 -0.0047676037 -0.17409672 0.15109663 -0.09773275 -0.16515487 0.07261348 -0.059309226
0.20861292 -0.39011493 0.0180865 0.08254681 -0.019031603 0.0077979364 -0.24958722 -0.091754474
-0.008937948 0.089005806 -0.11622073 -0.044006754 0.011124301 0.26045397 0.15389514 -0.18770255
0.031548508 0.08897449 -0.119294345 -0.024948683 -0.021045005 -0.22772229 -0.13032947 -0.1015003
0.03710428 -0.044444624 -0.08176986 0.011719405 -0.007891554 0.0063561555 0.2561939 0.063767076
-0.2317861 0.008087765 -0.16641697 -0.16488 -0.04104431 0.3859013 -0.03836051 0.046089295
0.058081243 0.15670091 -0.21480736 -0.019273976 0.12253376 -0.0022180548 -0.3227818 -0.11315116
-0.028128918 -0.0077497554 -0.23385611 0.00010810398 0.07027714 0.2719012 -0.023421774 0.033876818
-0.010888958 -0.020234628 -0.24541913 -0.16500735 -0.14401266 0.68934196 -0.0048007793 0.033482913
0.07877892 0.020644996 0.03161981 0.0820801 0.01091784 -0.11399779 0.0043571177 0.019749371
0.36883864 -0.3322818 -0.035796866 -0.1720325 -0.020967258 -0.019301828 0.76201373 0.028142292
0.17657223 -0.015565879 0.41240185 -0.018345622 -0.14404026 0.0051968633 -0.15526782 -0.003720274
0.028554562 -0.015188754 -0.1532548 -0.21785745 -0.0031584338 0.024955586 0.01887521 -0.18689501
0.026536161 0.42066056 -0.009009575 0.03271807 -0.1593347 0.24708875 0.042205926 0.042752784
-0.16959244 -0.36137062 -0.38396215 0.07411225 -0.09942354 0.014574586 -0.17944746 0.027589194
0.23269793 0.049300354 -0.49277514 0.06351781 -0.0049078353 -0.18877994 -0.0020997026 0.023227995
-0.076482706 -0.039775867 -0.11937468 0.22066008 -0.16467474 -0.11530122 -0.26564768 0.03021259
0.553715 0.6100024 0.60457003 -0.08102519 -0.013346483 -0.03700929 -0.11042214 0.048875544
0.013151342 -0.017027687 -0.32618627 0.10917668 -0.08079239 -0.030158812 -0.16440758 0.32370168
00000000: feed 6f3c 714f 6bbd c169 8fbd 9616 18bc
00000010: 6ad3 b1bd 4781 6ebe 4125 b03e 5696 08bd
00000020: 236e f93c fdbe 5cbd e74a 29be 776f 813d
00000030: c9e9 bd3c 8509 1b3d a1c2 45be 94c1 4ebc
00000040: 0c13 d0bd 8d7b 45be 82f8 fe3d e8a7 5bbe
00000050: 1d77 523d ac1c 2c3e 1316 d43e 07a8 8dbd
00000060: 0021 573b a93c 11bc 3f8f e1be 756a 1bbd
00000070: d93f 68bd 0c1c 493d 65cd 32be c46d 643e
00000080: fedc d7bb 8207 9bbd 38d5 50be e7b7 2fbd
00000090: 4bdc 81bd 8331 84be 2655 05bd 084c e33c
000000a0: 9f0d 643d e7cb 293c a68c 463f 6bd2 f53d
000000b0: 51a6 17be 9306 b4be 9af6 9fbe 591c 153d
000000c0: 40ab 033e 8bb7 883c 8128 93bc 972b 37be
000000d0: 65e7 d63c 20bf 823b 71ae c33c 1780 10bd
000000e0: e945 03be bf73 b5bd 3e1f 9f3c 95d8 73bd
000000f0: bd0e 483d 5d07 373d 2d7b 9abe 5824 3abb
00000100: 1e74 393f 51a6 97bd 916c cd3e 0a10 8a3d
00000110: 8a43 bebe 773a 323c e29a 5bbe 49ef b23d
00000120: f338 1cbd efc8 a33c 7a93 223c 46fc f9bd
00000130: 2e5e 9bbd 3400 723c b602 d7bc 491a 593e
00000140: 06e5 313d a4a7 853d 4cce 8bbd 43f6 a7bc
00000150: 1862 1fbd 5e2c 9bbe 4eec 9cbc e254 063c
00000160: d250 473e 2006 00bf 2211 a7be db79 64bd
00000170: bd22 19be 1587 7dbd 8244 86be efbf c8bd
00000180: 7852 693e 5ad7 0d3e dcce 93be cbf7 bc3d
00000190: cd07 83bd 7172 78be 3c71 513b 8baa 5bbc
000001a0: 2899 373d 8f39 9cbb 6946 32be 13b9 1a3e
000001b0: 1c28 c8bd 5c1e 29be 60b6 943d 3bee 72bd
000001c0: a09e 553e 25bd c7be 242a 943c 4d0e a93d
000001d0: 2ae8 9bbc d585 ff3b cb93 7fbe c5e9 bbbd
000001e0: 7970 12bc ad48 b63d 2205 eebd 6d40 34bd
000001f0: b342 363c 395a 853e b096 1d3e 1935 40be
00000200: 0239 013d 4238 b63d 9850 f4bd 2e61 ccbc
00000210: 9366 acbc 0830 69be 1775 05be 64df cfbd
00000220: a8fa 173d 910b 36bd f576 a7bd bf02 403c
00000230: 944b 01bc 4c47 d03b d92b 833e 5098 823d
00000240: 5659 6dbe 8c82 043c 3669 2abe 4dd6 28be
00000250: 141e 28bd db94 c53e e91f 1dbd 21c8 3c3d
00000260: 99e6 6d3d 3476 203e 76f6 5bbe 75e4 9dbc
00000270: fbf2 fa3d c95c 11bb a843 a5be ccbb e7bd
00000280: 9e6e e6bc a9f1 fdbb fa77 6fbe e2b5 e238
00000290: 76ed 8f3d a236 8b3e 05df bfbc 6bc2 0a3d
000002a0: 9a67 32bc 17c3 a5bc 274f 7bbe b0f7 28be
000002b0: 0e78 13be b778 303f db4f 9dbb 6125 093d
000002c0: d856 a13d b21f a93c c683 013d 9d19 a83d
000002d0: bde0 323c ac77 e9bd 27c6 8e3b 6fc9 a13c
000002e0: 6bd8 bc3e d720 aabe bc9f 12bd 4a29 30be
000002f0: 87c3 abbc de1e 9ebc 5513 433f aa8a e63c
00000300: 5acf 343e 0708 7fbc 5626 d33e 8f49 96bc
00000310: 4a7f 13be 734a aa3b 87fe 1ebe d7cf 73bb
00000320: 42eb e93c 40da 78bc d4ee 1cbe 0616 5fbe
00000330: bafd 4ebb a86f cc3c 2fa0 9a3c 6861 3fbe
00000340: 5d62 d93c d260 d73e e59c 13bc 6203 063d
00000350: a328 23be d504 7d3e 1fe0 2c3d 8b1d 2f3d
00000360: a4a9 2dbe 9205 b9be b096 c4be 2ac8 973d
00000370: 929e cbbd 3fca 6e3c 13c1 37be bc02 e23c
00000380: 5e48 6e3e 2bef 493d 064d fcbe a015 823d
00000390: e8d1 a0bb 874f 41be 2a9b 09bb a348 be3c
000003a0: f7a2 9cbd 05ec 22bd b67a f4bd b7f4 613e
000003b0: 7fa0 28be 0c23 ecbd f902 88be 6580 f73c
000003c0: 44c0 0d3f 1e29 1c3f 1ac5 1a3f 89f0 a5bd
000003d0: 35ab 5abc 0e97 17bd 0125 e2bd b931 483d
000003e0: ba78 573c a67d 8bbc e301 a7be 0698 df3d
000003f0: 7b76 a5bd 9d0f f7bc 765a 28be 3abc a53e

out.bias f4 [5]
1.8432714 1.778938 1.9617703 1.9597722 1.9043531
00000000: 51f0 eb3f 3eb4 e33f 4a1b fb3f d1d9 fa3f
00000010: d8c1 f33f
