SimplifiedSpaceWar/dqn_15000_v0.pth (torch, 79397 bytes, 6 tensors)

fc1.weight f4 [128, 15]
-0.0759989 -0.079736605 -0.42570192 -0.6456806 -0.29525915 0.20661053 0.03571174 0.0078450125
-0.076074265 0.034025032 0.19855379 0.8448464 0.45651957 -0.18560861 0.19078182 0.039319705
-0.54916656 0.011794206 -0.14311239 -0.51064247 -0.33562508 -0.21003368 0.5063235 0.85370547
-0.30412373 -0.05117532 -0.6851339 -0.16851413 -0.94730926 -0.33401647 -0.18232247 -0.026687922
-0.1784973 0.13126467 0.1346626 0.041750338 -0.358714 0.81047225 -1.3139822 0.23501377
-0.11118249 0.34107172 -0.14844434 -0.08040715 -0.10720912 -0.58871764 0.01108449 -0.088687874
-0.51638997 -0.35803065 0.08985063 0.25136003 -0.22644383 0.029968964 0.1948592 -0.12981637
0.7733085 0.2632917 -0.15415299 -0.0026299648 0.01955015 -0.119969755 0.31856278 0.10152155
-0.12818657 0.06944468 0.07925613 0.04766357 0.02954279 -0.20466414 0.022318752 -0.43436837
0.7669877 -0.050159935 -0.3244618 -0.4867774 -0.07551075 -0.49169576 -0.053471155 0.2092129
0.23057745 -0.17313941 0.8352442 -0.58042467 0.112743 0.08598073 0.19549976 -0.29986793
0.44545484 -0.13477567 0.010191209 -0.020662883 -0.042530615 0.28285265 -0.0651015 0.010395283
-3.5518663 0.25130123 -3.5598247 0.026376834 0.017480224 0.09788731 0.37575787 -0.17083752
0.13108431 0.17212449 0.011871263 -0.28792924 -0.062153194 -0.40042493 0.10178498 0.13581856
-0.04357035 -0.051663067 -0.08324529 0.15018646 0.22198638 0.33933115 0.20142806 0.006103355
-0.11227301 -0.07520073 0.1875756 -0.1243988 -0.063333064 -0.09915913 -0.22699888 -0.0339767
0.063511305 0.17950042 -0.21472083 0.13020293 -0.10815893 -0.18592924 -0.15654488 -0.3498802
0.11021304 -0.8533882 -0.012553252 -0.015347507 0.11249815 -0.092472404 -0.08517257 0.09339541
-0.337173 -0.023526061 0.46391004 0.44746736 -0.18902193 0.0464663 -0.004291711 0.12216742
-0.10857738 -0.3654655 0.016345268 -0.05775723 -0.14756018 0.45242867 0.40148 -0.21943139
0.026079936 -0.7566147 -1.077159 -0.111243166 0.14997049 -0.1758197 0.026603846 -0.060217984
0.21966298 -0.1863553 -0.08434 -0.22026283 -0.27900228 0.49044186 0.38231373 0.08345326
-0.5270215 0.0814242 -0.106534466 0.0118366815 -0.0629114 -0.019414311 -0.042883255 0.29616886
-0.22450955 0.17712443 -0.12736732 0.12539372 -0.34545723 -0.054309 0.06053298 -0.22734235
0.12344086 -0.3228593 0.077404015 -0.32551855 -0.16455232 0.108926095 0.18909475 0.060011797
0.20742618 -0.04655672 0.13861337 -0.19770159 -0.18881854 -0.21598418 -0.048769534 -0.085690975
-0.14902143 -0.08672554 -2.3751805 0.006385535 -2.4015517 0.088138886 -0.06039619 0.010481397
0.003988945 0.0409319 -0.020556752 0.08648859 -0.0052131927 0.0088228015 -0.33614594 0.051566057
-0.12937362 -0.0895106 -0.03648051 -0.09865581 -0.09964339 0.14702938 0.07011145 0.11555386
0.2655278 -0.05226185 -0.08951868 -0.02009685 0.37793264 0.13450786 -0.51350325 0.15714559
0.10340708 0.10459197 0.42591175 0.05928691 0.11138964 -0.21251312 0.056553286 -0.7586678
0.09843798 0.1688206 -0.15411085 0.10252268 0.19486463 -0.31856334 -0.059017982 0.1180469
00000000: 50a5 9bbd f24c a3bd 9af5 d9be 534b 25bf
00000010: 352c 97be b691 533e 7946 123d 5e88 003c
00000020: d3cc 9bbd d55d 0b3d af51 4b3e db47 583f
00000030: efbc e93e 2f10 3ebe 4f5c 433e b30d 213d
00000040: 2e96 0cbf 7c3c 413c 0e8c 12be 77b9 02bf
00000050: 0dd7 abbe 1213 57be 6b9e 013f 718c 5a3f
00000060: 1bb6 9bbe 369d 51bd ef64 2fbf f88e 2cbe
00000070: dc82 72bf 3504 abbe beb2 3abe a1a0 dabc
00000080: ffc7 36be 3f6a 063e fee4 093e 6702 2b3d
00000090: 5da9 b7be 1c7b 4f3f 9230 a8bf 73a7 703e
000000a0: a5b3 e3bd f4a0 ae3e cb01 18be 81ac a4bd
000000b0: 7590 dbbd 33b6 16bf b99b 353c fda1 b5bd
000000c0: 2232 04bf cb4f b7be 9b03 b83d 43b2 803e
000000d0: e4e0 67be 7981 f53c 2c89 473e 95ee 04be
000000e0: 8cf7 453f 2bce 863e 48da 1dbe 7d5b 2cbb
000000f0: a327 a03c b4b2 f5bd a91a a33e 88ea cf3d
00000100: 5743 03be 0339 8e3d 0a51 a23d e03a 433d
00000110: b903 f23c 7a93 51be d1d5 b63c 8865 debe
00000120: 4e59 443f 8174 4dbd db1f a6be e33a f9be
00000130: 61a5 9abd 8cbf fbbe 9204 5bbd e83b 563e
00000140: 7f1c 6c3e 754b 31be 90d2 553f b696 14bf
00000150: cde5 e63d aa16 b03d 1731 483e 4a88 99be
00000160: a812 e43e a202 0abe 07f9 263c 3545 a9bc
00000170: 9534 2ebd 10d2 903e ef53 85bd fa50 2a3c
00000180: c751 63c0 8eaa 803e 2bd4 63c0 3b14 d83c
00000190: b032 8f3c 2479 c83d 5663 c03e 08f0 2ebe
000001a0: f73a 063e 6741 303e b07f 423c 766b 93be
000001b0: 5994 7ebd 7f04 cdbe a574 d03d 0514 0b3e
000001c0: d376 32bd a79c 53bd 827c aabd 7bca 193e
000001d0: 6650 633e d0bc ad3e 2843 4e3e a7fe c73b
000001e0: 64ef e5bd d702 9abd d113 403e ccc4 febd
000001f0: c4b4 81bd f113 cbbd 6572 68be 272b 0bbd
00000200: 3712 823d f5ce 373e c7df 5bbe eb53 053e
00000210: 6e82 ddbd 3c64 3ebe 4d4d 20be 7f23 b3be
00000220: 60b7 e13d a677 5abf 28ac 4dbc 1c74 7bbc
00000230: 6e65 e63d 2c62 bdbd f56e aebd 1846 bf3d
00000240: f1a1 acbe bab9 c0bc 9e85 ed3e 711a e53e
00000250: f78e 41be 7253 3e3d 7ba1 8cbb ea32 fa3d
00000260: d15d debd 4b1e bbbe 83e6 853c d892 6cbd
00000270: 041a 17be bba4 e73e c98e cd3e 9fb2 60be
00000280: 97a5 d53c 80b1 41bf 59e0 89bf 75d3 e3bd
00000290: dd91 193e 140a 34be 4ff0 d93c 22a7 76bd
000002a0: 55ef 603e ecd3 3ebe 73ba acbd 948c 61be
000002b0: 63d9 8ebe 321b fb3e a0be c33e 8be9 aa3d
000002c0: e2ea 06bf bbc1 a63d be2e dabd a4ee 413c
000002d0: b1d7 80bd c30a 9fbc 5aa6 2fbd 72a3 973e
000002e0: d5e5 65be 1b60 353e 946c 02be 3667 003e
000002f0: c5df b0be 1d73 5ebd 6ef1 773d 6fcc 68be
00000300: 90ce fc3d d04d a5be ff85 9e3d 5eaa a6be
00000310: 6780 28be a514 df3d 0ea2 413e eece 753d
00000320: 8767 543e 42b2 3ebd aaf0 0d3e 4972 4abe
00000330: a659 41be f52a 5dbe 90c2 47bd c07e afbd
00000340: 1399 18be 299d b1bd f502 18c0 c03d d13b
00000350: 06b3 19c0 2982 b43d ff61 77bd 2aba 2b3c
00000360: b2b5 823b 35a8 273d a266 a8bc ee20 b13d
00000370: 6ed3 aabb 838d 103c 521b acbe ee36 533d
00000380: 857a 04be 5551 b7bd 966c 15bd 0f0c cabd
00000390: d511 ccbd df8e 163e 9896 8f3d 81a7 ec3d
000003a0: 43f3 873e 8610 56bd 9255 b7bd 26a2 a4bc
000003b0: 6380 c13e 6ebc 093e f374 03bf c6ea 203e
000003c0: 17c7 d33d 5134 d63d 1b11 da3e d5d6 723d
000003d0: 4020 e43d 0a9d 59be 6ba4 673d 0e38 42bf
000003e0: da99 c93d 4fdf 2c3e 3ccf 1dbe 69f7 d13d
000003f0: 988a 473e bc1a a3be d7bc 71bd 93c2 f13d

fc1.bias f4 [128]
-1.1400884 -0.5841295 -1.0827085 -0.9929626 -0.538377 -3.8568969 0.9070044 -0.68858695
0.07049741 -2.294823 0.74537545 -2.1307905 1.3785274 0.005016825 3.4987774 1.6778063
-0.7360932 -4.5040507 -2.335316 0.27537808 -0.6722907 -0.08974257 1.2465384 2.1298156
-3.0140224 -0.26658404 -0.5082351 -0.83200157 -1.5159482 0.13723895 2.7451906 0.044736672
-1.858333 -0.13896745 4.007847 0.0953735 -0.17647383 3.061628 -0.22289146 1.0556732
3.2190793 -0.19885328 -0.20253195 1.3223021 -0.4532041 -0.12553906 0.832786 0.051708028
0.40364844 0.075386524 1.4655595 1.0546278 -0.001014467 2.5557888 0.18164545 6.1027904
1.4375843 -1.8675021 -5.6787996 5.8095827 0.16424204 0.56207377 -0.83188015 2.8390536
0.15061185 1.2202473 -3.1534147 -0.19076304 2.8438642 -1.7621187 -2.4075835 -0.15329972
-0.85300434 -0.16463459 1.6289194 -5.4964924 0.55994076 3.4894636 0.10499672 0.19224598
0.028092677 3.1968768 -0.66630316 1.6843648 -0.13526785 1.3360428 0.7508661 0.10448972
-0.06348896 1.5597316 -0.20481096 2.6373856 -0.18040667 -0.06523743 4.647012 -0.16290075
-0.01876812 -0.033227988 -0.5245503 2.3415883 -0.533199 -0.48253882 0.744144 0.8937492
-0.011380689 -0.070169084 -0.71079594 0.4034435 0.08785759 -1.1979879 1.2761264 -0.19045557
1.982415 -2.1099737 0.74765736 -2.9628026 -0.51456463 1.0444227 1.5829939 -0.47692603
0.57197446 2.0865693 -2.5362995 -2.520141 2.4768126 0.27053708 -0.51426506 1.3479892
00000000: 6bee 91bf 8389 15bf 3196 8abf cc32 7ebf
00000010: 13d3 09bf 66d7 76c0 7131 683f 3c47 30bf
00000020: f260 903d 61de 12c0 edd0 3e3f df5e 08c0
00000030: 9673 b03f 2e64 a43b f8eb 5f40 5bc2 d63f
00000040: 9b70 3cbf 2f21 90c0 d175 15c0 5bfe 8c3e
00000050: 3e1b 2cbf f4ca b7bd 928e 9f3f e64e 0840
00000060: bee5 40c0 b47d 88be b21b 02bf 0efe 54bf
00000070: 970a c2bf 5e88 0c3e 34b1 2f40 cd3d 373d
00000080: dbdd edbf 7c4d 0ebe 4840 8040 2e53 c33d
00000090: 8eb5 34be b7f1 4340 a93d 64be 4d20 873f
000000a0: 6505 4e40 32a0 4bbe 8964 4fbe 3241 a93f
000000b0: 5e0a e8be 508d 00be 7731 553f cccb 533d
000000c0: 02ab ce3e 4064 9a3d 7497 bb3f 0bfe 863f
000000d0: ddf7 84ba 0b92 2340 4401 3a3e 0f4a c340
000000e0: c302 b83f 4f0a efbf bab8 b5c0 1ae8 b940
000000f0: 112f 283e 11e4 0f3f 19f6 54bf 0eb3 3540
00000100: fe39 1a3e 1031 9c3f 8cd1 49c0 6357 43be
00000110: df01 3640 1b8d e1bf d915 1ac0 9afa 1cbe
00000120: 7e5e 5abf f895 28be 6e80 d03f 44e3 afc0
00000130: 4758 0f3f 5f53 5f40 8508 d73d 21dc 443e
00000140: 9d22 e63c a199 4c40 d892 2abf 4499 d73f
00000150: a883 0abe 7303 ab3f c338 403f b5fe d53d
00000160: 8006 82bd 49a5 c73f f7b9 51be edca 2840
00000170: 87bc 38be 349b 85bd 53b4 9440 74cf 26be
00000180: 9abf 99bc 121a 08bd ee48 06bf 95dc 1540
00000190: bb7f 08bf 540f f7be 3980 3e3f bfcc 643f
000001a0: 1276 3abc cfb4 8fbd b9f6 35bf 2590 ce3e
000001b0: aeee b33d ab57 99bf 1c58 a33f c906 43be
000001c0: c6bf fd3f cf09 07c0 7966 3f3f 8f9e 3dc0
000001d0: 82ba 03bf a5af 853f 8b9f ca3f a62f f4be
000001e0: eb6c 123f 5a8a 0540 bb52 22c0 fd49 21c0
000001f0: 1984 1e40 d683 8a3e e0a6 03bf e98a ac3f

fc2.weight f4 [128, 128]
-0.08017387 -0.07996461 0.06935075 0.07008892 -0.06674192 0.03875212 0.05913343 0.022422425
-0.074808024 -0.086417444 -0.043496836 -0.0047763563 -0.06543044 0.036679897 -0.02327583 -0.026031807
0.032482386 -0.041800193 0.0402301 -0.07104587 -0.02782204 0.0119071165 0.0166362 0.08462597
0.07848868 -0.107065834 -0.014638112 0.0017848797 0.023429533 -0.054749314 -0.019972913 -0.041172035
0.03776925 -0.08316007 -0.09218723 0.06425676 -0.079211384 0.043508958 0.027630625 -0.104367614
0.011321577 -0.008823946 -0.06682425 0.10177836 0.061339807 0.04639805 0.08836493 -0.011141582
-0.05523749 0.049410246 0.050450534 -0.004028116 0.06274699 -0.049255926 0.041508935 0.114124425
0.025829533 -0.021193637 -0.047132168 0.079263955 0.03689308 -0.00808444 0.056834005 0.055764187
-0.08476259 0.03893881 0.069009356 0.057328362 0.074742876 -0.06862675 -0.039431304 -0.02700306
-0.12871835 -0.023147777 0.05198055 -0.029062945 -0.0413869 0.011125935 0.0196044 -0.0364202
-0.018095812 0.03981063 0.0035927242 0.15438777 0.03561141 -0.035500985 0.0032088556 -0.07021737
0.03409148 -0.07766325 0.06081032 0.023320517 0.05388959 0.020925373 0.029483773 -0.100209035
-0.0978956 -0.004567995 0.05233315 -0.11812585 -0.044675745 0.072734244 -0.039804865 0.04321639
0.052843284 0.05875042 -0.07596552 -0.08744268 0.06251294 -0.035773315 -0.04910532 -0.0717616
-0.007877065 -0.07026319 0.11578115 -0.0781984 -0.07123282 -0.07423632 -0.036463752 -0.0710139
-0.04152585 -0.06319243 0.051132277 0.06995663 -0.07112015 -0.035906624 0.05664266 -0.07265094
-0.006141067 -0.00069331116 0.07749313 0.08168001 -0.031982422 0.014190401 -0.0195886 -0.09224153
-0.0584607 -0.05471033 -0.07853079 -0.075150035 -0.0076495684 0.035837337 -0.051160328 -0.0050996104
0.015012695 -0.039952453 -0.02536389 -0.005012419 0.03015003 0.031998616 -0.07774632 0.059730615
0.03679796 0.03972414 -0.016990595 -0.05760939 0.005689617 -0.025334913 -0.058727555 -0.056537796
0.021225411 0.039924227 0.013783747 0.021726575 -0.030281585 0.039334297 -0.08942193 -0.20042676
-0.08514614 0.010234004 0.008277345 0.024067348 0.00465755 0.036079977 -0.0005622658 -0.01686779
0.04404305 -0.007450846 -0.07223842 0.03719409 -0.023971472 -0.08439406 -0.050064016 0.055709153
-0.014029779 -0.08934054 0.010194817 -0.03979604 -0.08343055 -0.051957887 0.0032531945 -0.18251854
0.079834945 0.018250303 -0.009960999 -0.023646152 0.12115899 -0.05686431 0.0111260675 -0.07135446
0.05846422 0.0379853 0.039153684 0.0057512256 0.058582615 0.045813724 -0.073287696 0.031362496
0.029246034 0.037928987 -0.014160422 -0.019803813 0.027439706 -0.048966657 -0.1336094 -0.08640804
-0.036485996 -0.089091964 -0.050952945 0.060661398 0.007949401 0.015411353 -0.0076130554 -0.002323423
-0.10561976 -0.018651096 -0.011066886 0.022012664 -0.009557338 -0.0080382135 -0.062448807 -0.13019769
-0.066749796 0.02881128 0.04376948 -0.06997857 -0.0063974173 -0.0039918544 -0.046810906 0.041957207
-0.0015710554 -0.040659398 -0.07395579 -0.12585974 0.018918823 -0.0014078312 -0.10116083 -0.091965325
-0.17050986 -0.039046735 0.036130987 -0.1197101 -0.09615044 -0.047852226 -0.09333776 0.02239698
00000000: 3332 a4bd 7cc4 a3bd c407 8e3d c88a 8f3d
00000010: fdaf 88bd 8bba 1e3d e535 723d 3caf b73c
00000020: f334 99bd a1fb b0bd bd29 32bd fb82 9cbb
00000030: 6500 86bd a93d 163d f4ac bebc a840 d5bc
00000040: 400c 053d ae36 2bbd 51c8 243d 7f80 91bd
00000050: 0ceb e3bc 1116 433c a448 883c 6150 ad3d
00000060: acbe a03d 5545 dbbd b1d4 6fbc a0f2 e93a
00000070: 4bef bf3c d140 60bd 3c9e a3bc 02a4 28bd
00000080: eeb3 1a3d d44f aabd a9cc bcbd 0c99 833d
00000090: 9439 a2bd 7336 323d 9f59 e23c b0be d5bd
000000a0: 237e 393c 5092 10bc 27db 88bd 2c71 d03d
000000b0: 733f 7b3d e20b 3e3d acf8 b43d 2f8b 36bc
000000c0: b540 62bd 6662 4a3d 38a5 4e3d 49fe 83bb
000000d0: 7e81 803d 95c0 49bd 4605 2a3d 11ba e93d
000000e0: 7598 d33c 479e adbc a90d 41bd 2455 a23d
000000f0: 331d 173d 9974 04bc c6ca 683d fd68 643d
00000100: 0298 adbd 4d7e 1f3d c754 8d3d 25d1 6a3d
00000110: cb12 993d 2e8c 8cbd b882 21bd 8535 ddbc
00000120: bece 03be 68a0 bdbc 8fe9 543d 6a15 eebc
00000130: 4f85 29bd 8e49 363c 6899 a03c 592d 15bd
00000140: ab3d 94bc 7910 233d e973 6b3b d417 1e3e
00000150: 45dd 113d 7b69 11bd aa4b 523b 20ce 8fbd
00000160: 82a3 0b3d e90d 9fbd 3e14 793d ab0a bf3c
00000170: 55bb 5c3d b06b ab3c f487 f13c 653a cdbd
00000180: 7d7d c8bd 1faf 95bb 495b 563d f7eb f1bd
00000190: eafd 36bd b1f5 943d 6d0a 23bd ab03 313d
000001a0: 3372 583d 48a4 703d d093 9bbd 2615 b3bd
000001b0: c906 803d 0a87 12bd a922 49bd bff7 92bd
000001c0: ce0e 01bc 26e6 8fbd ab1e ed3d 7c26 a0bd
000001d0: 83e2 91bd 3609 98bd 045b 15bd bc6f 91bd
000001e0: 0217 2abd 086b 81bd 1470 513d 6c45 8f3d
000001f0: 71a7 91bd d312 13bd 2202 683d 04ca 94bd
00000200: 013b c9bb 53bf 35ba b8b4 9e3d d947 a73d
00000210: 0000 03bd db7e 683c 4678 a0bc 21e9 bcbd
00000220: 7d74 6fbd f017 60bd c0d4 a0bd 43e8 99bd
00000230: 3ba9 fabb 2cca 123d 7e8d 51bd a21a a7bb
00000240: cff7 753c 2fa5 23bd efc7 cfbc 383f a4bb
00000250: 32fd f63c fb10 033d 7639 9fbd 17a8 743d
00000260: 75b9 163d c8b5 223d dc2f 8bbc d3f7 6bbd
00000270: f76f ba3b 2a8b cfbc 4e8c 70bd 2d94 67bd
00000280: eae0 ad3c 9687 233d 3ad5 613c eefb b13c
00000290: 1611 f8bc 001d 213d d822 b7bd ac3c 4dbe
000002a0: 1961 aebd 86ac 273c b49d 073c e328 c53c
000002b0: 5c9e 983b 99c8 133d 0565 13ba 522e 8abc
000002c0: 7c66 343d 3a26 f4bb bdf1 93bd d558 183d
000002d0: d25f c4bc cbd6 acbd ed0f 4dbd 482f 643d
000002e0: 28dd 65bc 2cf8 b6bd 2908 273c 2c01 23bd
000002f0: a3dd aabd cbd1 54bd 8c33 553b 24e6 3abe
00000300: 8180 a33d a981 953c 7533 23bc 93b5 c1bc
00000310: 3422 f83d 8dea 68bd 1c4a 363c 4a22 92bd
00000320: 2e78 6f3d 7996 1b3d 9d5f 203d c774 bc3b
00000330: 53f4 6f3d 2ca7 3b3d dc17 96bd f675 003d
00000340: 6195 ef3c 6d5b 1b3d 1d01 68bc 9b3b a2bc
00000350: 3cc9 e03c 4391 48bd e7d0 08be b3f6 b0bd
00000360: 5772 15bd d975 b6bd 09b4 50bd 1678 783d
00000370: 343e 023c e67f 7c3c f076 f9bb 9244 18bb
00000380: 2c4f d8bd 2fca 98bc e251 35bc e753 b43c
00000390: 6296 1cbc b6b2 03bc 52ca 7fbd 8b52 05be
000003a0: 1eb4 88bd a205 ec3c a047 333d ed50 8fbd
000003b0: 6da1 d1bb 1ace 82bb cbbc 3fbd 52db 2b3d
000003c0: dfeb cdba 788a 26bd 2276 97bd 60e1 00be
000003d0: a6fb 9a3c fa86 b8ba 692d cfbd 5158 bcbd
000003e0: 239a 2ebe 78ef 1fbd 16fe 133d 922a f5bd
000003f0: 86ea c4bd b200 44bd de27 bfbd df79 b73c

fc2.bias f4 [128]
0.08179061 0.024257254 0.42061922 -0.5398428 -0.27171397 1.727122 0.38945067 -0.006446064
1.5031344 -0.0706583 0.03137153 -0.055118423 -0.18439819 -0.08032754 0.06553178 0.036292873
0.8719091 0.20452575 0.17514047 -0.033790853 0.012382039 0.96711713 0.023634229 1.3069124
0.04957227 0.27681223 0.16798204 -0.056871753 1.2722974 0.61697185 0.00061393157 0.92761266
-0.07413552 -0.5051113 -0.041037746 -0.0010394598 0.83435065 0.97622585 -0.14871436 -0.92972237
0.13536131 0.22160813 0.031328898 2.368711 0.5673991 -0.06213887 0.5112988 2.197952
-2.243256 -0.63076526 0.5586285 0.41159564 0.89130425 0.041740503 0.29073244 0.76436126
4.102308 -0.09122693 -0.08152316 -0.23320656 4.0360117 -0.8981636 -0.123961814 -1.0008286
-0.06400444 0.011232044 0.10268293 0.83852357 -0.06839882 -0.8250917 0.8722083 -0.1849721
0.7204157 -0.06083033 0.016174683 -0.13897909 -0.069164686 0.19674683 -0.03721707 -0.39151865
0.1531185 -2.6915736 0.22478618 0.03949577 0.11706999 0.24482985 1.1139611 -0.002879477
0.38933173 -0.028455121 -0.09587266 0.38593498 0.2954169 -0.57409334 -0.08158712 -0.12500694
-4.8856163 -0.059322566 -0.05286531 0.027436867 0.28075013 1.995979 -0.082249574 0.054723714
0.88871384 -0.4420744 -0.36283135 -0.008983335 2.067844 1.2429512 0.6170675 -0.014956944
-0.0552722 1.2413588 -0.08103437 -0.07255885 0.16917604 0.12651818 0.34360424 0.08387203
1.5814525 -0.01485959 0.059713267 -0.021395031 -0.08635386 0.64999366 -0.10664587 -0.012090507
00000000: d681 a73d 26b7 c63c 675b d73e 2333 0abf
00000010: 181e 8bbe 5512 dd3f 1466 c73e 8139 d3bb
00000020: b566 c03f 4cb5 90bd 6f7f 003d dbc3 61bd
00000030: e1d2 3cbe c482 a4bd 8735 863d d6a7 143d
00000040: 6f35 5f3f 336f 513e 0658 333e 4768 0abd
00000050: 09de 4a3c fd94 773f 929c c13c e848 a73f
00000060: 4b0c 4b3d 55ba 8d3e 7c03 2c3e 5bf2 68bd
00000070: a4da a23f def1 1d3f 40f0 203a 0678 6d3f
00000080: 5dd4 97bd f94e 01bf 3217 28bd 7c3e 88ba
00000090: 0198 553f f0e9 793f 9448 18be 4902 6ebf
000000a0: 289c 0a3e 3eed 623e bb52 003d f698 1740
000000b0: 1141 113f 5485 7ebd 7ae4 023f 3fab 0c40
000000c0: 8291 0fc0 d579 21bf 4702 0f3f aabc d23e
000000d0: 842c 643f 17f8 2a3d e2da 943e 2ead 433f
000000e0: 1b46 8340 2fd5 babd 9df5 a6bd b3cd 6ebe
000000f0: 0227 8140 0dee 65bf b1df fdbd 271b 80bf
00000100: c314 83bd 9b06 383c 6e4b d23d 7ba9 563f
00000110: ae14 8cbd 3639 53bf 0b49 5f3f 5469 3dbe
00000120: 2a6d 383f 3929 79bd c580 843c 8950 0ebe
00000130: 37a6 8dbd 0078 493e ed70 18bd 2275 c8be
00000140: 19cb 1c3e be42 2cc0 592e 663e 51c6 213d
00000150: 64c2 ef3d adb4 7a3e 4796 8e3f 9cb5 3cbb
00000160: 7d56 c73e b71a e9bc e358 c4bd 4599 c53e
00000170: e240 973e c8f7 12bf 2617 a7bd d201 00be
00000180: f856 9cc0 38fc 72bd 4c89 58bd 48c3 e03c
00000190: 7bbe 8f3e 3d7c ff3f 7772 a8bd f925 603d
000001a0: c082 633f 9357 e2be 08c5 b9be d72e 13bc
000001b0: 8e57 0440 0619 9f3f 23f8 1d3f f80d 75bc
000001c0: 1a65 62bd d8e4 9e3f 59f5 a5bd bc99 94bd
000001d0: 7c3c 2d3e fb8d 013e e5ec af3e 19c5 ab3d
000001e0: 096d ca3f a375 73bc e695 743d a244 afbc
000001f0: 4bda b0bd fc65 263f 2669 dabd 4317 46bc

out.weight f4 [5, 128]
0.08136173 -0.021194743 0.16356823 -0.037460614 -0.107903905 0.22587411 0.15770261 0.079230815
0.7412679 -0.04334116 0.064399645 -0.0044451607 -0.028815098 -0.07556886 -0.19352932 0.007684396
0.058846824 0.16448809 -0.31898814 0.03722377 -0.04166691 0.27217487 0.03556244 0.25951403
-0.044294253 0.5534936 0.09489489 0.07561909 -0.037651427 0.04615664 0.047099642 0.13189845
-0.021115195 0.029919198 -0.0064656353 0.0075566727 0.10130647 0.37358713 0.12048681 0.07794019
0.30019486 0.095112026 -0.06432462 -0.007793268 0.20569268 0.0047504683 0.15083963 0.058002077
-0.42976883 -0.05038461 -0.014203078 0.034974713 0.036561277 0.05379879 0.44341823 0.16241378
0.85432094 -0.06491164 -0.034005094 0.0897394 -0.023864703 0.07481443 -0.15808378 -0.44436413
-0.18014944 0.14386426 0.18720192 0.5329468 0.028266663 0.04290219 -0.1173194 0.11966354
-0.24950287 -0.0019662757 0.06792499 0.20548569 -0.00923856 -0.14139208 0.046233155 0.05043287
0.14078799 -0.2061898 0.14312288 0.16475898 0.00966977 0.10036312 0.22653186 0.0067625595
-0.036409173 0.06551809 0.12751505 -0.15057984 0.2383543 0.085406594 0.009533504 -0.08980797
-0.46736115 0.05446514 0.072705805 0.09969757 0.22573684 -0.21891677 -0.21659902 0.0012661197
0.22997074 0.0871092 -0.3327125 0.016724277 -0.014872827 0.21843827 0.17387575 0.018248998
0.13600907 0.19365202 0.028693942 0.11352589 -0.21634635 0.031244429 0.17735232 0.07011516
0.59060395 -0.23497146 -0.004301618 -0.059013333 -0.06989649 0.29028144 -0.087446876 0.17446479
0.10108514 -0.06668197 0.029692935 -0.04052323 -0.06691083 0.41741356 0.1959605 0.06078323
0.7681789 -0.038013715 0.09009257 -0.038570683 0.082815975 0.060279742 0.14078163 -0.08009902
0.06541468 0.076351516 0.19685636 0.06168067 0.057248857 0.2496452 0.028615031 0.2673022
-0.03914311 -0.19154638 0.0886371 0.035947718 -0.03695899 0.09468153 0.003967135 0.1343974
-0.0046124486 -0.050930448 -0.03773136 -0.0065311175 0.10095227 0.41105133 0.15297785 0.04316409
-0.3451203 0.1295367 0.044935223 -0.00862705 0.36516577 -0.04318034 0.13260709 0.045512125
-0.4907433 -0.010315176 0.12508208 0.0701143 0.20058592 0.057793733 0.3183665 0.16305014
0.9426875 0.06976536 0.008510269 -0.019892905 -0.028645279 0.06880036 0.006012815 -0.44779935
0.21451373 0.048832335 0.06691168 0.43231177 0.039257087 0.04542192 -0.12669669 0.2139007
-0.18155259 0.011132393 0.0415671 0.24768393 -0.010961331 0.23295744 -0.04048562 -0.008360425
-0.14911471 -0.12965232 0.40341827 0.3276511 0.0026064806 0.20616136 0.22405261 -0.0857342
-0.27078304 -0.08051982 -0.04684771 0.15509522 0.17372407 0.056698665 -0.002426315 -0.012191585
-0.53846633 -0.056178745 0.09369104 0.17583922 0.027982177 -0.22099516 -0.13407159 0.076357685
0.1278253 0.19610095 -0.42195037 -0.03370748 -0.008716506 0.2980766 0.19224538 -0.04111179
0.11510642 0.1701806 0.030911215 0.009224948 0.31671795 0.09360478 0.2426609 -0.0039560776
0.50595963 0.021068195 -0.005305679 0.0016797853 -0.05667492 0.06932742 0.03243326 0.04791674
00000000: fba0 a63d 99a0 adbc 6e7e 273e 4d70 19bd
00000010: b9fc dcbd 8b4b 673e cb7c 213e c443 a23d
00000020: bcc3 3d3f 8086 31bd f6e3 833d b6a8 91bb
00000030: a40d ecbc d9c3 9abd 8d2c 46be 63cd fb3b
00000040: 5e09 713d 916f 283e 6a52 a3be f477 183d
00000050: ecaa 2abd 815a 8b3e eca9 113d 06df 843e
00000060: e46d 35bd c2b1 0d3f 4158 c23d 2ede 9a3d
00000070: 6238 1abd bf0e 3d3d 8eeb 403d 6310 073e
00000080: c6f9 acbc 1b19 f53c aedd d3bb f79d f73b
00000090: c479 cf3d d046 bf3e cac1 f63d 1b9f 9f3d
000000a0: 24b3 993e 18ca c23d a0bc 83bd ac5e ffbb
000000b0: 1aa1 523e d1a9 9b3b b475 1a3e 9693 6d3d
000000c0: a90a dcbe 1860 4ebd 07b4 68bc a541 0f3d
000000d0: 47c1 153d 1f5c 5c3d b707 e33e cc4f 263e
000000e0: c7b4 5a3f 65f0 84bd ed48 0bbd 4ac9 b73d
000000f0: e97f c3bc 4f38 993d b7e0 21be b283 e3be
00000100: 1879 38be 2751 133e dcb1 3f3e 346f 083f
00000110: 7d8f e73c 35ba 2f3d 2745 f0bd 2812 f53d
00000120: ae7d 7fbe a2dc 00bb 421c 8b3d d76a 523e
00000130: 545d 17bc 16c9 10be fa5e 3d3d b292 4e3d
00000140: ba2a 103e 6b23 53be ce8e 123e 94b6 283e
00000150: f46d 1e3c 2e8b cd3d f8f7 673e 7698 dd3b
00000160: c921 15bd 592e 863d 4e93 023e 9a31 1abe
00000170: 2613 743e a7e9 ae3d 6a32 1c3c 3eed b7bd
00000180: f649 efbe d716 5f3d c8e6 943d 3d2e cc3d
00000190: 8f27 673e b82b 60be 22cc 5dbe edf3 a53a
000001a0: 737d 6b3e 4f66 b23d 4b59 aabe 5a01 893c
000001b0: 28ad 73bc 48ae 5f3e 7c0c 323e ec7e 953c
000001c0: f645 0b3e b74c 463e 8f0f eb3c 4380 e83d
000001d0: e689 5dbe 51f4 ff3c d99b 353e 8998 8f3d
000001e0: d231 173f 5c9c 70be 96f4 8cbb f7b7 71bd
000001f0: e425 8fbd c59f 943e 5917 b3bd e6a6 323e
00000200: ba05 cf3d 8f90 88bd 993e f33c b0fb 25bd
00000210: 8c08 89bd 3bb7 d53e dfa9 483e d6f7 783d
00000220: 5fa7 443f 45b4 1bbd 7482 b83d 4bfc 1dbd
00000230: 6c9b a93d e4e7 763d 0f29 103e f40a a4bd
00000240: 22f8 853d 2f5e 9c3d b794 493e dfa4 7c3d
00000250: c77d 6a3d fea2 7f3e 126a ea3c d5db 883e
00000260: 8754 20bd bc24 44be 5e87 b53d ea3d 133d
00000270: 4f62 17bd 64e8 c13d befe 813b 799f 093e
00000280: 0624 97bb 729c 50bd 338c 1abd fc02 d6bb
00000290: 10c0 ce3d 5275 d23e 3aa6 1c3e d4cc 303d
000002a0: 9cb3 b0be 45a5 043e ff0d 383d 7858 0dbc
000002b0: 02f7 ba3e dedd 30bd 27ca 073e ec6a 3a3d
000002c0: b542 fbbe fc00 29bc 8415 003e 1698 8f3d
000002d0: 6566 4d3e 1fb9 6c3d ef00 a33e 9ef6 263e
000002e0: f853 713f 24e1 8e3d a86e 0b3c 72f6 a2bc
000002f0: 81a9 eabc 34e7 8c3d 2607 c53b f545 e5be
00000300: 7da9 5b3e 6a04 483d fe08 893d f857 dd3e
00000310: 0acc 203d 560c 3a3d c7bc 01be c908 5b3e
00000320: ece8 39be a464 363c 4342 2a3d dba0 7d3e
00000330: 2897 33bc 658c 6e3e 40d4 25bd 2afa 08bc
00000340: 87b1 18be 94c3 04be d78c ce3e e3c1 a73e
00000350: 7dd1 2a3b f71b 533e 0c6e 653e 6a95 afbd
00000360: 13a4 8abe 93e7 a4bd 62e3 3fbd 48d1 1e3e
00000370: b9e4 313e dc3c 683d d002 1fbb 37bf 47bc
00000380: eed8 09bf af1b 66bd 17e1 bf3d 320f 343e
00000390: e13a e53c 8e4c 62be 104a 09be 6b61 9c3d
000003a0: a3e4 023e b0ce 483e e109 d8be db10 0abd
000003b0: adcf 0ebc 7f9d 983e f9db 443e d664 28bd
000003c0: eabc eb3d d343 2e3e 8439 fd3c 3c24 173c
000003d0: db28 a23e ddb3 bf3d 197c 783e fca1 81bb
000003e0: 9286 013f 3597 ac3c 43db adbb 3e2c dc3a
000003f0: f623 68bd 89fb 8d3d bdd8 043d 5844 443d

out.bias f4 [5]
0.43784627 0.4137907 0.44930348 0.43737563 0.37204403
00000000: 632d e03e 60dc d33e 1b0b e63e b3ef df3e
00000010: 8e7c be3e
